…
type: "SGD"
I0808 16:13:39.669788 30616 solver.cpp:91] Creating training net from net file: /home/qinhong/project/normal_recovery/model/t1/train.prototxt
I0808 16:13:39.670517 30616 net.cpp:49] Initializing net from parameters: 
name: "hyper_normal_layers"
state {
  phase: TRAIN
}
layer {
  name: "data"
  type: "ImageNormalData"
  top: "data"
  top: "normal"
  transform_param {
  }
  image_data_param {
    source: "/home/qinhong/project/normal_recovery/data/source.txt"
    batch_size: 7
    shuffle: true
    new_height: 224
    new_width: 224
  }
}
layer {
  name: "conv1_1"
  type: "Convolution"
  bottom: "data"
  top: "conv1_1"
  param {
    lr_mult: 1
    decay_mult: 1
  }
  param {
    lr_mult: 2
    decay_mult: 0
  }
  convolution_param {
    num_output: 64
    pad: 1
    kernel_size: 3
  }
}
layer {
  name: "relu1_1"
  type: "ReLU"
  bottom: "conv1_1"
  top: "conv1_1"
}
layer {
  name: "conv1_2"
  type: "Convolution"
  bottom: "conv1_1"
  top: "conv1_2"
  param {
    lr_mult: 1
    decay_mult: 1
  }
  param {
    lr_mult: 2
    decay_mult: 0
  }
  convolution_param {
    num_output: 64
    pad: 1
    kernel_size: 3
  }
}
layer {
  name: "relu1_2"
  type: "ReLU"
  bottom: "conv1_2"
  top: "conv1_2"
}
layer {
  name: "pool1"
  type: "Pooling"
  bottom: "conv1_2"
  top: "pool1"
  pooling_param {
    pool: MAX
    kernel_size: 2
    stride: 2
  }
}
layer {
  name: "conv2_1"
  type: "Convolution"
  bottom: "pool1"
  top: "conv2_1"
  param {
    lr_mult: 1
    decay_mult: 1
  }
  param {
    lr_mult: 2
    decay_mult: 0
  }
  convolution_param {
    num_output: 128
    pad: 1
    kernel_size: 3
  }
}
layer {
  name: "relu2_1"
  type: "ReLU"
  bottom: "conv2_1"
  top: "conv2_1"
}
layer {
  name: "conv2_2"
  type: "Convolution"
  bottom: "conv2_1"
  top: "conv2_2"
  param {
    lr_mult: 1
    decay_mult: 1
  }
  param {
    lr_mult: 2
    decay_mult: 0
  }
  convolution_param {
    num_output: 128
    pad: 1
    kernel_size: 3
  }
}
layer {
  name: "relu2_2"
  type: "ReLU"
  bottom: "conv2_2"
  top: "conv2_2"
}
layer {
  name: "pool2"
  type: "Pooling"
  bottom: "conv2_2"
  top: "pool2"
  pooling_param {
    pool: MAX
    kernel_size: 2
    stride: 2
  }
}
layer {
  name: "conv3_1"
  type: "Convolution"
  bottom: "pool2"
  top: "conv3_1"
  param {
    lr_mult: 1
    decay_mult: 1
  }
  param {
    lr_mult: 2
    decay_mult: 0
  }
  convolution_param {
    num_output: 256
    pad: 1
    kernel_size: 3
  }
}
layer {
  name: "relu3_1"
  type: "ReLU"
  bottom: "conv3_1"
  top: "conv3_1"
}
layer {
  name: "conv3_2"
  type: "Convolution"
  bottom: "conv3_1"
  top: "conv3_2"
  param {
    lr_mult: 1
    decay_mult: 1
  }
  param {
    lr_mult: 2
    decay_mult: 0
  }
  convolution_param {
    num_output: 256
    pad: 1
    kernel_size: 3
  }
}
layer {
  name: "relu3_2"
  type: "ReLU"
  bottom: "conv3_2"
  top: "conv3_2"
}
layer {
  name: "conv3_3"
  type: "Convolution"
  bottom: "conv3_2"
  top: "conv3_3"
  param {
    lr_mult: 1
    decay_mult: 1
  }
  param {
    lr_mult: 2
    decay_mult: 0
  }
  convolution_param {
    num_output: 256
    pad: 1
    kernel_size: 3
  }
}
layer {
  name: "relu3_3"
  type: "ReLU"
  bottom: "conv3_3"
  top: "conv3_3"
}
layer {
  name: "pool3"
  type: "Pooling"
  bottom: "conv3_3"
  top: "pool3"
  pooling_param {
    pool: MAX
    kernel_size: 2
    stride: 2
  }
}
layer {
  name: "conv4_1"
  type: "Convolution"
  bottom: "pool3"
  top: "conv4_1"
  param {
    lr_mult: 1
    decay_mult: 1
  }
  param {
    lr_mult: 2
    decay_mult: 0
  }
  convolution_param {
    num_output: 512
    pad: 1
    kernel_size: 3
  }
}
layer {
  name: "relu4_1"
  type: "ReLU"
  bottom: "conv4_1"
  top: "conv4_1"
}
layer {
  name: "conv4_2"
  type: "Convolution"
  bottom: "conv4_1"
  top: "conv4_2"
  param {
    lr_mult: 1
    decay_mult: 1
  }
  param {
    lr_mult: 2
    decay_mult: 0
  }
  convolution_param {
    num_output: 512
    pad: 1
    kernel_size: 3
  }
}
layer {
  name: "relu4_2"
  type: "ReLU"
  bottom: "conv4_2"
  top: "conv4_2"
}
layer {
  name: "conv4_3"
  type: "Convolution"
  bottom: "conv4_2"
  top: "conv4_3"
  param {
    lr_mult: 1
    decay_mult: 1
  }
  param {
    lr_mult: 2
    decay_mult: 0
  }
  convolution_param {
    num_output: 512
    pad: 1
    kernel_size: 3
  }
}
layer {
  name: "relu4_3"
  type: "ReLU"
  bottom: "conv4_3"
  top: "conv4_3"
}
layer {
  name: "pool4"
  type: "Pooling"
  bottom: "conv4_3"
  top: "pool4"
  pooling_param {
    pool: MAX
    kernel_size: 2
    stride: 2
  }
}
layer {
  name: "conv5_1"
  type: "Convolution"
  bottom: "pool4"
  top: "conv5_1"
  param {
    lr_mult: 1
    decay_mult: 1
  }
  param {
    lr_mult: 2
    decay_mult: 0
  }
  convolution_param {
    num_output: 512
    pad: 1
    kernel_size: 3
  }
}
layer {
  name: "relu5_1"
  type: "ReLU"
  bottom: "conv5_1"
  top: "conv5_1"
}
layer {
  name: "conv5_2"
  type: "Convolution"
  bottom: "conv5_1"
  top: "conv5_2"
  param {
    lr_mult: 1
    decay_mult: 1
  }
  param {
    lr_mult: 2
    decay_mult: 0
  }
  convolution_param {
    num_output: 512
    pad: 1
    kernel_size: 3
  }
}
layer {
  name: "relu5_2"
  type: "ReLU"
  bottom: "conv5_2"
  top: "conv5_2"
}
layer {
  name: "conv5_3"
  type: "Convolution"
  bottom: "conv5_2"
  top: "conv5_3"
  param {
    lr_mult: 1
    decay_mult: 1
  }
  param {
    lr_mult: 2
    decay_mult: 0
  }
  convolution_param {
    num_output: 512
    pad: 1
    kernel_size: 3
  }
}
layer {
  name: "relu5_3"
  type: "ReLU"
  bottom: "conv5_3"
  top: "conv5_3"
}
layer {
  name: "pool5"
  type: "Pooling"
  bottom: "conv5_3"
  top: "pool5"
  pooling_param {
    pool: MAX
    kernel_size: 2
    stride: 2
  }
}
layer {
  name: "fc6-conv"
  type: "Convolution"
  bottom: "pool5"
  top: "fc6-conv"
  param {
    lr_mult: 1
    decay_mult: 1
  }
  param {
    lr_mult: 2
    decay_mult: 0
  }
  convolution_param {
    num_output: 4096
    kernel_size: 7
  }
}
layer {
  name: "relu6"
  type: "ReLU"
  bottom: "fc6-conv"
  top: "fc6-conv"
}
layer {
  name: "drop6"
  type: "Dropout"
  bottom: "fc6-conv"
  top: "fc6-conv"
  dropout_param {
    dropout_ratio: 0.5
  }
}
layer {
  name: "fc7-conv"
  type: "Convolution"
  bottom: "fc6-conv"
  top: "fc7-conv"
  param {
    lr_mult: 1
    decay_mult: 1
  }
  param {
    lr_mult: 2
    decay_mult: 0
  }
  convolution_param {
    num_output: 4096
    kernel_size: 1
  }
}
layer {
  name: "relu7"
  type: "ReLU"
  bottom: "fc7-conv"
  top: "fc7-conv"
}
layer {
  name: "hypercolumns"
  type: "HyperColumns"
  bottom: "normal"
  bottom: "conv1_2"
  bottom: "conv2_2"
  bottom: "conv3_3"
  bottom: "conv4_3"
  bottom: "conv5_3"
  bottom: "fc7-conv"
  top: "hypercolumns"
  top: "normal_point"
  hypercolumns_param {
    is_train: true
  }
}
layer {
  name: "fc1"
  type: "InnerProduct"
  bottom: "hypercolumns"
  top: "fc1"
  param {
    lr_mult: 1
    decay_mult: 1
  }
  param {
    lr_mult: 2
    decay_mult: 0
  }
  inner_product_param {
    num_output: 4096
    weight_filler {
      type: "gaussian"
      std: 0.003
    }
    bias_filler {
      type: "constant"
      value: 0.1
    }
  }
}
layer {
  name: "relu1"
  type: "ReLU"
  bottom: "fc1"
  top: "fc1"
}
layer {
  name: "drop1"
  type: "Dropout"
  bottom: "fc1"
  top: "fc1"
  dropout_param {
    dropout_ratio: 0.5
  }
}
layer {
  name: "fc2"
  type: "InnerProduct"
  bottom: "fc1"
  top: "fc2"
  param {
    lr_mult: 1
    decay_mult: 1
  }
  param {
    lr_mult: 2
    decay_mult: 0
  }
  inner_product_param {
    num_output: 4096
    weight_filler {
      type: "gaussian"
      std: 0.002
    }
    bias_filler {
      type: "constant"
      value: 0.1
    }
  }
}
layer {
  name: "relu2"
  type: "ReLU"
  bottom: "fc2"
  top: "fc2"
}
layer {
  name: "drop2"
  type: "Dropout"
  bottom: "fc2"
  top: "fc2"
  dropout_param {
    dropout_ratio: 0.5
  }
}
layer {
  name: "fc3"
  type: "InnerProduct"
  bottom: "fc2"
  top: "fc3"
  param {
    lr_mult: 1
    decay_mult: 1
  }
  param {
    lr_mult: 2
    decay_mult: 0
  }
  inner_product_param {
    num_output: 3
    weight_filler {
      type: "gaussian"
      std: 0.001
    }
    bias_filler {
      type: "constant"
      value: 0.1
    }
  }
}
layer {
  name: "loss"
  type: "EuclideanLoss"
  bottom: "fc3"
  bottom: "normal_point"
  top: "loss"
  propagate_down: true
  propagate_down: false
}
I0808 16:13:39.670749 30616 layer_factory.hpp:77] Creating layer data
I0808 16:13:39.670790 30616 net.cpp:91] Creating Layer data
I0808 16:13:39.670805 30616 net.cpp:399] data -> data
I0808 16:13:39.670830 30616 net.cpp:399] data -> normal
I0808 16:13:39.670852 30616 image_normal_data_layer.cpp:43] opeing file /home/qinhong/project/normal_recovery/data/source.txt
I0808 16:13:39.675427 30616 image_normal_data_layer.cpp:54] Shuffing data
I0808 16:13:39.676806 30616 image_normal_data_layer.cpp:59] A total of 4105 images.
I0808 16:13:39.702560 30616 image_normal_data_layer.cpp:79] output data size: 7,3,224,224
I0808 16:13:39.717663 30616 net.cpp:141] Setting up data
I0808 16:13:39.717690 30616 net.cpp:148] Top shape: 7 3 224 224 (1053696)
I0808 16:13:39.717701 30616 net.cpp:148] Top shape: 7 3 224 224 (1053696)
I0808 16:13:39.717705 30616 net.cpp:156] Memory required for data: 8429568
I0808 16:13:39.717711 30616 layer_factory.hpp:77] Creating layer conv1_1
I0808 16:13:39.717732 30616 net.cpp:91] Creating Layer conv1_1
I0808 16:13:39.717738 30616 net.cpp:425] conv1_1 <- data
I0808 16:13:39.717752 30616 net.cpp:399] conv1_1 -> conv1_1
I0808 16:13:39.959517 30616 net.cpp:141] Setting up conv1_1
I0808 16:13:39.959559 30616 net.cpp:148] Top shape: 7 64 224 224 (22478848)
I0808 16:13:39.959568 30616 net.cpp:156] Memory required for data: 98344960
I0808 16:13:39.959600 30616 layer_factory.hpp:77] Creating layer relu1_1
I0808 16:13:39.959616 30616 net.cpp:91] Creating Layer relu1_1
I0808 16:13:39.959625 30616 net.cpp:425] relu1_1 <- conv1_1
I0808 16:13:39.959635 30616 net.cpp:386] relu1_1 -> conv1_1 (in-place)
I0808 16:13:39.960090 30616 net.cpp:141] Setting up relu1_1
I0808 16:13:39.960111 30616 net.cpp:148] Top shape: 7 64 224 224 (22478848)
I0808 16:13:39.960116 30616 net.cpp:156] Memory required for data: 188260352
I0808 16:13:39.960122 30616 layer_factory.hpp:77] Creating layer conv1_2
I0808 16:13:39.960137 30616 net.cpp:91] Creating Layer conv1_2
I0808 16:13:39.960144 30616 net.cpp:425] conv1_2 <- conv1_1
I0808 16:13:39.960152 30616 net.cpp:399] conv1_2 -> conv1_2
I0808 16:13:39.961736 30616 net.cpp:141] Setting up conv1_2
I0808 16:13:39.961766 30616 net.cpp:148] Top shape: 7 64 224 224 (22478848)
I0808 16:13:39.961773 30616 net.cpp:156] Memory required for data: 278175744
I0808 16:13:39.961787 30616 layer_factory.hpp:77] Creating layer relu1_2
I0808 16:13:39.961798 30616 net.cpp:91] Creating Layer relu1_2
I0808 16:13:39.961804 30616 net.cpp:425] relu1_2 <- conv1_2
I0808 16:13:39.961812 30616 net.cpp:386] relu1_2 -> conv1_2 (in-place)
I0808 16:13:39.962236 30616 net.cpp:141] Setting up relu1_2
I0808 16:13:39.962255 30616 net.cpp:148] Top shape: 7 64 224 224 (22478848)
I0808 16:13:39.962260 30616 net.cpp:156] Memory required for data: 368091136
I0808 16:13:39.962265 30616 layer_factory.hpp:77] Creating layer conv1_2_relu1_2_0_split
I0808 16:13:39.962275 30616 net.cpp:91] Creating Layer conv1_2_relu1_2_0_split
I0808 16:13:39.962280 30616 net.cpp:425] conv1_2_relu1_2_0_split <- conv1_2
I0808 16:13:39.962288 30616 net.cpp:399] conv1_2_relu1_2_0_split -> conv1_2_relu1_2_0_split_0
I0808 16:13:39.962301 30616 net.cpp:399] conv1_2_relu1_2_0_split -> conv1_2_relu1_2_0_split_1
I0808 16:13:39.962366 30616 net.cpp:141] Setting up conv1_2_relu1_2_0_split
I0808 16:13:39.962378 30616 net.cpp:148] Top shape: 7 64 224 224 (22478848)
I0808 16:13:39.962383 30616 net.cpp:148] Top shape: 7 64 224 224 (22478848)
I0808 16:13:39.962388 30616 net.cpp:156] Memory required for data: 547921920
I0808 16:13:39.962394 30616 layer_factory.hpp:77] Creating layer pool1
I0808 16:13:39.962429 30616 net.cpp:91] Creating Layer pool1
I0808 16:13:39.962435 30616 net.cpp:425] pool1 <- conv1_2_relu1_2_0_split_0
I0808 16:13:39.962443 30616 net.cpp:399] pool1 -> pool1
I0808 16:13:39.962517 30616 net.cpp:141] Setting up pool1
I0808 16:13:39.962528 30616 net.cpp:148] Top shape: 7 64 112 112 (5619712)
I0808 16:13:39.962533 30616 net.cpp:156] Memory required for data: 570400768
I0808 16:13:39.962538 30616 layer_factory.hpp:77] Creating layer conv2_1
I0808 16:13:39.962549 30616 net.cpp:91] Creating Layer conv2_1
I0808 16:13:39.962555 30616 net.cpp:425] conv2_1 <- pool1
I0808 16:13:39.962563 30616 net.cpp:399] conv2_1 -> conv2_1
I0808 16:13:39.965723 30616 net.cpp:141] Setting up conv2_1
I0808 16:13:39.965747 30616 net.cpp:148] Top shape: 7 128 112 112 (11239424)
I0808 16:13:39.965766 30616 net.cpp:156] Memory required for data: 615358464
I0808 16:13:39.965783 30616 layer_factory.hpp:77] Creating layer relu2_1
I0808 16:13:39.965795 30616 net.cpp:91] Creating Layer relu2_1
I0808 16:13:39.965802 30616 net.cpp:425] relu2_1 <- conv2_1
I0808 16:13:39.965811 30616 net.cpp:386] relu2_1 -> conv2_1 (in-place)
I0808 16:13:39.966099 30616 net.cpp:141] Setting up relu2_1
I0808 16:13:39.966112 30616 net.cpp:148] Top shape: 7 128 112 112 (11239424)
I0808 16:13:39.966119 30616 net.cpp:156] Memory required for data: 660316160
I0808 16:13:39.966123 30616 layer_factory.hpp:77] Creating layer conv2_2
I0808 16:13:39.966135 30616 net.cpp:91] Creating Layer conv2_2
I0808 16:13:39.966141 30616 net.cpp:425] conv2_2 <- conv2_1
I0808 16:13:39.966148 30616 net.cpp:399] conv2_2 -> conv2_2
I0808 16:13:39.967749 30616 net.cpp:141] Setting up conv2_2
I0808 16:13:39.967772 30616 net.cpp:148] Top shape: 7 128 112 112 (11239424)
I0808 16:13:39.967777 30616 net.cpp:156] Memory required for data: 705273856
I0808 16:13:39.967787 30616 layer_factory.hpp:77] Creating layer relu2_2
I0808 16:13:39.967795 30616 net.cpp:91] Creating Layer relu2_2
I0808 16:13:39.967803 30616 net.cpp:425] relu2_2 <- conv2_2
I0808 16:13:39.967809 30616 net.cpp:386] relu2_2 -> conv2_2 (in-place)
I0808 16:13:39.968230 30616 net.cpp:141] Setting up relu2_2
I0808 16:13:39.968250 30616 net.cpp:148] Top shape: 7 128 112 112 (11239424)
I0808 16:13:39.968255 30616 net.cpp:156] Memory required for data: 750231552
I0808 16:13:39.968260 30616 layer_factory.hpp:77] Creating layer conv2_2_relu2_2_0_split
I0808 16:13:39.968268 30616 net.cpp:91] Creating Layer conv2_2_relu2_2_0_split
I0808 16:13:39.968273 30616 net.cpp:425] conv2_2_relu2_2_0_split <- conv2_2
I0808 16:13:39.968281 30616 net.cpp:399] conv2_2_relu2_2_0_split -> conv2_2_relu2_2_0_split_0
I0808 16:13:39.968294 30616 net.cpp:399] conv2_2_relu2_2_0_split -> conv2_2_relu2_2_0_split_1
I0808 16:13:39.968358 30616 net.cpp:141] Setting up conv2_2_relu2_2_0_split
I0808 16:13:39.968369 30616 net.cpp:148] Top shape: 7 128 112 112 (11239424)
I0808 16:13:39.968374 30616 net.cpp:148] Top shape: 7 128 112 112 (11239424)
I0808 16:13:39.968377 30616 net.cpp:156] Memory required for data: 840146944
I0808 16:13:39.968382 30616 layer_factory.hpp:77] Creating layer pool2
I0808 16:13:39.968392 30616 net.cpp:91] Creating Layer pool2
I0808 16:13:39.968400 30616 net.cpp:425] pool2 <- conv2_2_relu2_2_0_split_0
I0808 16:13:39.968405 30616 net.cpp:399] pool2 -> pool2
I0808 16:13:39.968462 30616 net.cpp:141] Setting up pool2
I0808 16:13:39.968472 30616 net.cpp:148] Top shape: 7 128 56 56 (2809856)
I0808 16:13:39.968477 30616 net.cpp:156] Memory required for data: 851386368
I0808 16:13:39.968480 30616 layer_factory.hpp:77] Creating layer conv3_1
I0808 16:13:39.968492 30616 net.cpp:91] Creating Layer conv3_1
I0808 16:13:39.968498 30616 net.cpp:425] conv3_1 <- pool2
I0808 16:13:39.968508 30616 net.cpp:399] conv3_1 -> conv3_1
I0808 16:13:39.970952 30616 net.cpp:141] Setting up conv3_1
I0808 16:13:39.970974 30616 net.cpp:148] Top shape: 7 256 56 56 (5619712)
I0808 16:13:39.970979 30616 net.cpp:156] Memory required for data: 873865216
I0808 16:13:39.970995 30616 layer_factory.hpp:77] Creating layer relu3_1
I0808 16:13:39.971004 30616 net.cpp:91] Creating Layer relu3_1
I0808 16:13:39.971026 30616 net.cpp:425] relu3_1 <- conv3_1
I0808 16:13:39.971035 30616 net.cpp:386] relu3_1 -> conv3_1 (in-place)
I0808 16:13:39.971473 30616 net.cpp:141] Setting up relu3_1
I0808 16:13:39.971495 30616 net.cpp:148] Top shape: 7 256 56 56 (5619712)
I0808 16:13:39.971499 30616 net.cpp:156] Memory required for data: 896344064
I0808 16:13:39.971504 30616 layer_factory.hpp:77] Creating layer conv3_2
I0808 16:13:39.971515 30616 net.cpp:91] Creating Layer conv3_2
I0808 16:13:39.971521 30616 net.cpp:425] conv3_2 <- conv3_1
I0808 16:13:39.971534 30616 net.cpp:399] conv3_2 -> conv3_2
I0808 16:13:39.974988 30616 net.cpp:141] Setting up conv3_2
I0808 16:13:39.975013 30616 net.cpp:148] Top shape: 7 256 56 56 (5619712)
I0808 16:13:39.975018 30616 net.cpp:156] Memory required for data: 918822912
I0808 16:13:39.975028 30616 layer_factory.hpp:77] Creating layer relu3_2
I0808 16:13:39.975040 30616 net.cpp:91] Creating Layer relu3_2
I0808 16:13:39.975045 30616 net.cpp:425] relu3_2 <- conv3_2
I0808 16:13:39.975055 30616 net.cpp:386] relu3_2 -> conv3_2 (in-place)
I0808 16:13:39.975338 30616 net.cpp:141] Setting up relu3_2
I0808 16:13:39.975355 30616 net.cpp:148] Top shape: 7 256 56 56 (5619712)
I0808 16:13:39.975359 30616 net.cpp:156] Memory required for data: 941301760
I0808 16:13:39.975364 30616 layer_factory.hpp:77] Creating layer conv3_3
I0808 16:13:39.975374 30616 net.cpp:91] Creating Layer conv3_3
I0808 16:13:39.975379 30616 net.cpp:425] conv3_3 <- conv3_2
I0808 16:13:39.975389 30616 net.cpp:399] conv3_3 -> conv3_3
I0808 16:13:39.978943 30616 net.cpp:141] Setting up conv3_3
I0808 16:13:39.978966 30616 net.cpp:148] Top shape: 7 256 56 56 (5619712)
I0808 16:13:39.978971 30616 net.cpp:156] Memory required for data: 963780608
I0808 16:13:39.978981 30616 layer_factory.hpp:77] Creating layer relu3_3
I0808 16:13:39.978988 30616 net.cpp:91] Creating Layer relu3_3
I0808 16:13:39.978993 30616 net.cpp:425] relu3_3 <- conv3_3
I0808 16:13:39.979001 30616 net.cpp:386] relu3_3 -> conv3_3 (in-place)
I0808 16:13:39.979429 30616 net.cpp:141] Setting up relu3_3
I0808 16:13:39.979446 30616 net.cpp:148] Top shape: 7 256 56 56 (5619712)
I0808 16:13:39.979450 30616 net.cpp:156] Memory required for data: 986259456
I0808 16:13:39.979455 30616 layer_factory.hpp:77] Creating layer conv3_3_relu3_3_0_split
I0808 16:13:39.979463 30616 net.cpp:91] Creating Layer conv3_3_relu3_3_0_split
I0808 16:13:39.979468 30616 net.cpp:425] conv3_3_relu3_3_0_split <- conv3_3
I0808 16:13:39.979477 30616 net.cpp:399] conv3_3_relu3_3_0_split -> conv3_3_relu3_3_0_split_0
I0808 16:13:39.979487 30616 net.cpp:399] conv3_3_relu3_3_0_split -> conv3_3_relu3_3_0_split_1
I0808 16:13:39.979560 30616 net.cpp:141] Setting up conv3_3_relu3_3_0_split
I0808 16:13:39.979570 30616 net.cpp:148] Top shape: 7 256 56 56 (5619712)
I0808 16:13:39.979576 30616 net.cpp:148] Top shape: 7 256 56 56 (5619712)
I0808 16:13:39.979580 30616 net.cpp:156] Memory required for data: 1031217152
I0808 16:13:39.979584 30616 layer_factory.hpp:77] Creating layer pool3
I0808 16:13:39.979594 30616 net.cpp:91] Creating Layer pool3
I0808 16:13:39.979600 30616 net.cpp:425] pool3 <- conv3_3_relu3_3_0_split_0
I0808 16:13:39.979607 30616 net.cpp:399] pool3 -> pool3
I0808 16:13:39.979661 30616 net.cpp:141] Setting up pool3
I0808 16:13:39.979671 30616 net.cpp:148] Top shape: 7 256 28 28 (1404928)
I0808 16:13:39.979676 30616 net.cpp:156] Memory required for data: 1036836864
I0808 16:13:39.979679 30616 layer_factory.hpp:77] Creating layer conv4_1
I0808 16:13:39.979691 30616 net.cpp:91] Creating Layer conv4_1
I0808 16:13:39.979696 30616 net.cpp:425] conv4_1 <- pool3
I0808 16:13:39.979703 30616 net.cpp:399] conv4_1 -> conv4_1
I0808 16:13:39.985143 30616 net.cpp:141] Setting up conv4_1
I0808 16:13:39.985164 30616 net.cpp:148] Top shape: 7 512 28 28 (2809856)
I0808 16:13:39.985168 30616 net.cpp:156] Memory required for data: 1048076288
I0808 16:13:39.985178 30616 layer_factory.hpp:77] Creating layer relu4_1
I0808 16:13:39.985186 30616 net.cpp:91] Creating Layer relu4_1
I0808 16:13:39.985191 30616 net.cpp:425] relu4_1 <- conv4_1
I0808 16:13:39.985216 30616 net.cpp:386] relu4_1 -> conv4_1 (in-place)
I0808 16:13:39.985644 30616 net.cpp:141] Setting up relu4_1
I0808 16:13:39.985662 30616 net.cpp:148] Top shape: 7 512 28 28 (2809856)
I0808 16:13:39.985666 30616 net.cpp:156] Memory required for data: 1059315712
I0808 16:13:39.985671 30616 layer_factory.hpp:77] Creating layer conv4_2
I0808 16:13:39.985684 30616 net.cpp:91] Creating Layer conv4_2
I0808 16:13:39.985689 30616 net.cpp:425] conv4_2 <- conv4_1
I0808 16:13:39.985699 30616 net.cpp:399] conv4_2 -> conv4_2
I0808 16:13:39.993775 30616 net.cpp:141] Setting up conv4_2
I0808 16:13:39.993795 30616 net.cpp:148] Top shape: 7 512 28 28 (2809856)
I0808 16:13:39.993800 30616 net.cpp:156] Memory required for data: 1070555136
I0808 16:13:39.993815 30616 layer_factory.hpp:77] Creating layer relu4_2
I0808 16:13:39.993824 30616 net.cpp:91] Creating Layer relu4_2
I0808 16:13:39.993829 30616 net.cpp:425] relu4_2 <- conv4_2
I0808 16:13:39.993837 30616 net.cpp:386] relu4_2 -> conv4_2 (in-place)
I0808 16:13:39.994096 30616 net.cpp:141] Setting up relu4_2
I0808 16:13:39.994108 30616 net.cpp:148] Top shape: 7 512 28 28 (2809856)
I0808 16:13:39.994112 30616 net.cpp:156] Memory required for data: 1081794560
I0808 16:13:39.994117 30616 layer_factory.hpp:77] Creating layer conv4_3
I0808 16:13:39.994128 30616 net.cpp:91] Creating Layer conv4_3
I0808 16:13:39.994133 30616 net.cpp:425] conv4_3 <- conv4_2
I0808 16:13:39.994144 30616 net.cpp:399] conv4_3 -> conv4_3
I0808 16:13:40.002071 30616 net.cpp:141] Setting up conv4_3
I0808 16:13:40.002094 30616 net.cpp:148] Top shape: 7 512 28 28 (2809856)
I0808 16:13:40.002097 30616 net.cpp:156] Memory required for data: 1093033984
I0808 16:13:40.002106 30616 layer_factory.hpp:77] Creating layer relu4_3
I0808 16:13:40.002115 30616 net.cpp:91] Creating Layer relu4_3
I0808 16:13:40.002120 30616 net.cpp:425] relu4_3 <- conv4_3
I0808 16:13:40.002125 30616 net.cpp:386] relu4_3 -> conv4_3 (in-place)
I0808 16:13:40.002532 30616 net.cpp:141] Setting up relu4_3
I0808 16:13:40.002548 30616 net.cpp:148] Top shape: 7 512 28 28 (2809856)
I0808 16:13:40.002552 30616 net.cpp:156] Memory required for data: 1104273408
I0808 16:13:40.002557 30616 layer_factory.hpp:77] Creating layer conv4_3_relu4_3_0_split
I0808 16:13:40.002564 30616 net.cpp:91] Creating Layer conv4_3_relu4_3_0_split
I0808 16:13:40.002568 30616 net.cpp:425] conv4_3_relu4_3_0_split <- conv4_3
I0808 16:13:40.002578 30616 net.cpp:399] conv4_3_relu4_3_0_split -> conv4_3_relu4_3_0_split_0
I0808 16:13:40.002586 30616 net.cpp:399] conv4_3_relu4_3_0_split -> conv4_3_relu4_3_0_split_1
I0808 16:13:40.002646 30616 net.cpp:141] Setting up conv4_3_relu4_3_0_split
I0808 16:13:40.002656 30616 net.cpp:148] Top shape: 7 512 28 28 (2809856)
I0808 16:13:40.002661 30616 net.cpp:148] Top shape: 7 512 28 28 (2809856)
I0808 16:13:40.002665 30616 net.cpp:156] Memory required for data: 1126752256
I0808 16:13:40.002668 30616 layer_factory.hpp:77] Creating layer pool4
I0808 16:13:40.002676 30616 net.cpp:91] Creating Layer pool4
I0808 16:13:40.002681 30616 net.cpp:425] pool4 <- conv4_3_relu4_3_0_split_0
I0808 16:13:40.002688 30616 net.cpp:399] pool4 -> pool4
I0808 16:13:40.002738 30616 net.cpp:141] Setting up pool4
I0808 16:13:40.002748 30616 net.cpp:148] Top shape: 7 512 14 14 (702464)
I0808 16:13:40.002753 30616 net.cpp:156] Memory required for data: 1129562112
I0808 16:13:40.002756 30616 layer_factory.hpp:77] Creating layer conv5_1
I0808 16:13:40.002764 30616 net.cpp:91] Creating Layer conv5_1
I0808 16:13:40.002768 30616 net.cpp:425] conv5_1 <- pool4
I0808 16:13:40.002776 30616 net.cpp:399] conv5_1 -> conv5_1
I0808 16:13:40.010457 30616 net.cpp:141] Setting up conv5_1
I0808 16:13:40.010478 30616 net.cpp:148] Top shape: 7 512 14 14 (702464)
I0808 16:13:40.010483 30616 net.cpp:156] Memory required for data: 1132371968
I0808 16:13:40.010490 30616 layer_factory.hpp:77] Creating layer relu5_1
I0808 16:13:40.010500 30616 net.cpp:91] Creating Layer relu5_1
I0808 16:13:40.010505 30616 net.cpp:425] relu5_1 <- conv5_1
I0808 16:13:40.010529 30616 net.cpp:386] relu5_1 -> conv5_1 (in-place)
I0808 16:13:40.010905 30616 net.cpp:141] Setting up relu5_1
I0808 16:13:40.010921 30616 net.cpp:148] Top shape: 7 512 14 14 (702464)
I0808 16:13:40.010924 30616 net.cpp:156] Memory required for data: 1135181824
I0808 16:13:40.010928 30616 layer_factory.hpp:77] Creating layer conv5_2
I0808 16:13:40.010941 30616 net.cpp:91] Creating Layer conv5_2
I0808 16:13:40.010946 30616 net.cpp:425] conv5_2 <- conv5_1
I0808 16:13:40.010954 30616 net.cpp:399] conv5_2 -> conv5_2
I0808 16:13:40.018404 30616 net.cpp:141] Setting up conv5_2
I0808 16:13:40.018424 30616 net.cpp:148] Top shape: 7 512 14 14 (702464)
I0808 16:13:40.018427 30616 net.cpp:156] Memory required for data: 1137991680
I0808 16:13:40.018435 30616 layer_factory.hpp:77] Creating layer relu5_2
I0808 16:13:40.018452 30616 net.cpp:91] Creating Layer relu5_2
I0808 16:13:40.018456 30616 net.cpp:425] relu5_2 <- conv5_2
I0808 16:13:40.018462 30616 net.cpp:386] relu5_2 -> conv5_2 (in-place)
I0808 16:13:40.018692 30616 net.cpp:141] Setting up relu5_2
I0808 16:13:40.018703 30616 net.cpp:148] Top shape: 7 512 14 14 (702464)
I0808 16:13:40.018707 30616 net.cpp:156] Memory required for data: 1140801536
I0808 16:13:40.018710 30616 layer_factory.hpp:77] Creating layer conv5_3
I0808 16:13:40.018721 30616 net.cpp:91] Creating Layer conv5_3
I0808 16:13:40.018729 30616 net.cpp:425] conv5_3 <- conv5_2
I0808 16:13:40.018735 30616 net.cpp:399] conv5_3 -> conv5_3
I0808 16:13:40.026082 30616 net.cpp:141] Setting up conv5_3
I0808 16:13:40.026100 30616 net.cpp:148] Top shape: 7 512 14 14 (702464)
I0808 16:13:40.026104 30616 net.cpp:156] Memory required for data: 1143611392
I0808 16:13:40.026113 30616 layer_factory.hpp:77] Creating layer relu5_3
I0808 16:13:40.026118 30616 net.cpp:91] Creating Layer relu5_3
I0808 16:13:40.026123 30616 net.cpp:425] relu5_3 <- conv5_3
I0808 16:13:40.026134 30616 net.cpp:386] relu5_3 -> conv5_3 (in-place)
I0808 16:13:40.026484 30616 net.cpp:141] Setting up relu5_3
I0808 16:13:40.026499 30616 net.cpp:148] Top shape: 7 512 14 14 (702464)
I0808 16:13:40.026502 30616 net.cpp:156] Memory required for data: 1146421248
I0808 16:13:40.026506 30616 layer_factory.hpp:77] Creating layer conv5_3_relu5_3_0_split
I0808 16:13:40.026513 30616 net.cpp:91] Creating Layer conv5_3_relu5_3_0_split
I0808 16:13:40.026520 30616 net.cpp:425] conv5_3_relu5_3_0_split <- conv5_3
I0808 16:13:40.026525 30616 net.cpp:399] conv5_3_relu5_3_0_split -> conv5_3_relu5_3_0_split_0
I0808 16:13:40.026535 30616 net.cpp:399] conv5_3_relu5_3_0_split -> conv5_3_relu5_3_0_split_1
I0808 16:13:40.026592 30616 net.cpp:141] Setting up conv5_3_relu5_3_0_split
I0808 16:13:40.026602 30616 net.cpp:148] Top shape: 7 512 14 14 (702464)
I0808 16:13:40.026605 30616 net.cpp:148] Top shape: 7 512 14 14 (702464)
I0808 16:13:40.026609 30616 net.cpp:156] Memory required for data: 1152040960
I0808 16:13:40.026612 30616 layer_factory.hpp:77] Creating layer pool5
I0808 16:13:40.026619 30616 net.cpp:91] Creating Layer pool5
I0808 16:13:40.026623 30616 net.cpp:425] pool5 <- conv5_3_relu5_3_0_split_0
I0808 16:13:40.026629 30616 net.cpp:399] pool5 -> pool5
I0808 16:13:40.026684 30616 net.cpp:141] Setting up pool5
I0808 16:13:40.026692 30616 net.cpp:148] Top shape: 7 512 7 7 (175616)
I0808 16:13:40.026695 30616 net.cpp:156] Memory required for data: 1152743424
I0808 16:13:40.026700 30616 layer_factory.hpp:77] Creating layer fc6-conv
I0808 16:13:40.026710 30616 net.cpp:91] Creating Layer fc6-conv
I0808 16:13:40.026715 30616 net.cpp:425] fc6-conv <- pool5
I0808 16:13:40.026721 30616 net.cpp:399] fc6-conv -> fc6-conv
I0808 16:13:40.302855 30616 net.cpp:141] Setting up fc6-conv
I0808 16:13:40.302896 30616 net.cpp:148] Top shape: 7 4096 1 1 (28672)
I0808 16:13:40.302899 30616 net.cpp:156] Memory required for data: 1152858112
I0808 16:13:40.302911 30616 layer_factory.hpp:77] Creating layer relu6
I0808 16:13:40.302919 30616 net.cpp:91] Creating Layer relu6
I0808 16:13:40.302924 30616 net.cpp:425] relu6 <- fc6-conv
I0808 16:13:40.302933 30616 net.cpp:386] relu6 -> fc6-conv (in-place)
I0808 16:13:40.303285 30616 net.cpp:141] Setting up relu6
I0808 16:13:40.303299 30616 net.cpp:148] Top shape: 7 4096 1 1 (28672)
I0808 16:13:40.303303 30616 net.cpp:156] Memory required for data: 1152972800
I0808 16:13:40.303306 30616 layer_factory.hpp:77] Creating layer drop6
I0808 16:13:40.303313 30616 net.cpp:91] Creating Layer drop6
I0808 16:13:40.303318 30616 net.cpp:425] drop6 <- fc6-conv
I0808 16:13:40.303325 30616 net.cpp:386] drop6 -> fc6-conv (in-place)
I0808 16:13:40.303364 30616 net.cpp:141] Setting up drop6
I0808 16:13:40.303375 30616 net.cpp:148] Top shape: 7 4096 1 1 (28672)
I0808 16:13:40.303378 30616 net.cpp:156] Memory required for data: 1153087488
I0808 16:13:40.303381 30616 layer_factory.hpp:77] Creating layer fc7-conv
I0808 16:13:40.303390 30616 net.cpp:91] Creating Layer fc7-conv
I0808 16:13:40.303392 30616 net.cpp:425] fc7-conv <- fc6-conv
I0808 16:13:40.303400 30616 net.cpp:399] fc7-conv -> fc7-conv
I0808 16:13:40.350172 30616 net.cpp:141] Setting up fc7-conv
I0808 16:13:40.350220 30616 net.cpp:148] Top shape: 7 4096 1 1 (28672)
I0808 16:13:40.350224 30616 net.cpp:156] Memory required for data: 1153202176
I0808 16:13:40.350234 30616 layer_factory.hpp:77] Creating layer relu7
I0808 16:13:40.350244 30616 net.cpp:91] Creating Layer relu7
I0808 16:13:40.350249 30616 net.cpp:425] relu7 <- fc7-conv
I0808 16:13:40.350255 30616 net.cpp:386] relu7 -> fc7-conv (in-place)
I0808 16:13:40.350476 30616 net.cpp:141] Setting up relu7
I0808 16:13:40.350487 30616 net.cpp:148] Top shape: 7 4096 1 1 (28672)
I0808 16:13:40.350491 30616 net.cpp:156] Memory required for data: 1153316864
I0808 16:13:40.350493 30616 layer_factory.hpp:77] Creating layer hypercolumns
I0808 16:13:40.350503 30616 net.cpp:91] Creating Layer hypercolumns
I0808 16:13:40.350512 30616 net.cpp:425] hypercolumns <- normal
I0808 16:13:40.350517 30616 net.cpp:425] hypercolumns <- conv1_2_relu1_2_0_split_1
I0808 16:13:40.350522 30616 net.cpp:425] hypercolumns <- conv2_2_relu2_2_0_split_1
I0808 16:13:40.350524 30616 net.cpp:425] hypercolumns <- conv3_3_relu3_3_0_split_1
I0808 16:13:40.350528 30616 net.cpp:425] hypercolumns <- conv4_3_relu4_3_0_split_1
I0808 16:13:40.350533 30616 net.cpp:425] hypercolumns <- conv5_3_relu5_3_0_split_1
I0808 16:13:40.350536 30616 net.cpp:425] hypercolumns <- fc7-conv
I0808 16:13:40.350543 30616 net.cpp:399] hypercolumns -> hypercolumns
I0808 16:13:40.350561 30616 net.cpp:399] hypercolumns -> normal_point
I0808 16:13:40.350616 30616 net.cpp:141] Setting up hypercolumns
I0808 16:13:40.350625 30616 net.cpp:148] Top shape: 7000 5568 1 1 (38976000)
I0808 16:13:40.350630 30616 net.cpp:148] Top shape: 7000 3 (21000)
I0808 16:13:40.350632 30616 net.cpp:156] Memory required for data: 1309304864
I0808 16:13:40.350636 30616 layer_factory.hpp:77] Creating layer fc1
I0808 16:13:40.350643 30616 net.cpp:91] Creating Layer fc1
I0808 16:13:40.350646 30616 net.cpp:425] fc1 <- hypercolumns
I0808 16:13:40.350653 30616 net.cpp:399] fc1 -> fc1
I0808 16:13:40.664106 30616 net.cpp:141] Setting up fc1
I0808 16:13:40.664156 30616 net.cpp:148] Top shape: 7000 4096 (28672000)
I0808 16:13:40.664160 30616 net.cpp:156] Memory required for data: 1423992864
I0808 16:13:40.664180 30616 layer_factory.hpp:77] Creating layer relu1
I0808 16:13:40.664194 30616 net.cpp:91] Creating Layer relu1
I0808 16:13:40.664201 30616 net.cpp:425] relu1 <- fc1
I0808 16:13:40.664207 30616 net.cpp:386] relu1 -> fc1 (in-place)
I0808 16:13:40.664958 30616 net.cpp:141] Setting up relu1
I0808 16:13:40.664973 30616 net.cpp:148] Top shape: 7000 4096 (28672000)
I0808 16:13:40.664976 30616 net.cpp:156] Memory required for data: 1538680864
I0808 16:13:40.664983 30616 layer_factory.hpp:77] Creating layer drop1
I0808 16:13:40.664994 30616 net.cpp:91] Creating Layer drop1
I0808 16:13:40.664999 30616 net.cpp:425] drop1 <- fc1
I0808 16:13:40.665004 30616 net.cpp:386] drop1 -> fc1 (in-place)
I0808 16:13:40.665047 30616 net.cpp:141] Setting up drop1
I0808 16:13:40.665055 30616 net.cpp:148] Top shape: 7000 4096 (28672000)
I0808 16:13:40.665058 30616 net.cpp:156] Memory required for data: 1653368864
I0808 16:13:40.665083 30616 layer_factory.hpp:77] Creating layer fc2
I0808 16:13:40.665094 30616 net.cpp:91] Creating Layer fc2
I0808 16:13:40.665097 30616 net.cpp:425] fc2 <- fc1
I0808 16:13:40.665110 30616 net.cpp:399] fc2 -> fc2
I0808 16:13:40.885303 30616 net.cpp:141] Setting up fc2
I0808 16:13:40.885337 30616 net.cpp:148] Top shape: 7000 4096 (28672000)
I0808 16:13:40.885340 30616 net.cpp:156] Memory required for data: 1768056864
I0808 16:13:40.885378 30616 layer_factory.hpp:77] Creating layer relu2
I0808 16:13:40.885390 30616 net.cpp:91] Creating Layer relu2
I0808 16:13:40.885396 30616 net.cpp:425] relu2 <- fc2
I0808 16:13:40.885402 30616 net.cpp:386] relu2 -> fc2 (in-place)
I0808 16:13:40.885659 30616 net.cpp:141] Setting up relu2
I0808 16:13:40.885670 30616 net.cpp:148] Top shape: 7000 4096 (28672000)
I0808 16:13:40.885673 30616 net.cpp:156] Memory required for data: 1882744864
I0808 16:13:40.885676 30616 layer_factory.hpp:77] Creating layer drop2
I0808 16:13:40.885684 30616 net.cpp:91] Creating Layer drop2
I0808 16:13:40.885686 30616 net.cpp:425] drop2 <- fc2
I0808 16:13:40.885690 30616 net.cpp:386] drop2 -> fc2 (in-place)
I0808 16:13:40.885722 30616 net.cpp:141] Setting up drop2
I0808 16:13:40.885730 30616 net.cpp:148] Top shape: 7000 4096 (28672000)
I0808 16:13:40.885731 30616 net.cpp:156] Memory required for data: 1997432864
I0808 16:13:40.885735 30616 layer_factory.hpp:77] Creating layer fc3
I0808 16:13:40.885743 30616 net.cpp:91] Creating Layer fc3
I0808 16:13:40.885746 30616 net.cpp:425] fc3 <- fc2
I0808 16:13:40.885751 30616 net.cpp:399] fc3 -> fc3
I0808 16:13:40.886021 30616 net.cpp:141] Setting up fc3
I0808 16:13:40.886030 30616 net.cpp:148] Top shape: 7000 3 (21000)
I0808 16:13:40.886032 30616 net.cpp:156] Memory required for data: 1997516864
I0808 16:13:40.886037 30616 layer_factory.hpp:77] Creating layer loss
I0808 16:13:40.886044 30616 net.cpp:91] Creating Layer loss
I0808 16:13:40.886047 30616 net.cpp:425] loss <- fc3
I0808 16:13:40.886052 30616 net.cpp:425] loss <- normal_point
I0808 16:13:40.886059 30616 net.cpp:399] loss -> loss
I0808 16:13:40.886111 30616 net.cpp:141] Setting up loss
…
