…
type: "SGD"
I0808 14:01:23.172513 29330 solver.cpp:91] Creating training net from net file: /home/qinhong/project/normal_recovery/model/t4/train.prototxt
I0808 14:01:23.173322 29330 net.cpp:49] Initializing net from parameters: 
name: "hyper_normal_layers"
state {
  phase: TRAIN
}
layer {
  name: "data"
  type: "ImageNormalData"
  top: "data"
  top: "normal"
  transform_param {
  }
  image_data_param {
    source: "/home/qinhong/project/normal_recovery/data/source.txt"
    batch_size: 5
    shuffle: true
    new_height: 224
    new_width: 224
  }
}
layer {
  name: "conv1_1"
  type: "Convolution"
  bottom: "data"
  top: "conv1_1"
  param {
    lr_mult: 1
    decay_mult: 1
  }
  param {
    lr_mult: 2
    decay_mult: 0
  }
  convolution_param {
    num_output: 64
    pad: 1
    kernel_size: 3
  }
}
layer {
  name: "relu1_1"
  type: "ReLU"
  bottom: "conv1_1"
  top: "conv1_1"
}
layer {
  name: "conv1_2"
  type: "Convolution"
  bottom: "conv1_1"
  top: "conv1_2"
  param {
    lr_mult: 1
    decay_mult: 1
  }
  param {
    lr_mult: 2
    decay_mult: 0
  }
  convolution_param {
    num_output: 64
    pad: 1
    kernel_size: 3
  }
}
layer {
  name: "relu1_2"
  type: "ReLU"
  bottom: "conv1_2"
  top: "conv1_2"
}
layer {
  name: "pool1"
  type: "Pooling"
  bottom: "conv1_2"
  top: "pool1"
  pooling_param {
    pool: MAX
    kernel_size: 2
    stride: 2
  }
}
layer {
  name: "conv2_1"
  type: "Convolution"
  bottom: "pool1"
  top: "conv2_1"
  param {
    lr_mult: 1
    decay_mult: 1
  }
  param {
    lr_mult: 2
    decay_mult: 0
  }
  convolution_param {
    num_output: 128
    pad: 1
    kernel_size: 3
  }
}
layer {
  name: "relu2_1"
  type: "ReLU"
  bottom: "conv2_1"
  top: "conv2_1"
}
layer {
  name: "conv2_2"
  type: "Convolution"
  bottom: "conv2_1"
  top: "conv2_2"
  param {
    lr_mult: 1
    decay_mult: 1
  }
  param {
    lr_mult: 2
    decay_mult: 0
  }
  convolution_param {
    num_output: 128
    pad: 1
    kernel_size: 3
  }
}
layer {
  name: "relu2_2"
  type: "ReLU"
  bottom: "conv2_2"
  top: "conv2_2"
}
layer {
  name: "pool2"
  type: "Pooling"
  bottom: "conv2_2"
  top: "pool2"
  pooling_param {
    pool: MAX
    kernel_size: 2
    stride: 2
  }
}
layer {
  name: "conv3_1"
  type: "Convolution"
  bottom: "pool2"
  top: "conv3_1"
  param {
    lr_mult: 1
    decay_mult: 1
  }
  param {
    lr_mult: 2
    decay_mult: 0
  }
  convolution_param {
    num_output: 256
    pad: 1
    kernel_size: 3
  }
}
layer {
  name: "relu3_1"
  type: "ReLU"
  bottom: "conv3_1"
  top: "conv3_1"
}
layer {
  name: "conv3_2"
  type: "Convolution"
  bottom: "conv3_1"
  top: "conv3_2"
  param {
    lr_mult: 1
    decay_mult: 1
  }
  param {
    lr_mult: 2
    decay_mult: 0
  }
  convolution_param {
    num_output: 256
    pad: 1
    kernel_size: 3
  }
}
layer {
  name: "relu3_2"
  type: "ReLU"
  bottom: "conv3_2"
  top: "conv3_2"
}
layer {
  name: "conv3_3"
  type: "Convolution"
  bottom: "conv3_2"
  top: "conv3_3"
  param {
    lr_mult: 1
    decay_mult: 1
  }
  param {
    lr_mult: 2
    decay_mult: 0
  }
  convolution_param {
    num_output: 256
    pad: 1
    kernel_size: 3
  }
}
layer {
  name: "relu3_3"
  type: "ReLU"
  bottom: "conv3_3"
  top: "conv3_3"
}
layer {
  name: "pool3"
  type: "Pooling"
  bottom: "conv3_3"
  top: "pool3"
  pooling_param {
    pool: MAX
    kernel_size: 2
    stride: 2
  }
}
layer {
  name: "conv4_1"
  type: "Convolution"
  bottom: "pool3"
  top: "conv4_1"
  param {
    lr_mult: 1
    decay_mult: 1
  }
  param {
    lr_mult: 2
    decay_mult: 0
  }
  convolution_param {
    num_output: 512
    pad: 1
    kernel_size: 3
  }
}
layer {
  name: "relu4_1"
  type: "ReLU"
  bottom: "conv4_1"
  top: "conv4_1"
}
layer {
  name: "conv4_2"
  type: "Convolution"
  bottom: "conv4_1"
  top: "conv4_2"
  param {
    lr_mult: 1
    decay_mult: 1
  }
  param {
    lr_mult: 2
    decay_mult: 0
  }
  convolution_param {
    num_output: 512
    pad: 1
    kernel_size: 3
  }
}
layer {
  name: "relu4_2"
  type: "ReLU"
  bottom: "conv4_2"
  top: "conv4_2"
}
layer {
  name: "conv4_3"
  type: "Convolution"
  bottom: "conv4_2"
  top: "conv4_3"
  param {
    lr_mult: 1
    decay_mult: 1
  }
  param {
    lr_mult: 2
    decay_mult: 0
  }
  convolution_param {
    num_output: 512
    pad: 1
    kernel_size: 3
  }
}
layer {
  name: "relu4_3"
  type: "ReLU"
  bottom: "conv4_3"
  top: "conv4_3"
}
layer {
  name: "pool4"
  type: "Pooling"
  bottom: "conv4_3"
  top: "pool4"
  pooling_param {
    pool: MAX
    kernel_size: 2
    stride: 2
  }
}
layer {
  name: "conv5_1"
  type: "Convolution"
  bottom: "pool4"
  top: "conv5_1"
  param {
    lr_mult: 1
    decay_mult: 1
  }
  param {
    lr_mult: 2
    decay_mult: 0
  }
  convolution_param {
    num_output: 512
    pad: 1
    kernel_size: 3
  }
}
layer {
  name: "relu5_1"
  type: "ReLU"
  bottom: "conv5_1"
  top: "conv5_1"
}
layer {
  name: "conv5_2"
  type: "Convolution"
  bottom: "conv5_1"
  top: "conv5_2"
  param {
    lr_mult: 1
    decay_mult: 1
  }
  param {
    lr_mult: 2
    decay_mult: 0
  }
  convolution_param {
    num_output: 512
    pad: 1
    kernel_size: 3
  }
}
layer {
  name: "relu5_2"
  type: "ReLU"
  bottom: "conv5_2"
  top: "conv5_2"
}
layer {
  name: "conv5_3"
  type: "Convolution"
  bottom: "conv5_2"
  top: "conv5_3"
  param {
    lr_mult: 1
    decay_mult: 1
  }
  param {
    lr_mult: 2
    decay_mult: 0
  }
  convolution_param {
    num_output: 512
    pad: 1
    kernel_size: 3
  }
}
layer {
  name: "relu5_3"
  type: "ReLU"
  bottom: "conv5_3"
  top: "conv5_3"
}
layer {
  name: "pool5"
  type: "Pooling"
  bottom: "conv5_3"
  top: "pool5"
  pooling_param {
    pool: MAX
    kernel_size: 2
    stride: 2
  }
}
layer {
  name: "fc6-conv"
  type: "Convolution"
  bottom: "pool5"
  top: "fc6-conv"
  param {
    lr_mult: 1
    decay_mult: 1
  }
  param {
    lr_mult: 2
    decay_mult: 0
  }
  convolution_param {
    num_output: 4096
    kernel_size: 7
  }
}
layer {
  name: "relu6"
  type: "ReLU"
  bottom: "fc6-conv"
  top: "fc6-conv"
}
layer {
  name: "drop6"
  type: "Dropout"
  bottom: "fc6-conv"
  top: "fc6-conv"
  dropout_param {
    dropout_ratio: 0.5
  }
}
layer {
  name: "fc7-conv"
  type: "Convolution"
  bottom: "fc6-conv"
  top: "fc7-conv"
  param {
    lr_mult: 1
    decay_mult: 1
  }
  param {
    lr_mult: 2
    decay_mult: 0
  }
  convolution_param {
    num_output: 4096
    kernel_size: 1
  }
}
layer {
  name: "relu7"
  type: "ReLU"
  bottom: "fc7-conv"
  top: "fc7-conv"
}
layer {
  name: "hypercolumns"
  type: "HyperColumns"
  bottom: "normal"
  bottom: "conv1_2"
  bottom: "conv2_2"
  bottom: "conv3_3"
  bottom: "conv4_3"
  bottom: "conv5_3"
  bottom: "fc7-conv"
  top: "hypercolumns"
  top: "normal_point"
  hypercolumns_param {
    is_train: true
  }
}
layer {
  name: "fc1"
  type: "InnerProduct"
  bottom: "hypercolumns"
  top: "fc1"
  param {
    lr_mult: 1
    decay_mult: 1
  }
  param {
    lr_mult: 2
    decay_mult: 0
  }
  inner_product_param {
    num_output: 4096
    weight_filler {
      type: "gaussian"
      std: 0.003
    }
    bias_filler {
      type: "constant"
      value: 0
    }
  }
}
layer {
  name: "relu1"
  type: "ReLU"
  bottom: "fc1"
  top: "fc1"
}
layer {
  name: "drop1"
  type: "Dropout"
  bottom: "fc1"
  top: "fc1"
  dropout_param {
    dropout_ratio: 0.5
  }
}
layer {
  name: "fc2"
  type: "InnerProduct"
  bottom: "fc1"
  top: "fc2"
  param {
    lr_mult: 1
    decay_mult: 1
  }
  param {
    lr_mult: 2
    decay_mult: 0
  }
  inner_product_param {
    num_output: 4096
    weight_filler {
      type: "gaussian"
      std: 0.002
    }
    bias_filler {
      type: "constant"
      value: 0
    }
  }
}
layer {
  name: "relu2"
  type: "ReLU"
  bottom: "fc2"
  top: "fc2"
}
layer {
  name: "drop2"
  type: "Dropout"
  bottom: "fc2"
  top: "fc2"
  dropout_param {
    dropout_ratio: 0.5
  }
}
layer {
  name: "fc3"
  type: "InnerProduct"
  bottom: "fc2"
  top: "fc3"
  param {
    lr_mult: 1
    decay_mult: 1
  }
  param {
    lr_mult: 2
    decay_mult: 0
  }
  inner_product_param {
    num_output: 3
    weight_filler {
      type: "gaussian"
      std: 0.001
    }
    bias_filler {
      type: "constant"
      value: 0
    }
  }
}
layer {
  name: "loss"
  type: "EuclideanLoss"
  bottom: "fc3"
  bottom: "normal_point"
  top: "loss"
  propagate_down: true
  propagate_down: false
}
I0808 14:01:23.173590 29330 layer_factory.hpp:77] Creating layer data
I0808 14:01:23.173640 29330 net.cpp:91] Creating Layer data
I0808 14:01:23.173650 29330 net.cpp:399] data -> data
I0808 14:01:23.173678 29330 net.cpp:399] data -> normal
I0808 14:01:23.173703 29330 image_normal_data_layer.cpp:43] opeing file /home/qinhong/project/normal_recovery/data/source.txt
I0808 14:01:23.178788 29330 image_normal_data_layer.cpp:54] Shuffing data
I0808 14:01:23.180347 29330 image_normal_data_layer.cpp:59] A total of 4105 images.
I0808 14:01:23.201934 29330 image_normal_data_layer.cpp:79] output data size: 5,3,224,224
I0808 14:01:23.212959 29330 net.cpp:141] Setting up data
I0808 14:01:23.212982 29330 net.cpp:148] Top shape: 5 3 224 224 (752640)
I0808 14:01:23.212988 29330 net.cpp:148] Top shape: 5 3 224 224 (752640)
I0808 14:01:23.212991 29330 net.cpp:156] Memory required for data: 6021120
I0808 14:01:23.212999 29330 layer_factory.hpp:77] Creating layer conv1_1
I0808 14:01:23.213032 29330 net.cpp:91] Creating Layer conv1_1
I0808 14:01:23.213040 29330 net.cpp:425] conv1_1 <- data
I0808 14:01:23.213055 29330 net.cpp:399] conv1_1 -> conv1_1
I0808 14:01:23.389914 29330 net.cpp:141] Setting up conv1_1
I0808 14:01:23.389955 29330 net.cpp:148] Top shape: 5 64 224 224 (16056320)
I0808 14:01:23.389960 29330 net.cpp:156] Memory required for data: 70246400
I0808 14:01:23.389987 29330 layer_factory.hpp:77] Creating layer relu1_1
I0808 14:01:23.390002 29330 net.cpp:91] Creating Layer relu1_1
I0808 14:01:23.390008 29330 net.cpp:425] relu1_1 <- conv1_1
I0808 14:01:23.390015 29330 net.cpp:386] relu1_1 -> conv1_1 (in-place)
I0808 14:01:23.390301 29330 net.cpp:141] Setting up relu1_1
I0808 14:01:23.390316 29330 net.cpp:148] Top shape: 5 64 224 224 (16056320)
I0808 14:01:23.390321 29330 net.cpp:156] Memory required for data: 134471680
I0808 14:01:23.390323 29330 layer_factory.hpp:77] Creating layer conv1_2
I0808 14:01:23.390336 29330 net.cpp:91] Creating Layer conv1_2
I0808 14:01:23.390341 29330 net.cpp:425] conv1_2 <- conv1_1
I0808 14:01:23.390347 29330 net.cpp:399] conv1_2 -> conv1_2
I0808 14:01:23.391294 29330 net.cpp:141] Setting up conv1_2
I0808 14:01:23.391309 29330 net.cpp:148] Top shape: 5 64 224 224 (16056320)
I0808 14:01:23.391314 29330 net.cpp:156] Memory required for data: 198696960
I0808 14:01:23.391335 29330 layer_factory.hpp:77] Creating layer relu1_2
I0808 14:01:23.391345 29330 net.cpp:91] Creating Layer relu1_2
I0808 14:01:23.391348 29330 net.cpp:425] relu1_2 <- conv1_2
I0808 14:01:23.391353 29330 net.cpp:386] relu1_2 -> conv1_2 (in-place)
I0808 14:01:23.391609 29330 net.cpp:141] Setting up relu1_2
I0808 14:01:23.391623 29330 net.cpp:148] Top shape: 5 64 224 224 (16056320)
I0808 14:01:23.391626 29330 net.cpp:156] Memory required for data: 262922240
I0808 14:01:23.391630 29330 layer_factory.hpp:77] Creating layer conv1_2_relu1_2_0_split
I0808 14:01:23.391636 29330 net.cpp:91] Creating Layer conv1_2_relu1_2_0_split
I0808 14:01:23.391640 29330 net.cpp:425] conv1_2_relu1_2_0_split <- conv1_2
I0808 14:01:23.391646 29330 net.cpp:399] conv1_2_relu1_2_0_split -> conv1_2_relu1_2_0_split_0
I0808 14:01:23.391654 29330 net.cpp:399] conv1_2_relu1_2_0_split -> conv1_2_relu1_2_0_split_1
I0808 14:01:23.391696 29330 net.cpp:141] Setting up conv1_2_relu1_2_0_split
I0808 14:01:23.391705 29330 net.cpp:148] Top shape: 5 64 224 224 (16056320)
I0808 14:01:23.391708 29330 net.cpp:148] Top shape: 5 64 224 224 (16056320)
I0808 14:01:23.391710 29330 net.cpp:156] Memory required for data: 391372800
I0808 14:01:23.391713 29330 layer_factory.hpp:77] Creating layer pool1
I0808 14:01:23.391741 29330 net.cpp:91] Creating Layer pool1
I0808 14:01:23.391746 29330 net.cpp:425] pool1 <- conv1_2_relu1_2_0_split_0
I0808 14:01:23.391752 29330 net.cpp:399] pool1 -> pool1
I0808 14:01:23.391800 29330 net.cpp:141] Setting up pool1
I0808 14:01:23.391808 29330 net.cpp:148] Top shape: 5 64 112 112 (4014080)
I0808 14:01:23.391811 29330 net.cpp:156] Memory required for data: 407429120
I0808 14:01:23.391814 29330 layer_factory.hpp:77] Creating layer conv2_1
I0808 14:01:23.391825 29330 net.cpp:91] Creating Layer conv2_1
I0808 14:01:23.391829 29330 net.cpp:425] conv2_1 <- pool1
I0808 14:01:23.391834 29330 net.cpp:399] conv2_1 -> conv2_1
I0808 14:01:23.393908 29330 net.cpp:141] Setting up conv2_1
I0808 14:01:23.393925 29330 net.cpp:148] Top shape: 5 128 112 112 (8028160)
I0808 14:01:23.393929 29330 net.cpp:156] Memory required for data: 439541760
I0808 14:01:23.393939 29330 layer_factory.hpp:77] Creating layer relu2_1
I0808 14:01:23.393949 29330 net.cpp:91] Creating Layer relu2_1
I0808 14:01:23.393955 29330 net.cpp:425] relu2_1 <- conv2_1
I0808 14:01:23.393961 29330 net.cpp:386] relu2_1 -> conv2_1 (in-place)
I0808 14:01:23.394129 29330 net.cpp:141] Setting up relu2_1
I0808 14:01:23.394140 29330 net.cpp:148] Top shape: 5 128 112 112 (8028160)
I0808 14:01:23.394143 29330 net.cpp:156] Memory required for data: 471654400
I0808 14:01:23.394147 29330 layer_factory.hpp:77] Creating layer conv2_2
I0808 14:01:23.394155 29330 net.cpp:91] Creating Layer conv2_2
I0808 14:01:23.394158 29330 net.cpp:425] conv2_2 <- conv2_1
I0808 14:01:23.394165 29330 net.cpp:399] conv2_2 -> conv2_2
I0808 14:01:23.395172 29330 net.cpp:141] Setting up conv2_2
I0808 14:01:23.395189 29330 net.cpp:148] Top shape: 5 128 112 112 (8028160)
I0808 14:01:23.395191 29330 net.cpp:156] Memory required for data: 503767040
I0808 14:01:23.395198 29330 layer_factory.hpp:77] Creating layer relu2_2
I0808 14:01:23.395206 29330 net.cpp:91] Creating Layer relu2_2
I0808 14:01:23.395210 29330 net.cpp:425] relu2_2 <- conv2_2
I0808 14:01:23.395215 29330 net.cpp:386] relu2_2 -> conv2_2 (in-place)
I0808 14:01:23.395483 29330 net.cpp:141] Setting up relu2_2
I0808 14:01:23.395498 29330 net.cpp:148] Top shape: 5 128 112 112 (8028160)
I0808 14:01:23.395500 29330 net.cpp:156] Memory required for data: 535879680
I0808 14:01:23.395503 29330 layer_factory.hpp:77] Creating layer conv2_2_relu2_2_0_split
I0808 14:01:23.395510 29330 net.cpp:91] Creating Layer conv2_2_relu2_2_0_split
I0808 14:01:23.395514 29330 net.cpp:425] conv2_2_relu2_2_0_split <- conv2_2
I0808 14:01:23.395521 29330 net.cpp:399] conv2_2_relu2_2_0_split -> conv2_2_relu2_2_0_split_0
I0808 14:01:23.395531 29330 net.cpp:399] conv2_2_relu2_2_0_split -> conv2_2_relu2_2_0_split_1
I0808 14:01:23.395576 29330 net.cpp:141] Setting up conv2_2_relu2_2_0_split
I0808 14:01:23.395584 29330 net.cpp:148] Top shape: 5 128 112 112 (8028160)
I0808 14:01:23.395588 29330 net.cpp:148] Top shape: 5 128 112 112 (8028160)
I0808 14:01:23.395591 29330 net.cpp:156] Memory required for data: 600104960
I0808 14:01:23.395594 29330 layer_factory.hpp:77] Creating layer pool2
I0808 14:01:23.395601 29330 net.cpp:91] Creating Layer pool2
I0808 14:01:23.395603 29330 net.cpp:425] pool2 <- conv2_2_relu2_2_0_split_0
I0808 14:01:23.395611 29330 net.cpp:399] pool2 -> pool2
I0808 14:01:23.395647 29330 net.cpp:141] Setting up pool2
I0808 14:01:23.395655 29330 net.cpp:148] Top shape: 5 128 56 56 (2007040)
I0808 14:01:23.395658 29330 net.cpp:156] Memory required for data: 608133120
I0808 14:01:23.395660 29330 layer_factory.hpp:77] Creating layer conv3_1
I0808 14:01:23.395668 29330 net.cpp:91] Creating Layer conv3_1
I0808 14:01:23.395671 29330 net.cpp:425] conv3_1 <- pool2
I0808 14:01:23.395678 29330 net.cpp:399] conv3_1 -> conv3_1
I0808 14:01:23.397267 29330 net.cpp:141] Setting up conv3_1
I0808 14:01:23.397282 29330 net.cpp:148] Top shape: 5 256 56 56 (4014080)
I0808 14:01:23.397287 29330 net.cpp:156] Memory required for data: 624189440
I0808 14:01:23.397308 29330 layer_factory.hpp:77] Creating layer relu3_1
I0808 14:01:23.397317 29330 net.cpp:91] Creating Layer relu3_1
I0808 14:01:23.397333 29330 net.cpp:425] relu3_1 <- conv3_1
I0808 14:01:23.397341 29330 net.cpp:386] relu3_1 -> conv3_1 (in-place)
I0808 14:01:23.397630 29330 net.cpp:141] Setting up relu3_1
I0808 14:01:23.397644 29330 net.cpp:148] Top shape: 5 256 56 56 (4014080)
I0808 14:01:23.397647 29330 net.cpp:156] Memory required for data: 640245760
I0808 14:01:23.397650 29330 layer_factory.hpp:77] Creating layer conv3_2
I0808 14:01:23.397660 29330 net.cpp:91] Creating Layer conv3_2
I0808 14:01:23.397665 29330 net.cpp:425] conv3_2 <- conv3_1
I0808 14:01:23.397672 29330 net.cpp:399] conv3_2 -> conv3_2
I0808 14:01:23.399968 29330 net.cpp:141] Setting up conv3_2
I0808 14:01:23.399984 29330 net.cpp:148] Top shape: 5 256 56 56 (4014080)
I0808 14:01:23.399987 29330 net.cpp:156] Memory required for data: 656302080
I0808 14:01:23.399994 29330 layer_factory.hpp:77] Creating layer relu3_2
I0808 14:01:23.400018 29330 net.cpp:91] Creating Layer relu3_2
I0808 14:01:23.400024 29330 net.cpp:425] relu3_2 <- conv3_2
I0808 14:01:23.400030 29330 net.cpp:386] relu3_2 -> conv3_2 (in-place)
I0808 14:01:23.400207 29330 net.cpp:141] Setting up relu3_2
I0808 14:01:23.400218 29330 net.cpp:148] Top shape: 5 256 56 56 (4014080)
I0808 14:01:23.400221 29330 net.cpp:156] Memory required for data: 672358400
I0808 14:01:23.400224 29330 layer_factory.hpp:77] Creating layer conv3_3
I0808 14:01:23.400233 29330 net.cpp:91] Creating Layer conv3_3
I0808 14:01:23.400238 29330 net.cpp:425] conv3_3 <- conv3_2
I0808 14:01:23.400244 29330 net.cpp:399] conv3_3 -> conv3_3
I0808 14:01:23.402613 29330 net.cpp:141] Setting up conv3_3
I0808 14:01:23.402629 29330 net.cpp:148] Top shape: 5 256 56 56 (4014080)
I0808 14:01:23.402632 29330 net.cpp:156] Memory required for data: 688414720
I0808 14:01:23.402652 29330 layer_factory.hpp:77] Creating layer relu3_3
I0808 14:01:23.402659 29330 net.cpp:91] Creating Layer relu3_3
I0808 14:01:23.402664 29330 net.cpp:425] relu3_3 <- conv3_3
I0808 14:01:23.402672 29330 net.cpp:386] relu3_3 -> conv3_3 (in-place)
I0808 14:01:23.402977 29330 net.cpp:141] Setting up relu3_3
I0808 14:01:23.403002 29330 net.cpp:148] Top shape: 5 256 56 56 (4014080)
I0808 14:01:23.403005 29330 net.cpp:156] Memory required for data: 704471040
I0808 14:01:23.403008 29330 layer_factory.hpp:77] Creating layer conv3_3_relu3_3_0_split
I0808 14:01:23.403029 29330 net.cpp:91] Creating Layer conv3_3_relu3_3_0_split
I0808 14:01:23.403034 29330 net.cpp:425] conv3_3_relu3_3_0_split <- conv3_3
I0808 14:01:23.403051 29330 net.cpp:399] conv3_3_relu3_3_0_split -> conv3_3_relu3_3_0_split_0
I0808 14:01:23.403070 29330 net.cpp:399] conv3_3_relu3_3_0_split -> conv3_3_relu3_3_0_split_1
I0808 14:01:23.403122 29330 net.cpp:141] Setting up conv3_3_relu3_3_0_split
I0808 14:01:23.403131 29330 net.cpp:148] Top shape: 5 256 56 56 (4014080)
I0808 14:01:23.403134 29330 net.cpp:148] Top shape: 5 256 56 56 (4014080)
I0808 14:01:23.403137 29330 net.cpp:156] Memory required for data: 736583680
I0808 14:01:23.403141 29330 layer_factory.hpp:77] Creating layer pool3
I0808 14:01:23.403152 29330 net.cpp:91] Creating Layer pool3
I0808 14:01:23.403156 29330 net.cpp:425] pool3 <- conv3_3_relu3_3_0_split_0
I0808 14:01:23.403162 29330 net.cpp:399] pool3 -> pool3
I0808 14:01:23.403199 29330 net.cpp:141] Setting up pool3
I0808 14:01:23.403208 29330 net.cpp:148] Top shape: 5 256 28 28 (1003520)
I0808 14:01:23.403209 29330 net.cpp:156] Memory required for data: 740597760
I0808 14:01:23.403213 29330 layer_factory.hpp:77] Creating layer conv4_1
I0808 14:01:23.403221 29330 net.cpp:91] Creating Layer conv4_1
I0808 14:01:23.403226 29330 net.cpp:425] conv4_1 <- pool3
I0808 14:01:23.403234 29330 net.cpp:399] conv4_1 -> conv4_1
I0808 14:01:23.407069 29330 net.cpp:141] Setting up conv4_1
I0808 14:01:23.407084 29330 net.cpp:148] Top shape: 5 512 28 28 (2007040)
I0808 14:01:23.407088 29330 net.cpp:156] Memory required for data: 748625920
I0808 14:01:23.407107 29330 layer_factory.hpp:77] Creating layer relu4_1
I0808 14:01:23.407115 29330 net.cpp:91] Creating Layer relu4_1
I0808 14:01:23.407122 29330 net.cpp:425] relu4_1 <- conv4_1
I0808 14:01:23.407140 29330 net.cpp:386] relu4_1 -> conv4_1 (in-place)
I0808 14:01:23.407434 29330 net.cpp:141] Setting up relu4_1
I0808 14:01:23.407449 29330 net.cpp:148] Top shape: 5 512 28 28 (2007040)
I0808 14:01:23.407451 29330 net.cpp:156] Memory required for data: 756654080
I0808 14:01:23.407454 29330 layer_factory.hpp:77] Creating layer conv4_2
I0808 14:01:23.407465 29330 net.cpp:91] Creating Layer conv4_2
I0808 14:01:23.407469 29330 net.cpp:425] conv4_2 <- conv4_1
I0808 14:01:23.407476 29330 net.cpp:399] conv4_2 -> conv4_2
I0808 14:01:23.413414 29330 net.cpp:141] Setting up conv4_2
I0808 14:01:23.413434 29330 net.cpp:148] Top shape: 5 512 28 28 (2007040)
I0808 14:01:23.413437 29330 net.cpp:156] Memory required for data: 764682240
I0808 14:01:23.413460 29330 layer_factory.hpp:77] Creating layer relu4_2
I0808 14:01:23.413470 29330 net.cpp:91] Creating Layer relu4_2
I0808 14:01:23.413473 29330 net.cpp:425] relu4_2 <- conv4_2
I0808 14:01:23.413480 29330 net.cpp:386] relu4_2 -> conv4_2 (in-place)
I0808 14:01:23.413661 29330 net.cpp:141] Setting up relu4_2
I0808 14:01:23.413673 29330 net.cpp:148] Top shape: 5 512 28 28 (2007040)
I0808 14:01:23.413676 29330 net.cpp:156] Memory required for data: 772710400
I0808 14:01:23.413679 29330 layer_factory.hpp:77] Creating layer conv4_3
I0808 14:01:23.413688 29330 net.cpp:91] Creating Layer conv4_3
I0808 14:01:23.413693 29330 net.cpp:425] conv4_3 <- conv4_2
I0808 14:01:23.413699 29330 net.cpp:399] conv4_3 -> conv4_3
I0808 14:01:23.419462 29330 net.cpp:141] Setting up conv4_3
I0808 14:01:23.419482 29330 net.cpp:148] Top shape: 5 512 28 28 (2007040)
I0808 14:01:23.419486 29330 net.cpp:156] Memory required for data: 780738560
I0808 14:01:23.419492 29330 layer_factory.hpp:77] Creating layer relu4_3
I0808 14:01:23.419510 29330 net.cpp:91] Creating Layer relu4_3
I0808 14:01:23.419515 29330 net.cpp:425] relu4_3 <- conv4_3
I0808 14:01:23.419522 29330 net.cpp:386] relu4_3 -> conv4_3 (in-place)
I0808 14:01:23.419816 29330 net.cpp:141] Setting up relu4_3
I0808 14:01:23.419831 29330 net.cpp:148] Top shape: 5 512 28 28 (2007040)
I0808 14:01:23.419833 29330 net.cpp:156] Memory required for data: 788766720
I0808 14:01:23.419837 29330 layer_factory.hpp:77] Creating layer conv4_3_relu4_3_0_split
I0808 14:01:23.419845 29330 net.cpp:91] Creating Layer conv4_3_relu4_3_0_split
I0808 14:01:23.419852 29330 net.cpp:425] conv4_3_relu4_3_0_split <- conv4_3
I0808 14:01:23.419857 29330 net.cpp:399] conv4_3_relu4_3_0_split -> conv4_3_relu4_3_0_split_0
I0808 14:01:23.419865 29330 net.cpp:399] conv4_3_relu4_3_0_split -> conv4_3_relu4_3_0_split_1
I0808 14:01:23.419914 29330 net.cpp:141] Setting up conv4_3_relu4_3_0_split
I0808 14:01:23.419921 29330 net.cpp:148] Top shape: 5 512 28 28 (2007040)
I0808 14:01:23.419925 29330 net.cpp:148] Top shape: 5 512 28 28 (2007040)
I0808 14:01:23.419929 29330 net.cpp:156] Memory required for data: 804823040
I0808 14:01:23.419931 29330 layer_factory.hpp:77] Creating layer pool4
I0808 14:01:23.419940 29330 net.cpp:91] Creating Layer pool4
I0808 14:01:23.419944 29330 net.cpp:425] pool4 <- conv4_3_relu4_3_0_split_0
I0808 14:01:23.419948 29330 net.cpp:399] pool4 -> pool4
I0808 14:01:23.419989 29330 net.cpp:141] Setting up pool4
I0808 14:01:23.419997 29330 net.cpp:148] Top shape: 5 512 14 14 (501760)
I0808 14:01:23.419999 29330 net.cpp:156] Memory required for data: 806830080
I0808 14:01:23.420002 29330 layer_factory.hpp:77] Creating layer conv5_1
I0808 14:01:23.420011 29330 net.cpp:91] Creating Layer conv5_1
I0808 14:01:23.420017 29330 net.cpp:425] conv5_1 <- pool4
I0808 14:01:23.420022 29330 net.cpp:399] conv5_1 -> conv5_1
I0808 14:01:23.426002 29330 net.cpp:141] Setting up conv5_1
I0808 14:01:23.426023 29330 net.cpp:148] Top shape: 5 512 14 14 (501760)
I0808 14:01:23.426025 29330 net.cpp:156] Memory required for data: 808837120
I0808 14:01:23.426033 29330 layer_factory.hpp:77] Creating layer relu5_1
I0808 14:01:23.426040 29330 net.cpp:91] Creating Layer relu5_1
I0808 14:01:23.426045 29330 net.cpp:425] relu5_1 <- conv5_1
I0808 14:01:23.426051 29330 net.cpp:386] relu5_1 -> conv5_1 (in-place)
I0808 14:01:23.426357 29330 net.cpp:141] Setting up relu5_1
I0808 14:01:23.426370 29330 net.cpp:148] Top shape: 5 512 14 14 (501760)
I0808 14:01:23.426373 29330 net.cpp:156] Memory required for data: 810844160
I0808 14:01:23.426376 29330 layer_factory.hpp:77] Creating layer conv5_2
I0808 14:01:23.426388 29330 net.cpp:91] Creating Layer conv5_2
I0808 14:01:23.426393 29330 net.cpp:425] conv5_2 <- conv5_1
I0808 14:01:23.426400 29330 net.cpp:399] conv5_2 -> conv5_2
I0808 14:01:23.432179 29330 net.cpp:141] Setting up conv5_2
I0808 14:01:23.432196 29330 net.cpp:148] Top shape: 5 512 14 14 (501760)
I0808 14:01:23.432200 29330 net.cpp:156] Memory required for data: 812851200
I0808 14:01:23.432219 29330 layer_factory.hpp:77] Creating layer relu5_2
I0808 14:01:23.432235 29330 net.cpp:91] Creating Layer relu5_2
I0808 14:01:23.432240 29330 net.cpp:425] relu5_2 <- conv5_2
I0808 14:01:23.432246 29330 net.cpp:386] relu5_2 -> conv5_2 (in-place)
I0808 14:01:23.432428 29330 net.cpp:141] Setting up relu5_2
I0808 14:01:23.432440 29330 net.cpp:148] Top shape: 5 512 14 14 (501760)
I0808 14:01:23.432442 29330 net.cpp:156] Memory required for data: 814858240
I0808 14:01:23.432446 29330 layer_factory.hpp:77] Creating layer conv5_3
I0808 14:01:23.432454 29330 net.cpp:91] Creating Layer conv5_3
I0808 14:01:23.432459 29330 net.cpp:425] conv5_3 <- conv5_2
I0808 14:01:23.432464 29330 net.cpp:399] conv5_3 -> conv5_3
I0808 14:01:23.438146 29330 net.cpp:141] Setting up conv5_3
I0808 14:01:23.438165 29330 net.cpp:148] Top shape: 5 512 14 14 (501760)
I0808 14:01:23.438169 29330 net.cpp:156] Memory required for data: 816865280
I0808 14:01:23.438175 29330 layer_factory.hpp:77] Creating layer relu5_3
I0808 14:01:23.438195 29330 net.cpp:91] Creating Layer relu5_3
I0808 14:01:23.438201 29330 net.cpp:425] relu5_3 <- conv5_3
I0808 14:01:23.438206 29330 net.cpp:386] relu5_3 -> conv5_3 (in-place)
I0808 14:01:23.438510 29330 net.cpp:141] Setting up relu5_3
I0808 14:01:23.438524 29330 net.cpp:148] Top shape: 5 512 14 14 (501760)
I0808 14:01:23.438527 29330 net.cpp:156] Memory required for data: 818872320
I0808 14:01:23.438530 29330 layer_factory.hpp:77] Creating layer conv5_3_relu5_3_0_split
I0808 14:01:23.438540 29330 net.cpp:91] Creating Layer conv5_3_relu5_3_0_split
I0808 14:01:23.438545 29330 net.cpp:425] conv5_3_relu5_3_0_split <- conv5_3
I0808 14:01:23.438551 29330 net.cpp:399] conv5_3_relu5_3_0_split -> conv5_3_relu5_3_0_split_0
I0808 14:01:23.438558 29330 net.cpp:399] conv5_3_relu5_3_0_split -> conv5_3_relu5_3_0_split_1
I0808 14:01:23.438611 29330 net.cpp:141] Setting up conv5_3_relu5_3_0_split
I0808 14:01:23.438619 29330 net.cpp:148] Top shape: 5 512 14 14 (501760)
I0808 14:01:23.438623 29330 net.cpp:148] Top shape: 5 512 14 14 (501760)
I0808 14:01:23.438626 29330 net.cpp:156] Memory required for data: 822886400
I0808 14:01:23.438629 29330 layer_factory.hpp:77] Creating layer pool5
I0808 14:01:23.438639 29330 net.cpp:91] Creating Layer pool5
I0808 14:01:23.438642 29330 net.cpp:425] pool5 <- conv5_3_relu5_3_0_split_0
I0808 14:01:23.438647 29330 net.cpp:399] pool5 -> pool5
I0808 14:01:23.438694 29330 net.cpp:141] Setting up pool5
I0808 14:01:23.438701 29330 net.cpp:148] Top shape: 5 512 7 7 (125440)
I0808 14:01:23.438704 29330 net.cpp:156] Memory required for data: 823388160
I0808 14:01:23.438707 29330 layer_factory.hpp:77] Creating layer fc6-conv
I0808 14:01:23.438715 29330 net.cpp:91] Creating Layer fc6-conv
I0808 14:01:23.438719 29330 net.cpp:425] fc6-conv <- pool5
I0808 14:01:23.438725 29330 net.cpp:399] fc6-conv -> fc6-conv
I0808 14:01:23.687638 29330 net.cpp:141] Setting up fc6-conv
I0808 14:01:23.687688 29330 net.cpp:148] Top shape: 5 4096 1 1 (20480)
I0808 14:01:23.687693 29330 net.cpp:156] Memory required for data: 823470080
I0808 14:01:23.687705 29330 layer_factory.hpp:77] Creating layer relu6
I0808 14:01:23.687729 29330 net.cpp:91] Creating Layer relu6
I0808 14:01:23.687736 29330 net.cpp:425] relu6 <- fc6-conv
I0808 14:01:23.687747 29330 net.cpp:386] relu6 -> fc6-conv (in-place)
I0808 14:01:23.688053 29330 net.cpp:141] Setting up relu6
I0808 14:01:23.688086 29330 net.cpp:148] Top shape: 5 4096 1 1 (20480)
I0808 14:01:23.688089 29330 net.cpp:156] Memory required for data: 823552000
I0808 14:01:23.688093 29330 layer_factory.hpp:77] Creating layer drop6
I0808 14:01:23.688102 29330 net.cpp:91] Creating Layer drop6
I0808 14:01:23.688107 29330 net.cpp:425] drop6 <- fc6-conv
I0808 14:01:23.688113 29330 net.cpp:386] drop6 -> fc6-conv (in-place)
I0808 14:01:23.688158 29330 net.cpp:141] Setting up drop6
I0808 14:01:23.688166 29330 net.cpp:148] Top shape: 5 4096 1 1 (20480)
I0808 14:01:23.688169 29330 net.cpp:156] Memory required for data: 823633920
I0808 14:01:23.688172 29330 layer_factory.hpp:77] Creating layer fc7-conv
I0808 14:01:23.688184 29330 net.cpp:91] Creating Layer fc7-conv
I0808 14:01:23.688189 29330 net.cpp:425] fc7-conv <- fc6-conv
I0808 14:01:23.688194 29330 net.cpp:399] fc7-conv -> fc7-conv
I0808 14:01:23.731004 29330 net.cpp:141] Setting up fc7-conv
I0808 14:01:23.731065 29330 net.cpp:148] Top shape: 5 4096 1 1 (20480)
I0808 14:01:23.731070 29330 net.cpp:156] Memory required for data: 823715840
I0808 14:01:23.731081 29330 layer_factory.hpp:77] Creating layer relu7
I0808 14:01:23.731106 29330 net.cpp:91] Creating Layer relu7
I0808 14:01:23.731112 29330 net.cpp:425] relu7 <- fc7-conv
I0808 14:01:23.731120 29330 net.cpp:386] relu7 -> fc7-conv (in-place)
I0808 14:01:23.731323 29330 net.cpp:141] Setting up relu7
I0808 14:01:23.731334 29330 net.cpp:148] Top shape: 5 4096 1 1 (20480)
I0808 14:01:23.731338 29330 net.cpp:156] Memory required for data: 823797760
I0808 14:01:23.731341 29330 layer_factory.hpp:77] Creating layer hypercolumns
I0808 14:01:23.731353 29330 net.cpp:91] Creating Layer hypercolumns
I0808 14:01:23.731356 29330 net.cpp:425] hypercolumns <- normal
I0808 14:01:23.731361 29330 net.cpp:425] hypercolumns <- conv1_2_relu1_2_0_split_1
I0808 14:01:23.731366 29330 net.cpp:425] hypercolumns <- conv2_2_relu2_2_0_split_1
I0808 14:01:23.731370 29330 net.cpp:425] hypercolumns <- conv3_3_relu3_3_0_split_1
I0808 14:01:23.731374 29330 net.cpp:425] hypercolumns <- conv4_3_relu4_3_0_split_1
I0808 14:01:23.731379 29330 net.cpp:425] hypercolumns <- conv5_3_relu5_3_0_split_1
I0808 14:01:23.731382 29330 net.cpp:425] hypercolumns <- fc7-conv
I0808 14:01:23.731391 29330 net.cpp:399] hypercolumns -> hypercolumns
I0808 14:01:23.731413 29330 net.cpp:399] hypercolumns -> normal_point
I0808 14:01:23.731465 29330 net.cpp:141] Setting up hypercolumns
I0808 14:01:23.731474 29330 net.cpp:148] Top shape: 5000 5568 1 1 (27840000)
I0808 14:01:23.731478 29330 net.cpp:148] Top shape: 5000 3 (15000)
I0808 14:01:23.731482 29330 net.cpp:156] Memory required for data: 935217760
I0808 14:01:23.731484 29330 layer_factory.hpp:77] Creating layer fc1
I0808 14:01:23.731493 29330 net.cpp:91] Creating Layer fc1
I0808 14:01:23.731498 29330 net.cpp:425] fc1 <- hypercolumns
I0808 14:01:23.731509 29330 net.cpp:399] fc1 -> fc1
I0808 14:01:24.004956 29330 net.cpp:141] Setting up fc1
I0808 14:01:24.005025 29330 net.cpp:148] Top shape: 5000 4096 (20480000)
I0808 14:01:24.005030 29330 net.cpp:156] Memory required for data: 1017137760
I0808 14:01:24.005055 29330 layer_factory.hpp:77] Creating layer relu1
I0808 14:01:24.005084 29330 net.cpp:91] Creating Layer relu1
I0808 14:01:24.005095 29330 net.cpp:425] relu1 <- fc1
I0808 14:01:24.005105 29330 net.cpp:386] relu1 -> fc1 (in-place)
I0808 14:01:24.005888 29330 net.cpp:141] Setting up relu1
I0808 14:01:24.005903 29330 net.cpp:148] Top shape: 5000 4096 (20480000)
I0808 14:01:24.005919 29330 net.cpp:156] Memory required for data: 1099057760
I0808 14:01:24.005923 29330 layer_factory.hpp:77] Creating layer drop1
I0808 14:01:24.005936 29330 net.cpp:91] Creating Layer drop1
I0808 14:01:24.005941 29330 net.cpp:425] drop1 <- fc1
I0808 14:01:24.005949 29330 net.cpp:386] drop1 -> fc1 (in-place)
I0808 14:01:24.005982 29330 net.cpp:141] Setting up drop1
I0808 14:01:24.005990 29330 net.cpp:148] Top shape: 5000 4096 (20480000)
I0808 14:01:24.005993 29330 net.cpp:156] Memory required for data: 1180977760
I0808 14:01:24.005997 29330 layer_factory.hpp:77] Creating layer fc2
I0808 14:01:24.006041 29330 net.cpp:91] Creating Layer fc2
I0808 14:01:24.006047 29330 net.cpp:425] fc2 <- fc1
I0808 14:01:24.006062 29330 net.cpp:399] fc2 -> fc2
I0808 14:01:24.199008 29330 net.cpp:141] Setting up fc2
I0808 14:01:24.199079 29330 net.cpp:148] Top shape: 5000 4096 (20480000)
I0808 14:01:24.199084 29330 net.cpp:156] Memory required for data: 1262897760
I0808 14:01:24.199105 29330 layer_factory.hpp:77] Creating layer relu2
I0808 14:01:24.199133 29330 net.cpp:91] Creating Layer relu2
I0808 14:01:24.199141 29330 net.cpp:425] relu2 <- fc2
I0808 14:01:24.199149 29330 net.cpp:386] relu2 -> fc2 (in-place)
I0808 14:01:24.199452 29330 net.cpp:141] Setting up relu2
I0808 14:01:24.199465 29330 net.cpp:148] Top shape: 5000 4096 (20480000)
I0808 14:01:24.199478 29330 net.cpp:156] Memory required for data: 1344817760
I0808 14:01:24.199482 29330 layer_factory.hpp:77] Creating layer drop2
I0808 14:01:24.199491 29330 net.cpp:91] Creating Layer drop2
I0808 14:01:24.199493 29330 net.cpp:425] drop2 <- fc2
I0808 14:01:24.199501 29330 net.cpp:386] drop2 -> fc2 (in-place)
I0808 14:01:24.199535 29330 net.cpp:141] Setting up drop2
I0808 14:01:24.199542 29330 net.cpp:148] Top shape: 5000 4096 (20480000)
I0808 14:01:24.199545 29330 net.cpp:156] Memory required for data: 1426737760
I0808 14:01:24.199549 29330 layer_factory.hpp:77] Creating layer fc3
I0808 14:01:24.199556 29330 net.cpp:91] Creating Layer fc3
I0808 14:01:24.199561 29330 net.cpp:425] fc3 <- fc2
I0808 14:01:24.199568 29330 net.cpp:399] fc3 -> fc3
I0808 14:01:24.199831 29330 net.cpp:141] Setting up fc3
I0808 14:01:24.199839 29330 net.cpp:148] Top shape: 5000 3 (15000)
I0808 14:01:24.199841 29330 net.cpp:156] Memory required for data: 1426797760
I0808 14:01:24.199848 29330 layer_factory.hpp:77] Creating layer loss
I0808 14:01:24.199861 29330 net.cpp:91] Creating Layer loss
I0808 14:01:24.199864 29330 net.cpp:425] loss <- fc3
I0808 14:01:24.199869 29330 net.cpp:425] loss <- normal_point
I0808 14:01:24.199874 29330 net.cpp:399] loss -> loss
I0808 14:01:24.199945 29330 net.cpp:141] Setting up loss
…
