…
type: "SGD"
I0809 09:32:10.560595 34566 solver.cpp:91] Creating training net from net file: /home/qinhong/project/normal_recovery/model/t1/train.prototxt
I0809 09:32:10.561523 34566 net.cpp:49] Initializing net from parameters: 
name: "hyper_normal_layers"
state {
  phase: TRAIN
}
layer {
  name: "data"
  type: "ImageNormalData"
  top: "data"
  top: "normal"
  transform_param {
  }
  image_data_param {
    source: "/home/qinhong/project/normal_recovery/data/source.txt"
    batch_size: 7
    shuffle: true
    new_height: 224
    new_width: 224
  }
}
layer {
  name: "conv1_1"
  type: "Convolution"
  bottom: "data"
  top: "conv1_1"
  param {
    lr_mult: 1
    decay_mult: 1
  }
  param {
    lr_mult: 2
    decay_mult: 0
  }
  convolution_param {
    num_output: 64
    pad: 1
    kernel_size: 3
  }
}
layer {
  name: "relu1_1"
  type: "ReLU"
  bottom: "conv1_1"
  top: "conv1_1"
}
layer {
  name: "conv1_2"
  type: "Convolution"
  bottom: "conv1_1"
  top: "conv1_2"
  param {
    lr_mult: 1
    decay_mult: 1
  }
  param {
    lr_mult: 2
    decay_mult: 0
  }
  convolution_param {
    num_output: 64
    pad: 1
    kernel_size: 3
  }
}
layer {
  name: "relu1_2"
  type: "ReLU"
  bottom: "conv1_2"
  top: "conv1_2"
}
layer {
  name: "pool1"
  type: "Pooling"
  bottom: "conv1_2"
  top: "pool1"
  pooling_param {
    pool: MAX
    kernel_size: 2
    stride: 2
  }
}
layer {
  name: "conv2_1"
  type: "Convolution"
  bottom: "pool1"
  top: "conv2_1"
  param {
    lr_mult: 1
    decay_mult: 1
  }
  param {
    lr_mult: 2
    decay_mult: 0
  }
  convolution_param {
    num_output: 128
    pad: 1
    kernel_size: 3
  }
}
layer {
  name: "relu2_1"
  type: "ReLU"
  bottom: "conv2_1"
  top: "conv2_1"
}
layer {
  name: "conv2_2"
  type: "Convolution"
  bottom: "conv2_1"
  top: "conv2_2"
  param {
    lr_mult: 1
    decay_mult: 1
  }
  param {
    lr_mult: 2
    decay_mult: 0
  }
  convolution_param {
    num_output: 128
    pad: 1
    kernel_size: 3
  }
}
layer {
  name: "relu2_2"
  type: "ReLU"
  bottom: "conv2_2"
  top: "conv2_2"
}
layer {
  name: "pool2"
  type: "Pooling"
  bottom: "conv2_2"
  top: "pool2"
  pooling_param {
    pool: MAX
    kernel_size: 2
    stride: 2
  }
}
layer {
  name: "conv3_1"
  type: "Convolution"
  bottom: "pool2"
  top: "conv3_1"
  param {
    lr_mult: 1
    decay_mult: 1
  }
  param {
    lr_mult: 2
    decay_mult: 0
  }
  convolution_param {
    num_output: 256
    pad: 1
    kernel_size: 3
  }
}
layer {
  name: "relu3_1"
  type: "ReLU"
  bottom: "conv3_1"
  top: "conv3_1"
}
layer {
  name: "conv3_2"
  type: "Convolution"
  bottom: "conv3_1"
  top: "conv3_2"
  param {
    lr_mult: 1
    decay_mult: 1
  }
  param {
    lr_mult: 2
    decay_mult: 0
  }
  convolution_param {
    num_output: 256
    pad: 1
    kernel_size: 3
  }
}
layer {
  name: "relu3_2"
  type: "ReLU"
  bottom: "conv3_2"
  top: "conv3_2"
}
layer {
  name: "conv3_3"
  type: "Convolution"
  bottom: "conv3_2"
  top: "conv3_3"
  param {
    lr_mult: 1
    decay_mult: 1
  }
  param {
    lr_mult: 2
    decay_mult: 0
  }
  convolution_param {
    num_output: 256
    pad: 1
    kernel_size: 3
  }
}
layer {
  name: "relu3_3"
  type: "ReLU"
  bottom: "conv3_3"
  top: "conv3_3"
}
layer {
  name: "pool3"
  type: "Pooling"
  bottom: "conv3_3"
  top: "pool3"
  pooling_param {
    pool: MAX
    kernel_size: 2
    stride: 2
  }
}
layer {
  name: "conv4_1"
  type: "Convolution"
  bottom: "pool3"
  top: "conv4_1"
  param {
    lr_mult: 1
    decay_mult: 1
  }
  param {
    lr_mult: 2
    decay_mult: 0
  }
  convolution_param {
    num_output: 512
    pad: 1
    kernel_size: 3
  }
}
layer {
  name: "relu4_1"
  type: "ReLU"
  bottom: "conv4_1"
  top: "conv4_1"
}
layer {
  name: "conv4_2"
  type: "Convolution"
  bottom: "conv4_1"
  top: "conv4_2"
  param {
    lr_mult: 1
    decay_mult: 1
  }
  param {
    lr_mult: 2
    decay_mult: 0
  }
  convolution_param {
    num_output: 512
    pad: 1
    kernel_size: 3
  }
}
layer {
  name: "relu4_2"
  type: "ReLU"
  bottom: "conv4_2"
  top: "conv4_2"
}
layer {
  name: "conv4_3"
  type: "Convolution"
  bottom: "conv4_2"
  top: "conv4_3"
  param {
    lr_mult: 1
    decay_mult: 1
  }
  param {
    lr_mult: 2
    decay_mult: 0
  }
  convolution_param {
    num_output: 512
    pad: 1
    kernel_size: 3
  }
}
layer {
  name: "relu4_3"
  type: "ReLU"
  bottom: "conv4_3"
  top: "conv4_3"
}
layer {
  name: "pool4"
  type: "Pooling"
  bottom: "conv4_3"
  top: "pool4"
  pooling_param {
    pool: MAX
    kernel_size: 2
    stride: 2
  }
}
layer {
  name: "conv5_1"
  type: "Convolution"
  bottom: "pool4"
  top: "conv5_1"
  param {
    lr_mult: 1
    decay_mult: 1
  }
  param {
    lr_mult: 2
    decay_mult: 0
  }
  convolution_param {
    num_output: 512
    pad: 1
    kernel_size: 3
  }
}
layer {
  name: "relu5_1"
  type: "ReLU"
  bottom: "conv5_1"
  top: "conv5_1"
}
layer {
  name: "conv5_2"
  type: "Convolution"
  bottom: "conv5_1"
  top: "conv5_2"
  param {
    lr_mult: 1
    decay_mult: 1
  }
  param {
    lr_mult: 2
    decay_mult: 0
  }
  convolution_param {
    num_output: 512
    pad: 1
    kernel_size: 3
  }
}
layer {
  name: "relu5_2"
  type: "ReLU"
  bottom: "conv5_2"
  top: "conv5_2"
}
layer {
  name: "conv5_3"
  type: "Convolution"
  bottom: "conv5_2"
  top: "conv5_3"
  param {
    lr_mult: 1
    decay_mult: 1
  }
  param {
    lr_mult: 2
    decay_mult: 0
  }
  convolution_param {
    num_output: 512
    pad: 1
    kernel_size: 3
  }
}
layer {
  name: "relu5_3"
  type: "ReLU"
  bottom: "conv5_3"
  top: "conv5_3"
}
layer {
  name: "pool5"
  type: "Pooling"
  bottom: "conv5_3"
  top: "pool5"
  pooling_param {
    pool: MAX
    kernel_size: 2
    stride: 2
  }
}
layer {
  name: "fc6-conv"
  type: "Convolution"
  bottom: "pool5"
  top: "fc6-conv"
  param {
    lr_mult: 1
    decay_mult: 1
  }
  param {
    lr_mult: 2
    decay_mult: 0
  }
  convolution_param {
    num_output: 4096
    kernel_size: 7
  }
}
layer {
  name: "relu6"
  type: "ReLU"
  bottom: "fc6-conv"
  top: "fc6-conv"
}
layer {
  name: "drop6"
  type: "Dropout"
  bottom: "fc6-conv"
  top: "fc6-conv"
  dropout_param {
    dropout_ratio: 0.5
  }
}
layer {
  name: "fc7-conv"
  type: "Convolution"
  bottom: "fc6-conv"
  top: "fc7-conv"
  param {
    lr_mult: 1
    decay_mult: 1
  }
  param {
    lr_mult: 2
    decay_mult: 0
  }
  convolution_param {
    num_output: 4096
    kernel_size: 1
  }
}
layer {
  name: "relu7"
  type: "ReLU"
  bottom: "fc7-conv"
  top: "fc7-conv"
}
layer {
  name: "hypercolumns"
  type: "HyperColumns"
  bottom: "normal"
  bottom: "conv1_2"
  bottom: "conv2_2"
  bottom: "conv3_3"
  bottom: "conv4_3"
  bottom: "conv5_3"
  bottom: "fc7-conv"
  top: "hypercolumns"
  top: "normal_point"
  hypercolumns_param {
    is_train: true
  }
}
layer {
  name: "fc1"
  type: "InnerProduct"
  bottom: "hypercolumns"
  top: "fc1"
  param {
    lr_mult: 1
    decay_mult: 1
  }
  param {
    lr_mult: 2
    decay_mult: 0
  }
  inner_product_param {
    num_output: 4096
    weight_filler {
      type: "gaussian"
      std: 0.003
    }
    bias_filler {
      type: "constant"
      value: 0.1
    }
  }
}
layer {
  name: "relu1"
  type: "ReLU"
  bottom: "fc1"
  top: "fc1"
}
layer {
  name: "drop1"
  type: "Dropout"
  bottom: "fc1"
  top: "fc1"
  dropout_param {
    dropout_ratio: 0.5
  }
}
layer {
  name: "fc2"
  type: "InnerProduct"
  bottom: "fc1"
  top: "fc2"
  param {
    lr_mult: 1
    decay_mult: 1
  }
  param {
    lr_mult: 2
    decay_mult: 0
  }
  inner_product_param {
    num_output: 4096
    weight_filler {
      type: "gaussian"
      std: 0.002
    }
    bias_filler {
      type: "constant"
      value: 0.1
    }
  }
}
layer {
  name: "relu2"
  type: "ReLU"
  bottom: "fc2"
  top: "fc2"
}
layer {
  name: "drop2"
  type: "Dropout"
  bottom: "fc2"
  top: "fc2"
  dropout_param {
    dropout_ratio: 0.5
  }
}
layer {
  name: "fc3"
  type: "InnerProduct"
  bottom: "fc2"
  top: "fc3"
  param {
    lr_mult: 1
    decay_mult: 1
  }
  param {
    lr_mult: 2
    decay_mult: 0
  }
  inner_product_param {
    num_output: 3
    weight_filler {
      type: "gaussian"
      std: 0.001
    }
    bias_filler {
      type: "constant"
      value: 0.1
    }
  }
}
layer {
  name: "loss"
  type: "EuclideanLoss"
  bottom: "fc3"
  bottom: "normal_point"
  top: "loss"
  propagate_down: true
  propagate_down: false
}
I0809 09:32:10.561779 34566 layer_factory.hpp:77] Creating layer data
I0809 09:32:10.561826 34566 net.cpp:91] Creating Layer data
I0809 09:32:10.561841 34566 net.cpp:399] data -> data
I0809 09:32:10.561867 34566 net.cpp:399] data -> normal
I0809 09:32:10.561888 34566 image_normal_data_layer.cpp:43] opeing file /home/qinhong/project/normal_recovery/data/source.txt
I0809 09:32:10.566562 34566 image_normal_data_layer.cpp:54] Shuffing data
I0809 09:32:10.568050 34566 image_normal_data_layer.cpp:59] A total of 4105 images.
I0809 09:32:10.591243 34566 image_normal_data_layer.cpp:79] output data size: 7,3,224,224
I0809 09:32:10.608065 34566 net.cpp:141] Setting up data
I0809 09:32:10.608095 34566 net.cpp:148] Top shape: 7 3 224 224 (1053696)
I0809 09:32:10.608103 34566 net.cpp:148] Top shape: 7 3 224 224 (1053696)
I0809 09:32:10.608105 34566 net.cpp:156] Memory required for data: 8429568
I0809 09:32:10.608114 34566 layer_factory.hpp:77] Creating layer conv1_1
I0809 09:32:10.608137 34566 net.cpp:91] Creating Layer conv1_1
I0809 09:32:10.608144 34566 net.cpp:425] conv1_1 <- data
I0809 09:32:10.608160 34566 net.cpp:399] conv1_1 -> conv1_1
I0809 09:32:10.848054 34566 net.cpp:141] Setting up conv1_1
I0809 09:32:10.848088 34566 net.cpp:148] Top shape: 7 64 224 224 (22478848)
I0809 09:32:10.848093 34566 net.cpp:156] Memory required for data: 98344960
I0809 09:32:10.848124 34566 layer_factory.hpp:77] Creating layer relu1_1
I0809 09:32:10.848139 34566 net.cpp:91] Creating Layer relu1_1
I0809 09:32:10.848145 34566 net.cpp:425] relu1_1 <- conv1_1
I0809 09:32:10.848153 34566 net.cpp:386] relu1_1 -> conv1_1 (in-place)
I0809 09:32:10.848475 34566 net.cpp:141] Setting up relu1_1
I0809 09:32:10.848491 34566 net.cpp:148] Top shape: 7 64 224 224 (22478848)
I0809 09:32:10.848495 34566 net.cpp:156] Memory required for data: 188260352
I0809 09:32:10.848498 34566 layer_factory.hpp:77] Creating layer conv1_2
I0809 09:32:10.848510 34566 net.cpp:91] Creating Layer conv1_2
I0809 09:32:10.848515 34566 net.cpp:425] conv1_2 <- conv1_1
I0809 09:32:10.848520 34566 net.cpp:399] conv1_2 -> conv1_2
I0809 09:32:10.849586 34566 net.cpp:141] Setting up conv1_2
I0809 09:32:10.849602 34566 net.cpp:148] Top shape: 7 64 224 224 (22478848)
I0809 09:32:10.849606 34566 net.cpp:156] Memory required for data: 278175744
I0809 09:32:10.849617 34566 layer_factory.hpp:77] Creating layer relu1_2
I0809 09:32:10.849624 34566 net.cpp:91] Creating Layer relu1_2
I0809 09:32:10.849628 34566 net.cpp:425] relu1_2 <- conv1_2
I0809 09:32:10.849633 34566 net.cpp:386] relu1_2 -> conv1_2 (in-place)
I0809 09:32:10.849931 34566 net.cpp:141] Setting up relu1_2
I0809 09:32:10.849946 34566 net.cpp:148] Top shape: 7 64 224 224 (22478848)
I0809 09:32:10.849949 34566 net.cpp:156] Memory required for data: 368091136
I0809 09:32:10.849953 34566 layer_factory.hpp:77] Creating layer conv1_2_relu1_2_0_split
I0809 09:32:10.849962 34566 net.cpp:91] Creating Layer conv1_2_relu1_2_0_split
I0809 09:32:10.849967 34566 net.cpp:425] conv1_2_relu1_2_0_split <- conv1_2
I0809 09:32:10.849973 34566 net.cpp:399] conv1_2_relu1_2_0_split -> conv1_2_relu1_2_0_split_0
I0809 09:32:10.849982 34566 net.cpp:399] conv1_2_relu1_2_0_split -> conv1_2_relu1_2_0_split_1
I0809 09:32:10.850029 34566 net.cpp:141] Setting up conv1_2_relu1_2_0_split
I0809 09:32:10.850039 34566 net.cpp:148] Top shape: 7 64 224 224 (22478848)
I0809 09:32:10.850044 34566 net.cpp:148] Top shape: 7 64 224 224 (22478848)
I0809 09:32:10.850046 34566 net.cpp:156] Memory required for data: 547921920
I0809 09:32:10.850049 34566 layer_factory.hpp:77] Creating layer pool1
I0809 09:32:10.850090 34566 net.cpp:91] Creating Layer pool1
I0809 09:32:10.850095 34566 net.cpp:425] pool1 <- conv1_2_relu1_2_0_split_0
I0809 09:32:10.850100 34566 net.cpp:399] pool1 -> pool1
I0809 09:32:10.850158 34566 net.cpp:141] Setting up pool1
I0809 09:32:10.850168 34566 net.cpp:148] Top shape: 7 64 112 112 (5619712)
I0809 09:32:10.850173 34566 net.cpp:156] Memory required for data: 570400768
I0809 09:32:10.850177 34566 layer_factory.hpp:77] Creating layer conv2_1
I0809 09:32:10.850186 34566 net.cpp:91] Creating Layer conv2_1
I0809 09:32:10.850189 34566 net.cpp:425] conv2_1 <- pool1
I0809 09:32:10.850195 34566 net.cpp:399] conv2_1 -> conv2_1
I0809 09:32:10.852635 34566 net.cpp:141] Setting up conv2_1
I0809 09:32:10.852653 34566 net.cpp:148] Top shape: 7 128 112 112 (11239424)
I0809 09:32:10.852656 34566 net.cpp:156] Memory required for data: 615358464
I0809 09:32:10.852668 34566 layer_factory.hpp:77] Creating layer relu2_1
I0809 09:32:10.852675 34566 net.cpp:91] Creating Layer relu2_1
I0809 09:32:10.852679 34566 net.cpp:425] relu2_1 <- conv2_1
I0809 09:32:10.852684 34566 net.cpp:386] relu2_1 -> conv2_1 (in-place)
I0809 09:32:10.852874 34566 net.cpp:141] Setting up relu2_1
I0809 09:32:10.852887 34566 net.cpp:148] Top shape: 7 128 112 112 (11239424)
I0809 09:32:10.852890 34566 net.cpp:156] Memory required for data: 660316160
I0809 09:32:10.852895 34566 layer_factory.hpp:77] Creating layer conv2_2
I0809 09:32:10.852903 34566 net.cpp:91] Creating Layer conv2_2
I0809 09:32:10.852906 34566 net.cpp:425] conv2_2 <- conv2_1
I0809 09:32:10.852912 34566 net.cpp:399] conv2_2 -> conv2_2
I0809 09:32:10.854064 34566 net.cpp:141] Setting up conv2_2
I0809 09:32:10.854082 34566 net.cpp:148] Top shape: 7 128 112 112 (11239424)
I0809 09:32:10.854087 34566 net.cpp:156] Memory required for data: 705273856
I0809 09:32:10.854094 34566 layer_factory.hpp:77] Creating layer relu2_2
I0809 09:32:10.854101 34566 net.cpp:91] Creating Layer relu2_2
I0809 09:32:10.854107 34566 net.cpp:425] relu2_2 <- conv2_2
I0809 09:32:10.854112 34566 net.cpp:386] relu2_2 -> conv2_2 (in-place)
I0809 09:32:10.854409 34566 net.cpp:141] Setting up relu2_2
I0809 09:32:10.854423 34566 net.cpp:148] Top shape: 7 128 112 112 (11239424)
I0809 09:32:10.854426 34566 net.cpp:156] Memory required for data: 750231552
I0809 09:32:10.854430 34566 layer_factory.hpp:77] Creating layer conv2_2_relu2_2_0_split
I0809 09:32:10.854437 34566 net.cpp:91] Creating Layer conv2_2_relu2_2_0_split
I0809 09:32:10.854440 34566 net.cpp:425] conv2_2_relu2_2_0_split <- conv2_2
I0809 09:32:10.854446 34566 net.cpp:399] conv2_2_relu2_2_0_split -> conv2_2_relu2_2_0_split_0
I0809 09:32:10.854454 34566 net.cpp:399] conv2_2_relu2_2_0_split -> conv2_2_relu2_2_0_split_1
I0809 09:32:10.854499 34566 net.cpp:141] Setting up conv2_2_relu2_2_0_split
I0809 09:32:10.854508 34566 net.cpp:148] Top shape: 7 128 112 112 (11239424)
I0809 09:32:10.854512 34566 net.cpp:148] Top shape: 7 128 112 112 (11239424)
I0809 09:32:10.854516 34566 net.cpp:156] Memory required for data: 840146944
I0809 09:32:10.854518 34566 layer_factory.hpp:77] Creating layer pool2
I0809 09:32:10.854526 34566 net.cpp:91] Creating Layer pool2
I0809 09:32:10.854531 34566 net.cpp:425] pool2 <- conv2_2_relu2_2_0_split_0
I0809 09:32:10.854535 34566 net.cpp:399] pool2 -> pool2
I0809 09:32:10.854573 34566 net.cpp:141] Setting up pool2
I0809 09:32:10.854581 34566 net.cpp:148] Top shape: 7 128 56 56 (2809856)
I0809 09:32:10.854584 34566 net.cpp:156] Memory required for data: 851386368
I0809 09:32:10.854588 34566 layer_factory.hpp:77] Creating layer conv3_1
I0809 09:32:10.854596 34566 net.cpp:91] Creating Layer conv3_1
I0809 09:32:10.854599 34566 net.cpp:425] conv3_1 <- pool2
I0809 09:32:10.854605 34566 net.cpp:399] conv3_1 -> conv3_1
I0809 09:32:10.856439 34566 net.cpp:141] Setting up conv3_1
I0809 09:32:10.856456 34566 net.cpp:148] Top shape: 7 256 56 56 (5619712)
I0809 09:32:10.856461 34566 net.cpp:156] Memory required for data: 873865216
I0809 09:32:10.856470 34566 layer_factory.hpp:77] Creating layer relu3_1
I0809 09:32:10.856477 34566 net.cpp:91] Creating Layer relu3_1
I0809 09:32:10.856495 34566 net.cpp:425] relu3_1 <- conv3_1
I0809 09:32:10.856503 34566 net.cpp:386] relu3_1 -> conv3_1 (in-place)
I0809 09:32:10.856806 34566 net.cpp:141] Setting up relu3_1
I0809 09:32:10.856822 34566 net.cpp:148] Top shape: 7 256 56 56 (5619712)
I0809 09:32:10.856824 34566 net.cpp:156] Memory required for data: 896344064
I0809 09:32:10.856827 34566 layer_factory.hpp:77] Creating layer conv3_2
I0809 09:32:10.856837 34566 net.cpp:91] Creating Layer conv3_2
I0809 09:32:10.856842 34566 net.cpp:425] conv3_2 <- conv3_1
I0809 09:32:10.856848 34566 net.cpp:399] conv3_2 -> conv3_2
I0809 09:32:10.859597 34566 net.cpp:141] Setting up conv3_2
I0809 09:32:10.859619 34566 net.cpp:148] Top shape: 7 256 56 56 (5619712)
I0809 09:32:10.859623 34566 net.cpp:156] Memory required for data: 918822912
I0809 09:32:10.859630 34566 layer_factory.hpp:77] Creating layer relu3_2
I0809 09:32:10.859642 34566 net.cpp:91] Creating Layer relu3_2
I0809 09:32:10.859645 34566 net.cpp:425] relu3_2 <- conv3_2
I0809 09:32:10.859652 34566 net.cpp:386] relu3_2 -> conv3_2 (in-place)
I0809 09:32:10.859856 34566 net.cpp:141] Setting up relu3_2
I0809 09:32:10.859869 34566 net.cpp:148] Top shape: 7 256 56 56 (5619712)
I0809 09:32:10.859871 34566 net.cpp:156] Memory required for data: 941301760
I0809 09:32:10.859874 34566 layer_factory.hpp:77] Creating layer conv3_3
I0809 09:32:10.859885 34566 net.cpp:91] Creating Layer conv3_3
I0809 09:32:10.859889 34566 net.cpp:425] conv3_3 <- conv3_2
I0809 09:32:10.859894 34566 net.cpp:399] conv3_3 -> conv3_3
I0809 09:32:10.862812 34566 net.cpp:141] Setting up conv3_3
I0809 09:32:10.862829 34566 net.cpp:148] Top shape: 7 256 56 56 (5619712)
I0809 09:32:10.862833 34566 net.cpp:156] Memory required for data: 963780608
I0809 09:32:10.862839 34566 layer_factory.hpp:77] Creating layer relu3_3
I0809 09:32:10.862846 34566 net.cpp:91] Creating Layer relu3_3
I0809 09:32:10.862849 34566 net.cpp:425] relu3_3 <- conv3_3
I0809 09:32:10.862857 34566 net.cpp:386] relu3_3 -> conv3_3 (in-place)
I0809 09:32:10.863188 34566 net.cpp:141] Setting up relu3_3
I0809 09:32:10.863204 34566 net.cpp:148] Top shape: 7 256 56 56 (5619712)
I0809 09:32:10.863206 34566 net.cpp:156] Memory required for data: 986259456
I0809 09:32:10.863210 34566 layer_factory.hpp:77] Creating layer conv3_3_relu3_3_0_split
I0809 09:32:10.863220 34566 net.cpp:91] Creating Layer conv3_3_relu3_3_0_split
I0809 09:32:10.863224 34566 net.cpp:425] conv3_3_relu3_3_0_split <- conv3_3
I0809 09:32:10.863229 34566 net.cpp:399] conv3_3_relu3_3_0_split -> conv3_3_relu3_3_0_split_0
I0809 09:32:10.863237 34566 net.cpp:399] conv3_3_relu3_3_0_split -> conv3_3_relu3_3_0_split_1
I0809 09:32:10.863293 34566 net.cpp:141] Setting up conv3_3_relu3_3_0_split
I0809 09:32:10.863301 34566 net.cpp:148] Top shape: 7 256 56 56 (5619712)
I0809 09:32:10.863306 34566 net.cpp:148] Top shape: 7 256 56 56 (5619712)
I0809 09:32:10.863309 34566 net.cpp:156] Memory required for data: 1031217152
I0809 09:32:10.863312 34566 layer_factory.hpp:77] Creating layer pool3
I0809 09:32:10.863322 34566 net.cpp:91] Creating Layer pool3
I0809 09:32:10.863324 34566 net.cpp:425] pool3 <- conv3_3_relu3_3_0_split_0
I0809 09:32:10.863329 34566 net.cpp:399] pool3 -> pool3
I0809 09:32:10.863373 34566 net.cpp:141] Setting up pool3
I0809 09:32:10.863380 34566 net.cpp:148] Top shape: 7 256 28 28 (1404928)
I0809 09:32:10.863384 34566 net.cpp:156] Memory required for data: 1036836864
I0809 09:32:10.863386 34566 layer_factory.hpp:77] Creating layer conv4_1
I0809 09:32:10.863396 34566 net.cpp:91] Creating Layer conv4_1
I0809 09:32:10.863400 34566 net.cpp:425] conv4_1 <- pool3
I0809 09:32:10.863409 34566 net.cpp:399] conv4_1 -> conv4_1
I0809 09:32:10.868166 34566 net.cpp:141] Setting up conv4_1
I0809 09:32:10.868185 34566 net.cpp:148] Top shape: 7 512 28 28 (2809856)
I0809 09:32:10.868188 34566 net.cpp:156] Memory required for data: 1048076288
I0809 09:32:10.868196 34566 layer_factory.hpp:77] Creating layer relu4_1
I0809 09:32:10.868201 34566 net.cpp:91] Creating Layer relu4_1
I0809 09:32:10.868206 34566 net.cpp:425] relu4_1 <- conv4_1
I0809 09:32:10.868229 34566 net.cpp:386] relu4_1 -> conv4_1 (in-place)
I0809 09:32:10.868556 34566 net.cpp:141] Setting up relu4_1
I0809 09:32:10.868571 34566 net.cpp:148] Top shape: 7 512 28 28 (2809856)
I0809 09:32:10.868574 34566 net.cpp:156] Memory required for data: 1059315712
I0809 09:32:10.868578 34566 layer_factory.hpp:77] Creating layer conv4_2
I0809 09:32:10.868589 34566 net.cpp:91] Creating Layer conv4_2
I0809 09:32:10.868593 34566 net.cpp:425] conv4_2 <- conv4_1
I0809 09:32:10.868602 34566 net.cpp:399] conv4_2 -> conv4_2
I0809 09:32:10.881165 34566 net.cpp:141] Setting up conv4_2
I0809 09:32:10.881211 34566 net.cpp:148] Top shape: 7 512 28 28 (2809856)
I0809 09:32:10.881219 34566 net.cpp:156] Memory required for data: 1070555136
I0809 09:32:10.881248 34566 layer_factory.hpp:77] Creating layer relu4_2
I0809 09:32:10.881285 34566 net.cpp:91] Creating Layer relu4_2
I0809 09:32:10.881299 34566 net.cpp:425] relu4_2 <- conv4_2
I0809 09:32:10.881316 34566 net.cpp:386] relu4_2 -> conv4_2 (in-place)
I0809 09:32:10.881728 34566 net.cpp:141] Setting up relu4_2
I0809 09:32:10.881772 34566 net.cpp:148] Top shape: 7 512 28 28 (2809856)
I0809 09:32:10.881779 34566 net.cpp:156] Memory required for data: 1081794560
I0809 09:32:10.881788 34566 layer_factory.hpp:77] Creating layer conv4_3
I0809 09:32:10.881809 34566 net.cpp:91] Creating Layer conv4_3
I0809 09:32:10.881824 34566 net.cpp:425] conv4_3 <- conv4_2
I0809 09:32:10.881837 34566 net.cpp:399] conv4_3 -> conv4_3
I0809 09:32:10.893797 34566 net.cpp:141] Setting up conv4_3
I0809 09:32:10.893834 34566 net.cpp:148] Top shape: 7 512 28 28 (2809856)
I0809 09:32:10.893841 34566 net.cpp:156] Memory required for data: 1093033984
I0809 09:32:10.893857 34566 layer_factory.hpp:77] Creating layer relu4_3
I0809 09:32:10.893872 34566 net.cpp:91] Creating Layer relu4_3
I0809 09:32:10.893879 34566 net.cpp:425] relu4_3 <- conv4_3
I0809 09:32:10.893893 34566 net.cpp:386] relu4_3 -> conv4_3 (in-place)
I0809 09:32:10.894502 34566 net.cpp:141] Setting up relu4_3
I0809 09:32:10.894532 34566 net.cpp:148] Top shape: 7 512 28 28 (2809856)
I0809 09:32:10.894538 34566 net.cpp:156] Memory required for data: 1104273408
I0809 09:32:10.894546 34566 layer_factory.hpp:77] Creating layer conv4_3_relu4_3_0_split
I0809 09:32:10.894562 34566 net.cpp:91] Creating Layer conv4_3_relu4_3_0_split
I0809 09:32:10.894570 34566 net.cpp:425] conv4_3_relu4_3_0_split <- conv4_3
I0809 09:32:10.894582 34566 net.cpp:399] conv4_3_relu4_3_0_split -> conv4_3_relu4_3_0_split_0
I0809 09:32:10.894598 34566 net.cpp:399] conv4_3_relu4_3_0_split -> conv4_3_relu4_3_0_split_1
I0809 09:32:10.894701 34566 net.cpp:141] Setting up conv4_3_relu4_3_0_split
I0809 09:32:10.894719 34566 net.cpp:148] Top shape: 7 512 28 28 (2809856)
I0809 09:32:10.894727 34566 net.cpp:148] Top shape: 7 512 28 28 (2809856)
I0809 09:32:10.894733 34566 net.cpp:156] Memory required for data: 1126752256
I0809 09:32:10.894739 34566 layer_factory.hpp:77] Creating layer pool4
I0809 09:32:10.894757 34566 net.cpp:91] Creating Layer pool4
I0809 09:32:10.894767 34566 net.cpp:425] pool4 <- conv4_3_relu4_3_0_split_0
I0809 09:32:10.894778 34566 net.cpp:399] pool4 -> pool4
I0809 09:32:10.894862 34566 net.cpp:141] Setting up pool4
I0809 09:32:10.894878 34566 net.cpp:148] Top shape: 7 512 14 14 (702464)
I0809 09:32:10.894884 34566 net.cpp:156] Memory required for data: 1129562112
I0809 09:32:10.894891 34566 layer_factory.hpp:77] Creating layer conv5_1
I0809 09:32:10.894908 34566 net.cpp:91] Creating Layer conv5_1
I0809 09:32:10.894919 34566 net.cpp:425] conv5_1 <- pool4
I0809 09:32:10.894930 34566 net.cpp:399] conv5_1 -> conv5_1
I0809 09:32:10.906514 34566 net.cpp:141] Setting up conv5_1
I0809 09:32:10.906553 34566 net.cpp:148] Top shape: 7 512 14 14 (702464)
I0809 09:32:10.906560 34566 net.cpp:156] Memory required for data: 1132371968
I0809 09:32:10.906574 34566 layer_factory.hpp:77] Creating layer relu5_1
I0809 09:32:10.906587 34566 net.cpp:91] Creating Layer relu5_1
I0809 09:32:10.906595 34566 net.cpp:425] relu5_1 <- conv5_1
I0809 09:32:10.906638 34566 net.cpp:386] relu5_1 -> conv5_1 (in-place)
I0809 09:32:10.907204 34566 net.cpp:141] Setting up relu5_1
I0809 09:32:10.907232 34566 net.cpp:148] Top shape: 7 512 14 14 (702464)
I0809 09:32:10.907238 34566 net.cpp:156] Memory required for data: 1135181824
I0809 09:32:10.907244 34566 layer_factory.hpp:77] Creating layer conv5_2
I0809 09:32:10.907266 34566 net.cpp:91] Creating Layer conv5_2
I0809 09:32:10.907274 34566 net.cpp:425] conv5_2 <- conv5_1
I0809 09:32:10.907286 34566 net.cpp:399] conv5_2 -> conv5_2
I0809 09:32:10.917970 34566 net.cpp:141] Setting up conv5_2
I0809 09:32:10.918005 34566 net.cpp:148] Top shape: 7 512 14 14 (702464)
I0809 09:32:10.918011 34566 net.cpp:156] Memory required for data: 1137991680
I0809 09:32:10.918025 34566 layer_factory.hpp:77] Creating layer relu5_2
I0809 09:32:10.918047 34566 net.cpp:91] Creating Layer relu5_2
I0809 09:32:10.918056 34566 net.cpp:425] relu5_2 <- conv5_2
I0809 09:32:10.918066 34566 net.cpp:386] relu5_2 -> conv5_2 (in-place)
I0809 09:32:10.918404 34566 net.cpp:141] Setting up relu5_2
I0809 09:32:10.918426 34566 net.cpp:148] Top shape: 7 512 14 14 (702464)
I0809 09:32:10.918431 34566 net.cpp:156] Memory required for data: 1140801536
I0809 09:32:10.918437 34566 layer_factory.hpp:77] Creating layer conv5_3
I0809 09:32:10.918454 34566 net.cpp:91] Creating Layer conv5_3
I0809 09:32:10.918462 34566 net.cpp:425] conv5_3 <- conv5_2
I0809 09:32:10.918472 34566 net.cpp:399] conv5_3 -> conv5_3
I0809 09:32:10.928586 34566 net.cpp:141] Setting up conv5_3
I0809 09:32:10.928616 34566 net.cpp:148] Top shape: 7 512 14 14 (702464)
I0809 09:32:10.928622 34566 net.cpp:156] Memory required for data: 1143611392
I0809 09:32:10.928634 34566 layer_factory.hpp:77] Creating layer relu5_3
I0809 09:32:10.928648 34566 net.cpp:91] Creating Layer relu5_3
I0809 09:32:10.928655 34566 net.cpp:425] relu5_3 <- conv5_3
I0809 09:32:10.928663 34566 net.cpp:386] relu5_3 -> conv5_3 (in-place)
I0809 09:32:10.929168 34566 net.cpp:141] Setting up relu5_3
I0809 09:32:10.929194 34566 net.cpp:148] Top shape: 7 512 14 14 (702464)
I0809 09:32:10.929199 34566 net.cpp:156] Memory required for data: 1146421248
I0809 09:32:10.929205 34566 layer_factory.hpp:77] Creating layer conv5_3_relu5_3_0_split
I0809 09:32:10.929219 34566 net.cpp:91] Creating Layer conv5_3_relu5_3_0_split
I0809 09:32:10.929224 34566 net.cpp:425] conv5_3_relu5_3_0_split <- conv5_3
I0809 09:32:10.929234 34566 net.cpp:399] conv5_3_relu5_3_0_split -> conv5_3_relu5_3_0_split_0
I0809 09:32:10.929246 34566 net.cpp:399] conv5_3_relu5_3_0_split -> conv5_3_relu5_3_0_split_1
I0809 09:32:10.929337 34566 net.cpp:141] Setting up conv5_3_relu5_3_0_split
I0809 09:32:10.929352 34566 net.cpp:148] Top shape: 7 512 14 14 (702464)
I0809 09:32:10.929358 34566 net.cpp:148] Top shape: 7 512 14 14 (702464)
I0809 09:32:10.929363 34566 net.cpp:156] Memory required for data: 1152040960
I0809 09:32:10.929368 34566 layer_factory.hpp:77] Creating layer pool5
I0809 09:32:10.929381 34566 net.cpp:91] Creating Layer pool5
I0809 09:32:10.929390 34566 net.cpp:425] pool5 <- conv5_3_relu5_3_0_split_0
I0809 09:32:10.929399 34566 net.cpp:399] pool5 -> pool5
I0809 09:32:10.929473 34566 net.cpp:141] Setting up pool5
I0809 09:32:10.929486 34566 net.cpp:148] Top shape: 7 512 7 7 (175616)
I0809 09:32:10.929491 34566 net.cpp:156] Memory required for data: 1152743424
I0809 09:32:10.929497 34566 layer_factory.hpp:77] Creating layer fc6-conv
I0809 09:32:10.929512 34566 net.cpp:91] Creating Layer fc6-conv
I0809 09:32:10.929519 34566 net.cpp:425] fc6-conv <- pool5
I0809 09:32:10.929528 34566 net.cpp:399] fc6-conv -> fc6-conv
I0809 09:32:11.259757 34566 net.cpp:141] Setting up fc6-conv
I0809 09:32:11.259804 34566 net.cpp:148] Top shape: 7 4096 1 1 (28672)
I0809 09:32:11.259809 34566 net.cpp:156] Memory required for data: 1152858112
I0809 09:32:11.259821 34566 layer_factory.hpp:77] Creating layer relu6
I0809 09:32:11.259835 34566 net.cpp:91] Creating Layer relu6
I0809 09:32:11.259840 34566 net.cpp:425] relu6 <- fc6-conv
I0809 09:32:11.259850 34566 net.cpp:386] relu6 -> fc6-conv (in-place)
I0809 09:32:11.260223 34566 net.cpp:141] Setting up relu6
I0809 09:32:11.260241 34566 net.cpp:148] Top shape: 7 4096 1 1 (28672)
I0809 09:32:11.260244 34566 net.cpp:156] Memory required for data: 1152972800
I0809 09:32:11.260248 34566 layer_factory.hpp:77] Creating layer drop6
I0809 09:32:11.260257 34566 net.cpp:91] Creating Layer drop6
I0809 09:32:11.260262 34566 net.cpp:425] drop6 <- fc6-conv
I0809 09:32:11.260272 34566 net.cpp:386] drop6 -> fc6-conv (in-place)
I0809 09:32:11.260321 34566 net.cpp:141] Setting up drop6
I0809 09:32:11.260331 34566 net.cpp:148] Top shape: 7 4096 1 1 (28672)
I0809 09:32:11.260335 34566 net.cpp:156] Memory required for data: 1153087488
I0809 09:32:11.260339 34566 layer_factory.hpp:77] Creating layer fc7-conv
I0809 09:32:11.260351 34566 net.cpp:91] Creating Layer fc7-conv
I0809 09:32:11.260360 34566 net.cpp:425] fc7-conv <- fc6-conv
I0809 09:32:11.260367 34566 net.cpp:399] fc7-conv -> fc7-conv
I0809 09:32:11.312175 34566 net.cpp:141] Setting up fc7-conv
I0809 09:32:11.312235 34566 net.cpp:148] Top shape: 7 4096 1 1 (28672)
I0809 09:32:11.312240 34566 net.cpp:156] Memory required for data: 1153202176
I0809 09:32:11.312252 34566 layer_factory.hpp:77] Creating layer relu7
I0809 09:32:11.312268 34566 net.cpp:91] Creating Layer relu7
I0809 09:32:11.312273 34566 net.cpp:425] relu7 <- fc7-conv
I0809 09:32:11.312283 34566 net.cpp:386] relu7 -> fc7-conv (in-place)
I0809 09:32:11.312508 34566 net.cpp:141] Setting up relu7
I0809 09:32:11.312523 34566 net.cpp:148] Top shape: 7 4096 1 1 (28672)
I0809 09:32:11.312526 34566 net.cpp:156] Memory required for data: 1153316864
I0809 09:32:11.312531 34566 layer_factory.hpp:77] Creating layer hypercolumns
I0809 09:32:11.312542 34566 net.cpp:91] Creating Layer hypercolumns
I0809 09:32:11.312549 34566 net.cpp:425] hypercolumns <- normal
I0809 09:32:11.312556 34566 net.cpp:425] hypercolumns <- conv1_2_relu1_2_0_split_1
I0809 09:32:11.312561 34566 net.cpp:425] hypercolumns <- conv2_2_relu2_2_0_split_1
I0809 09:32:11.312567 34566 net.cpp:425] hypercolumns <- conv3_3_relu3_3_0_split_1
I0809 09:32:11.312572 34566 net.cpp:425] hypercolumns <- conv4_3_relu4_3_0_split_1
I0809 09:32:11.312577 34566 net.cpp:425] hypercolumns <- conv5_3_relu5_3_0_split_1
I0809 09:32:11.312580 34566 net.cpp:425] hypercolumns <- fc7-conv
I0809 09:32:11.312590 34566 net.cpp:399] hypercolumns -> hypercolumns
I0809 09:32:11.312616 34566 net.cpp:399] hypercolumns -> normal_point
I0809 09:32:11.312680 34566 net.cpp:141] Setting up hypercolumns
I0809 09:32:11.312691 34566 net.cpp:148] Top shape: 7000 5568 1 1 (38976000)
I0809 09:32:11.312696 34566 net.cpp:148] Top shape: 7000 3 (21000)
I0809 09:32:11.312700 34566 net.cpp:156] Memory required for data: 1309304864
I0809 09:32:11.312703 34566 layer_factory.hpp:77] Creating layer fc1
I0809 09:32:11.312713 34566 net.cpp:91] Creating Layer fc1
I0809 09:32:11.312717 34566 net.cpp:425] fc1 <- hypercolumns
I0809 09:32:11.312726 34566 net.cpp:399] fc1 -> fc1
I0809 09:32:11.631870 34566 net.cpp:141] Setting up fc1
I0809 09:32:11.631927 34566 net.cpp:148] Top shape: 7000 4096 (28672000)
I0809 09:32:11.631932 34566 net.cpp:156] Memory required for data: 1423992864
I0809 09:32:11.631945 34566 layer_factory.hpp:77] Creating layer relu1
I0809 09:32:11.631959 34566 net.cpp:91] Creating Layer relu1
I0809 09:32:11.631966 34566 net.cpp:425] relu1 <- fc1
I0809 09:32:11.631974 34566 net.cpp:386] relu1 -> fc1 (in-place)
I0809 09:32:11.632581 34566 net.cpp:141] Setting up relu1
I0809 09:32:11.632598 34566 net.cpp:148] Top shape: 7000 4096 (28672000)
I0809 09:32:11.632602 34566 net.cpp:156] Memory required for data: 1538680864
I0809 09:32:11.632606 34566 layer_factory.hpp:77] Creating layer drop1
I0809 09:32:11.632617 34566 net.cpp:91] Creating Layer drop1
I0809 09:32:11.632622 34566 net.cpp:425] drop1 <- fc1
I0809 09:32:11.632629 34566 net.cpp:386] drop1 -> fc1 (in-place)
I0809 09:32:11.632670 34566 net.cpp:141] Setting up drop1
I0809 09:32:11.632680 34566 net.cpp:148] Top shape: 7000 4096 (28672000)
I0809 09:32:11.632683 34566 net.cpp:156] Memory required for data: 1653368864
I0809 09:32:11.632715 34566 layer_factory.hpp:77] Creating layer fc2
I0809 09:32:11.632740 34566 net.cpp:91] Creating Layer fc2
I0809 09:32:11.632746 34566 net.cpp:425] fc2 <- fc1
I0809 09:32:11.632755 34566 net.cpp:399] fc2 -> fc2
I0809 09:32:11.841190 34566 net.cpp:141] Setting up fc2
I0809 09:32:11.841256 34566 net.cpp:148] Top shape: 7000 4096 (28672000)
I0809 09:32:11.841260 34566 net.cpp:156] Memory required for data: 1768056864
I0809 09:32:11.841285 34566 layer_factory.hpp:77] Creating layer relu2
I0809 09:32:11.841297 34566 net.cpp:91] Creating Layer relu2
I0809 09:32:11.841313 34566 net.cpp:425] relu2 <- fc2
I0809 09:32:11.841325 34566 net.cpp:386] relu2 -> fc2 (in-place)
I0809 09:32:11.841650 34566 net.cpp:141] Setting up relu2
I0809 09:32:11.841661 34566 net.cpp:148] Top shape: 7000 4096 (28672000)
I0809 09:32:11.841676 34566 net.cpp:156] Memory required for data: 1882744864
I0809 09:32:11.841681 34566 layer_factory.hpp:77] Creating layer drop2
I0809 09:32:11.841687 34566 net.cpp:91] Creating Layer drop2
I0809 09:32:11.841691 34566 net.cpp:425] drop2 <- fc2
I0809 09:32:11.841701 34566 net.cpp:386] drop2 -> fc2 (in-place)
I0809 09:32:11.841773 34566 net.cpp:141] Setting up drop2
I0809 09:32:11.841784 34566 net.cpp:148] Top shape: 7000 4096 (28672000)
I0809 09:32:11.841787 34566 net.cpp:156] Memory required for data: 1997432864
I0809 09:32:11.841790 34566 layer_factory.hpp:77] Creating layer fc3
I0809 09:32:11.841799 34566 net.cpp:91] Creating Layer fc3
I0809 09:32:11.841804 34566 net.cpp:425] fc3 <- fc2
I0809 09:32:11.841812 34566 net.cpp:399] fc3 -> fc3
I0809 09:32:11.842088 34566 net.cpp:141] Setting up fc3
I0809 09:32:11.842109 34566 net.cpp:148] Top shape: 7000 3 (21000)
I0809 09:32:11.842113 34566 net.cpp:156] Memory required for data: 1997516864
I0809 09:32:11.842131 34566 layer_factory.hpp:77] Creating layer loss
I0809 09:32:11.842152 34566 net.cpp:91] Creating Layer loss
I0809 09:32:11.842170 34566 net.cpp:425] loss <- fc3
I0809 09:32:11.842175 34566 net.cpp:425] loss <- normal_point
I0809 09:32:11.842180 34566 net.cpp:399] loss -> loss
I0809 09:32:11.842255 34566 net.cpp:141] Setting up loss
…
