…
type: "SGD"
I0809 09:44:14.124035 34732 solver.cpp:91] Creating training net from net file: /home/qinhong/project/normal_recovery/model/t2/train.prototxt
I0809 09:44:14.124811 34732 net.cpp:49] Initializing net from parameters: 
name: "hyper_normal_layers"
state {
  phase: TRAIN
}
layer {
  name: "data"
  type: "ImageNormalData"
  top: "data"
  top: "normal"
  transform_param {
  }
  image_data_param {
    source: "/home/qinhong/project/normal_recovery/data/source.txt"
    batch_size: 7
    shuffle: true
    new_height: 224
    new_width: 224
  }
}
layer {
  name: "conv1_1"
  type: "Convolution"
  bottom: "data"
  top: "conv1_1"
  param {
    lr_mult: 1
    decay_mult: 1
  }
  param {
    lr_mult: 2
    decay_mult: 0
  }
  convolution_param {
    num_output: 64
    pad: 1
    kernel_size: 3
  }
}
layer {
  name: "relu1_1"
  type: "ReLU"
  bottom: "conv1_1"
  top: "conv1_1"
}
layer {
  name: "conv1_2"
  type: "Convolution"
  bottom: "conv1_1"
  top: "conv1_2"
  param {
    lr_mult: 1
    decay_mult: 1
  }
  param {
    lr_mult: 2
    decay_mult: 0
  }
  convolution_param {
    num_output: 64
    pad: 1
    kernel_size: 3
  }
}
layer {
  name: "relu1_2"
  type: "ReLU"
  bottom: "conv1_2"
  top: "conv1_2"
}
layer {
  name: "pool1"
  type: "Pooling"
  bottom: "conv1_2"
  top: "pool1"
  pooling_param {
    pool: MAX
    kernel_size: 2
    stride: 2
  }
}
layer {
  name: "conv2_1"
  type: "Convolution"
  bottom: "pool1"
  top: "conv2_1"
  param {
    lr_mult: 1
    decay_mult: 1
  }
  param {
    lr_mult: 2
    decay_mult: 0
  }
  convolution_param {
    num_output: 128
    pad: 1
    kernel_size: 3
  }
}
layer {
  name: "relu2_1"
  type: "ReLU"
  bottom: "conv2_1"
  top: "conv2_1"
}
layer {
  name: "conv2_2"
  type: "Convolution"
  bottom: "conv2_1"
  top: "conv2_2"
  param {
    lr_mult: 1
    decay_mult: 1
  }
  param {
    lr_mult: 2
    decay_mult: 0
  }
  convolution_param {
    num_output: 128
    pad: 1
    kernel_size: 3
  }
}
layer {
  name: "relu2_2"
  type: "ReLU"
  bottom: "conv2_2"
  top: "conv2_2"
}
layer {
  name: "pool2"
  type: "Pooling"
  bottom: "conv2_2"
  top: "pool2"
  pooling_param {
    pool: MAX
    kernel_size: 2
    stride: 2
  }
}
layer {
  name: "conv3_1"
  type: "Convolution"
  bottom: "pool2"
  top: "conv3_1"
  param {
    lr_mult: 1
    decay_mult: 1
  }
  param {
    lr_mult: 2
    decay_mult: 0
  }
  convolution_param {
    num_output: 256
    pad: 1
    kernel_size: 3
  }
}
layer {
  name: "relu3_1"
  type: "ReLU"
  bottom: "conv3_1"
  top: "conv3_1"
}
layer {
  name: "conv3_2"
  type: "Convolution"
  bottom: "conv3_1"
  top: "conv3_2"
  param {
    lr_mult: 1
    decay_mult: 1
  }
  param {
    lr_mult: 2
    decay_mult: 0
  }
  convolution_param {
    num_output: 256
    pad: 1
    kernel_size: 3
  }
}
layer {
  name: "relu3_2"
  type: "ReLU"
  bottom: "conv3_2"
  top: "conv3_2"
}
layer {
  name: "conv3_3"
  type: "Convolution"
  bottom: "conv3_2"
  top: "conv3_3"
  param {
    lr_mult: 1
    decay_mult: 1
  }
  param {
    lr_mult: 2
    decay_mult: 0
  }
  convolution_param {
    num_output: 256
    pad: 1
    kernel_size: 3
  }
}
layer {
  name: "relu3_3"
  type: "ReLU"
  bottom: "conv3_3"
  top: "conv3_3"
}
layer {
  name: "pool3"
  type: "Pooling"
  bottom: "conv3_3"
  top: "pool3"
  pooling_param {
    pool: MAX
    kernel_size: 2
    stride: 2
  }
}
layer {
  name: "conv4_1"
  type: "Convolution"
  bottom: "pool3"
  top: "conv4_1"
  param {
    lr_mult: 1
    decay_mult: 1
  }
  param {
    lr_mult: 2
    decay_mult: 0
  }
  convolution_param {
    num_output: 512
    pad: 1
    kernel_size: 3
  }
}
layer {
  name: "relu4_1"
  type: "ReLU"
  bottom: "conv4_1"
  top: "conv4_1"
}
layer {
  name: "conv4_2"
  type: "Convolution"
  bottom: "conv4_1"
  top: "conv4_2"
  param {
    lr_mult: 1
    decay_mult: 1
  }
  param {
    lr_mult: 2
    decay_mult: 0
  }
  convolution_param {
    num_output: 512
    pad: 1
    kernel_size: 3
  }
}
layer {
  name: "relu4_2"
  type: "ReLU"
  bottom: "conv4_2"
  top: "conv4_2"
}
layer {
  name: "conv4_3"
  type: "Convolution"
  bottom: "conv4_2"
  top: "conv4_3"
  param {
    lr_mult: 1
    decay_mult: 1
  }
  param {
    lr_mult: 2
    decay_mult: 0
  }
  convolution_param {
    num_output: 512
    pad: 1
    kernel_size: 3
  }
}
layer {
  name: "relu4_3"
  type: "ReLU"
  bottom: "conv4_3"
  top: "conv4_3"
}
layer {
  name: "pool4"
  type: "Pooling"
  bottom: "conv4_3"
  top: "pool4"
  pooling_param {
    pool: MAX
    kernel_size: 2
    stride: 2
  }
}
layer {
  name: "conv5_1"
  type: "Convolution"
  bottom: "pool4"
  top: "conv5_1"
  param {
    lr_mult: 1
    decay_mult: 1
  }
  param {
    lr_mult: 2
    decay_mult: 0
  }
  convolution_param {
    num_output: 512
    pad: 1
    kernel_size: 3
  }
}
layer {
  name: "relu5_1"
  type: "ReLU"
  bottom: "conv5_1"
  top: "conv5_1"
}
layer {
  name: "conv5_2"
  type: "Convolution"
  bottom: "conv5_1"
  top: "conv5_2"
  param {
    lr_mult: 1
    decay_mult: 1
  }
  param {
    lr_mult: 2
    decay_mult: 0
  }
  convolution_param {
    num_output: 512
    pad: 1
    kernel_size: 3
  }
}
layer {
  name: "relu5_2"
  type: "ReLU"
  bottom: "conv5_2"
  top: "conv5_2"
}
layer {
  name: "conv5_3"
  type: "Convolution"
  bottom: "conv5_2"
  top: "conv5_3"
  param {
    lr_mult: 1
    decay_mult: 1
  }
  param {
    lr_mult: 2
    decay_mult: 0
  }
  convolution_param {
    num_output: 512
    pad: 1
    kernel_size: 3
  }
}
layer {
  name: "relu5_3"
  type: "ReLU"
  bottom: "conv5_3"
  top: "conv5_3"
}
layer {
  name: "pool5"
  type: "Pooling"
  bottom: "conv5_3"
  top: "pool5"
  pooling_param {
    pool: MAX
    kernel_size: 2
    stride: 2
  }
}
layer {
  name: "fc6-conv"
  type: "Convolution"
  bottom: "pool5"
  top: "fc6-conv"
  param {
    lr_mult: 1
    decay_mult: 1
  }
  param {
    lr_mult: 2
    decay_mult: 0
  }
  convolution_param {
    num_output: 4096
    kernel_size: 7
  }
}
layer {
  name: "relu6"
  type: "ReLU"
  bottom: "fc6-conv"
  top: "fc6-conv"
}
layer {
  name: "drop6"
  type: "Dropout"
  bottom: "fc6-conv"
  top: "fc6-conv"
  dropout_param {
    dropout_ratio: 0.5
  }
}
layer {
  name: "fc7-conv"
  type: "Convolution"
  bottom: "fc6-conv"
  top: "fc7-conv"
  param {
    lr_mult: 1
    decay_mult: 1
  }
  param {
    lr_mult: 2
    decay_mult: 0
  }
  convolution_param {
    num_output: 4096
    kernel_size: 1
  }
}
layer {
  name: "relu7"
  type: "ReLU"
  bottom: "fc7-conv"
  top: "fc7-conv"
}
layer {
  name: "hypercolumns"
  type: "HyperColumns"
  bottom: "normal"
  bottom: "conv1_2"
  bottom: "conv2_2"
  bottom: "conv3_3"
  bottom: "conv4_3"
  bottom: "conv5_3"
  bottom: "fc7-conv"
  top: "hypercolumns"
  top: "normal_point"
  hypercolumns_param {
    is_train: true
  }
}
layer {
  name: "fc1"
  type: "InnerProduct"
  bottom: "hypercolumns"
  top: "fc1"
  param {
    lr_mult: 1
    decay_mult: 1
  }
  param {
    lr_mult: 2
    decay_mult: 0
  }
  inner_product_param {
    num_output: 4096
    weight_filler {
      type: "gaussian"
      std: 0.003
    }
    bias_filler {
      type: "constant"
      value: 0
    }
  }
}
layer {
  name: "relu1"
  type: "ReLU"
  bottom: "fc1"
  top: "fc1"
}
layer {
  name: "drop1"
  type: "Dropout"
  bottom: "fc1"
  top: "fc1"
  dropout_param {
    dropout_ratio: 0.5
  }
}
layer {
  name: "fc2"
  type: "InnerProduct"
  bottom: "fc1"
  top: "fc2"
  param {
    lr_mult: 1
    decay_mult: 1
  }
  param {
    lr_mult: 2
    decay_mult: 0
  }
  inner_product_param {
    num_output: 4096
    weight_filler {
      type: "gaussian"
      std: 0.002
    }
    bias_filler {
      type: "constant"
      value: 0
    }
  }
}
layer {
  name: "relu2"
  type: "ReLU"
  bottom: "fc2"
  top: "fc2"
}
layer {
  name: "drop2"
  type: "Dropout"
  bottom: "fc2"
  top: "fc2"
  dropout_param {
    dropout_ratio: 0.5
  }
}
layer {
  name: "fc3"
  type: "InnerProduct"
  bottom: "fc2"
  top: "fc3"
  param {
    lr_mult: 1
    decay_mult: 1
  }
  param {
    lr_mult: 2
    decay_mult: 0
  }
  inner_product_param {
    num_output: 3
    weight_filler {
      type: "gaussian"
      std: 0.001
    }
    bias_filler {
      type: "constant"
      value: 0
    }
  }
}
layer {
  name: "loss"
  type: "EuclideanLoss"
  bottom: "fc3"
  bottom: "normal_point"
  top: "loss"
  propagate_down: true
  propagate_down: false
}
I0809 09:44:14.125052 34732 layer_factory.hpp:77] Creating layer data
I0809 09:44:14.125102 34732 net.cpp:91] Creating Layer data
I0809 09:44:14.125110 34732 net.cpp:399] data -> data
I0809 09:44:14.125143 34732 net.cpp:399] data -> normal
I0809 09:44:14.125169 34732 image_normal_data_layer.cpp:43] opeing file /home/qinhong/project/normal_recovery/data/source.txt
I0809 09:44:14.129727 34732 image_normal_data_layer.cpp:54] Shuffing data
I0809 09:44:14.131065 34732 image_normal_data_layer.cpp:59] A total of 4105 images.
I0809 09:44:14.156445 34732 image_normal_data_layer.cpp:79] output data size: 7,3,224,224
I0809 09:44:14.172051 34732 net.cpp:141] Setting up data
I0809 09:44:14.172082 34732 net.cpp:148] Top shape: 7 3 224 224 (1053696)
I0809 09:44:14.172088 34732 net.cpp:148] Top shape: 7 3 224 224 (1053696)
I0809 09:44:14.172092 34732 net.cpp:156] Memory required for data: 8429568
I0809 09:44:14.172101 34732 layer_factory.hpp:77] Creating layer conv1_1
I0809 09:44:14.172129 34732 net.cpp:91] Creating Layer conv1_1
I0809 09:44:14.172139 34732 net.cpp:425] conv1_1 <- data
I0809 09:44:14.172158 34732 net.cpp:399] conv1_1 -> conv1_1
I0809 09:44:14.436748 34732 net.cpp:141] Setting up conv1_1
I0809 09:44:14.436789 34732 net.cpp:148] Top shape: 7 64 224 224 (22478848)
I0809 09:44:14.436794 34732 net.cpp:156] Memory required for data: 98344960
I0809 09:44:14.436825 34732 layer_factory.hpp:77] Creating layer relu1_1
I0809 09:44:14.436842 34732 net.cpp:91] Creating Layer relu1_1
I0809 09:44:14.436847 34732 net.cpp:425] relu1_1 <- conv1_1
I0809 09:44:14.436856 34732 net.cpp:386] relu1_1 -> conv1_1 (in-place)
I0809 09:44:14.437197 34732 net.cpp:141] Setting up relu1_1
I0809 09:44:14.437213 34732 net.cpp:148] Top shape: 7 64 224 224 (22478848)
I0809 09:44:14.437217 34732 net.cpp:156] Memory required for data: 188260352
I0809 09:44:14.437222 34732 layer_factory.hpp:77] Creating layer conv1_2
I0809 09:44:14.437234 34732 net.cpp:91] Creating Layer conv1_2
I0809 09:44:14.437238 34732 net.cpp:425] conv1_2 <- conv1_1
I0809 09:44:14.437245 34732 net.cpp:399] conv1_2 -> conv1_2
I0809 09:44:14.438405 34732 net.cpp:141] Setting up conv1_2
I0809 09:44:14.438422 34732 net.cpp:148] Top shape: 7 64 224 224 (22478848)
I0809 09:44:14.438426 34732 net.cpp:156] Memory required for data: 278175744
I0809 09:44:14.438437 34732 layer_factory.hpp:77] Creating layer relu1_2
I0809 09:44:14.438446 34732 net.cpp:91] Creating Layer relu1_2
I0809 09:44:14.438449 34732 net.cpp:425] relu1_2 <- conv1_2
I0809 09:44:14.438455 34732 net.cpp:386] relu1_2 -> conv1_2 (in-place)
I0809 09:44:14.438765 34732 net.cpp:141] Setting up relu1_2
I0809 09:44:14.438779 34732 net.cpp:148] Top shape: 7 64 224 224 (22478848)
I0809 09:44:14.438782 34732 net.cpp:156] Memory required for data: 368091136
I0809 09:44:14.438786 34732 layer_factory.hpp:77] Creating layer conv1_2_relu1_2_0_split
I0809 09:44:14.438794 34732 net.cpp:91] Creating Layer conv1_2_relu1_2_0_split
I0809 09:44:14.438797 34732 net.cpp:425] conv1_2_relu1_2_0_split <- conv1_2
I0809 09:44:14.438803 34732 net.cpp:399] conv1_2_relu1_2_0_split -> conv1_2_relu1_2_0_split_0
I0809 09:44:14.438813 34732 net.cpp:399] conv1_2_relu1_2_0_split -> conv1_2_relu1_2_0_split_1
I0809 09:44:14.438861 34732 net.cpp:141] Setting up conv1_2_relu1_2_0_split
I0809 09:44:14.438869 34732 net.cpp:148] Top shape: 7 64 224 224 (22478848)
I0809 09:44:14.438874 34732 net.cpp:148] Top shape: 7 64 224 224 (22478848)
I0809 09:44:14.438877 34732 net.cpp:156] Memory required for data: 547921920
I0809 09:44:14.438881 34732 layer_factory.hpp:77] Creating layer pool1
I0809 09:44:14.438910 34732 net.cpp:91] Creating Layer pool1
I0809 09:44:14.438916 34732 net.cpp:425] pool1 <- conv1_2_relu1_2_0_split_0
I0809 09:44:14.438922 34732 net.cpp:399] pool1 -> pool1
I0809 09:44:14.438979 34732 net.cpp:141] Setting up pool1
I0809 09:44:14.438988 34732 net.cpp:148] Top shape: 7 64 112 112 (5619712)
I0809 09:44:14.438992 34732 net.cpp:156] Memory required for data: 570400768
I0809 09:44:14.438994 34732 layer_factory.hpp:77] Creating layer conv2_1
I0809 09:44:14.439003 34732 net.cpp:91] Creating Layer conv2_1
I0809 09:44:14.439007 34732 net.cpp:425] conv2_1 <- pool1
I0809 09:44:14.439013 34732 net.cpp:399] conv2_1 -> conv2_1
I0809 09:44:14.441476 34732 net.cpp:141] Setting up conv2_1
I0809 09:44:14.441494 34732 net.cpp:148] Top shape: 7 128 112 112 (11239424)
I0809 09:44:14.441498 34732 net.cpp:156] Memory required for data: 615358464
I0809 09:44:14.441510 34732 layer_factory.hpp:77] Creating layer relu2_1
I0809 09:44:14.441519 34732 net.cpp:91] Creating Layer relu2_1
I0809 09:44:14.441522 34732 net.cpp:425] relu2_1 <- conv2_1
I0809 09:44:14.441529 34732 net.cpp:386] relu2_1 -> conv2_1 (in-place)
I0809 09:44:14.441735 34732 net.cpp:141] Setting up relu2_1
I0809 09:44:14.441746 34732 net.cpp:148] Top shape: 7 128 112 112 (11239424)
I0809 09:44:14.441750 34732 net.cpp:156] Memory required for data: 660316160
I0809 09:44:14.441762 34732 layer_factory.hpp:77] Creating layer conv2_2
I0809 09:44:14.441772 34732 net.cpp:91] Creating Layer conv2_2
I0809 09:44:14.441776 34732 net.cpp:425] conv2_2 <- conv2_1
I0809 09:44:14.441782 34732 net.cpp:399] conv2_2 -> conv2_2
I0809 09:44:14.442981 34732 net.cpp:141] Setting up conv2_2
I0809 09:44:14.442997 34732 net.cpp:148] Top shape: 7 128 112 112 (11239424)
I0809 09:44:14.443001 34732 net.cpp:156] Memory required for data: 705273856
I0809 09:44:14.443008 34732 layer_factory.hpp:77] Creating layer relu2_2
I0809 09:44:14.443014 34732 net.cpp:91] Creating Layer relu2_2
I0809 09:44:14.443018 34732 net.cpp:425] relu2_2 <- conv2_2
I0809 09:44:14.443023 34732 net.cpp:386] relu2_2 -> conv2_2 (in-place)
I0809 09:44:14.443322 34732 net.cpp:141] Setting up relu2_2
I0809 09:44:14.443336 34732 net.cpp:148] Top shape: 7 128 112 112 (11239424)
I0809 09:44:14.443339 34732 net.cpp:156] Memory required for data: 750231552
I0809 09:44:14.443342 34732 layer_factory.hpp:77] Creating layer conv2_2_relu2_2_0_split
I0809 09:44:14.443348 34732 net.cpp:91] Creating Layer conv2_2_relu2_2_0_split
I0809 09:44:14.443352 34732 net.cpp:425] conv2_2_relu2_2_0_split <- conv2_2
I0809 09:44:14.443358 34732 net.cpp:399] conv2_2_relu2_2_0_split -> conv2_2_relu2_2_0_split_0
I0809 09:44:14.443367 34732 net.cpp:399] conv2_2_relu2_2_0_split -> conv2_2_relu2_2_0_split_1
I0809 09:44:14.443413 34732 net.cpp:141] Setting up conv2_2_relu2_2_0_split
I0809 09:44:14.443419 34732 net.cpp:148] Top shape: 7 128 112 112 (11239424)
I0809 09:44:14.443424 34732 net.cpp:148] Top shape: 7 128 112 112 (11239424)
I0809 09:44:14.443426 34732 net.cpp:156] Memory required for data: 840146944
I0809 09:44:14.443430 34732 layer_factory.hpp:77] Creating layer pool2
I0809 09:44:14.443436 34732 net.cpp:91] Creating Layer pool2
I0809 09:44:14.443439 34732 net.cpp:425] pool2 <- conv2_2_relu2_2_0_split_0
I0809 09:44:14.443444 34732 net.cpp:399] pool2 -> pool2
I0809 09:44:14.443483 34732 net.cpp:141] Setting up pool2
I0809 09:44:14.443491 34732 net.cpp:148] Top shape: 7 128 56 56 (2809856)
I0809 09:44:14.443493 34732 net.cpp:156] Memory required for data: 851386368
I0809 09:44:14.443497 34732 layer_factory.hpp:77] Creating layer conv3_1
I0809 09:44:14.443505 34732 net.cpp:91] Creating Layer conv3_1
I0809 09:44:14.443508 34732 net.cpp:425] conv3_1 <- pool2
I0809 09:44:14.443513 34732 net.cpp:399] conv3_1 -> conv3_1
I0809 09:44:14.445325 34732 net.cpp:141] Setting up conv3_1
I0809 09:44:14.445341 34732 net.cpp:148] Top shape: 7 256 56 56 (5619712)
I0809 09:44:14.445345 34732 net.cpp:156] Memory required for data: 873865216
I0809 09:44:14.445355 34732 layer_factory.hpp:77] Creating layer relu3_1
I0809 09:44:14.445363 34732 net.cpp:91] Creating Layer relu3_1
I0809 09:44:14.445379 34732 net.cpp:425] relu3_1 <- conv3_1
I0809 09:44:14.445384 34732 net.cpp:386] relu3_1 -> conv3_1 (in-place)
I0809 09:44:14.445686 34732 net.cpp:141] Setting up relu3_1
I0809 09:44:14.445700 34732 net.cpp:148] Top shape: 7 256 56 56 (5619712)
I0809 09:44:14.445704 34732 net.cpp:156] Memory required for data: 896344064
I0809 09:44:14.445708 34732 layer_factory.hpp:77] Creating layer conv3_2
I0809 09:44:14.445716 34732 net.cpp:91] Creating Layer conv3_2
I0809 09:44:14.445720 34732 net.cpp:425] conv3_2 <- conv3_1
I0809 09:44:14.445726 34732 net.cpp:399] conv3_2 -> conv3_2
I0809 09:44:14.448415 34732 net.cpp:141] Setting up conv3_2
I0809 09:44:14.448431 34732 net.cpp:148] Top shape: 7 256 56 56 (5619712)
I0809 09:44:14.448434 34732 net.cpp:156] Memory required for data: 918822912
I0809 09:44:14.448442 34732 layer_factory.hpp:77] Creating layer relu3_2
I0809 09:44:14.448452 34732 net.cpp:91] Creating Layer relu3_2
I0809 09:44:14.448457 34732 net.cpp:425] relu3_2 <- conv3_2
I0809 09:44:14.448462 34732 net.cpp:386] relu3_2 -> conv3_2 (in-place)
I0809 09:44:14.448668 34732 net.cpp:141] Setting up relu3_2
I0809 09:44:14.448678 34732 net.cpp:148] Top shape: 7 256 56 56 (5619712)
I0809 09:44:14.448683 34732 net.cpp:156] Memory required for data: 941301760
I0809 09:44:14.448685 34732 layer_factory.hpp:77] Creating layer conv3_3
I0809 09:44:14.448695 34732 net.cpp:91] Creating Layer conv3_3
I0809 09:44:14.448700 34732 net.cpp:425] conv3_3 <- conv3_2
I0809 09:44:14.448709 34732 net.cpp:399] conv3_3 -> conv3_3
I0809 09:44:14.451517 34732 net.cpp:141] Setting up conv3_3
I0809 09:44:14.451534 34732 net.cpp:148] Top shape: 7 256 56 56 (5619712)
I0809 09:44:14.451537 34732 net.cpp:156] Memory required for data: 963780608
I0809 09:44:14.451545 34732 layer_factory.hpp:77] Creating layer relu3_3
I0809 09:44:14.451552 34732 net.cpp:91] Creating Layer relu3_3
I0809 09:44:14.451556 34732 net.cpp:425] relu3_3 <- conv3_3
I0809 09:44:14.451562 34732 net.cpp:386] relu3_3 -> conv3_3 (in-place)
I0809 09:44:14.451896 34732 net.cpp:141] Setting up relu3_3
I0809 09:44:14.451913 34732 net.cpp:148] Top shape: 7 256 56 56 (5619712)
I0809 09:44:14.451917 34732 net.cpp:156] Memory required for data: 986259456
I0809 09:44:14.451921 34732 layer_factory.hpp:77] Creating layer conv3_3_relu3_3_0_split
I0809 09:44:14.451927 34732 net.cpp:91] Creating Layer conv3_3_relu3_3_0_split
I0809 09:44:14.451930 34732 net.cpp:425] conv3_3_relu3_3_0_split <- conv3_3
I0809 09:44:14.451936 34732 net.cpp:399] conv3_3_relu3_3_0_split -> conv3_3_relu3_3_0_split_0
I0809 09:44:14.451946 34732 net.cpp:399] conv3_3_relu3_3_0_split -> conv3_3_relu3_3_0_split_1
I0809 09:44:14.452002 34732 net.cpp:141] Setting up conv3_3_relu3_3_0_split
I0809 09:44:14.452010 34732 net.cpp:148] Top shape: 7 256 56 56 (5619712)
I0809 09:44:14.452015 34732 net.cpp:148] Top shape: 7 256 56 56 (5619712)
I0809 09:44:14.452018 34732 net.cpp:156] Memory required for data: 1031217152
I0809 09:44:14.452021 34732 layer_factory.hpp:77] Creating layer pool3
I0809 09:44:14.452041 34732 net.cpp:91] Creating Layer pool3
I0809 09:44:14.452045 34732 net.cpp:425] pool3 <- conv3_3_relu3_3_0_split_0
I0809 09:44:14.452052 34732 net.cpp:399] pool3 -> pool3
I0809 09:44:14.452098 34732 net.cpp:141] Setting up pool3
I0809 09:44:14.452108 34732 net.cpp:148] Top shape: 7 256 28 28 (1404928)
I0809 09:44:14.452111 34732 net.cpp:156] Memory required for data: 1036836864
I0809 09:44:14.452114 34732 layer_factory.hpp:77] Creating layer conv4_1
I0809 09:44:14.452122 34732 net.cpp:91] Creating Layer conv4_1
I0809 09:44:14.452126 34732 net.cpp:425] conv4_1 <- pool3
I0809 09:44:14.452132 34732 net.cpp:399] conv4_1 -> conv4_1
I0809 09:44:14.456612 34732 net.cpp:141] Setting up conv4_1
I0809 09:44:14.456630 34732 net.cpp:148] Top shape: 7 512 28 28 (2809856)
I0809 09:44:14.456634 34732 net.cpp:156] Memory required for data: 1048076288
I0809 09:44:14.456641 34732 layer_factory.hpp:77] Creating layer relu4_1
I0809 09:44:14.456647 34732 net.cpp:91] Creating Layer relu4_1
I0809 09:44:14.456652 34732 net.cpp:425] relu4_1 <- conv4_1
I0809 09:44:14.456670 34732 net.cpp:386] relu4_1 -> conv4_1 (in-place)
I0809 09:44:14.456987 34732 net.cpp:141] Setting up relu4_1
I0809 09:44:14.457001 34732 net.cpp:148] Top shape: 7 512 28 28 (2809856)
I0809 09:44:14.457005 34732 net.cpp:156] Memory required for data: 1059315712
I0809 09:44:14.457008 34732 layer_factory.hpp:77] Creating layer conv4_2
I0809 09:44:14.457017 34732 net.cpp:91] Creating Layer conv4_2
I0809 09:44:14.457021 34732 net.cpp:425] conv4_2 <- conv4_1
I0809 09:44:14.457027 34732 net.cpp:399] conv4_2 -> conv4_2
I0809 09:44:14.463765 34732 net.cpp:141] Setting up conv4_2
I0809 09:44:14.463783 34732 net.cpp:148] Top shape: 7 512 28 28 (2809856)
I0809 09:44:14.463785 34732 net.cpp:156] Memory required for data: 1070555136
I0809 09:44:14.463798 34732 layer_factory.hpp:77] Creating layer relu4_2
I0809 09:44:14.463805 34732 net.cpp:91] Creating Layer relu4_2
I0809 09:44:14.463809 34732 net.cpp:425] relu4_2 <- conv4_2
I0809 09:44:14.463814 34732 net.cpp:386] relu4_2 -> conv4_2 (in-place)
I0809 09:44:14.464013 34732 net.cpp:141] Setting up relu4_2
I0809 09:44:14.464025 34732 net.cpp:148] Top shape: 7 512 28 28 (2809856)
I0809 09:44:14.464027 34732 net.cpp:156] Memory required for data: 1081794560
I0809 09:44:14.464030 34732 layer_factory.hpp:77] Creating layer conv4_3
I0809 09:44:14.464040 34732 net.cpp:91] Creating Layer conv4_3
I0809 09:44:14.464043 34732 net.cpp:425] conv4_3 <- conv4_2
I0809 09:44:14.464051 34732 net.cpp:399] conv4_3 -> conv4_3
I0809 09:44:14.470656 34732 net.cpp:141] Setting up conv4_3
I0809 09:44:14.470672 34732 net.cpp:148] Top shape: 7 512 28 28 (2809856)
I0809 09:44:14.470676 34732 net.cpp:156] Memory required for data: 1093033984
I0809 09:44:14.470682 34732 layer_factory.hpp:77] Creating layer relu4_3
I0809 09:44:14.470690 34732 net.cpp:91] Creating Layer relu4_3
I0809 09:44:14.470695 34732 net.cpp:425] relu4_3 <- conv4_3
I0809 09:44:14.470700 34732 net.cpp:386] relu4_3 -> conv4_3 (in-place)
I0809 09:44:14.471007 34732 net.cpp:141] Setting up relu4_3
I0809 09:44:14.471020 34732 net.cpp:148] Top shape: 7 512 28 28 (2809856)
I0809 09:44:14.471024 34732 net.cpp:156] Memory required for data: 1104273408
I0809 09:44:14.471026 34732 layer_factory.hpp:77] Creating layer conv4_3_relu4_3_0_split
I0809 09:44:14.471035 34732 net.cpp:91] Creating Layer conv4_3_relu4_3_0_split
I0809 09:44:14.471038 34732 net.cpp:425] conv4_3_relu4_3_0_split <- conv4_3
I0809 09:44:14.471046 34732 net.cpp:399] conv4_3_relu4_3_0_split -> conv4_3_relu4_3_0_split_0
I0809 09:44:14.471053 34732 net.cpp:399] conv4_3_relu4_3_0_split -> conv4_3_relu4_3_0_split_1
I0809 09:44:14.471101 34732 net.cpp:141] Setting up conv4_3_relu4_3_0_split
I0809 09:44:14.471115 34732 net.cpp:148] Top shape: 7 512 28 28 (2809856)
I0809 09:44:14.471120 34732 net.cpp:148] Top shape: 7 512 28 28 (2809856)
I0809 09:44:14.471123 34732 net.cpp:156] Memory required for data: 1126752256
I0809 09:44:14.471127 34732 layer_factory.hpp:77] Creating layer pool4
I0809 09:44:14.471138 34732 net.cpp:91] Creating Layer pool4
I0809 09:44:14.471141 34732 net.cpp:425] pool4 <- conv4_3_relu4_3_0_split_0
I0809 09:44:14.471146 34732 net.cpp:399] pool4 -> pool4
I0809 09:44:14.471190 34732 net.cpp:141] Setting up pool4
I0809 09:44:14.471196 34732 net.cpp:148] Top shape: 7 512 14 14 (702464)
I0809 09:44:14.471199 34732 net.cpp:156] Memory required for data: 1129562112
I0809 09:44:14.471202 34732 layer_factory.hpp:77] Creating layer conv5_1
I0809 09:44:14.471211 34732 net.cpp:91] Creating Layer conv5_1
I0809 09:44:14.471215 34732 net.cpp:425] conv5_1 <- pool4
I0809 09:44:14.471222 34732 net.cpp:399] conv5_1 -> conv5_1
I0809 09:44:14.477866 34732 net.cpp:141] Setting up conv5_1
I0809 09:44:14.477883 34732 net.cpp:148] Top shape: 7 512 14 14 (702464)
I0809 09:44:14.477887 34732 net.cpp:156] Memory required for data: 1132371968
I0809 09:44:14.477898 34732 layer_factory.hpp:77] Creating layer relu5_1
I0809 09:44:14.477905 34732 net.cpp:91] Creating Layer relu5_1
I0809 09:44:14.477907 34732 net.cpp:425] relu5_1 <- conv5_1
I0809 09:44:14.477936 34732 net.cpp:386] relu5_1 -> conv5_1 (in-place)
I0809 09:44:14.478235 34732 net.cpp:141] Setting up relu5_1
I0809 09:44:14.478248 34732 net.cpp:148] Top shape: 7 512 14 14 (702464)
I0809 09:44:14.478251 34732 net.cpp:156] Memory required for data: 1135181824
I0809 09:44:14.478255 34732 layer_factory.hpp:77] Creating layer conv5_2
I0809 09:44:14.478265 34732 net.cpp:91] Creating Layer conv5_2
I0809 09:44:14.478267 34732 net.cpp:425] conv5_2 <- conv5_1
I0809 09:44:14.478276 34732 net.cpp:399] conv5_2 -> conv5_2
I0809 09:44:14.484846 34732 net.cpp:141] Setting up conv5_2
I0809 09:44:14.484863 34732 net.cpp:148] Top shape: 7 512 14 14 (702464)
I0809 09:44:14.484866 34732 net.cpp:156] Memory required for data: 1137991680
I0809 09:44:14.484874 34732 layer_factory.hpp:77] Creating layer relu5_2
I0809 09:44:14.484887 34732 net.cpp:91] Creating Layer relu5_2
I0809 09:44:14.484892 34732 net.cpp:425] relu5_2 <- conv5_2
I0809 09:44:14.484897 34732 net.cpp:386] relu5_2 -> conv5_2 (in-place)
I0809 09:44:14.485093 34732 net.cpp:141] Setting up relu5_2
I0809 09:44:14.485103 34732 net.cpp:148] Top shape: 7 512 14 14 (702464)
I0809 09:44:14.485106 34732 net.cpp:156] Memory required for data: 1140801536
I0809 09:44:14.485110 34732 layer_factory.hpp:77] Creating layer conv5_3
I0809 09:44:14.485118 34732 net.cpp:91] Creating Layer conv5_3
I0809 09:44:14.485122 34732 net.cpp:425] conv5_3 <- conv5_2
I0809 09:44:14.485129 34732 net.cpp:399] conv5_3 -> conv5_3
I0809 09:44:14.491751 34732 net.cpp:141] Setting up conv5_3
I0809 09:44:14.491767 34732 net.cpp:148] Top shape: 7 512 14 14 (702464)
I0809 09:44:14.491771 34732 net.cpp:156] Memory required for data: 1143611392
I0809 09:44:14.491777 34732 layer_factory.hpp:77] Creating layer relu5_3
I0809 09:44:14.491785 34732 net.cpp:91] Creating Layer relu5_3
I0809 09:44:14.491787 34732 net.cpp:425] relu5_3 <- conv5_3
I0809 09:44:14.491792 34732 net.cpp:386] relu5_3 -> conv5_3 (in-place)
I0809 09:44:14.492101 34732 net.cpp:141] Setting up relu5_3
I0809 09:44:14.492115 34732 net.cpp:148] Top shape: 7 512 14 14 (702464)
I0809 09:44:14.492117 34732 net.cpp:156] Memory required for data: 1146421248
I0809 09:44:14.492121 34732 layer_factory.hpp:77] Creating layer conv5_3_relu5_3_0_split
I0809 09:44:14.492128 34732 net.cpp:91] Creating Layer conv5_3_relu5_3_0_split
I0809 09:44:14.492131 34732 net.cpp:425] conv5_3_relu5_3_0_split <- conv5_3
I0809 09:44:14.492139 34732 net.cpp:399] conv5_3_relu5_3_0_split -> conv5_3_relu5_3_0_split_0
I0809 09:44:14.492146 34732 net.cpp:399] conv5_3_relu5_3_0_split -> conv5_3_relu5_3_0_split_1
I0809 09:44:14.492200 34732 net.cpp:141] Setting up conv5_3_relu5_3_0_split
I0809 09:44:14.492208 34732 net.cpp:148] Top shape: 7 512 14 14 (702464)
I0809 09:44:14.492211 34732 net.cpp:148] Top shape: 7 512 14 14 (702464)
I0809 09:44:14.492214 34732 net.cpp:156] Memory required for data: 1152040960
I0809 09:44:14.492218 34732 layer_factory.hpp:77] Creating layer pool5
I0809 09:44:14.492225 34732 net.cpp:91] Creating Layer pool5
I0809 09:44:14.492230 34732 net.cpp:425] pool5 <- conv5_3_relu5_3_0_split_0
I0809 09:44:14.492236 34732 net.cpp:399] pool5 -> pool5
I0809 09:44:14.492280 34732 net.cpp:141] Setting up pool5
I0809 09:44:14.492286 34732 net.cpp:148] Top shape: 7 512 7 7 (175616)
I0809 09:44:14.492290 34732 net.cpp:156] Memory required for data: 1152743424
I0809 09:44:14.492291 34732 layer_factory.hpp:77] Creating layer fc6-conv
I0809 09:44:14.492307 34732 net.cpp:91] Creating Layer fc6-conv
I0809 09:44:14.492311 34732 net.cpp:425] fc6-conv <- pool5
I0809 09:44:14.492317 34732 net.cpp:399] fc6-conv -> fc6-conv
I0809 09:44:14.831209 34732 net.cpp:141] Setting up fc6-conv
I0809 09:44:14.831264 34732 net.cpp:148] Top shape: 7 4096 1 1 (28672)
I0809 09:44:14.831269 34732 net.cpp:156] Memory required for data: 1152858112
I0809 09:44:14.831282 34732 layer_factory.hpp:77] Creating layer relu6
I0809 09:44:14.831298 34732 net.cpp:91] Creating Layer relu6
I0809 09:44:14.831305 34732 net.cpp:425] relu6 <- fc6-conv
I0809 09:44:14.831312 34732 net.cpp:386] relu6 -> fc6-conv (in-place)
I0809 09:44:14.831687 34732 net.cpp:141] Setting up relu6
I0809 09:44:14.831704 34732 net.cpp:148] Top shape: 7 4096 1 1 (28672)
I0809 09:44:14.831708 34732 net.cpp:156] Memory required for data: 1152972800
I0809 09:44:14.831712 34732 layer_factory.hpp:77] Creating layer drop6
I0809 09:44:14.831722 34732 net.cpp:91] Creating Layer drop6
I0809 09:44:14.831727 34732 net.cpp:425] drop6 <- fc6-conv
I0809 09:44:14.831733 34732 net.cpp:386] drop6 -> fc6-conv (in-place)
I0809 09:44:14.831789 34732 net.cpp:141] Setting up drop6
I0809 09:44:14.831799 34732 net.cpp:148] Top shape: 7 4096 1 1 (28672)
I0809 09:44:14.831801 34732 net.cpp:156] Memory required for data: 1153087488
I0809 09:44:14.831805 34732 layer_factory.hpp:77] Creating layer fc7-conv
I0809 09:44:14.831818 34732 net.cpp:91] Creating Layer fc7-conv
I0809 09:44:14.831823 34732 net.cpp:425] fc7-conv <- fc6-conv
I0809 09:44:14.831831 34732 net.cpp:399] fc7-conv -> fc7-conv
I0809 09:44:14.882580 34732 net.cpp:141] Setting up fc7-conv
I0809 09:44:14.882632 34732 net.cpp:148] Top shape: 7 4096 1 1 (28672)
I0809 09:44:14.882637 34732 net.cpp:156] Memory required for data: 1153202176
I0809 09:44:14.882649 34732 layer_factory.hpp:77] Creating layer relu7
I0809 09:44:14.882663 34732 net.cpp:91] Creating Layer relu7
I0809 09:44:14.882670 34732 net.cpp:425] relu7 <- fc7-conv
I0809 09:44:14.882678 34732 net.cpp:386] relu7 -> fc7-conv (in-place)
I0809 09:44:14.882899 34732 net.cpp:141] Setting up relu7
I0809 09:44:14.882912 34732 net.cpp:148] Top shape: 7 4096 1 1 (28672)
I0809 09:44:14.882917 34732 net.cpp:156] Memory required for data: 1153316864
I0809 09:44:14.882921 34732 layer_factory.hpp:77] Creating layer hypercolumns
I0809 09:44:14.882933 34732 net.cpp:91] Creating Layer hypercolumns
I0809 09:44:14.882938 34732 net.cpp:425] hypercolumns <- normal
I0809 09:44:14.882946 34732 net.cpp:425] hypercolumns <- conv1_2_relu1_2_0_split_1
I0809 09:44:14.882952 34732 net.cpp:425] hypercolumns <- conv2_2_relu2_2_0_split_1
I0809 09:44:14.882958 34732 net.cpp:425] hypercolumns <- conv3_3_relu3_3_0_split_1
I0809 09:44:14.882966 34732 net.cpp:425] hypercolumns <- conv4_3_relu4_3_0_split_1
I0809 09:44:14.882972 34732 net.cpp:425] hypercolumns <- conv5_3_relu5_3_0_split_1
I0809 09:44:14.882975 34732 net.cpp:425] hypercolumns <- fc7-conv
I0809 09:44:14.882987 34732 net.cpp:399] hypercolumns -> hypercolumns
I0809 09:44:14.883009 34732 net.cpp:399] hypercolumns -> normal_point
I0809 09:44:14.883071 34732 net.cpp:141] Setting up hypercolumns
I0809 09:44:14.883082 34732 net.cpp:148] Top shape: 7000 5568 1 1 (38976000)
I0809 09:44:14.883087 34732 net.cpp:148] Top shape: 7000 3 (21000)
I0809 09:44:14.883090 34732 net.cpp:156] Memory required for data: 1309304864
I0809 09:44:14.883095 34732 layer_factory.hpp:77] Creating layer fc1
I0809 09:44:14.883105 34732 net.cpp:91] Creating Layer fc1
I0809 09:44:14.883111 34732 net.cpp:425] fc1 <- hypercolumns
I0809 09:44:14.883117 34732 net.cpp:399] fc1 -> fc1
I0809 09:44:15.203312 34732 net.cpp:141] Setting up fc1
I0809 09:44:15.203368 34732 net.cpp:148] Top shape: 7000 4096 (28672000)
I0809 09:44:15.203374 34732 net.cpp:156] Memory required for data: 1423992864
I0809 09:44:15.203407 34732 layer_factory.hpp:77] Creating layer relu1
I0809 09:44:15.203425 34732 net.cpp:91] Creating Layer relu1
I0809 09:44:15.203447 34732 net.cpp:425] relu1 <- fc1
I0809 09:44:15.203459 34732 net.cpp:386] relu1 -> fc1 (in-place)
I0809 09:44:15.204571 34732 net.cpp:141] Setting up relu1
I0809 09:44:15.204587 34732 net.cpp:148] Top shape: 7000 4096 (28672000)
I0809 09:44:15.204592 34732 net.cpp:156] Memory required for data: 1538680864
I0809 09:44:15.204596 34732 layer_factory.hpp:77] Creating layer drop1
I0809 09:44:15.204607 34732 net.cpp:91] Creating Layer drop1
I0809 09:44:15.204612 34732 net.cpp:425] drop1 <- fc1
I0809 09:44:15.204620 34732 net.cpp:386] drop1 -> fc1 (in-place)
I0809 09:44:15.204663 34732 net.cpp:141] Setting up drop1
I0809 09:44:15.204673 34732 net.cpp:148] Top shape: 7000 4096 (28672000)
I0809 09:44:15.204675 34732 net.cpp:156] Memory required for data: 1653368864
I0809 09:44:15.204706 34732 layer_factory.hpp:77] Creating layer fc2
I0809 09:44:15.204725 34732 net.cpp:91] Creating Layer fc2
I0809 09:44:15.204730 34732 net.cpp:425] fc2 <- fc1
I0809 09:44:15.204738 34732 net.cpp:399] fc2 -> fc2
I0809 09:44:15.432577 34732 net.cpp:141] Setting up fc2
I0809 09:44:15.432623 34732 net.cpp:148] Top shape: 7000 4096 (28672000)
I0809 09:44:15.432627 34732 net.cpp:156] Memory required for data: 1768056864
I0809 09:44:15.432673 34732 layer_factory.hpp:77] Creating layer relu2
I0809 09:44:15.432689 34732 net.cpp:91] Creating Layer relu2
I0809 09:44:15.432695 34732 net.cpp:425] relu2 <- fc2
I0809 09:44:15.432703 34732 net.cpp:386] relu2 -> fc2 (in-place)
I0809 09:44:15.432976 34732 net.cpp:141] Setting up relu2
I0809 09:44:15.432988 34732 net.cpp:148] Top shape: 7000 4096 (28672000)
I0809 09:44:15.432992 34732 net.cpp:156] Memory required for data: 1882744864
I0809 09:44:15.432996 34732 layer_factory.hpp:77] Creating layer drop2
I0809 09:44:15.433004 34732 net.cpp:91] Creating Layer drop2
I0809 09:44:15.433022 34732 net.cpp:425] drop2 <- fc2
I0809 09:44:15.433027 34732 net.cpp:386] drop2 -> fc2 (in-place)
I0809 09:44:15.433068 34732 net.cpp:141] Setting up drop2
I0809 09:44:15.433076 34732 net.cpp:148] Top shape: 7000 4096 (28672000)
I0809 09:44:15.433079 34732 net.cpp:156] Memory required for data: 1997432864
I0809 09:44:15.433082 34732 layer_factory.hpp:77] Creating layer fc3
I0809 09:44:15.433089 34732 net.cpp:91] Creating Layer fc3
I0809 09:44:15.433094 34732 net.cpp:425] fc3 <- fc2
I0809 09:44:15.433101 34732 net.cpp:399] fc3 -> fc3
I0809 09:44:15.433429 34732 net.cpp:141] Setting up fc3
I0809 09:44:15.433437 34732 net.cpp:148] Top shape: 7000 3 (21000)
I0809 09:44:15.433440 34732 net.cpp:156] Memory required for data: 1997516864
I0809 09:44:15.433446 34732 layer_factory.hpp:77] Creating layer loss
I0809 09:44:15.433466 34732 net.cpp:91] Creating Layer loss
I0809 09:44:15.433471 34732 net.cpp:425] loss <- fc3
I0809 09:44:15.433480 34732 net.cpp:425] loss <- normal_point
I0809 09:44:15.433488 34732 net.cpp:399] loss -> loss
I0809 09:44:15.433552 34732 net.cpp:141] Setting up loss
…
