…
type: "SGD"
I0808 16:02:24.281378 30345 solver.cpp:91] Creating training net from net file: /home/qinhong/project/normal_recovery/model/t2/train.prototxt
I0808 16:02:24.282114 30345 net.cpp:49] Initializing net from parameters: 
name: "hyper_normal_layers"
state {
  phase: TRAIN
}
layer {
  name: "data"
  type: "ImageNormalData"
  top: "data"
  top: "normal"
  transform_param {
  }
  image_data_param {
    source: "/home/qinhong/project/normal_recovery/data/source.txt"
    batch_size: 7
    shuffle: true
    new_height: 224
    new_width: 224
  }
}
layer {
  name: "conv1_1"
  type: "Convolution"
  bottom: "data"
  top: "conv1_1"
  param {
    lr_mult: 1
    decay_mult: 1
  }
  param {
    lr_mult: 2
    decay_mult: 0
  }
  convolution_param {
    num_output: 64
    pad: 1
    kernel_size: 3
  }
}
layer {
  name: "relu1_1"
  type: "ReLU"
  bottom: "conv1_1"
  top: "conv1_1"
}
layer {
  name: "conv1_2"
  type: "Convolution"
  bottom: "conv1_1"
  top: "conv1_2"
  param {
    lr_mult: 1
    decay_mult: 1
  }
  param {
    lr_mult: 2
    decay_mult: 0
  }
  convolution_param {
    num_output: 64
    pad: 1
    kernel_size: 3
  }
}
layer {
  name: "relu1_2"
  type: "ReLU"
  bottom: "conv1_2"
  top: "conv1_2"
}
layer {
  name: "pool1"
  type: "Pooling"
  bottom: "conv1_2"
  top: "pool1"
  pooling_param {
    pool: MAX
    kernel_size: 2
    stride: 2
  }
}
layer {
  name: "conv2_1"
  type: "Convolution"
  bottom: "pool1"
  top: "conv2_1"
  param {
    lr_mult: 1
    decay_mult: 1
  }
  param {
    lr_mult: 2
    decay_mult: 0
  }
  convolution_param {
    num_output: 128
    pad: 1
    kernel_size: 3
  }
}
layer {
  name: "relu2_1"
  type: "ReLU"
  bottom: "conv2_1"
  top: "conv2_1"
}
layer {
  name: "conv2_2"
  type: "Convolution"
  bottom: "conv2_1"
  top: "conv2_2"
  param {
    lr_mult: 1
    decay_mult: 1
  }
  param {
    lr_mult: 2
    decay_mult: 0
  }
  convolution_param {
    num_output: 128
    pad: 1
    kernel_size: 3
  }
}
layer {
  name: "relu2_2"
  type: "ReLU"
  bottom: "conv2_2"
  top: "conv2_2"
}
layer {
  name: "pool2"
  type: "Pooling"
  bottom: "conv2_2"
  top: "pool2"
  pooling_param {
    pool: MAX
    kernel_size: 2
    stride: 2
  }
}
layer {
  name: "conv3_1"
  type: "Convolution"
  bottom: "pool2"
  top: "conv3_1"
  param {
    lr_mult: 1
    decay_mult: 1
  }
  param {
    lr_mult: 2
    decay_mult: 0
  }
  convolution_param {
    num_output: 256
    pad: 1
    kernel_size: 3
  }
}
layer {
  name: "relu3_1"
  type: "ReLU"
  bottom: "conv3_1"
  top: "conv3_1"
}
layer {
  name: "conv3_2"
  type: "Convolution"
  bottom: "conv3_1"
  top: "conv3_2"
  param {
    lr_mult: 1
    decay_mult: 1
  }
  param {
    lr_mult: 2
    decay_mult: 0
  }
  convolution_param {
    num_output: 256
    pad: 1
    kernel_size: 3
  }
}
layer {
  name: "relu3_2"
  type: "ReLU"
  bottom: "conv3_2"
  top: "conv3_2"
}
layer {
  name: "conv3_3"
  type: "Convolution"
  bottom: "conv3_2"
  top: "conv3_3"
  param {
    lr_mult: 1
    decay_mult: 1
  }
  param {
    lr_mult: 2
    decay_mult: 0
  }
  convolution_param {
    num_output: 256
    pad: 1
    kernel_size: 3
  }
}
layer {
  name: "relu3_3"
  type: "ReLU"
  bottom: "conv3_3"
  top: "conv3_3"
}
layer {
  name: "pool3"
  type: "Pooling"
  bottom: "conv3_3"
  top: "pool3"
  pooling_param {
    pool: MAX
    kernel_size: 2
    stride: 2
  }
}
layer {
  name: "conv4_1"
  type: "Convolution"
  bottom: "pool3"
  top: "conv4_1"
  param {
    lr_mult: 1
    decay_mult: 1
  }
  param {
    lr_mult: 2
    decay_mult: 0
  }
  convolution_param {
    num_output: 512
    pad: 1
    kernel_size: 3
  }
}
layer {
  name: "relu4_1"
  type: "ReLU"
  bottom: "conv4_1"
  top: "conv4_1"
}
layer {
  name: "conv4_2"
  type: "Convolution"
  bottom: "conv4_1"
  top: "conv4_2"
  param {
    lr_mult: 1
    decay_mult: 1
  }
  param {
    lr_mult: 2
    decay_mult: 0
  }
  convolution_param {
    num_output: 512
    pad: 1
    kernel_size: 3
  }
}
layer {
  name: "relu4_2"
  type: "ReLU"
  bottom: "conv4_2"
  top: "conv4_2"
}
layer {
  name: "conv4_3"
  type: "Convolution"
  bottom: "conv4_2"
  top: "conv4_3"
  param {
    lr_mult: 1
    decay_mult: 1
  }
  param {
    lr_mult: 2
    decay_mult: 0
  }
  convolution_param {
    num_output: 512
    pad: 1
    kernel_size: 3
  }
}
layer {
  name: "relu4_3"
  type: "ReLU"
  bottom: "conv4_3"
  top: "conv4_3"
}
layer {
  name: "pool4"
  type: "Pooling"
  bottom: "conv4_3"
  top: "pool4"
  pooling_param {
    pool: MAX
    kernel_size: 2
    stride: 2
  }
}
layer {
  name: "conv5_1"
  type: "Convolution"
  bottom: "pool4"
  top: "conv5_1"
  param {
    lr_mult: 1
    decay_mult: 1
  }
  param {
    lr_mult: 2
    decay_mult: 0
  }
  convolution_param {
    num_output: 512
    pad: 1
    kernel_size: 3
  }
}
layer {
  name: "relu5_1"
  type: "ReLU"
  bottom: "conv5_1"
  top: "conv5_1"
}
layer {
  name: "conv5_2"
  type: "Convolution"
  bottom: "conv5_1"
  top: "conv5_2"
  param {
    lr_mult: 1
    decay_mult: 1
  }
  param {
    lr_mult: 2
    decay_mult: 0
  }
  convolution_param {
    num_output: 512
    pad: 1
    kernel_size: 3
  }
}
layer {
  name: "relu5_2"
  type: "ReLU"
  bottom: "conv5_2"
  top: "conv5_2"
}
layer {
  name: "conv5_3"
  type: "Convolution"
  bottom: "conv5_2"
  top: "conv5_3"
  param {
    lr_mult: 1
    decay_mult: 1
  }
  param {
    lr_mult: 2
    decay_mult: 0
  }
  convolution_param {
    num_output: 512
    pad: 1
    kernel_size: 3
  }
}
layer {
  name: "relu5_3"
  type: "ReLU"
  bottom: "conv5_3"
  top: "conv5_3"
}
layer {
  name: "pool5"
  type: "Pooling"
  bottom: "conv5_3"
  top: "pool5"
  pooling_param {
    pool: MAX
    kernel_size: 2
    stride: 2
  }
}
layer {
  name: "fc6-conv"
  type: "Convolution"
  bottom: "pool5"
  top: "fc6-conv"
  param {
    lr_mult: 1
    decay_mult: 1
  }
  param {
    lr_mult: 2
    decay_mult: 0
  }
  convolution_param {
    num_output: 4096
    kernel_size: 7
  }
}
layer {
  name: "relu6"
  type: "ReLU"
  bottom: "fc6-conv"
  top: "fc6-conv"
}
layer {
  name: "drop6"
  type: "Dropout"
  bottom: "fc6-conv"
  top: "fc6-conv"
  dropout_param {
    dropout_ratio: 0.5
  }
}
layer {
  name: "fc7-conv"
  type: "Convolution"
  bottom: "fc6-conv"
  top: "fc7-conv"
  param {
    lr_mult: 1
    decay_mult: 1
  }
  param {
    lr_mult: 2
    decay_mult: 0
  }
  convolution_param {
    num_output: 4096
    kernel_size: 1
  }
}
layer {
  name: "relu7"
  type: "ReLU"
  bottom: "fc7-conv"
  top: "fc7-conv"
}
layer {
  name: "hypercolumns"
  type: "HyperColumns"
  bottom: "normal"
  bottom: "conv1_2"
  bottom: "conv2_2"
  bottom: "conv3_3"
  bottom: "conv4_3"
  bottom: "conv5_3"
  bottom: "fc7-conv"
  top: "hypercolumns"
  top: "normal_point"
  hypercolumns_param {
    is_train: true
  }
}
layer {
  name: "fc1"
  type: "InnerProduct"
  bottom: "hypercolumns"
  top: "fc1"
  param {
    lr_mult: 1
    decay_mult: 1
  }
  param {
    lr_mult: 2
    decay_mult: 0
  }
  inner_product_param {
    num_output: 4096
    weight_filler {
      type: "gaussian"
      std: 0.003
    }
    bias_filler {
      type: "constant"
      value: 0
    }
  }
}
layer {
  name: "relu1"
  type: "ReLU"
  bottom: "fc1"
  top: "fc1"
}
layer {
  name: "drop1"
  type: "Dropout"
  bottom: "fc1"
  top: "fc1"
  dropout_param {
    dropout_ratio: 0.5
  }
}
layer {
  name: "fc2"
  type: "InnerProduct"
  bottom: "fc1"
  top: "fc2"
  param {
    lr_mult: 1
    decay_mult: 1
  }
  param {
    lr_mult: 2
    decay_mult: 0
  }
  inner_product_param {
    num_output: 4096
    weight_filler {
      type: "gaussian"
      std: 0.002
    }
    bias_filler {
      type: "constant"
      value: 0
    }
  }
}
layer {
  name: "relu2"
  type: "ReLU"
  bottom: "fc2"
  top: "fc2"
}
layer {
  name: "drop2"
  type: "Dropout"
  bottom: "fc2"
  top: "fc2"
  dropout_param {
    dropout_ratio: 0.5
  }
}
layer {
  name: "fc3"
  type: "InnerProduct"
  bottom: "fc2"
  top: "fc3"
  param {
    lr_mult: 1
    decay_mult: 1
  }
  param {
    lr_mult: 2
    decay_mult: 0
  }
  inner_product_param {
    num_output: 3
    weight_filler {
      type: "gaussian"
      std: 0.001
    }
    bias_filler {
      type: "constant"
      value: 0
    }
  }
}
layer {
  name: "loss"
  type: "EuclideanLoss"
  bottom: "fc3"
  bottom: "normal_point"
  top: "loss"
  propagate_down: true
  propagate_down: false
}
I0808 16:02:24.282341 30345 layer_factory.hpp:77] Creating layer data
I0808 16:02:24.282378 30345 net.cpp:91] Creating Layer data
I0808 16:02:24.282387 30345 net.cpp:399] data -> data
I0808 16:02:24.282413 30345 net.cpp:399] data -> normal
I0808 16:02:24.282433 30345 image_normal_data_layer.cpp:43] opeing file /home/qinhong/project/normal_recovery/data/source.txt
I0808 16:02:24.286962 30345 image_normal_data_layer.cpp:54] Shuffing data
I0808 16:02:24.288295 30345 image_normal_data_layer.cpp:59] A total of 4105 images.
I0808 16:02:24.312153 30345 image_normal_data_layer.cpp:79] output data size: 7,3,224,224
I0808 16:02:24.332068 30345 net.cpp:141] Setting up data
I0808 16:02:24.332113 30345 net.cpp:148] Top shape: 7 3 224 224 (1053696)
I0808 16:02:24.332125 30345 net.cpp:148] Top shape: 7 3 224 224 (1053696)
I0808 16:02:24.332131 30345 net.cpp:156] Memory required for data: 8429568
I0808 16:02:24.332144 30345 layer_factory.hpp:77] Creating layer conv1_1
I0808 16:02:24.332178 30345 net.cpp:91] Creating Layer conv1_1
I0808 16:02:24.332192 30345 net.cpp:425] conv1_1 <- data
I0808 16:02:24.332218 30345 net.cpp:399] conv1_1 -> conv1_1
I0808 16:02:24.553823 30345 net.cpp:141] Setting up conv1_1
I0808 16:02:24.553858 30345 net.cpp:148] Top shape: 7 64 224 224 (22478848)
I0808 16:02:24.553861 30345 net.cpp:156] Memory required for data: 98344960
I0808 16:02:24.553889 30345 layer_factory.hpp:77] Creating layer relu1_1
I0808 16:02:24.553900 30345 net.cpp:91] Creating Layer relu1_1
I0808 16:02:24.553905 30345 net.cpp:425] relu1_1 <- conv1_1
I0808 16:02:24.553911 30345 net.cpp:386] relu1_1 -> conv1_1 (in-place)
I0808 16:02:24.554219 30345 net.cpp:141] Setting up relu1_1
I0808 16:02:24.554234 30345 net.cpp:148] Top shape: 7 64 224 224 (22478848)
I0808 16:02:24.554237 30345 net.cpp:156] Memory required for data: 188260352
I0808 16:02:24.554241 30345 layer_factory.hpp:77] Creating layer conv1_2
I0808 16:02:24.554251 30345 net.cpp:91] Creating Layer conv1_2
I0808 16:02:24.554255 30345 net.cpp:425] conv1_2 <- conv1_1
I0808 16:02:24.554261 30345 net.cpp:399] conv1_2 -> conv1_2
I0808 16:02:24.555304 30345 net.cpp:141] Setting up conv1_2
I0808 16:02:24.555320 30345 net.cpp:148] Top shape: 7 64 224 224 (22478848)
I0808 16:02:24.555322 30345 net.cpp:156] Memory required for data: 278175744
I0808 16:02:24.555332 30345 layer_factory.hpp:77] Creating layer relu1_2
I0808 16:02:24.555340 30345 net.cpp:91] Creating Layer relu1_2
I0808 16:02:24.555342 30345 net.cpp:425] relu1_2 <- conv1_2
I0808 16:02:24.555349 30345 net.cpp:386] relu1_2 -> conv1_2 (in-place)
I0808 16:02:24.555629 30345 net.cpp:141] Setting up relu1_2
I0808 16:02:24.555642 30345 net.cpp:148] Top shape: 7 64 224 224 (22478848)
I0808 16:02:24.555645 30345 net.cpp:156] Memory required for data: 368091136
I0808 16:02:24.555649 30345 layer_factory.hpp:77] Creating layer conv1_2_relu1_2_0_split
I0808 16:02:24.555655 30345 net.cpp:91] Creating Layer conv1_2_relu1_2_0_split
I0808 16:02:24.555658 30345 net.cpp:425] conv1_2_relu1_2_0_split <- conv1_2
I0808 16:02:24.555663 30345 net.cpp:399] conv1_2_relu1_2_0_split -> conv1_2_relu1_2_0_split_0
I0808 16:02:24.555672 30345 net.cpp:399] conv1_2_relu1_2_0_split -> conv1_2_relu1_2_0_split_1
I0808 16:02:24.555717 30345 net.cpp:141] Setting up conv1_2_relu1_2_0_split
I0808 16:02:24.555724 30345 net.cpp:148] Top shape: 7 64 224 224 (22478848)
I0808 16:02:24.555728 30345 net.cpp:148] Top shape: 7 64 224 224 (22478848)
I0808 16:02:24.555732 30345 net.cpp:156] Memory required for data: 547921920
I0808 16:02:24.555734 30345 layer_factory.hpp:77] Creating layer pool1
I0808 16:02:24.555763 30345 net.cpp:91] Creating Layer pool1
I0808 16:02:24.555770 30345 net.cpp:425] pool1 <- conv1_2_relu1_2_0_split_0
I0808 16:02:24.555775 30345 net.cpp:399] pool1 -> pool1
I0808 16:02:24.555825 30345 net.cpp:141] Setting up pool1
I0808 16:02:24.555833 30345 net.cpp:148] Top shape: 7 64 112 112 (5619712)
I0808 16:02:24.555836 30345 net.cpp:156] Memory required for data: 570400768
I0808 16:02:24.555840 30345 layer_factory.hpp:77] Creating layer conv2_1
I0808 16:02:24.555846 30345 net.cpp:91] Creating Layer conv2_1
I0808 16:02:24.555850 30345 net.cpp:425] conv2_1 <- pool1
I0808 16:02:24.555855 30345 net.cpp:399] conv2_1 -> conv2_1
I0808 16:02:24.558385 30345 net.cpp:141] Setting up conv2_1
I0808 16:02:24.558421 30345 net.cpp:148] Top shape: 7 128 112 112 (11239424)
I0808 16:02:24.558429 30345 net.cpp:156] Memory required for data: 615358464
I0808 16:02:24.558451 30345 layer_factory.hpp:77] Creating layer relu2_1
I0808 16:02:24.558468 30345 net.cpp:91] Creating Layer relu2_1
I0808 16:02:24.558476 30345 net.cpp:425] relu2_1 <- conv2_1
I0808 16:02:24.558487 30345 net.cpp:386] relu2_1 -> conv2_1 (in-place)
I0808 16:02:24.558861 30345 net.cpp:141] Setting up relu2_1
I0808 16:02:24.558881 30345 net.cpp:148] Top shape: 7 128 112 112 (11239424)
I0808 16:02:24.558887 30345 net.cpp:156] Memory required for data: 660316160
I0808 16:02:24.558894 30345 layer_factory.hpp:77] Creating layer conv2_2
I0808 16:02:24.558912 30345 net.cpp:91] Creating Layer conv2_2
I0808 16:02:24.558918 30345 net.cpp:425] conv2_2 <- conv2_1
I0808 16:02:24.558931 30345 net.cpp:399] conv2_2 -> conv2_2
I0808 16:02:24.561044 30345 net.cpp:141] Setting up conv2_2
I0808 16:02:24.561076 30345 net.cpp:148] Top shape: 7 128 112 112 (11239424)
I0808 16:02:24.561084 30345 net.cpp:156] Memory required for data: 705273856
I0808 16:02:24.561099 30345 layer_factory.hpp:77] Creating layer relu2_2
I0808 16:02:24.561111 30345 net.cpp:91] Creating Layer relu2_2
I0808 16:02:24.561118 30345 net.cpp:425] relu2_2 <- conv2_2
I0808 16:02:24.561131 30345 net.cpp:386] relu2_2 -> conv2_2 (in-place)
I0808 16:02:24.561662 30345 net.cpp:141] Setting up relu2_2
I0808 16:02:24.561688 30345 net.cpp:148] Top shape: 7 128 112 112 (11239424)
I0808 16:02:24.561696 30345 net.cpp:156] Memory required for data: 750231552
I0808 16:02:24.561702 30345 layer_factory.hpp:77] Creating layer conv2_2_relu2_2_0_split
I0808 16:02:24.561713 30345 net.cpp:91] Creating Layer conv2_2_relu2_2_0_split
I0808 16:02:24.561722 30345 net.cpp:425] conv2_2_relu2_2_0_split <- conv2_2
I0808 16:02:24.561733 30345 net.cpp:399] conv2_2_relu2_2_0_split -> conv2_2_relu2_2_0_split_0
I0808 16:02:24.561749 30345 net.cpp:399] conv2_2_relu2_2_0_split -> conv2_2_relu2_2_0_split_1
I0808 16:02:24.561856 30345 net.cpp:141] Setting up conv2_2_relu2_2_0_split
I0808 16:02:24.561872 30345 net.cpp:148] Top shape: 7 128 112 112 (11239424)
I0808 16:02:24.561880 30345 net.cpp:148] Top shape: 7 128 112 112 (11239424)
I0808 16:02:24.561888 30345 net.cpp:156] Memory required for data: 840146944
I0808 16:02:24.561894 30345 layer_factory.hpp:77] Creating layer pool2
I0808 16:02:24.561906 30345 net.cpp:91] Creating Layer pool2
I0808 16:02:24.561915 30345 net.cpp:425] pool2 <- conv2_2_relu2_2_0_split_0
I0808 16:02:24.561928 30345 net.cpp:399] pool2 -> pool2
I0808 16:02:24.562002 30345 net.cpp:141] Setting up pool2
I0808 16:02:24.562016 30345 net.cpp:148] Top shape: 7 128 56 56 (2809856)
I0808 16:02:24.562026 30345 net.cpp:156] Memory required for data: 851386368
I0808 16:02:24.562031 30345 layer_factory.hpp:77] Creating layer conv3_1
I0808 16:02:24.562047 30345 net.cpp:91] Creating Layer conv3_1
I0808 16:02:24.562055 30345 net.cpp:425] conv3_1 <- pool2
I0808 16:02:24.562068 30345 net.cpp:399] conv3_1 -> conv3_1
I0808 16:02:24.565107 30345 net.cpp:141] Setting up conv3_1
I0808 16:02:24.565137 30345 net.cpp:148] Top shape: 7 256 56 56 (5619712)
I0808 16:02:24.565145 30345 net.cpp:156] Memory required for data: 873865216
I0808 16:02:24.565165 30345 layer_factory.hpp:77] Creating layer relu3_1
I0808 16:02:24.565178 30345 net.cpp:91] Creating Layer relu3_1
I0808 16:02:24.565213 30345 net.cpp:425] relu3_1 <- conv3_1
I0808 16:02:24.565228 30345 net.cpp:386] relu3_1 -> conv3_1 (in-place)
I0808 16:02:24.565783 30345 net.cpp:141] Setting up relu3_1
I0808 16:02:24.565809 30345 net.cpp:148] Top shape: 7 256 56 56 (5619712)
I0808 16:02:24.565819 30345 net.cpp:156] Memory required for data: 896344064
I0808 16:02:24.565825 30345 layer_factory.hpp:77] Creating layer conv3_2
I0808 16:02:24.565842 30345 net.cpp:91] Creating Layer conv3_2
I0808 16:02:24.565853 30345 net.cpp:425] conv3_2 <- conv3_1
I0808 16:02:24.565866 30345 net.cpp:399] conv3_2 -> conv3_2
I0808 16:02:24.570212 30345 net.cpp:141] Setting up conv3_2
I0808 16:02:24.570241 30345 net.cpp:148] Top shape: 7 256 56 56 (5619712)
I0808 16:02:24.570250 30345 net.cpp:156] Memory required for data: 918822912
I0808 16:02:24.570263 30345 layer_factory.hpp:77] Creating layer relu3_2
I0808 16:02:24.570281 30345 net.cpp:91] Creating Layer relu3_2
I0808 16:02:24.570289 30345 net.cpp:425] relu3_2 <- conv3_2
I0808 16:02:24.570302 30345 net.cpp:386] relu3_2 -> conv3_2 (in-place)
I0808 16:02:24.570627 30345 net.cpp:141] Setting up relu3_2
I0808 16:02:24.570647 30345 net.cpp:148] Top shape: 7 256 56 56 (5619712)
I0808 16:02:24.570654 30345 net.cpp:156] Memory required for data: 941301760
I0808 16:02:24.570660 30345 layer_factory.hpp:77] Creating layer conv3_3
I0808 16:02:24.570675 30345 net.cpp:91] Creating Layer conv3_3
I0808 16:02:24.570683 30345 net.cpp:425] conv3_3 <- conv3_2
I0808 16:02:24.570695 30345 net.cpp:399] conv3_3 -> conv3_3
I0808 16:02:24.574898 30345 net.cpp:141] Setting up conv3_3
I0808 16:02:24.574928 30345 net.cpp:148] Top shape: 7 256 56 56 (5619712)
I0808 16:02:24.574936 30345 net.cpp:156] Memory required for data: 963780608
I0808 16:02:24.574949 30345 layer_factory.hpp:77] Creating layer relu3_3
I0808 16:02:24.574964 30345 net.cpp:91] Creating Layer relu3_3
I0808 16:02:24.574972 30345 net.cpp:425] relu3_3 <- conv3_3
I0808 16:02:24.574982 30345 net.cpp:386] relu3_3 -> conv3_3 (in-place)
I0808 16:02:24.575503 30345 net.cpp:141] Setting up relu3_3
I0808 16:02:24.575527 30345 net.cpp:148] Top shape: 7 256 56 56 (5619712)
I0808 16:02:24.575536 30345 net.cpp:156] Memory required for data: 986259456
I0808 16:02:24.575542 30345 layer_factory.hpp:77] Creating layer conv3_3_relu3_3_0_split
I0808 16:02:24.575553 30345 net.cpp:91] Creating Layer conv3_3_relu3_3_0_split
I0808 16:02:24.575562 30345 net.cpp:425] conv3_3_relu3_3_0_split <- conv3_3
I0808 16:02:24.575573 30345 net.cpp:399] conv3_3_relu3_3_0_split -> conv3_3_relu3_3_0_split_0
I0808 16:02:24.575589 30345 net.cpp:399] conv3_3_relu3_3_0_split -> conv3_3_relu3_3_0_split_1
I0808 16:02:24.575680 30345 net.cpp:141] Setting up conv3_3_relu3_3_0_split
I0808 16:02:24.575693 30345 net.cpp:148] Top shape: 7 256 56 56 (5619712)
I0808 16:02:24.575703 30345 net.cpp:148] Top shape: 7 256 56 56 (5619712)
I0808 16:02:24.575711 30345 net.cpp:156] Memory required for data: 1031217152
I0808 16:02:24.575716 30345 layer_factory.hpp:77] Creating layer pool3
I0808 16:02:24.575727 30345 net.cpp:91] Creating Layer pool3
I0808 16:02:24.575734 30345 net.cpp:425] pool3 <- conv3_3_relu3_3_0_split_0
I0808 16:02:24.575747 30345 net.cpp:399] pool3 -> pool3
I0808 16:02:24.575820 30345 net.cpp:141] Setting up pool3
I0808 16:02:24.575834 30345 net.cpp:148] Top shape: 7 256 28 28 (1404928)
I0808 16:02:24.575840 30345 net.cpp:156] Memory required for data: 1036836864
I0808 16:02:24.575846 30345 layer_factory.hpp:77] Creating layer conv4_1
I0808 16:02:24.575860 30345 net.cpp:91] Creating Layer conv4_1
I0808 16:02:24.575868 30345 net.cpp:425] conv4_1 <- pool3
I0808 16:02:24.575880 30345 net.cpp:399] conv4_1 -> conv4_1
I0808 16:02:24.582615 30345 net.cpp:141] Setting up conv4_1
I0808 16:02:24.582643 30345 net.cpp:148] Top shape: 7 512 28 28 (2809856)
I0808 16:02:24.582651 30345 net.cpp:156] Memory required for data: 1048076288
I0808 16:02:24.582664 30345 layer_factory.hpp:77] Creating layer relu4_1
I0808 16:02:24.582679 30345 net.cpp:91] Creating Layer relu4_1
I0808 16:02:24.582687 30345 net.cpp:425] relu4_1 <- conv4_1
I0808 16:02:24.582721 30345 net.cpp:386] relu4_1 -> conv4_1 (in-place)
I0808 16:02:24.583209 30345 net.cpp:141] Setting up relu4_1
I0808 16:02:24.583231 30345 net.cpp:148] Top shape: 7 512 28 28 (2809856)
I0808 16:02:24.583240 30345 net.cpp:156] Memory required for data: 1059315712
I0808 16:02:24.583245 30345 layer_factory.hpp:77] Creating layer conv4_2
I0808 16:02:24.583261 30345 net.cpp:91] Creating Layer conv4_2
I0808 16:02:24.583268 30345 net.cpp:425] conv4_2 <- conv4_1
I0808 16:02:24.583281 30345 net.cpp:399] conv4_2 -> conv4_2
I0808 16:02:24.593883 30345 net.cpp:141] Setting up conv4_2
I0808 16:02:24.593914 30345 net.cpp:148] Top shape: 7 512 28 28 (2809856)
I0808 16:02:24.593920 30345 net.cpp:156] Memory required for data: 1070555136
I0808 16:02:24.593941 30345 layer_factory.hpp:77] Creating layer relu4_2
I0808 16:02:24.593956 30345 net.cpp:91] Creating Layer relu4_2
I0808 16:02:24.593966 30345 net.cpp:425] relu4_2 <- conv4_2
I0808 16:02:24.593976 30345 net.cpp:386] relu4_2 -> conv4_2 (in-place)
I0808 16:02:24.594321 30345 net.cpp:141] Setting up relu4_2
I0808 16:02:24.594338 30345 net.cpp:148] Top shape: 7 512 28 28 (2809856)
I0808 16:02:24.594346 30345 net.cpp:156] Memory required for data: 1081794560
I0808 16:02:24.594352 30345 layer_factory.hpp:77] Creating layer conv4_3
I0808 16:02:24.594365 30345 net.cpp:91] Creating Layer conv4_3
I0808 16:02:24.594372 30345 net.cpp:425] conv4_3 <- conv4_2
I0808 16:02:24.594384 30345 net.cpp:399] conv4_3 -> conv4_3
I0808 16:02:24.603469 30345 net.cpp:141] Setting up conv4_3
I0808 16:02:24.603497 30345 net.cpp:148] Top shape: 7 512 28 28 (2809856)
I0808 16:02:24.603503 30345 net.cpp:156] Memory required for data: 1093033984
I0808 16:02:24.603515 30345 layer_factory.hpp:77] Creating layer relu4_3
I0808 16:02:24.603528 30345 net.cpp:91] Creating Layer relu4_3
I0808 16:02:24.603535 30345 net.cpp:425] relu4_3 <- conv4_3
I0808 16:02:24.603546 30345 net.cpp:386] relu4_3 -> conv4_3 (in-place)
I0808 16:02:24.604004 30345 net.cpp:141] Setting up relu4_3
I0808 16:02:24.604027 30345 net.cpp:148] Top shape: 7 512 28 28 (2809856)
I0808 16:02:24.604041 30345 net.cpp:156] Memory required for data: 1104273408
I0808 16:02:24.604048 30345 layer_factory.hpp:77] Creating layer conv4_3_relu4_3_0_split
I0808 16:02:24.604058 30345 net.cpp:91] Creating Layer conv4_3_relu4_3_0_split
I0808 16:02:24.604066 30345 net.cpp:425] conv4_3_relu4_3_0_split <- conv4_3
I0808 16:02:24.604077 30345 net.cpp:399] conv4_3_relu4_3_0_split -> conv4_3_relu4_3_0_split_0
I0808 16:02:24.604092 30345 net.cpp:399] conv4_3_relu4_3_0_split -> conv4_3_relu4_3_0_split_1
I0808 16:02:24.604168 30345 net.cpp:141] Setting up conv4_3_relu4_3_0_split
I0808 16:02:24.604181 30345 net.cpp:148] Top shape: 7 512 28 28 (2809856)
I0808 16:02:24.604187 30345 net.cpp:148] Top shape: 7 512 28 28 (2809856)
I0808 16:02:24.604192 30345 net.cpp:156] Memory required for data: 1126752256
I0808 16:02:24.604197 30345 layer_factory.hpp:77] Creating layer pool4
I0808 16:02:24.604208 30345 net.cpp:91] Creating Layer pool4
I0808 16:02:24.604215 30345 net.cpp:425] pool4 <- conv4_3_relu4_3_0_split_0
I0808 16:02:24.604225 30345 net.cpp:399] pool4 -> pool4
I0808 16:02:24.604291 30345 net.cpp:141] Setting up pool4
I0808 16:02:24.604305 30345 net.cpp:148] Top shape: 7 512 14 14 (702464)
I0808 16:02:24.604310 30345 net.cpp:156] Memory required for data: 1129562112
I0808 16:02:24.604315 30345 layer_factory.hpp:77] Creating layer conv5_1
I0808 16:02:24.604328 30345 net.cpp:91] Creating Layer conv5_1
I0808 16:02:24.604336 30345 net.cpp:425] conv5_1 <- pool4
I0808 16:02:24.604346 30345 net.cpp:399] conv5_1 -> conv5_1
I0808 16:02:24.613150 30345 net.cpp:141] Setting up conv5_1
I0808 16:02:24.613178 30345 net.cpp:148] Top shape: 7 512 14 14 (702464)
I0808 16:02:24.613183 30345 net.cpp:156] Memory required for data: 1132371968
I0808 16:02:24.613195 30345 layer_factory.hpp:77] Creating layer relu5_1
I0808 16:02:24.613207 30345 net.cpp:91] Creating Layer relu5_1
I0808 16:02:24.613215 30345 net.cpp:425] relu5_1 <- conv5_1
I0808 16:02:24.613253 30345 net.cpp:386] relu5_1 -> conv5_1 (in-place)
I0808 16:02:24.613684 30345 net.cpp:141] Setting up relu5_1
I0808 16:02:24.613705 30345 net.cpp:148] Top shape: 7 512 14 14 (702464)
I0808 16:02:24.613713 30345 net.cpp:156] Memory required for data: 1135181824
I0808 16:02:24.613718 30345 layer_factory.hpp:77] Creating layer conv5_2
I0808 16:02:24.613731 30345 net.cpp:91] Creating Layer conv5_2
I0808 16:02:24.613739 30345 net.cpp:425] conv5_2 <- conv5_1
I0808 16:02:24.613750 30345 net.cpp:399] conv5_2 -> conv5_2
I0808 16:02:24.622977 30345 net.cpp:141] Setting up conv5_2
I0808 16:02:24.623005 30345 net.cpp:148] Top shape: 7 512 14 14 (702464)
I0808 16:02:24.623011 30345 net.cpp:156] Memory required for data: 1137991680
I0808 16:02:24.623023 30345 layer_factory.hpp:77] Creating layer relu5_2
I0808 16:02:24.623044 30345 net.cpp:91] Creating Layer relu5_2
I0808 16:02:24.623054 30345 net.cpp:425] relu5_2 <- conv5_2
I0808 16:02:24.623061 30345 net.cpp:386] relu5_2 -> conv5_2 (in-place)
I0808 16:02:24.623327 30345 net.cpp:141] Setting up relu5_2
I0808 16:02:24.623343 30345 net.cpp:148] Top shape: 7 512 14 14 (702464)
I0808 16:02:24.623350 30345 net.cpp:156] Memory required for data: 1140801536
I0808 16:02:24.623355 30345 layer_factory.hpp:77] Creating layer conv5_3
I0808 16:02:24.623369 30345 net.cpp:91] Creating Layer conv5_3
I0808 16:02:24.623376 30345 net.cpp:425] conv5_3 <- conv5_2
I0808 16:02:24.623388 30345 net.cpp:399] conv5_3 -> conv5_3
I0808 16:02:24.631569 30345 net.cpp:141] Setting up conv5_3
I0808 16:02:24.631593 30345 net.cpp:148] Top shape: 7 512 14 14 (702464)
I0808 16:02:24.631599 30345 net.cpp:156] Memory required for data: 1143611392
I0808 16:02:24.631609 30345 layer_factory.hpp:77] Creating layer relu5_3
I0808 16:02:24.631621 30345 net.cpp:91] Creating Layer relu5_3
I0808 16:02:24.631628 30345 net.cpp:425] relu5_3 <- conv5_3
I0808 16:02:24.631638 30345 net.cpp:386] relu5_3 -> conv5_3 (in-place)
I0808 16:02:24.632033 30345 net.cpp:141] Setting up relu5_3
I0808 16:02:24.632053 30345 net.cpp:148] Top shape: 7 512 14 14 (702464)
I0808 16:02:24.632057 30345 net.cpp:156] Memory required for data: 1146421248
I0808 16:02:24.632063 30345 layer_factory.hpp:77] Creating layer conv5_3_relu5_3_0_split
I0808 16:02:24.632073 30345 net.cpp:91] Creating Layer conv5_3_relu5_3_0_split
I0808 16:02:24.632079 30345 net.cpp:425] conv5_3_relu5_3_0_split <- conv5_3
I0808 16:02:24.632088 30345 net.cpp:399] conv5_3_relu5_3_0_split -> conv5_3_relu5_3_0_split_0
I0808 16:02:24.632099 30345 net.cpp:399] conv5_3_relu5_3_0_split -> conv5_3_relu5_3_0_split_1
I0808 16:02:24.632166 30345 net.cpp:141] Setting up conv5_3_relu5_3_0_split
I0808 16:02:24.632176 30345 net.cpp:148] Top shape: 7 512 14 14 (702464)
I0808 16:02:24.632182 30345 net.cpp:148] Top shape: 7 512 14 14 (702464)
I0808 16:02:24.632186 30345 net.cpp:156] Memory required for data: 1152040960
I0808 16:02:24.632190 30345 layer_factory.hpp:77] Creating layer pool5
I0808 16:02:24.632200 30345 net.cpp:91] Creating Layer pool5
I0808 16:02:24.632207 30345 net.cpp:425] pool5 <- conv5_3_relu5_3_0_split_0
I0808 16:02:24.632216 30345 net.cpp:399] pool5 -> pool5
I0808 16:02:24.632273 30345 net.cpp:141] Setting up pool5
I0808 16:02:24.632282 30345 net.cpp:148] Top shape: 7 512 7 7 (175616)
I0808 16:02:24.632287 30345 net.cpp:156] Memory required for data: 1152743424
I0808 16:02:24.632292 30345 layer_factory.hpp:77] Creating layer fc6-conv
I0808 16:02:24.632302 30345 net.cpp:91] Creating Layer fc6-conv
I0808 16:02:24.632308 30345 net.cpp:425] fc6-conv <- pool5
I0808 16:02:24.632318 30345 net.cpp:399] fc6-conv -> fc6-conv
I0808 16:02:24.914904 30345 net.cpp:141] Setting up fc6-conv
I0808 16:02:24.914952 30345 net.cpp:148] Top shape: 7 4096 1 1 (28672)
I0808 16:02:24.914959 30345 net.cpp:156] Memory required for data: 1152858112
I0808 16:02:24.914976 30345 layer_factory.hpp:77] Creating layer relu6
I0808 16:02:24.914994 30345 net.cpp:91] Creating Layer relu6
I0808 16:02:24.915004 30345 net.cpp:425] relu6 <- fc6-conv
I0808 16:02:24.915021 30345 net.cpp:386] relu6 -> fc6-conv (in-place)
I0808 16:02:24.915621 30345 net.cpp:141] Setting up relu6
I0808 16:02:24.915645 30345 net.cpp:148] Top shape: 7 4096 1 1 (28672)
I0808 16:02:24.915652 30345 net.cpp:156] Memory required for data: 1152972800
I0808 16:02:24.915658 30345 layer_factory.hpp:77] Creating layer drop6
I0808 16:02:24.915673 30345 net.cpp:91] Creating Layer drop6
I0808 16:02:24.915681 30345 net.cpp:425] drop6 <- fc6-conv
I0808 16:02:24.915691 30345 net.cpp:386] drop6 -> fc6-conv (in-place)
I0808 16:02:24.915761 30345 net.cpp:141] Setting up drop6
I0808 16:02:24.915774 30345 net.cpp:148] Top shape: 7 4096 1 1 (28672)
I0808 16:02:24.915781 30345 net.cpp:156] Memory required for data: 1153087488
I0808 16:02:24.915786 30345 layer_factory.hpp:77] Creating layer fc7-conv
I0808 16:02:24.915804 30345 net.cpp:91] Creating Layer fc7-conv
I0808 16:02:24.915812 30345 net.cpp:425] fc7-conv <- fc6-conv
I0808 16:02:24.915822 30345 net.cpp:399] fc7-conv -> fc7-conv
I0808 16:02:24.978299 30345 net.cpp:141] Setting up fc7-conv
I0808 16:02:24.978339 30345 net.cpp:148] Top shape: 7 4096 1 1 (28672)
I0808 16:02:24.978344 30345 net.cpp:156] Memory required for data: 1153202176
I0808 16:02:24.978358 30345 layer_factory.hpp:77] Creating layer relu7
I0808 16:02:24.978370 30345 net.cpp:91] Creating Layer relu7
I0808 16:02:24.978379 30345 net.cpp:425] relu7 <- fc7-conv
I0808 16:02:24.978391 30345 net.cpp:386] relu7 -> fc7-conv (in-place)
I0808 16:02:24.978677 30345 net.cpp:141] Setting up relu7
I0808 16:02:24.978693 30345 net.cpp:148] Top shape: 7 4096 1 1 (28672)
I0808 16:02:24.978696 30345 net.cpp:156] Memory required for data: 1153316864
I0808 16:02:24.978700 30345 layer_factory.hpp:77] Creating layer hypercolumns
I0808 16:02:24.978718 30345 net.cpp:91] Creating Layer hypercolumns
I0808 16:02:24.978723 30345 net.cpp:425] hypercolumns <- normal
I0808 16:02:24.978729 30345 net.cpp:425] hypercolumns <- conv1_2_relu1_2_0_split_1
I0808 16:02:24.978735 30345 net.cpp:425] hypercolumns <- conv2_2_relu2_2_0_split_1
I0808 16:02:24.978741 30345 net.cpp:425] hypercolumns <- conv3_3_relu3_3_0_split_1
I0808 16:02:24.978746 30345 net.cpp:425] hypercolumns <- conv4_3_relu4_3_0_split_1
I0808 16:02:24.978751 30345 net.cpp:425] hypercolumns <- conv5_3_relu5_3_0_split_1
I0808 16:02:24.978756 30345 net.cpp:425] hypercolumns <- fc7-conv
I0808 16:02:24.978770 30345 net.cpp:399] hypercolumns -> hypercolumns
I0808 16:02:24.978798 30345 net.cpp:399] hypercolumns -> normal_point
I0808 16:02:24.978873 30345 net.cpp:141] Setting up hypercolumns
I0808 16:02:24.978883 30345 net.cpp:148] Top shape: 7000 5568 1 1 (38976000)
I0808 16:02:24.978889 30345 net.cpp:148] Top shape: 7000 3 (21000)
I0808 16:02:24.978893 30345 net.cpp:156] Memory required for data: 1309304864
I0808 16:02:24.978899 30345 layer_factory.hpp:77] Creating layer fc1
I0808 16:02:24.978910 30345 net.cpp:91] Creating Layer fc1
I0808 16:02:24.978916 30345 net.cpp:425] fc1 <- hypercolumns
I0808 16:02:24.978926 30345 net.cpp:399] fc1 -> fc1
I0808 16:02:25.297920 30345 net.cpp:141] Setting up fc1
I0808 16:02:25.297958 30345 net.cpp:148] Top shape: 7000 4096 (28672000)
I0808 16:02:25.297963 30345 net.cpp:156] Memory required for data: 1423992864
I0808 16:02:25.297993 30345 layer_factory.hpp:77] Creating layer relu1
I0808 16:02:25.298009 30345 net.cpp:91] Creating Layer relu1
I0808 16:02:25.298023 30345 net.cpp:425] relu1 <- fc1
I0808 16:02:25.298032 30345 net.cpp:386] relu1 -> fc1 (in-place)
I0808 16:02:25.299175 30345 net.cpp:141] Setting up relu1
I0808 16:02:25.299190 30345 net.cpp:148] Top shape: 7000 4096 (28672000)
I0808 16:02:25.299192 30345 net.cpp:156] Memory required for data: 1538680864
I0808 16:02:25.299196 30345 layer_factory.hpp:77] Creating layer drop1
I0808 16:02:25.299206 30345 net.cpp:91] Creating Layer drop1
I0808 16:02:25.299208 30345 net.cpp:425] drop1 <- fc1
I0808 16:02:25.299221 30345 net.cpp:386] drop1 -> fc1 (in-place)
I0808 16:02:25.299258 30345 net.cpp:141] Setting up drop1
I0808 16:02:25.299265 30345 net.cpp:148] Top shape: 7000 4096 (28672000)
I0808 16:02:25.299268 30345 net.cpp:156] Memory required for data: 1653368864
I0808 16:02:25.299295 30345 layer_factory.hpp:77] Creating layer fc2
I0808 16:02:25.299315 30345 net.cpp:91] Creating Layer fc2
I0808 16:02:25.299320 30345 net.cpp:425] fc2 <- fc1
I0808 16:02:25.299327 30345 net.cpp:399] fc2 -> fc2
I0808 16:02:25.527099 30345 net.cpp:141] Setting up fc2
I0808 16:02:25.527144 30345 net.cpp:148] Top shape: 7000 4096 (28672000)
I0808 16:02:25.527148 30345 net.cpp:156] Memory required for data: 1768056864
I0808 16:02:25.527200 30345 layer_factory.hpp:77] Creating layer relu2
I0808 16:02:25.527216 30345 net.cpp:91] Creating Layer relu2
I0808 16:02:25.527225 30345 net.cpp:425] relu2 <- fc2
I0808 16:02:25.527233 30345 net.cpp:386] relu2 -> fc2 (in-place)
I0808 16:02:25.527503 30345 net.cpp:141] Setting up relu2
I0808 16:02:25.527514 30345 net.cpp:148] Top shape: 7000 4096 (28672000)
I0808 16:02:25.527518 30345 net.cpp:156] Memory required for data: 1882744864
I0808 16:02:25.527520 30345 layer_factory.hpp:77] Creating layer drop2
I0808 16:02:25.527528 30345 net.cpp:91] Creating Layer drop2
I0808 16:02:25.527531 30345 net.cpp:425] drop2 <- fc2
I0808 16:02:25.527537 30345 net.cpp:386] drop2 -> fc2 (in-place)
I0808 16:02:25.527573 30345 net.cpp:141] Setting up drop2
I0808 16:02:25.527580 30345 net.cpp:148] Top shape: 7000 4096 (28672000)
I0808 16:02:25.527582 30345 net.cpp:156] Memory required for data: 1997432864
I0808 16:02:25.527585 30345 layer_factory.hpp:77] Creating layer fc3
I0808 16:02:25.527592 30345 net.cpp:91] Creating Layer fc3
I0808 16:02:25.527598 30345 net.cpp:425] fc3 <- fc2
I0808 16:02:25.527606 30345 net.cpp:399] fc3 -> fc3
I0808 16:02:25.527936 30345 net.cpp:141] Setting up fc3
I0808 16:02:25.527946 30345 net.cpp:148] Top shape: 7000 3 (21000)
I0808 16:02:25.527948 30345 net.cpp:156] Memory required for data: 1997516864
I0808 16:02:25.527956 30345 layer_factory.hpp:77] Creating layer loss
I0808 16:02:25.527963 30345 net.cpp:91] Creating Layer loss
I0808 16:02:25.527966 30345 net.cpp:425] loss <- fc3
I0808 16:02:25.527976 30345 net.cpp:425] loss <- normal_point
I0808 16:02:25.527981 30345 net.cpp:399] loss -> loss
I0808 16:02:25.528048 30345 net.cpp:141] Setting up loss
…
