…
type: "SGD"
I0930 12:46:47.070953  7386 solver.cpp:91] Creating training net from net file: /home/qinhong/project/normal_recovery/model/mine/train.prototxt
I0930 12:46:47.071872  7386 net.cpp:49] Initializing net from parameters: 
name: "hyper_normal_layers"
state {
  phase: TRAIN
}
layer {
  name: "data"
  type: "ImageNormalData"
  top: "data"
  top: "normal"
  transform_param {
  }
  image_data_param {
    source: "/home/qinhong/project/normal_recovery/data/nyu.txt"
    batch_size: 5
    shuffle: true
    new_height: 224
    new_width: 224
  }
}
layer {
  name: "conv1_1"
  type: "Convolution"
  bottom: "data"
  top: "conv1_1"
  param {
    lr_mult: 1
    decay_mult: 1
  }
  param {
    lr_mult: 2
    decay_mult: 0
  }
  convolution_param {
    num_output: 64
    pad: 1
    kernel_size: 3
  }
}
layer {
  name: "relu1_1"
  type: "ReLU"
  bottom: "conv1_1"
  top: "conv1_1"
}
layer {
  name: "conv1_2"
  type: "Convolution"
  bottom: "conv1_1"
  top: "conv1_2"
  param {
    lr_mult: 1
    decay_mult: 1
  }
  param {
    lr_mult: 2
    decay_mult: 0
  }
  convolution_param {
    num_output: 64
    pad: 1
    kernel_size: 3
  }
}
layer {
  name: "relu1_2"
  type: "ReLU"
  bottom: "conv1_2"
  top: "conv1_2"
}
layer {
  name: "pool1"
  type: "Pooling"
  bottom: "conv1_2"
  top: "pool1"
  pooling_param {
    pool: MAX
    kernel_size: 2
    stride: 2
  }
}
layer {
  name: "conv2_1"
  type: "Convolution"
  bottom: "pool1"
  top: "conv2_1"
  param {
    lr_mult: 1
    decay_mult: 1
  }
  param {
    lr_mult: 2
    decay_mult: 0
  }
  convolution_param {
    num_output: 128
    pad: 1
    kernel_size: 3
  }
}
layer {
  name: "relu2_1"
  type: "ReLU"
  bottom: "conv2_1"
  top: "conv2_1"
}
layer {
  name: "conv2_2"
  type: "Convolution"
  bottom: "conv2_1"
  top: "conv2_2"
  param {
    lr_mult: 1
    decay_mult: 1
  }
  param {
    lr_mult: 2
    decay_mult: 0
  }
  convolution_param {
    num_output: 128
    pad: 1
    kernel_size: 3
  }
}
layer {
  name: "relu2_2"
  type: "ReLU"
  bottom: "conv2_2"
  top: "conv2_2"
}
layer {
  name: "pool2"
  type: "Pooling"
  bottom: "conv2_2"
  top: "pool2"
  pooling_param {
    pool: MAX
    kernel_size: 2
    stride: 2
  }
}
layer {
  name: "conv3_1"
  type: "Convolution"
  bottom: "pool2"
  top: "conv3_1"
  param {
    lr_mult: 1
    decay_mult: 1
  }
  param {
    lr_mult: 2
    decay_mult: 0
  }
  convolution_param {
    num_output: 256
    pad: 1
    kernel_size: 3
  }
}
layer {
  name: "relu3_1"
  type: "ReLU"
  bottom: "conv3_1"
  top: "conv3_1"
}
layer {
  name: "conv3_2"
  type: "Convolution"
  bottom: "conv3_1"
  top: "conv3_2"
  param {
    lr_mult: 1
    decay_mult: 1
  }
  param {
    lr_mult: 2
    decay_mult: 0
  }
  convolution_param {
    num_output: 256
    pad: 1
    kernel_size: 3
  }
}
layer {
  name: "relu3_2"
  type: "ReLU"
  bottom: "conv3_2"
  top: "conv3_2"
}
layer {
  name: "conv3_3"
  type: "Convolution"
  bottom: "conv3_2"
  top: "conv3_3"
  param {
    lr_mult: 1
    decay_mult: 1
  }
  param {
    lr_mult: 2
    decay_mult: 0
  }
  convolution_param {
    num_output: 256
    pad: 1
    kernel_size: 3
  }
}
layer {
  name: "relu3_3"
  type: "ReLU"
  bottom: "conv3_3"
  top: "conv3_3"
}
layer {
  name: "pool3"
  type: "Pooling"
  bottom: "conv3_3"
  top: "pool3"
  pooling_param {
    pool: MAX
    kernel_size: 2
    stride: 2
  }
}
layer {
  name: "conv4_1"
  type: "Convolution"
  bottom: "pool3"
  top: "conv4_1"
  param {
    lr_mult: 1
    decay_mult: 1
  }
  param {
    lr_mult: 2
    decay_mult: 0
  }
  convolution_param {
    num_output: 512
    pad: 1
    kernel_size: 3
  }
}
layer {
  name: "relu4_1"
  type: "ReLU"
  bottom: "conv4_1"
  top: "conv4_1"
}
layer {
  name: "conv4_2"
  type: "Convolution"
  bottom: "conv4_1"
  top: "conv4_2"
  param {
    lr_mult: 1
    decay_mult: 1
  }
  param {
    lr_mult: 2
    decay_mult: 0
  }
  convolution_param {
    num_output: 512
    pad: 1
    kernel_size: 3
  }
}
layer {
  name: "relu4_2"
  type: "ReLU"
  bottom: "conv4_2"
  top: "conv4_2"
}
layer {
  name: "conv4_3"
  type: "Convolution"
  bottom: "conv4_2"
  top: "conv4_3"
  param {
    lr_mult: 1
    decay_mult: 1
  }
  param {
    lr_mult: 2
    decay_mult: 0
  }
  convolution_param {
    num_output: 512
    pad: 1
    kernel_size: 3
  }
}
layer {
  name: "relu4_3"
  type: "ReLU"
  bottom: "conv4_3"
  top: "conv4_3"
}
layer {
  name: "pool4"
  type: "Pooling"
  bottom: "conv4_3"
  top: "pool4"
  pooling_param {
    pool: MAX
    kernel_size: 2
    stride: 2
  }
}
layer {
  name: "conv5_1"
  type: "Convolution"
  bottom: "pool4"
  top: "conv5_1"
  param {
    lr_mult: 1
    decay_mult: 1
  }
  param {
    lr_mult: 2
    decay_mult: 0
  }
  convolution_param {
    num_output: 512
    pad: 1
    kernel_size: 3
  }
}
layer {
  name: "relu5_1"
  type: "ReLU"
  bottom: "conv5_1"
  top: "conv5_1"
}
layer {
  name: "conv5_2"
  type: "Convolution"
  bottom: "conv5_1"
  top: "conv5_2"
  param {
    lr_mult: 1
    decay_mult: 1
  }
  param {
    lr_mult: 2
    decay_mult: 0
  }
  convolution_param {
    num_output: 512
    pad: 1
    kernel_size: 3
  }
}
layer {
  name: "relu5_2"
  type: "ReLU"
  bottom: "conv5_2"
  top: "conv5_2"
}
layer {
  name: "conv5_3"
  type: "Convolution"
  bottom: "conv5_2"
  top: "conv5_3"
  param {
    lr_mult: 1
    decay_mult: 1
  }
  param {
    lr_mult: 2
    decay_mult: 0
  }
  convolution_param {
    num_output: 512
    pad: 1
    kernel_size: 3
  }
}
layer {
  name: "relu5_3"
  type: "ReLU"
  bottom: "conv5_3"
  top: "conv5_3"
}
layer {
  name: "pool5"
  type: "Pooling"
  bottom: "conv5_3"
  top: "pool5"
  pooling_param {
    pool: MAX
    kernel_size: 2
    stride: 2
  }
}
layer {
  name: "fc6-conv"
  type: "Convolution"
  bottom: "pool5"
  top: "fc6-conv"
  param {
    lr_mult: 1
    decay_mult: 1
  }
  param {
    lr_mult: 2
    decay_mult: 0
  }
  convolution_param {
    num_output: 4096
    kernel_size: 7
  }
}
layer {
  name: "relu6"
  type: "ReLU"
  bottom: "fc6-conv"
  top: "fc6-conv"
}
layer {
  name: "drop6"
  type: "Dropout"
  bottom: "fc6-conv"
  top: "fc6-conv"
  dropout_param {
    dropout_ratio: 0.5
  }
}
layer {
  name: "fc7-conv"
  type: "Convolution"
  bottom: "fc6-conv"
  top: "fc7-conv"
  param {
    lr_mult: 1
    decay_mult: 1
  }
  param {
    lr_mult: 2
    decay_mult: 0
  }
  convolution_param {
    num_output: 4096
    kernel_size: 1
  }
}
layer {
  name: "relu7"
  type: "ReLU"
  bottom: "fc7-conv"
  top: "fc7-conv"
}
layer {
  name: "hypercolumns"
  type: "HyperColumns"
  bottom: "normal"
  bottom: "conv1_2"
  bottom: "conv2_2"
  bottom: "conv3_3"
  bottom: "conv4_3"
  bottom: "conv5_3"
  bottom: "fc7-conv"
  top: "hypercolumns"
  top: "normal_point"
  hypercolumns_param {
    is_train: true
    sample_num: 1000
  }
}
layer {
  name: "fc1"
  type: "InnerProduct"
  bottom: "hypercolumns"
  top: "fc1"
  param {
    lr_mult: 1
    decay_mult: 1
  }
  param {
    lr_mult: 2
    decay_mult: 0
  }
  inner_product_param {
    num_output: 4096
    weight_filler {
      type: "gaussian"
      std: 0.001
    }
    bias_filler {
      type: "constant"
      value: 0
    }
  }
}
layer {
  name: "relu1"
  type: "ReLU"
  bottom: "fc1"
  top: "fc1"
}
layer {
  name: "drop1"
  type: "Dropout"
  bottom: "fc1"
  top: "fc1"
  dropout_param {
    dropout_ratio: 0.5
  }
}
layer {
  name: "fc2"
  type: "InnerProduct"
  bottom: "fc1"
  top: "fc2"
  param {
    lr_mult: 1
    decay_mult: 1
  }
  param {
    lr_mult: 2
    decay_mult: 0
  }
  inner_product_param {
    num_output: 4096
    weight_filler {
      type: "gaussian"
      std: 0.001
    }
    bias_filler {
      type: "constant"
      value: 0
    }
  }
}
layer {
  name: "relu2"
  type: "ReLU"
  bottom: "fc2"
  top: "fc2"
}
layer {
  name: "drop2"
  type: "Dropout"
  bottom: "fc2"
  top: "fc2"
  dropout_param {
    dropout_ratio: 0.5
  }
}
layer {
  name: "fc3"
  type: "InnerProduct"
  bottom: "fc2"
  top: "fc3"
  param {
    lr_mult: 1
    decay_mult: 1
  }
  param {
    lr_mult: 2
    decay_mult: 0
  }
  inner_product_param {
    num_output: 3
    weight_filler {
      type: "gaussian"
      std: 0.001
    }
    bias_filler {
      type: "constant"
      value: 0
    }
  }
}
layer {
  name: "loss"
  type: "EuclideanLoss"
  bottom: "fc3"
  bottom: "normal_point"
  top: "loss"
  propagate_down: true
  propagate_down: false
}
I0930 12:46:47.072180  7386 layer_factory.hpp:77] Creating layer data
I0930 12:46:47.072222  7386 net.cpp:91] Creating Layer data
I0930 12:46:47.072240  7386 net.cpp:399] data -> data
I0930 12:46:47.072271  7386 net.cpp:399] data -> normal
I0930 12:46:47.072299  7386 image_normal_data_layer.cpp:43] opeing file /home/qinhong/project/normal_recovery/data/nyu.txt
I0930 12:46:47.080746  7386 image_normal_data_layer.cpp:54] Shuffing data
I0930 12:46:47.083315  7386 image_normal_data_layer.cpp:59] A total of 5899 images.
I0930 12:46:47.100565  7386 image_normal_data_layer.cpp:79] output data size: 5,3,224,224
I0930 12:46:47.113780  7386 net.cpp:141] Setting up data
I0930 12:46:47.113806  7386 net.cpp:148] Top shape: 5 3 224 224 (752640)
I0930 12:46:47.113812  7386 net.cpp:148] Top shape: 5 3 224 224 (752640)
I0930 12:46:47.113816  7386 net.cpp:156] Memory required for data: 6021120
I0930 12:46:47.113823  7386 layer_factory.hpp:77] Creating layer conv1_1
I0930 12:46:47.113845  7386 net.cpp:91] Creating Layer conv1_1
I0930 12:46:47.113852  7386 net.cpp:425] conv1_1 <- data
I0930 12:46:47.113867  7386 net.cpp:399] conv1_1 -> conv1_1
I0930 12:46:47.412395  7386 net.cpp:141] Setting up conv1_1
I0930 12:46:47.412434  7386 net.cpp:148] Top shape: 5 64 224 224 (16056320)
I0930 12:46:47.412441  7386 net.cpp:156] Memory required for data: 70246400
I0930 12:46:47.412470  7386 layer_factory.hpp:77] Creating layer relu1_1
I0930 12:46:47.412487  7386 net.cpp:91] Creating Layer relu1_1
I0930 12:46:47.412495  7386 net.cpp:425] relu1_1 <- conv1_1
I0930 12:46:47.412508  7386 net.cpp:386] relu1_1 -> conv1_1 (in-place)
I0930 12:46:47.412961  7386 net.cpp:141] Setting up relu1_1
I0930 12:46:47.412981  7386 net.cpp:148] Top shape: 5 64 224 224 (16056320)
I0930 12:46:47.412984  7386 net.cpp:156] Memory required for data: 134471680
I0930 12:46:47.412988  7386 layer_factory.hpp:77] Creating layer conv1_2
I0930 12:46:47.413004  7386 net.cpp:91] Creating Layer conv1_2
I0930 12:46:47.413009  7386 net.cpp:425] conv1_2 <- conv1_1
I0930 12:46:47.413018  7386 net.cpp:399] conv1_2 -> conv1_2
I0930 12:46:47.414661  7386 net.cpp:141] Setting up conv1_2
I0930 12:46:47.414680  7386 net.cpp:148] Top shape: 5 64 224 224 (16056320)
I0930 12:46:47.414685  7386 net.cpp:156] Memory required for data: 198696960
I0930 12:46:47.414696  7386 layer_factory.hpp:77] Creating layer relu1_2
I0930 12:46:47.414705  7386 net.cpp:91] Creating Layer relu1_2
I0930 12:46:47.414710  7386 net.cpp:425] relu1_2 <- conv1_2
I0930 12:46:47.414724  7386 net.cpp:386] relu1_2 -> conv1_2 (in-place)
I0930 12:46:47.414958  7386 net.cpp:141] Setting up relu1_2
I0930 12:46:47.414973  7386 net.cpp:148] Top shape: 5 64 224 224 (16056320)
I0930 12:46:47.414976  7386 net.cpp:156] Memory required for data: 262922240
I0930 12:46:47.414980  7386 layer_factory.hpp:77] Creating layer conv1_2_relu1_2_0_split
I0930 12:46:47.414993  7386 net.cpp:91] Creating Layer conv1_2_relu1_2_0_split
I0930 12:46:47.414996  7386 net.cpp:425] conv1_2_relu1_2_0_split <- conv1_2
I0930 12:46:47.415002  7386 net.cpp:399] conv1_2_relu1_2_0_split -> conv1_2_relu1_2_0_split_0
I0930 12:46:47.415015  7386 net.cpp:399] conv1_2_relu1_2_0_split -> conv1_2_relu1_2_0_split_1
I0930 12:46:47.415077  7386 net.cpp:141] Setting up conv1_2_relu1_2_0_split
I0930 12:46:47.415089  7386 net.cpp:148] Top shape: 5 64 224 224 (16056320)
I0930 12:46:47.415096  7386 net.cpp:148] Top shape: 5 64 224 224 (16056320)
I0930 12:46:47.415102  7386 net.cpp:156] Memory required for data: 391372800
I0930 12:46:47.415107  7386 layer_factory.hpp:77] Creating layer pool1
I0930 12:46:47.415143  7386 net.cpp:91] Creating Layer pool1
I0930 12:46:47.415150  7386 net.cpp:425] pool1 <- conv1_2_relu1_2_0_split_0
I0930 12:46:47.415156  7386 net.cpp:399] pool1 -> pool1
I0930 12:46:47.415225  7386 net.cpp:141] Setting up pool1
I0930 12:46:47.415235  7386 net.cpp:148] Top shape: 5 64 112 112 (4014080)
I0930 12:46:47.415241  7386 net.cpp:156] Memory required for data: 407429120
I0930 12:46:47.415247  7386 layer_factory.hpp:77] Creating layer conv2_1
I0930 12:46:47.415261  7386 net.cpp:91] Creating Layer conv2_1
I0930 12:46:47.415267  7386 net.cpp:425] conv2_1 <- pool1
I0930 12:46:47.415278  7386 net.cpp:399] conv2_1 -> conv2_1
I0930 12:46:47.418398  7386 net.cpp:141] Setting up conv2_1
I0930 12:46:47.418417  7386 net.cpp:148] Top shape: 5 128 112 112 (8028160)
I0930 12:46:47.418422  7386 net.cpp:156] Memory required for data: 439541760
I0930 12:46:47.418433  7386 layer_factory.hpp:77] Creating layer relu2_1
I0930 12:46:47.418445  7386 net.cpp:91] Creating Layer relu2_1
I0930 12:46:47.418449  7386 net.cpp:425] relu2_1 <- conv2_1
I0930 12:46:47.418457  7386 net.cpp:386] relu2_1 -> conv2_1 (in-place)
I0930 12:46:47.418702  7386 net.cpp:141] Setting up relu2_1
I0930 12:46:47.418718  7386 net.cpp:148] Top shape: 5 128 112 112 (8028160)
I0930 12:46:47.418721  7386 net.cpp:156] Memory required for data: 471654400
I0930 12:46:47.418725  7386 layer_factory.hpp:77] Creating layer conv2_2
I0930 12:46:47.418735  7386 net.cpp:91] Creating Layer conv2_2
I0930 12:46:47.418740  7386 net.cpp:425] conv2_2 <- conv2_1
I0930 12:46:47.418747  7386 net.cpp:399] conv2_2 -> conv2_2
I0930 12:46:47.420408  7386 net.cpp:141] Setting up conv2_2
I0930 12:46:47.420428  7386 net.cpp:148] Top shape: 5 128 112 112 (8028160)
I0930 12:46:47.420431  7386 net.cpp:156] Memory required for data: 503767040
I0930 12:46:47.420439  7386 layer_factory.hpp:77] Creating layer relu2_2
I0930 12:46:47.420446  7386 net.cpp:91] Creating Layer relu2_2
I0930 12:46:47.420450  7386 net.cpp:425] relu2_2 <- conv2_2
I0930 12:46:47.420459  7386 net.cpp:386] relu2_2 -> conv2_2 (in-place)
I0930 12:46:47.420876  7386 net.cpp:141] Setting up relu2_2
I0930 12:46:47.420892  7386 net.cpp:148] Top shape: 5 128 112 112 (8028160)
I0930 12:46:47.420895  7386 net.cpp:156] Memory required for data: 535879680
I0930 12:46:47.420899  7386 layer_factory.hpp:77] Creating layer conv2_2_relu2_2_0_split
I0930 12:46:47.420907  7386 net.cpp:91] Creating Layer conv2_2_relu2_2_0_split
I0930 12:46:47.420912  7386 net.cpp:425] conv2_2_relu2_2_0_split <- conv2_2
I0930 12:46:47.420920  7386 net.cpp:399] conv2_2_relu2_2_0_split -> conv2_2_relu2_2_0_split_0
I0930 12:46:47.420928  7386 net.cpp:399] conv2_2_relu2_2_0_split -> conv2_2_relu2_2_0_split_1
I0930 12:46:47.420984  7386 net.cpp:141] Setting up conv2_2_relu2_2_0_split
I0930 12:46:47.420994  7386 net.cpp:148] Top shape: 5 128 112 112 (8028160)
I0930 12:46:47.421000  7386 net.cpp:148] Top shape: 5 128 112 112 (8028160)
I0930 12:46:47.421002  7386 net.cpp:156] Memory required for data: 600104960
I0930 12:46:47.421007  7386 layer_factory.hpp:77] Creating layer pool2
I0930 12:46:47.421025  7386 net.cpp:91] Creating Layer pool2
I0930 12:46:47.421031  7386 net.cpp:425] pool2 <- conv2_2_relu2_2_0_split_0
I0930 12:46:47.421041  7386 net.cpp:399] pool2 -> pool2
I0930 12:46:47.421098  7386 net.cpp:141] Setting up pool2
I0930 12:46:47.421108  7386 net.cpp:148] Top shape: 5 128 56 56 (2007040)
I0930 12:46:47.421111  7386 net.cpp:156] Memory required for data: 608133120
I0930 12:46:47.421115  7386 layer_factory.hpp:77] Creating layer conv3_1
I0930 12:46:47.421125  7386 net.cpp:91] Creating Layer conv3_1
I0930 12:46:47.421131  7386 net.cpp:425] conv3_1 <- pool2
I0930 12:46:47.421140  7386 net.cpp:399] conv3_1 -> conv3_1
I0930 12:46:47.423661  7386 net.cpp:141] Setting up conv3_1
I0930 12:46:47.423679  7386 net.cpp:148] Top shape: 5 256 56 56 (4014080)
I0930 12:46:47.423683  7386 net.cpp:156] Memory required for data: 624189440
I0930 12:46:47.423698  7386 layer_factory.hpp:77] Creating layer relu3_1
I0930 12:46:47.423724  7386 net.cpp:91] Creating Layer relu3_1
I0930 12:46:47.423732  7386 net.cpp:425] relu3_1 <- conv3_1
I0930 12:46:47.423741  7386 net.cpp:386] relu3_1 -> conv3_1 (in-place)
I0930 12:46:47.423988  7386 net.cpp:141] Setting up relu3_1
I0930 12:46:47.424002  7386 net.cpp:148] Top shape: 5 256 56 56 (4014080)
I0930 12:46:47.424005  7386 net.cpp:156] Memory required for data: 640245760
I0930 12:46:47.424010  7386 layer_factory.hpp:77] Creating layer conv3_2
I0930 12:46:47.424021  7386 net.cpp:91] Creating Layer conv3_2
I0930 12:46:47.424026  7386 net.cpp:425] conv3_2 <- conv3_1
I0930 12:46:47.424032  7386 net.cpp:399] conv3_2 -> conv3_2
I0930 12:46:47.427269  7386 net.cpp:141] Setting up conv3_2
I0930 12:46:47.427289  7386 net.cpp:148] Top shape: 5 256 56 56 (4014080)
I0930 12:46:47.427292  7386 net.cpp:156] Memory required for data: 656302080
I0930 12:46:47.427299  7386 layer_factory.hpp:77] Creating layer relu3_2
I0930 12:46:47.427311  7386 net.cpp:91] Creating Layer relu3_2
I0930 12:46:47.427316  7386 net.cpp:425] relu3_2 <- conv3_2
I0930 12:46:47.427322  7386 net.cpp:386] relu3_2 -> conv3_2 (in-place)
I0930 12:46:47.427566  7386 net.cpp:141] Setting up relu3_2
I0930 12:46:47.427579  7386 net.cpp:148] Top shape: 5 256 56 56 (4014080)
I0930 12:46:47.427583  7386 net.cpp:156] Memory required for data: 672358400
I0930 12:46:47.427587  7386 layer_factory.hpp:77] Creating layer conv3_3
I0930 12:46:47.427600  7386 net.cpp:91] Creating Layer conv3_3
I0930 12:46:47.427611  7386 net.cpp:425] conv3_3 <- conv3_2
I0930 12:46:47.427619  7386 net.cpp:399] conv3_3 -> conv3_3
I0930 12:46:47.430799  7386 net.cpp:141] Setting up conv3_3
I0930 12:46:47.430816  7386 net.cpp:148] Top shape: 5 256 56 56 (4014080)
I0930 12:46:47.430820  7386 net.cpp:156] Memory required for data: 688414720
I0930 12:46:47.430829  7386 layer_factory.hpp:77] Creating layer relu3_3
I0930 12:46:47.430835  7386 net.cpp:91] Creating Layer relu3_3
I0930 12:46:47.430842  7386 net.cpp:425] relu3_3 <- conv3_3
I0930 12:46:47.430848  7386 net.cpp:386] relu3_3 -> conv3_3 (in-place)
I0930 12:46:47.431267  7386 net.cpp:141] Setting up relu3_3
I0930 12:46:47.431283  7386 net.cpp:148] Top shape: 5 256 56 56 (4014080)
I0930 12:46:47.431287  7386 net.cpp:156] Memory required for data: 704471040
I0930 12:46:47.431290  7386 layer_factory.hpp:77] Creating layer conv3_3_relu3_3_0_split
I0930 12:46:47.431300  7386 net.cpp:91] Creating Layer conv3_3_relu3_3_0_split
I0930 12:46:47.431304  7386 net.cpp:425] conv3_3_relu3_3_0_split <- conv3_3
I0930 12:46:47.431311  7386 net.cpp:399] conv3_3_relu3_3_0_split -> conv3_3_relu3_3_0_split_0
I0930 12:46:47.431321  7386 net.cpp:399] conv3_3_relu3_3_0_split -> conv3_3_relu3_3_0_split_1
I0930 12:46:47.431391  7386 net.cpp:141] Setting up conv3_3_relu3_3_0_split
I0930 12:46:47.431403  7386 net.cpp:148] Top shape: 5 256 56 56 (4014080)
I0930 12:46:47.431411  7386 net.cpp:148] Top shape: 5 256 56 56 (4014080)
I0930 12:46:47.431416  7386 net.cpp:156] Memory required for data: 736583680
I0930 12:46:47.431419  7386 layer_factory.hpp:77] Creating layer pool3
I0930 12:46:47.431428  7386 net.cpp:91] Creating Layer pool3
I0930 12:46:47.431433  7386 net.cpp:425] pool3 <- conv3_3_relu3_3_0_split_0
I0930 12:46:47.431438  7386 net.cpp:399] pool3 -> pool3
I0930 12:46:47.431493  7386 net.cpp:141] Setting up pool3
I0930 12:46:47.431502  7386 net.cpp:148] Top shape: 5 256 28 28 (1003520)
I0930 12:46:47.431506  7386 net.cpp:156] Memory required for data: 740597760
I0930 12:46:47.431512  7386 layer_factory.hpp:77] Creating layer conv4_1
I0930 12:46:47.431524  7386 net.cpp:91] Creating Layer conv4_1
I0930 12:46:47.431530  7386 net.cpp:425] conv4_1 <- pool3
I0930 12:46:47.431537  7386 net.cpp:399] conv4_1 -> conv4_1
I0930 12:46:47.436972  7386 net.cpp:141] Setting up conv4_1
I0930 12:46:47.436991  7386 net.cpp:148] Top shape: 5 512 28 28 (2007040)
I0930 12:46:47.436995  7386 net.cpp:156] Memory required for data: 748625920
I0930 12:46:47.437003  7386 layer_factory.hpp:77] Creating layer relu4_1
I0930 12:46:47.437011  7386 net.cpp:91] Creating Layer relu4_1
I0930 12:46:47.437031  7386 net.cpp:425] relu4_1 <- conv4_1
I0930 12:46:47.437044  7386 net.cpp:386] relu4_1 -> conv4_1 (in-place)
I0930 12:46:47.437292  7386 net.cpp:141] Setting up relu4_1
I0930 12:46:47.437307  7386 net.cpp:148] Top shape: 5 512 28 28 (2007040)
I0930 12:46:47.437311  7386 net.cpp:156] Memory required for data: 756654080
I0930 12:46:47.437314  7386 layer_factory.hpp:77] Creating layer conv4_2
I0930 12:46:47.437326  7386 net.cpp:91] Creating Layer conv4_2
I0930 12:46:47.437330  7386 net.cpp:425] conv4_2 <- conv4_1
I0930 12:46:47.437338  7386 net.cpp:399] conv4_2 -> conv4_2
I0930 12:46:47.444437  7386 net.cpp:141] Setting up conv4_2
I0930 12:46:47.444455  7386 net.cpp:148] Top shape: 5 512 28 28 (2007040)
I0930 12:46:47.444459  7386 net.cpp:156] Memory required for data: 764682240
I0930 12:46:47.444470  7386 layer_factory.hpp:77] Creating layer relu4_2
I0930 12:46:47.444479  7386 net.cpp:91] Creating Layer relu4_2
I0930 12:46:47.444483  7386 net.cpp:425] relu4_2 <- conv4_2
I0930 12:46:47.444489  7386 net.cpp:386] relu4_2 -> conv4_2 (in-place)
I0930 12:46:47.444717  7386 net.cpp:141] Setting up relu4_2
I0930 12:46:47.444732  7386 net.cpp:148] Top shape: 5 512 28 28 (2007040)
I0930 12:46:47.444736  7386 net.cpp:156] Memory required for data: 772710400
I0930 12:46:47.444741  7386 layer_factory.hpp:77] Creating layer conv4_3
I0930 12:46:47.444756  7386 net.cpp:91] Creating Layer conv4_3
I0930 12:46:47.444763  7386 net.cpp:425] conv4_3 <- conv4_2
I0930 12:46:47.444772  7386 net.cpp:399] conv4_3 -> conv4_3
I0930 12:46:47.451733  7386 net.cpp:141] Setting up conv4_3
I0930 12:46:47.451753  7386 net.cpp:148] Top shape: 5 512 28 28 (2007040)
I0930 12:46:47.451757  7386 net.cpp:156] Memory required for data: 780738560
I0930 12:46:47.451764  7386 layer_factory.hpp:77] Creating layer relu4_3
I0930 12:46:47.451771  7386 net.cpp:91] Creating Layer relu4_3
I0930 12:46:47.451776  7386 net.cpp:425] relu4_3 <- conv4_3
I0930 12:46:47.451781  7386 net.cpp:386] relu4_3 -> conv4_3 (in-place)
I0930 12:46:47.452183  7386 net.cpp:141] Setting up relu4_3
I0930 12:46:47.452199  7386 net.cpp:148] Top shape: 5 512 28 28 (2007040)
I0930 12:46:47.452203  7386 net.cpp:156] Memory required for data: 788766720
I0930 12:46:47.452206  7386 layer_factory.hpp:77] Creating layer conv4_3_relu4_3_0_split
I0930 12:46:47.452213  7386 net.cpp:91] Creating Layer conv4_3_relu4_3_0_split
I0930 12:46:47.452216  7386 net.cpp:425] conv4_3_relu4_3_0_split <- conv4_3
I0930 12:46:47.452224  7386 net.cpp:399] conv4_3_relu4_3_0_split -> conv4_3_relu4_3_0_split_0
I0930 12:46:47.452234  7386 net.cpp:399] conv4_3_relu4_3_0_split -> conv4_3_relu4_3_0_split_1
I0930 12:46:47.452297  7386 net.cpp:141] Setting up conv4_3_relu4_3_0_split
I0930 12:46:47.452308  7386 net.cpp:148] Top shape: 5 512 28 28 (2007040)
I0930 12:46:47.452312  7386 net.cpp:148] Top shape: 5 512 28 28 (2007040)
I0930 12:46:47.452316  7386 net.cpp:156] Memory required for data: 804823040
I0930 12:46:47.452318  7386 layer_factory.hpp:77] Creating layer pool4
I0930 12:46:47.452327  7386 net.cpp:91] Creating Layer pool4
I0930 12:46:47.452332  7386 net.cpp:425] pool4 <- conv4_3_relu4_3_0_split_0
I0930 12:46:47.452338  7386 net.cpp:399] pool4 -> pool4
I0930 12:46:47.452390  7386 net.cpp:141] Setting up pool4
I0930 12:46:47.452400  7386 net.cpp:148] Top shape: 5 512 14 14 (501760)
I0930 12:46:47.452404  7386 net.cpp:156] Memory required for data: 806830080
I0930 12:46:47.452409  7386 layer_factory.hpp:77] Creating layer conv5_1
I0930 12:46:47.452422  7386 net.cpp:91] Creating Layer conv5_1
I0930 12:46:47.452427  7386 net.cpp:425] conv5_1 <- pool4
I0930 12:46:47.452433  7386 net.cpp:399] conv5_1 -> conv5_1
I0930 12:46:47.461616  7386 net.cpp:141] Setting up conv5_1
I0930 12:46:47.461664  7386 net.cpp:148] Top shape: 5 512 14 14 (501760)
I0930 12:46:47.461673  7386 net.cpp:156] Memory required for data: 808837120
I0930 12:46:47.461690  7386 layer_factory.hpp:77] Creating layer relu5_1
I0930 12:46:47.461707  7386 net.cpp:91] Creating Layer relu5_1
I0930 12:46:47.461721  7386 net.cpp:425] relu5_1 <- conv5_1
I0930 12:46:47.461768  7386 net.cpp:386] relu5_1 -> conv5_1 (in-place)
I0930 12:46:47.462205  7386 net.cpp:141] Setting up relu5_1
I0930 12:46:47.462229  7386 net.cpp:148] Top shape: 5 512 14 14 (501760)
I0930 12:46:47.462236  7386 net.cpp:156] Memory required for data: 810844160
I0930 12:46:47.462244  7386 layer_factory.hpp:77] Creating layer conv5_2
I0930 12:46:47.462265  7386 net.cpp:91] Creating Layer conv5_2
I0930 12:46:47.462275  7386 net.cpp:425] conv5_2 <- conv5_1
I0930 12:46:47.462292  7386 net.cpp:399] conv5_2 -> conv5_2
I0930 12:46:47.473646  7386 net.cpp:141] Setting up conv5_2
I0930 12:46:47.473676  7386 net.cpp:148] Top shape: 5 512 14 14 (501760)
I0930 12:46:47.473683  7386 net.cpp:156] Memory required for data: 812851200
I0930 12:46:47.473696  7386 layer_factory.hpp:77] Creating layer relu5_2
I0930 12:46:47.473726  7386 net.cpp:91] Creating Layer relu5_2
I0930 12:46:47.473734  7386 net.cpp:425] relu5_2 <- conv5_2
I0930 12:46:47.473748  7386 net.cpp:386] relu5_2 -> conv5_2 (in-place)
I0930 12:46:47.474118  7386 net.cpp:141] Setting up relu5_2
I0930 12:46:47.474139  7386 net.cpp:148] Top shape: 5 512 14 14 (501760)
I0930 12:46:47.474145  7386 net.cpp:156] Memory required for data: 814858240
I0930 12:46:47.474153  7386 layer_factory.hpp:77] Creating layer conv5_3
I0930 12:46:47.474172  7386 net.cpp:91] Creating Layer conv5_3
I0930 12:46:47.474180  7386 net.cpp:425] conv5_3 <- conv5_2
I0930 12:46:47.474192  7386 net.cpp:399] conv5_3 -> conv5_3
I0930 12:46:47.485080  7386 net.cpp:141] Setting up conv5_3
I0930 12:46:47.485118  7386 net.cpp:148] Top shape: 5 512 14 14 (501760)
I0930 12:46:47.485126  7386 net.cpp:156] Memory required for data: 816865280
I0930 12:46:47.485139  7386 layer_factory.hpp:77] Creating layer relu5_3
I0930 12:46:47.485158  7386 net.cpp:91] Creating Layer relu5_3
I0930 12:46:47.485165  7386 net.cpp:425] relu5_3 <- conv5_3
I0930 12:46:47.485174  7386 net.cpp:386] relu5_3 -> conv5_3 (in-place)
I0930 12:46:47.485828  7386 net.cpp:141] Setting up relu5_3
I0930 12:46:47.485853  7386 net.cpp:148] Top shape: 5 512 14 14 (501760)
I0930 12:46:47.485859  7386 net.cpp:156] Memory required for data: 818872320
I0930 12:46:47.485865  7386 layer_factory.hpp:77] Creating layer conv5_3_relu5_3_0_split
I0930 12:46:47.485877  7386 net.cpp:91] Creating Layer conv5_3_relu5_3_0_split
I0930 12:46:47.485883  7386 net.cpp:425] conv5_3_relu5_3_0_split <- conv5_3
I0930 12:46:47.485900  7386 net.cpp:399] conv5_3_relu5_3_0_split -> conv5_3_relu5_3_0_split_0
I0930 12:46:47.485915  7386 net.cpp:399] conv5_3_relu5_3_0_split -> conv5_3_relu5_3_0_split_1
I0930 12:46:47.486016  7386 net.cpp:141] Setting up conv5_3_relu5_3_0_split
I0930 12:46:47.486032  7386 net.cpp:148] Top shape: 5 512 14 14 (501760)
I0930 12:46:47.486040  7386 net.cpp:148] Top shape: 5 512 14 14 (501760)
I0930 12:46:47.486045  7386 net.cpp:156] Memory required for data: 822886400
I0930 12:46:47.486052  7386 layer_factory.hpp:77] Creating layer pool5
I0930 12:46:47.486066  7386 net.cpp:91] Creating Layer pool5
I0930 12:46:47.486074  7386 net.cpp:425] pool5 <- conv5_3_relu5_3_0_split_0
I0930 12:46:47.486086  7386 net.cpp:399] pool5 -> pool5
I0930 12:46:47.486166  7386 net.cpp:141] Setting up pool5
I0930 12:46:47.486181  7386 net.cpp:148] Top shape: 5 512 7 7 (125440)
I0930 12:46:47.486187  7386 net.cpp:156] Memory required for data: 823388160
I0930 12:46:47.486193  7386 layer_factory.hpp:77] Creating layer fc6-conv
I0930 12:46:47.486208  7386 net.cpp:91] Creating Layer fc6-conv
I0930 12:46:47.486217  7386 net.cpp:425] fc6-conv <- pool5
I0930 12:46:47.486229  7386 net.cpp:399] fc6-conv -> fc6-conv
I0930 12:46:47.781826  7386 net.cpp:141] Setting up fc6-conv
I0930 12:46:47.781882  7386 net.cpp:148] Top shape: 5 4096 1 1 (20480)
I0930 12:46:47.781886  7386 net.cpp:156] Memory required for data: 823470080
I0930 12:46:47.781900  7386 layer_factory.hpp:77] Creating layer relu6
I0930 12:46:47.781915  7386 net.cpp:91] Creating Layer relu6
I0930 12:46:47.781922  7386 net.cpp:425] relu6 <- fc6-conv
I0930 12:46:47.781934  7386 net.cpp:386] relu6 -> fc6-conv (in-place)
I0930 12:46:47.782205  7386 net.cpp:141] Setting up relu6
I0930 12:46:47.782220  7386 net.cpp:148] Top shape: 5 4096 1 1 (20480)
I0930 12:46:47.782223  7386 net.cpp:156] Memory required for data: 823552000
I0930 12:46:47.782227  7386 layer_factory.hpp:77] Creating layer drop6
I0930 12:46:47.782238  7386 net.cpp:91] Creating Layer drop6
I0930 12:46:47.782243  7386 net.cpp:425] drop6 <- fc6-conv
I0930 12:46:47.782250  7386 net.cpp:386] drop6 -> fc6-conv (in-place)
I0930 12:46:47.782301  7386 net.cpp:141] Setting up drop6
I0930 12:46:47.782312  7386 net.cpp:148] Top shape: 5 4096 1 1 (20480)
I0930 12:46:47.782315  7386 net.cpp:156] Memory required for data: 823633920
I0930 12:46:47.782320  7386 layer_factory.hpp:77] Creating layer fc7-conv
I0930 12:46:47.782335  7386 net.cpp:91] Creating Layer fc7-conv
I0930 12:46:47.782341  7386 net.cpp:425] fc7-conv <- fc6-conv
I0930 12:46:47.782347  7386 net.cpp:399] fc7-conv -> fc7-conv
I0930 12:46:47.833880  7386 net.cpp:141] Setting up fc7-conv
I0930 12:46:47.833931  7386 net.cpp:148] Top shape: 5 4096 1 1 (20480)
I0930 12:46:47.833935  7386 net.cpp:156] Memory required for data: 823715840
I0930 12:46:47.833951  7386 layer_factory.hpp:77] Creating layer relu7
I0930 12:46:47.833966  7386 net.cpp:91] Creating Layer relu7
I0930 12:46:47.833972  7386 net.cpp:425] relu7 <- fc7-conv
I0930 12:46:47.833981  7386 net.cpp:386] relu7 -> fc7-conv (in-place)
I0930 12:46:47.834228  7386 net.cpp:141] Setting up relu7
I0930 12:46:47.834241  7386 net.cpp:148] Top shape: 5 4096 1 1 (20480)
I0930 12:46:47.834245  7386 net.cpp:156] Memory required for data: 823797760
I0930 12:46:47.834249  7386 layer_factory.hpp:77] Creating layer hypercolumns
I0930 12:46:47.834262  7386 net.cpp:91] Creating Layer hypercolumns
I0930 12:46:47.834267  7386 net.cpp:425] hypercolumns <- normal
I0930 12:46:47.834273  7386 net.cpp:425] hypercolumns <- conv1_2_relu1_2_0_split_1
I0930 12:46:47.834280  7386 net.cpp:425] hypercolumns <- conv2_2_relu2_2_0_split_1
I0930 12:46:47.834285  7386 net.cpp:425] hypercolumns <- conv3_3_relu3_3_0_split_1
I0930 12:46:47.834288  7386 net.cpp:425] hypercolumns <- conv4_3_relu4_3_0_split_1
I0930 12:46:47.834293  7386 net.cpp:425] hypercolumns <- conv5_3_relu5_3_0_split_1
I0930 12:46:47.834297  7386 net.cpp:425] hypercolumns <- fc7-conv
I0930 12:46:47.834308  7386 net.cpp:399] hypercolumns -> hypercolumns
I0930 12:46:47.834334  7386 net.cpp:399] hypercolumns -> normal_point
I0930 12:46:47.834405  7386 net.cpp:141] Setting up hypercolumns
I0930 12:46:47.834419  7386 net.cpp:148] Top shape: 5000 5568 1 1 (27840000)
I0930 12:46:47.834422  7386 net.cpp:148] Top shape: 5000 3 (15000)
I0930 12:46:47.834425  7386 net.cpp:156] Memory required for data: 935217760
I0930 12:46:47.834430  7386 layer_factory.hpp:77] Creating layer fc1
I0930 12:46:47.834444  7386 net.cpp:91] Creating Layer fc1
I0930 12:46:47.834450  7386 net.cpp:425] fc1 <- hypercolumns
I0930 12:46:47.834457  7386 net.cpp:399] fc1 -> fc1
I0930 12:46:48.158527  7386 net.cpp:141] Setting up fc1
I0930 12:46:48.158601  7386 net.cpp:148] Top shape: 5000 4096 (20480000)
I0930 12:46:48.158606  7386 net.cpp:156] Memory required for data: 1017137760
I0930 12:46:48.158641  7386 layer_factory.hpp:77] Creating layer relu1
I0930 12:46:48.158673  7386 net.cpp:91] Creating Layer relu1
I0930 12:46:48.158681  7386 net.cpp:425] relu1 <- fc1
I0930 12:46:48.158695  7386 net.cpp:386] relu1 -> fc1 (in-place)
I0930 12:46:48.159936  7386 net.cpp:141] Setting up relu1
I0930 12:46:48.159953  7386 net.cpp:148] Top shape: 5000 4096 (20480000)
I0930 12:46:48.159956  7386 net.cpp:156] Memory required for data: 1099057760
I0930 12:46:48.159960  7386 layer_factory.hpp:77] Creating layer drop1
I0930 12:46:48.159991  7386 net.cpp:91] Creating Layer drop1
I0930 12:46:48.159997  7386 net.cpp:425] drop1 <- fc1
I0930 12:46:48.160004  7386 net.cpp:386] drop1 -> fc1 (in-place)
I0930 12:46:48.160050  7386 net.cpp:141] Setting up drop1
I0930 12:46:48.160060  7386 net.cpp:148] Top shape: 5000 4096 (20480000)
I0930 12:46:48.160063  7386 net.cpp:156] Memory required for data: 1180977760
I0930 12:46:48.160102  7386 layer_factory.hpp:77] Creating layer fc2
I0930 12:46:48.160128  7386 net.cpp:91] Creating Layer fc2
I0930 12:46:48.160135  7386 net.cpp:425] fc2 <- fc1
I0930 12:46:48.160143  7386 net.cpp:399] fc2 -> fc2
I0930 12:46:48.375643  7386 net.cpp:141] Setting up fc2
I0930 12:46:48.375705  7386 net.cpp:148] Top shape: 5000 4096 (20480000)
I0930 12:46:48.375708  7386 net.cpp:156] Memory required for data: 1262897760
I0930 12:46:48.375767  7386 layer_factory.hpp:77] Creating layer relu2
I0930 12:46:48.375782  7386 net.cpp:91] Creating Layer relu2
I0930 12:46:48.375790  7386 net.cpp:425] relu2 <- fc2
I0930 12:46:48.375802  7386 net.cpp:386] relu2 -> fc2 (in-place)
I0930 12:46:48.376399  7386 net.cpp:141] Setting up relu2
I0930 12:46:48.376412  7386 net.cpp:148] Top shape: 5000 4096 (20480000)
I0930 12:46:48.376426  7386 net.cpp:156] Memory required for data: 1344817760
I0930 12:46:48.376430  7386 layer_factory.hpp:77] Creating layer drop2
I0930 12:46:48.376440  7386 net.cpp:91] Creating Layer drop2
I0930 12:46:48.376443  7386 net.cpp:425] drop2 <- fc2
I0930 12:46:48.376449  7386 net.cpp:386] drop2 -> fc2 (in-place)
I0930 12:46:48.376498  7386 net.cpp:141] Setting up drop2
I0930 12:46:48.376507  7386 net.cpp:148] Top shape: 5000 4096 (20480000)
I0930 12:46:48.376510  7386 net.cpp:156] Memory required for data: 1426737760
I0930 12:46:48.376514  7386 layer_factory.hpp:77] Creating layer fc3
I0930 12:46:48.376525  7386 net.cpp:91] Creating Layer fc3
I0930 12:46:48.376533  7386 net.cpp:425] fc3 <- fc2
I0930 12:46:48.376540  7386 net.cpp:399] fc3 -> fc3
I0930 12:46:48.376829  7386 net.cpp:141] Setting up fc3
I0930 12:46:48.376842  7386 net.cpp:148] Top shape: 5000 3 (15000)
I0930 12:46:48.376844  7386 net.cpp:156] Memory required for data: 1426797760
I0930 12:46:48.376850  7386 layer_factory.hpp:77] Creating layer loss
I0930 12:46:48.376858  7386 net.cpp:91] Creating Layer loss
I0930 12:46:48.376862  7386 net.cpp:425] loss <- fc3
I0930 12:46:48.376866  7386 net.cpp:425] loss <- normal_point
I0930 12:46:48.376871  7386 net.cpp:399] loss -> loss
I0930 12:46:48.376929  7386 net.cpp:141] Setting up loss
…
