…
I0726 16:36:21.255903  4826 solver.cpp:91] Creating training net from net file: /home/qinhong/project/normal_recovery/model/t4/train.prototxt
I0726 16:36:21.256615  4826 net.cpp:49] Initializing net from parameters: 
name: "hyper_normal_layers"
state {
  phase: TRAIN
}
layer {
  name: "data"
  type: "ImageNormalData"
  top: "data"
  top: "normal"
  transform_param {
    mirror: true
    mean_value: 104
    mean_value: 117
    mean_value: 123
  }
  image_data_param {
    source: "/home/qinhong/project/normal_recovery/data/source.txt"
    batch_size: 8
    shuffle: true
    new_height: 224
    new_width: 224
  }
}
layer {
  name: "conv1_1"
  type: "Convolution"
  bottom: "data"
  top: "conv1_1"
  param {
    lr_mult: 1
    decay_mult: 1
  }
  param {
    lr_mult: 2
    decay_mult: 0
  }
  convolution_param {
    num_output: 64
    pad: 1
    kernel_size: 3
  }
}
layer {
  name: "relu1_1"
  type: "ReLU"
  bottom: "conv1_1"
  top: "conv1_1"
}
layer {
  name: "conv1_2"
  type: "Convolution"
  bottom: "conv1_1"
  top: "conv1_2"
  param {
    lr_mult: 1
    decay_mult: 1
  }
  param {
    lr_mult: 2
    decay_mult: 0
  }
  convolution_param {
    num_output: 64
    pad: 1
    kernel_size: 3
  }
}
layer {
  name: "relu1_2"
  type: "ReLU"
  bottom: "conv1_2"
  top: "conv1_2"
}
layer {
  name: "pool1"
  type: "Pooling"
  bottom: "conv1_2"
  top: "pool1"
  pooling_param {
    pool: MAX
    kernel_size: 2
    stride: 2
  }
}
layer {
  name: "conv2_1"
  type: "Convolution"
  bottom: "pool1"
  top: "conv2_1"
  param {
    lr_mult: 1
    decay_mult: 1
  }
  param {
    lr_mult: 2
    decay_mult: 0
  }
  convolution_param {
    num_output: 128
    pad: 1
    kernel_size: 3
  }
}
layer {
  name: "relu2_1"
  type: "ReLU"
  bottom: "conv2_1"
  top: "conv2_1"
}
layer {
  name: "conv2_2"
  type: "Convolution"
  bottom: "conv2_1"
  top: "conv2_2"
  param {
    lr_mult: 1
    decay_mult: 1
  }
  param {
    lr_mult: 2
    decay_mult: 0
  }
  convolution_param {
    num_output: 128
    pad: 1
    kernel_size: 3
  }
}
layer {
  name: "relu2_2"
  type: "ReLU"
  bottom: "conv2_2"
  top: "conv2_2"
}
layer {
  name: "pool2"
  type: "Pooling"
  bottom: "conv2_2"
  top: "pool2"
  pooling_param {
    pool: MAX
    kernel_size: 2
    stride: 2
  }
}
layer {
  name: "conv3_1"
  type: "Convolution"
  bottom: "pool2"
  top: "conv3_1"
  param {
    lr_mult: 1
    decay_mult: 1
  }
  param {
    lr_mult: 2
    decay_mult: 0
  }
  convolution_param {
    num_output: 256
    pad: 1
    kernel_size: 3
  }
}
layer {
  name: "relu3_1"
  type: "ReLU"
  bottom: "conv3_1"
  top: "conv3_1"
}
layer {
  name: "conv3_2"
  type: "Convolution"
  bottom: "conv3_1"
  top: "conv3_2"
  param {
    lr_mult: 1
    decay_mult: 1
  }
  param {
    lr_mult: 2
    decay_mult: 0
  }
  convolution_param {
    num_output: 256
    pad: 1
    kernel_size: 3
  }
}
layer {
  name: "relu3_2"
  type: "ReLU"
  bottom: "conv3_2"
  top: "conv3_2"
}
layer {
  name: "conv3_3"
  type: "Convolution"
  bottom: "conv3_2"
  top: "conv3_3"
  param {
    lr_mult: 1
    decay_mult: 1
  }
  param {
    lr_mult: 2
    decay_mult: 0
  }
  convolution_param {
    num_output: 256
    pad: 1
    kernel_size: 3
  }
}
layer {
  name: "relu3_3"
  type: "ReLU"
  bottom: "conv3_3"
  top: "conv3_3"
}
layer {
  name: "pool3"
  type: "Pooling"
  bottom: "conv3_3"
  top: "pool3"
  pooling_param {
    pool: MAX
    kernel_size: 2
    stride: 2
  }
}
layer {
  name: "conv4_1"
  type: "Convolution"
  bottom: "pool3"
  top: "conv4_1"
  param {
    lr_mult: 1
    decay_mult: 1
  }
  param {
    lr_mult: 2
    decay_mult: 0
  }
  convolution_param {
    num_output: 512
    pad: 1
    kernel_size: 3
  }
}
layer {
  name: "relu4_1"
  type: "ReLU"
  bottom: "conv4_1"
  top: "conv4_1"
}
layer {
  name: "conv4_2"
  type: "Convolution"
  bottom: "conv4_1"
  top: "conv4_2"
  param {
    lr_mult: 1
    decay_mult: 1
  }
  param {
    lr_mult: 2
    decay_mult: 0
  }
  convolution_param {
    num_output: 512
    pad: 1
    kernel_size: 3
  }
}
layer {
  name: "relu4_2"
  type: "ReLU"
  bottom: "conv4_2"
  top: "conv4_2"
}
layer {
  name: "conv4_3"
  type: "Convolution"
  bottom: "conv4_2"
  top: "conv4_3"
  param {
    lr_mult: 1
    decay_mult: 1
  }
  param {
    lr_mult: 2
    decay_mult: 0
  }
  convolution_param {
    num_output: 512
    pad: 1
    kernel_size: 3
  }
}
layer {
  name: "relu4_3"
  type: "ReLU"
  bottom: "conv4_3"
  top: "conv4_3"
}
layer {
  name: "pool4"
  type: "Pooling"
  bottom: "conv4_3"
  top: "pool4"
  pooling_param {
    pool: MAX
    kernel_size: 2
    stride: 2
  }
}
layer {
  name: "conv5_1"
  type: "Convolution"
  bottom: "pool4"
  top: "conv5_1"
  param {
    lr_mult: 1
    decay_mult: 1
  }
  param {
    lr_mult: 2
    decay_mult: 0
  }
  convolution_param {
    num_output: 512
    pad: 1
    kernel_size: 3
  }
}
layer {
  name: "relu5_1"
  type: "ReLU"
  bottom: "conv5_1"
  top: "conv5_1"
}
layer {
  name: "conv5_2"
  type: "Convolution"
  bottom: "conv5_1"
  top: "conv5_2"
  param {
    lr_mult: 1
    decay_mult: 1
  }
  param {
    lr_mult: 2
    decay_mult: 0
  }
  convolution_param {
    num_output: 512
    pad: 1
    kernel_size: 3
  }
}
layer {
  name: "relu5_2"
  type: "ReLU"
  bottom: "conv5_2"
  top: "conv5_2"
}
layer {
  name: "conv5_3"
  type: "Convolution"
  bottom: "conv5_2"
  top: "conv5_3"
  param {
    lr_mult: 1
    decay_mult: 1
  }
  param {
    lr_mult: 2
    decay_mult: 0
  }
  convolution_param {
    num_output: 512
    pad: 1
    kernel_size: 3
  }
}
layer {
  name: "relu5_3"
  type: "ReLU"
  bottom: "conv5_3"
  top: "conv5_3"
}
layer {
  name: "pool5"
  type: "Pooling"
  bottom: "conv5_3"
  top: "pool5"
  pooling_param {
    pool: MAX
    kernel_size: 2
    stride: 2
  }
}
layer {
  name: "fc6-conv"
  type: "Convolution"
  bottom: "pool5"
  top: "fc6-conv"
  param {
    lr_mult: 1
    decay_mult: 1
  }
  param {
    lr_mult: 2
    decay_mult: 0
  }
  convolution_param {
    num_output: 4096
    kernel_size: 7
  }
}
layer {
  name: "relu6"
  type: "ReLU"
  bottom: "fc6-conv"
  top: "fc6-conv"
}
layer {
  name: "drop6"
  type: "Dropout"
  bottom: "fc6-conv"
  top: "fc6-conv"
  dropout_param {
    dropout_ratio: 0.5
  }
}
layer {
  name: "fc7-conv"
  type: "Convolution"
  bottom: "fc6-conv"
  top: "fc7-conv"
  param {
    lr_mult: 1
    decay_mult: 1
  }
  param {
    lr_mult: 2
    decay_mult: 0
  }
  convolution_param {
    num_output: 4096
    kernel_size: 1
  }
}
layer {
  name: "relu7"
  type: "ReLU"
  bottom: "fc7-conv"
  top: "fc7-conv"
}
layer {
  name: "hypercolumns"
  type: "HyperColumns"
  bottom: "normal"
  bottom: "conv1_2"
  bottom: "conv2_2"
  bottom: "conv3_3"
  bottom: "conv4_3"
  bottom: "conv5_3"
  bottom: "fc7-conv"
  top: "hypercolumns"
  top: "normal_point"
  hypercolumns_param {
    is_train: true
  }
}
layer {
  name: "fc1"
  type: "InnerProduct"
  bottom: "hypercolumns"
  top: "fc1"
  param {
    lr_mult: 1
    decay_mult: 1
  }
  param {
    lr_mult: 2
    decay_mult: 0
  }
  inner_product_param {
    num_output: 4096
    weight_filler {
      type: "gaussian"
      std: 0.003
    }
    bias_filler {
      type: "constant"
      value: 0
    }
  }
}
layer {
  name: "relu1"
  type: "ReLU"
  bottom: "fc1"
  top: "fc1"
}
layer {
  name: "drop1"
  type: "Dropout"
  bottom: "fc1"
  top: "fc1"
  dropout_param {
    dropout_ratio: 0.5
  }
}
layer {
  name: "fc2"
  type: "InnerProduct"
  bottom: "fc1"
  top: "fc2"
  param {
    lr_mult: 1
    decay_mult: 1
  }
  param {
    lr_mult: 2
    decay_mult: 0
  }
  inner_product_param {
    num_output: 4096
    weight_filler {
      type: "gaussian"
      std: 0.002
    }
    bias_filler {
      type: "constant"
      value: 0
    }
  }
}
layer {
  name: "relu2"
  type: "ReLU"
  bottom: "fc2"
  top: "fc2"
}
layer {
  name: "drop2"
  type: "Dropout"
  bottom: "fc2"
  top: "fc2"
  dropout_param {
    dropout_ratio: 0.5
  }
}
layer {
  name: "fc3"
  type: "InnerProduct"
  bottom: "fc2"
  top: "fc3"
  param {
    lr_mult: 1
    decay_mult: 1
  }
  param {
    lr_mult: 2
    decay_mult: 0
  }
  inner_product_param {
    num_output: 3
    weight_filler {
      type: "gaussian"
      std: 0.001
    }
    bias_filler {
      type: "constant"
      value: 0
    }
  }
}
layer {
  name: "loss"
  type: "EuclideanLoss"
  bottom: "fc3"
  bottom: "normal_point"
  top: "loss"
  propagate_down: true
  propagate_down: false
}
I0726 16:36:21.256862  4826 layer_factory.hpp:77] Creating layer data
I0726 16:36:21.256902  4826 net.cpp:91] Creating Layer data
I0726 16:36:21.256909  4826 net.cpp:399] data -> data
I0726 16:36:21.256935  4826 net.cpp:399] data -> normal
I0726 16:36:21.257316  4826 image_normal_data_layer.cpp:43] opeing file /home/qinhong/project/normal_recovery/data/source.txt
I0726 16:36:21.261813  4826 image_normal_data_layer.cpp:54] Shuffing data
I0726 16:36:21.262785  4826 image_normal_data_layer.cpp:59] A total of 4105 images.
I0726 16:36:21.286823  4826 image_normal_data_layer.cpp:79] output data size: 8,3,224,224
I0726 16:36:21.303001  4826 net.cpp:141] Setting up data
I0726 16:36:21.303041  4826 net.cpp:148] Top shape: 8 3 224 224 (1204224)
I0726 16:36:21.303047  4826 net.cpp:148] Top shape: 8 3 224 224 (1204224)
I0726 16:36:21.303051  4826 net.cpp:156] Memory required for data: 9633792
I0726 16:36:21.303058  4826 layer_factory.hpp:77] Creating layer conv1_1
I0726 16:36:21.303079  4826 net.cpp:91] Creating Layer conv1_1
I0726 16:36:21.303086  4826 net.cpp:425] conv1_1 <- data
I0726 16:36:21.303100  4826 net.cpp:399] conv1_1 -> conv1_1
I0726 16:36:21.489446  4826 net.cpp:141] Setting up conv1_1
I0726 16:36:21.489477  4826 net.cpp:148] Top shape: 8 64 224 224 (25690112)
I0726 16:36:21.489481  4826 net.cpp:156] Memory required for data: 112394240
I0726 16:36:21.489506  4826 layer_factory.hpp:77] Creating layer relu1_1
I0726 16:36:21.489519  4826 net.cpp:91] Creating Layer relu1_1
I0726 16:36:21.489524  4826 net.cpp:425] relu1_1 <- conv1_1
I0726 16:36:21.489531  4826 net.cpp:386] relu1_1 -> conv1_1 (in-place)
I0726 16:36:21.489841  4826 net.cpp:141] Setting up relu1_1
I0726 16:36:21.489857  4826 net.cpp:148] Top shape: 8 64 224 224 (25690112)
I0726 16:36:21.489861  4826 net.cpp:156] Memory required for data: 215154688
I0726 16:36:21.489866  4826 layer_factory.hpp:77] Creating layer conv1_2
I0726 16:36:21.489876  4826 net.cpp:91] Creating Layer conv1_2
I0726 16:36:21.489882  4826 net.cpp:425] conv1_2 <- conv1_1
I0726 16:36:21.489888  4826 net.cpp:399] conv1_2 -> conv1_2
I0726 16:36:21.490923  4826 net.cpp:141] Setting up conv1_2
I0726 16:36:21.490938  4826 net.cpp:148] Top shape: 8 64 224 224 (25690112)
I0726 16:36:21.490942  4826 net.cpp:156] Memory required for data: 317915136
I0726 16:36:21.490952  4826 layer_factory.hpp:77] Creating layer relu1_2
I0726 16:36:21.490960  4826 net.cpp:91] Creating Layer relu1_2
I0726 16:36:21.490965  4826 net.cpp:425] relu1_2 <- conv1_2
I0726 16:36:21.490970  4826 net.cpp:386] relu1_2 -> conv1_2 (in-place)
I0726 16:36:21.491246  4826 net.cpp:141] Setting up relu1_2
I0726 16:36:21.491261  4826 net.cpp:148] Top shape: 8 64 224 224 (25690112)
I0726 16:36:21.491263  4826 net.cpp:156] Memory required for data: 420675584
I0726 16:36:21.491267  4826 layer_factory.hpp:77] Creating layer conv1_2_relu1_2_0_split
I0726 16:36:21.491274  4826 net.cpp:91] Creating Layer conv1_2_relu1_2_0_split
I0726 16:36:21.491277  4826 net.cpp:425] conv1_2_relu1_2_0_split <- conv1_2
I0726 16:36:21.491283  4826 net.cpp:399] conv1_2_relu1_2_0_split -> conv1_2_relu1_2_0_split_0
I0726 16:36:21.491292  4826 net.cpp:399] conv1_2_relu1_2_0_split -> conv1_2_relu1_2_0_split_1
I0726 16:36:21.491334  4826 net.cpp:141] Setting up conv1_2_relu1_2_0_split
I0726 16:36:21.491343  4826 net.cpp:148] Top shape: 8 64 224 224 (25690112)
I0726 16:36:21.491346  4826 net.cpp:148] Top shape: 8 64 224 224 (25690112)
I0726 16:36:21.491349  4826 net.cpp:156] Memory required for data: 626196480
I0726 16:36:21.491374  4826 layer_factory.hpp:77] Creating layer pool1
I0726 16:36:21.491382  4826 net.cpp:91] Creating Layer pool1
I0726 16:36:21.491385  4826 net.cpp:425] pool1 <- conv1_2_relu1_2_0_split_0
I0726 16:36:21.491390  4826 net.cpp:399] pool1 -> pool1
I0726 16:36:21.491439  4826 net.cpp:141] Setting up pool1
I0726 16:36:21.491448  4826 net.cpp:148] Top shape: 8 64 112 112 (6422528)
I0726 16:36:21.491451  4826 net.cpp:156] Memory required for data: 651886592
I0726 16:36:21.491456  4826 layer_factory.hpp:77] Creating layer conv2_1
I0726 16:36:21.491462  4826 net.cpp:91] Creating Layer conv2_1
I0726 16:36:21.491466  4826 net.cpp:425] conv2_1 <- pool1
I0726 16:36:21.491472  4826 net.cpp:399] conv2_1 -> conv2_1
I0726 16:36:21.493728  4826 net.cpp:141] Setting up conv2_1
I0726 16:36:21.493746  4826 net.cpp:148] Top shape: 8 128 112 112 (12845056)
I0726 16:36:21.493752  4826 net.cpp:156] Memory required for data: 703266816
I0726 16:36:21.493768  4826 layer_factory.hpp:77] Creating layer relu2_1
I0726 16:36:21.493777  4826 net.cpp:91] Creating Layer relu2_1
I0726 16:36:21.493780  4826 net.cpp:425] relu2_1 <- conv2_1
I0726 16:36:21.493788  4826 net.cpp:386] relu2_1 -> conv2_1 (in-place)
I0726 16:36:21.493983  4826 net.cpp:141] Setting up relu2_1
I0726 16:36:21.493993  4826 net.cpp:148] Top shape: 8 128 112 112 (12845056)
I0726 16:36:21.493998  4826 net.cpp:156] Memory required for data: 754647040
I0726 16:36:21.494000  4826 layer_factory.hpp:77] Creating layer conv2_2
I0726 16:36:21.494009  4826 net.cpp:91] Creating Layer conv2_2
I0726 16:36:21.494016  4826 net.cpp:425] conv2_2 <- conv2_1
I0726 16:36:21.494024  4826 net.cpp:399] conv2_2 -> conv2_2
I0726 16:36:21.495206  4826 net.cpp:141] Setting up conv2_2
I0726 16:36:21.495223  4826 net.cpp:148] Top shape: 8 128 112 112 (12845056)
I0726 16:36:21.495228  4826 net.cpp:156] Memory required for data: 806027264
I0726 16:36:21.495234  4826 layer_factory.hpp:77] Creating layer relu2_2
I0726 16:36:21.495240  4826 net.cpp:91] Creating Layer relu2_2
I0726 16:36:21.495244  4826 net.cpp:425] relu2_2 <- conv2_2
I0726 16:36:21.495249  4826 net.cpp:386] relu2_2 -> conv2_2 (in-place)
I0726 16:36:21.495558  4826 net.cpp:141] Setting up relu2_2
I0726 16:36:21.495570  4826 net.cpp:148] Top shape: 8 128 112 112 (12845056)
I0726 16:36:21.495574  4826 net.cpp:156] Memory required for data: 857407488
I0726 16:36:21.495579  4826 layer_factory.hpp:77] Creating layer conv2_2_relu2_2_0_split
I0726 16:36:21.495585  4826 net.cpp:91] Creating Layer conv2_2_relu2_2_0_split
I0726 16:36:21.495589  4826 net.cpp:425] conv2_2_relu2_2_0_split <- conv2_2
I0726 16:36:21.495596  4826 net.cpp:399] conv2_2_relu2_2_0_split -> conv2_2_relu2_2_0_split_0
I0726 16:36:21.495604  4826 net.cpp:399] conv2_2_relu2_2_0_split -> conv2_2_relu2_2_0_split_1
I0726 16:36:21.495649  4826 net.cpp:141] Setting up conv2_2_relu2_2_0_split
I0726 16:36:21.495658  4826 net.cpp:148] Top shape: 8 128 112 112 (12845056)
I0726 16:36:21.495663  4826 net.cpp:148] Top shape: 8 128 112 112 (12845056)
I0726 16:36:21.495666  4826 net.cpp:156] Memory required for data: 960167936
I0726 16:36:21.495668  4826 layer_factory.hpp:77] Creating layer pool2
I0726 16:36:21.495674  4826 net.cpp:91] Creating Layer pool2
I0726 16:36:21.495678  4826 net.cpp:425] pool2 <- conv2_2_relu2_2_0_split_0
I0726 16:36:21.495683  4826 net.cpp:399] pool2 -> pool2
I0726 16:36:21.495724  4826 net.cpp:141] Setting up pool2
I0726 16:36:21.495731  4826 net.cpp:148] Top shape: 8 128 56 56 (3211264)
I0726 16:36:21.495734  4826 net.cpp:156] Memory required for data: 973012992
I0726 16:36:21.495738  4826 layer_factory.hpp:77] Creating layer conv3_1
I0726 16:36:21.495745  4826 net.cpp:91] Creating Layer conv3_1
I0726 16:36:21.495749  4826 net.cpp:425] conv3_1 <- pool2
I0726 16:36:21.495756  4826 net.cpp:399] conv3_1 -> conv3_1
I0726 16:36:21.497483  4826 net.cpp:141] Setting up conv3_1
I0726 16:36:21.497499  4826 net.cpp:148] Top shape: 8 256 56 56 (6422528)
I0726 16:36:21.497503  4826 net.cpp:156] Memory required for data: 998703104
I0726 16:36:21.497512  4826 layer_factory.hpp:77] Creating layer relu3_1
I0726 16:36:21.497534  4826 net.cpp:91] Creating Layer relu3_1
I0726 16:36:21.497541  4826 net.cpp:425] relu3_1 <- conv3_1
I0726 16:36:21.497547  4826 net.cpp:386] relu3_1 -> conv3_1 (in-place)
I0726 16:36:21.497864  4826 net.cpp:141] Setting up relu3_1
I0726 16:36:21.497879  4826 net.cpp:148] Top shape: 8 256 56 56 (6422528)
I0726 16:36:21.497882  4826 net.cpp:156] Memory required for data: 1024393216
I0726 16:36:21.497885  4826 layer_factory.hpp:77] Creating layer conv3_2
I0726 16:36:21.497897  4826 net.cpp:91] Creating Layer conv3_2
I0726 16:36:21.497902  4826 net.cpp:425] conv3_2 <- conv3_1
I0726 16:36:21.497908  4826 net.cpp:399] conv3_2 -> conv3_2
I0726 16:36:21.500416  4826 net.cpp:141] Setting up conv3_2
I0726 16:36:21.500433  4826 net.cpp:148] Top shape: 8 256 56 56 (6422528)
I0726 16:36:21.500440  4826 net.cpp:156] Memory required for data: 1050083328
I0726 16:36:21.500447  4826 layer_factory.hpp:77] Creating layer relu3_2
I0726 16:36:21.500458  4826 net.cpp:91] Creating Layer relu3_2
I0726 16:36:21.500463  4826 net.cpp:425] relu3_2 <- conv3_2
I0726 16:36:21.500468  4826 net.cpp:386] relu3_2 -> conv3_2 (in-place)
I0726 16:36:21.500660  4826 net.cpp:141] Setting up relu3_2
I0726 16:36:21.500670  4826 net.cpp:148] Top shape: 8 256 56 56 (6422528)
I0726 16:36:21.500674  4826 net.cpp:156] Memory required for data: 1075773440
I0726 16:36:21.500677  4826 layer_factory.hpp:77] Creating layer conv3_3
I0726 16:36:21.500687  4826 net.cpp:91] Creating Layer conv3_3
I0726 16:36:21.500694  4826 net.cpp:425] conv3_3 <- conv3_2
I0726 16:36:21.500700  4826 net.cpp:399] conv3_3 -> conv3_3
I0726 16:36:21.503306  4826 net.cpp:141] Setting up conv3_3
I0726 16:36:21.503324  4826 net.cpp:148] Top shape: 8 256 56 56 (6422528)
I0726 16:36:21.503329  4826 net.cpp:156] Memory required for data: 1101463552
I0726 16:36:21.503335  4826 layer_factory.hpp:77] Creating layer relu3_3
I0726 16:36:21.503341  4826 net.cpp:91] Creating Layer relu3_3
I0726 16:36:21.503346  4826 net.cpp:425] relu3_3 <- conv3_3
I0726 16:36:21.503351  4826 net.cpp:386] relu3_3 -> conv3_3 (in-place)
I0726 16:36:21.503671  4826 net.cpp:141] Setting up relu3_3
I0726 16:36:21.503685  4826 net.cpp:148] Top shape: 8 256 56 56 (6422528)
I0726 16:36:21.503690  4826 net.cpp:156] Memory required for data: 1127153664
I0726 16:36:21.503692  4826 layer_factory.hpp:77] Creating layer conv3_3_relu3_3_0_split
I0726 16:36:21.503700  4826 net.cpp:91] Creating Layer conv3_3_relu3_3_0_split
I0726 16:36:21.503702  4826 net.cpp:425] conv3_3_relu3_3_0_split <- conv3_3
I0726 16:36:21.503710  4826 net.cpp:399] conv3_3_relu3_3_0_split -> conv3_3_relu3_3_0_split_0
I0726 16:36:21.503718  4826 net.cpp:399] conv3_3_relu3_3_0_split -> conv3_3_relu3_3_0_split_1
I0726 16:36:21.503770  4826 net.cpp:141] Setting up conv3_3_relu3_3_0_split
I0726 16:36:21.503778  4826 net.cpp:148] Top shape: 8 256 56 56 (6422528)
I0726 16:36:21.503783  4826 net.cpp:148] Top shape: 8 256 56 56 (6422528)
I0726 16:36:21.503787  4826 net.cpp:156] Memory required for data: 1178533888
I0726 16:36:21.503790  4826 layer_factory.hpp:77] Creating layer pool3
I0726 16:36:21.503798  4826 net.cpp:91] Creating Layer pool3
I0726 16:36:21.503801  4826 net.cpp:425] pool3 <- conv3_3_relu3_3_0_split_0
I0726 16:36:21.503806  4826 net.cpp:399] pool3 -> pool3
I0726 16:36:21.503847  4826 net.cpp:141] Setting up pool3
I0726 16:36:21.503855  4826 net.cpp:148] Top shape: 8 256 28 28 (1605632)
I0726 16:36:21.503859  4826 net.cpp:156] Memory required for data: 1184956416
I0726 16:36:21.503861  4826 layer_factory.hpp:77] Creating layer conv4_1
I0726 16:36:21.503870  4826 net.cpp:91] Creating Layer conv4_1
I0726 16:36:21.503873  4826 net.cpp:425] conv4_1 <- pool3
I0726 16:36:21.503878  4826 net.cpp:399] conv4_1 -> conv4_1
I0726 16:36:21.508050  4826 net.cpp:141] Setting up conv4_1
I0726 16:36:21.508067  4826 net.cpp:148] Top shape: 8 512 28 28 (3211264)
I0726 16:36:21.508071  4826 net.cpp:156] Memory required for data: 1197801472
I0726 16:36:21.508079  4826 layer_factory.hpp:77] Creating layer relu4_1
I0726 16:36:21.508100  4826 net.cpp:91] Creating Layer relu4_1
I0726 16:36:21.508105  4826 net.cpp:425] relu4_1 <- conv4_1
I0726 16:36:21.508111  4826 net.cpp:386] relu4_1 -> conv4_1 (in-place)
I0726 16:36:21.508422  4826 net.cpp:141] Setting up relu4_1
I0726 16:36:21.508436  4826 net.cpp:148] Top shape: 8 512 28 28 (3211264)
I0726 16:36:21.508440  4826 net.cpp:156] Memory required for data: 1210646528
I0726 16:36:21.508443  4826 layer_factory.hpp:77] Creating layer conv4_2
I0726 16:36:21.508455  4826 net.cpp:91] Creating Layer conv4_2
I0726 16:36:21.508460  4826 net.cpp:425] conv4_2 <- conv4_1
I0726 16:36:21.508467  4826 net.cpp:399] conv4_2 -> conv4_2
I0726 16:36:21.514812  4826 net.cpp:141] Setting up conv4_2
I0726 16:36:21.514829  4826 net.cpp:148] Top shape: 8 512 28 28 (3211264)
I0726 16:36:21.514833  4826 net.cpp:156] Memory required for data: 1223491584
I0726 16:36:21.514847  4826 layer_factory.hpp:77] Creating layer relu4_2
I0726 16:36:21.514854  4826 net.cpp:91] Creating Layer relu4_2
I0726 16:36:21.514858  4826 net.cpp:425] relu4_2 <- conv4_2
I0726 16:36:21.514865  4826 net.cpp:386] relu4_2 -> conv4_2 (in-place)
I0726 16:36:21.515058  4826 net.cpp:141] Setting up relu4_2
I0726 16:36:21.515069  4826 net.cpp:148] Top shape: 8 512 28 28 (3211264)
I0726 16:36:21.515071  4826 net.cpp:156] Memory required for data: 1236336640
I0726 16:36:21.515075  4826 layer_factory.hpp:77] Creating layer conv4_3
I0726 16:36:21.515084  4826 net.cpp:91] Creating Layer conv4_3
I0726 16:36:21.515087  4826 net.cpp:425] conv4_3 <- conv4_2
I0726 16:36:21.515095  4826 net.cpp:399] conv4_3 -> conv4_3
I0726 16:36:21.521530  4826 net.cpp:141] Setting up conv4_3
I0726 16:36:21.521550  4826 net.cpp:148] Top shape: 8 512 28 28 (3211264)
I0726 16:36:21.521554  4826 net.cpp:156] Memory required for data: 1249181696
I0726 16:36:21.521561  4826 layer_factory.hpp:77] Creating layer relu4_3
I0726 16:36:21.521569  4826 net.cpp:91] Creating Layer relu4_3
I0726 16:36:21.521571  4826 net.cpp:425] relu4_3 <- conv4_3
I0726 16:36:21.521579  4826 net.cpp:386] relu4_3 -> conv4_3 (in-place)
I0726 16:36:21.521898  4826 net.cpp:141] Setting up relu4_3
I0726 16:36:21.521913  4826 net.cpp:148] Top shape: 8 512 28 28 (3211264)
I0726 16:36:21.521916  4826 net.cpp:156] Memory required for data: 1262026752
I0726 16:36:21.521920  4826 layer_factory.hpp:77] Creating layer conv4_3_relu4_3_0_split
I0726 16:36:21.521927  4826 net.cpp:91] Creating Layer conv4_3_relu4_3_0_split
I0726 16:36:21.521930  4826 net.cpp:425] conv4_3_relu4_3_0_split <- conv4_3
I0726 16:36:21.521939  4826 net.cpp:399] conv4_3_relu4_3_0_split -> conv4_3_relu4_3_0_split_0
I0726 16:36:21.521946  4826 net.cpp:399] conv4_3_relu4_3_0_split -> conv4_3_relu4_3_0_split_1
I0726 16:36:21.521996  4826 net.cpp:141] Setting up conv4_3_relu4_3_0_split
I0726 16:36:21.522006  4826 net.cpp:148] Top shape: 8 512 28 28 (3211264)
I0726 16:36:21.522009  4826 net.cpp:148] Top shape: 8 512 28 28 (3211264)
I0726 16:36:21.522012  4826 net.cpp:156] Memory required for data: 1287716864
I0726 16:36:21.522017  4826 layer_factory.hpp:77] Creating layer pool4
I0726 16:36:21.522022  4826 net.cpp:91] Creating Layer pool4
I0726 16:36:21.522027  4826 net.cpp:425] pool4 <- conv4_3_relu4_3_0_split_0
I0726 16:36:21.522032  4826 net.cpp:399] pool4 -> pool4
I0726 16:36:21.522075  4826 net.cpp:141] Setting up pool4
I0726 16:36:21.522083  4826 net.cpp:148] Top shape: 8 512 14 14 (802816)
I0726 16:36:21.522085  4826 net.cpp:156] Memory required for data: 1290928128
I0726 16:36:21.522089  4826 layer_factory.hpp:77] Creating layer conv5_1
I0726 16:36:21.522099  4826 net.cpp:91] Creating Layer conv5_1
I0726 16:36:21.522104  4826 net.cpp:425] conv5_1 <- pool4
I0726 16:36:21.522109  4826 net.cpp:399] conv5_1 -> conv5_1
I0726 16:36:21.528465  4826 net.cpp:141] Setting up conv5_1
I0726 16:36:21.528482  4826 net.cpp:148] Top shape: 8 512 14 14 (802816)
I0726 16:36:21.528486  4826 net.cpp:156] Memory required for data: 1294139392
I0726 16:36:21.528493  4826 layer_factory.hpp:77] Creating layer relu5_1
I0726 16:36:21.528517  4826 net.cpp:91] Creating Layer relu5_1
I0726 16:36:21.528538  4826 net.cpp:425] relu5_1 <- conv5_1
I0726 16:36:21.528545  4826 net.cpp:386] relu5_1 -> conv5_1 (in-place)
I0726 16:36:21.528852  4826 net.cpp:141] Setting up relu5_1
I0726 16:36:21.528867  4826 net.cpp:148] Top shape: 8 512 14 14 (802816)
I0726 16:36:21.528870  4826 net.cpp:156] Memory required for data: 1297350656
I0726 16:36:21.528873  4826 layer_factory.hpp:77] Creating layer conv5_2
I0726 16:36:21.528883  4826 net.cpp:91] Creating Layer conv5_2
I0726 16:36:21.528889  4826 net.cpp:425] conv5_2 <- conv5_1
I0726 16:36:21.528897  4826 net.cpp:399] conv5_2 -> conv5_2
I0726 16:36:21.535424  4826 net.cpp:141] Setting up conv5_2
I0726 16:36:21.535444  4826 net.cpp:148] Top shape: 8 512 14 14 (802816)
I0726 16:36:21.535447  4826 net.cpp:156] Memory required for data: 1300561920
I0726 16:36:21.535454  4826 layer_factory.hpp:77] Creating layer relu5_2
I0726 16:36:21.535468  4826 net.cpp:91] Creating Layer relu5_2
I0726 16:36:21.535475  4826 net.cpp:425] relu5_2 <- conv5_2
I0726 16:36:21.535480  4826 net.cpp:386] relu5_2 -> conv5_2 (in-place)
I0726 16:36:21.535672  4826 net.cpp:141] Setting up relu5_2
I0726 16:36:21.535684  4826 net.cpp:148] Top shape: 8 512 14 14 (802816)
I0726 16:36:21.535687  4826 net.cpp:156] Memory required for data: 1303773184
I0726 16:36:21.535691  4826 layer_factory.hpp:77] Creating layer conv5_3
I0726 16:36:21.535698  4826 net.cpp:91] Creating Layer conv5_3
I0726 16:36:21.535706  4826 net.cpp:425] conv5_3 <- conv5_2
I0726 16:36:21.535712  4826 net.cpp:399] conv5_3 -> conv5_3
I0726 16:36:21.542074  4826 net.cpp:141] Setting up conv5_3
I0726 16:36:21.542094  4826 net.cpp:148] Top shape: 8 512 14 14 (802816)
I0726 16:36:21.542098  4826 net.cpp:156] Memory required for data: 1306984448
I0726 16:36:21.542105  4826 layer_factory.hpp:77] Creating layer relu5_3
I0726 16:36:21.542111  4826 net.cpp:91] Creating Layer relu5_3
I0726 16:36:21.542115  4826 net.cpp:425] relu5_3 <- conv5_3
I0726 16:36:21.542122  4826 net.cpp:386] relu5_3 -> conv5_3 (in-place)
I0726 16:36:21.542438  4826 net.cpp:141] Setting up relu5_3
I0726 16:36:21.542451  4826 net.cpp:148] Top shape: 8 512 14 14 (802816)
I0726 16:36:21.542455  4826 net.cpp:156] Memory required for data: 1310195712
I0726 16:36:21.542459  4826 layer_factory.hpp:77] Creating layer conv5_3_relu5_3_0_split
I0726 16:36:21.542466  4826 net.cpp:91] Creating Layer conv5_3_relu5_3_0_split
I0726 16:36:21.542470  4826 net.cpp:425] conv5_3_relu5_3_0_split <- conv5_3
I0726 16:36:21.542479  4826 net.cpp:399] conv5_3_relu5_3_0_split -> conv5_3_relu5_3_0_split_0
I0726 16:36:21.542486  4826 net.cpp:399] conv5_3_relu5_3_0_split -> conv5_3_relu5_3_0_split_1
I0726 16:36:21.542541  4826 net.cpp:141] Setting up conv5_3_relu5_3_0_split
I0726 16:36:21.542551  4826 net.cpp:148] Top shape: 8 512 14 14 (802816)
I0726 16:36:21.542554  4826 net.cpp:148] Top shape: 8 512 14 14 (802816)
I0726 16:36:21.542557  4826 net.cpp:156] Memory required for data: 1316618240
I0726 16:36:21.542560  4826 layer_factory.hpp:77] Creating layer pool5
I0726 16:36:21.542567  4826 net.cpp:91] Creating Layer pool5
I0726 16:36:21.542572  4826 net.cpp:425] pool5 <- conv5_3_relu5_3_0_split_0
I0726 16:36:21.542577  4826 net.cpp:399] pool5 -> pool5
I0726 16:36:21.542623  4826 net.cpp:141] Setting up pool5
I0726 16:36:21.542629  4826 net.cpp:148] Top shape: 8 512 7 7 (200704)
I0726 16:36:21.542634  4826 net.cpp:156] Memory required for data: 1317421056
I0726 16:36:21.542636  4826 layer_factory.hpp:77] Creating layer fc6-conv
I0726 16:36:21.542644  4826 net.cpp:91] Creating Layer fc6-conv
I0726 16:36:21.542649  4826 net.cpp:425] fc6-conv <- pool5
I0726 16:36:21.542654  4826 net.cpp:399] fc6-conv -> fc6-conv
I0726 16:36:21.811744  4826 net.cpp:141] Setting up fc6-conv
I0726 16:36:21.811787  4826 net.cpp:148] Top shape: 8 4096 1 1 (32768)
I0726 16:36:21.811792  4826 net.cpp:156] Memory required for data: 1317552128
I0726 16:36:21.811802  4826 layer_factory.hpp:77] Creating layer relu6
I0726 16:36:21.811813  4826 net.cpp:91] Creating Layer relu6
I0726 16:36:21.811820  4826 net.cpp:425] relu6 <- fc6-conv
I0726 16:36:21.811851  4826 net.cpp:386] relu6 -> fc6-conv (in-place)
I0726 16:36:21.812165  4826 net.cpp:141] Setting up relu6
I0726 16:36:21.812180  4826 net.cpp:148] Top shape: 8 4096 1 1 (32768)
I0726 16:36:21.812185  4826 net.cpp:156] Memory required for data: 1317683200
I0726 16:36:21.812187  4826 layer_factory.hpp:77] Creating layer drop6
I0726 16:36:21.812196  4826 net.cpp:91] Creating Layer drop6
I0726 16:36:21.812201  4826 net.cpp:425] drop6 <- fc6-conv
I0726 16:36:21.812208  4826 net.cpp:386] drop6 -> fc6-conv (in-place)
I0726 16:36:21.812248  4826 net.cpp:141] Setting up drop6
I0726 16:36:21.812258  4826 net.cpp:148] Top shape: 8 4096 1 1 (32768)
I0726 16:36:21.812260  4826 net.cpp:156] Memory required for data: 1317814272
I0726 16:36:21.812264  4826 layer_factory.hpp:77] Creating layer fc7-conv
I0726 16:36:21.812275  4826 net.cpp:91] Creating Layer fc7-conv
I0726 16:36:21.812279  4826 net.cpp:425] fc7-conv <- fc6-conv
I0726 16:36:21.812286  4826 net.cpp:399] fc7-conv -> fc7-conv
I0726 16:36:21.858119  4826 net.cpp:141] Setting up fc7-conv
I0726 16:36:21.858161  4826 net.cpp:148] Top shape: 8 4096 1 1 (32768)
I0726 16:36:21.858165  4826 net.cpp:156] Memory required for data: 1317945344
I0726 16:36:21.858182  4826 layer_factory.hpp:77] Creating layer relu7
I0726 16:36:21.858191  4826 net.cpp:91] Creating Layer relu7
I0726 16:36:21.858198  4826 net.cpp:425] relu7 <- fc7-conv
I0726 16:36:21.858206  4826 net.cpp:386] relu7 -> fc7-conv (in-place)
I0726 16:36:21.858417  4826 net.cpp:141] Setting up relu7
I0726 16:36:21.858428  4826 net.cpp:148] Top shape: 8 4096 1 1 (32768)
I0726 16:36:21.858430  4826 net.cpp:156] Memory required for data: 1318076416
I0726 16:36:21.858434  4826 layer_factory.hpp:77] Creating layer hypercolumns
I0726 16:36:21.858444  4826 net.cpp:91] Creating Layer hypercolumns
I0726 16:36:21.858448  4826 net.cpp:425] hypercolumns <- normal
I0726 16:36:21.858453  4826 net.cpp:425] hypercolumns <- conv1_2_relu1_2_0_split_1
I0726 16:36:21.858458  4826 net.cpp:425] hypercolumns <- conv2_2_relu2_2_0_split_1
I0726 16:36:21.858463  4826 net.cpp:425] hypercolumns <- conv3_3_relu3_3_0_split_1
I0726 16:36:21.858465  4826 net.cpp:425] hypercolumns <- conv4_3_relu4_3_0_split_1
I0726 16:36:21.858469  4826 net.cpp:425] hypercolumns <- conv5_3_relu5_3_0_split_1
I0726 16:36:21.858474  4826 net.cpp:425] hypercolumns <- fc7-conv
I0726 16:36:21.858480  4826 net.cpp:399] hypercolumns -> hypercolumns
I0726 16:36:21.858500  4826 net.cpp:399] hypercolumns -> normal_point
I0726 16:36:21.858554  4826 net.cpp:141] Setting up hypercolumns
I0726 16:36:21.858563  4826 net.cpp:148] Top shape: 8000 5568 1 1 (44544000)
I0726 16:36:21.858567  4826 net.cpp:148] Top shape: 8000 3 (24000)
I0726 16:36:21.858571  4826 net.cpp:156] Memory required for data: 1496348416
I0726 16:36:21.858573  4826 layer_factory.hpp:77] Creating layer fc1
I0726 16:36:21.858582  4826 net.cpp:91] Creating Layer fc1
I0726 16:36:21.858585  4826 net.cpp:425] fc1 <- hypercolumns
I0726 16:36:21.858592  4826 net.cpp:399] fc1 -> fc1
I0726 16:36:22.139386  4826 net.cpp:141] Setting up fc1
I0726 16:36:22.139426  4826 net.cpp:148] Top shape: 8000 4096 (32768000)
I0726 16:36:22.139430  4826 net.cpp:156] Memory required for data: 1627420416
I0726 16:36:22.139457  4826 layer_factory.hpp:77] Creating layer relu1
I0726 16:36:22.139468  4826 net.cpp:91] Creating Layer relu1
I0726 16:36:22.139475  4826 net.cpp:425] relu1 <- fc1
I0726 16:36:22.139482  4826 net.cpp:386] relu1 -> fc1 (in-place)
I0726 16:36:22.140122  4826 net.cpp:141] Setting up relu1
I0726 16:36:22.140137  4826 net.cpp:148] Top shape: 8000 4096 (32768000)
I0726 16:36:22.140141  4826 net.cpp:156] Memory required for data: 1758492416
I0726 16:36:22.140144  4826 layer_factory.hpp:77] Creating layer drop1
I0726 16:36:22.140151  4826 net.cpp:91] Creating Layer drop1
I0726 16:36:22.140156  4826 net.cpp:425] drop1 <- fc1
I0726 16:36:22.140161  4826 net.cpp:386] drop1 -> fc1 (in-place)
I0726 16:36:22.140194  4826 net.cpp:141] Setting up drop1
I0726 16:36:22.140202  4826 net.cpp:148] Top shape: 8000 4096 (32768000)
I0726 16:36:22.140220  4826 net.cpp:156] Memory required for data: 1889564416
I0726 16:36:22.140223  4826 layer_factory.hpp:77] Creating layer fc2
I0726 16:36:22.140235  4826 net.cpp:91] Creating Layer fc2
I0726 16:36:22.140240  4826 net.cpp:425] fc2 <- fc1
I0726 16:36:22.140245  4826 net.cpp:399] fc2 -> fc2
I0726 16:36:22.343227  4826 net.cpp:141] Setting up fc2
I0726 16:36:22.343266  4826 net.cpp:148] Top shape: 8000 4096 (32768000)
I0726 16:36:22.343269  4826 net.cpp:156] Memory required for data: 2020636416
I0726 16:36:22.343292  4826 layer_factory.hpp:77] Creating layer relu2
I0726 16:36:22.343304  4826 net.cpp:91] Creating Layer relu2
I0726 16:36:22.343309  4826 net.cpp:425] relu2 <- fc2
I0726 16:36:22.343315  4826 net.cpp:386] relu2 -> fc2 (in-place)
I0726 16:36:22.343560  4826 net.cpp:141] Setting up relu2
I0726 16:36:22.343574  4826 net.cpp:148] Top shape: 8000 4096 (32768000)
I0726 16:36:22.343576  4826 net.cpp:156] Memory required for data: 2151708416
I0726 16:36:22.343580  4826 layer_factory.hpp:77] Creating layer drop2
I0726 16:36:22.343586  4826 net.cpp:91] Creating Layer drop2
I0726 16:36:22.343590  4826 net.cpp:425] drop2 <- fc2
I0726 16:36:22.343595  4826 net.cpp:386] drop2 -> fc2 (in-place)
I0726 16:36:22.343626  4826 net.cpp:141] Setting up drop2
I0726 16:36:22.343633  4826 net.cpp:148] Top shape: 8000 4096 (32768000)
I0726 16:36:22.343636  4826 net.cpp:156] Memory required for data: 2282780416
I0726 16:36:22.343638  4826 layer_factory.hpp:77] Creating layer fc3
I0726 16:36:22.343648  4826 net.cpp:91] Creating Layer fc3
I0726 16:36:22.343652  4826 net.cpp:425] fc3 <- fc2
I0726 16:36:22.343658  4826 net.cpp:399] fc3 -> fc3
I0726 16:36:22.343921  4826 net.cpp:141] Setting up fc3
I0726 16:36:22.343930  4826 net.cpp:148] Top shape: 8000 3 (24000)
I0726 16:36:22.343932  4826 net.cpp:156] Memory required for data: 2282876416
I0726 16:36:22.343937  4826 layer_factory.hpp:77] Creating layer loss
I0726 16:36:22.343945  4826 net.cpp:91] Creating Layer loss
I0726 16:36:22.343948  4826 net.cpp:425] loss <- fc3
I0726 16:36:22.343953  4826 net.cpp:425] loss <- normal_point
I0726 16:36:22.343958  4826 net.cpp:399] loss -> loss
I0726 16:36:22.344010  4826 net.cpp:141] Setting up loss
…
