…
I0726 16:29:22.400568  4773 solver.cpp:91] Creating training net from net file: /home/qinhong/project/normal_recovery/model/t1/train.prototxt
I0726 16:29:22.401285  4773 net.cpp:49] Initializing net from parameters: 
name: "hyper_normal_layers"
state {
  phase: TRAIN
}
layer {
  name: "data"
  type: "ImageNormalData"
  top: "data"
  top: "normal"
  transform_param {
    mirror: true
    mean_value: 104
    mean_value: 117
    mean_value: 123
  }
  image_data_param {
    source: "/home/qinhong/project/normal_recovery/data/source.txt"
    batch_size: 8
    shuffle: true
    new_height: 224
    new_width: 224
  }
}
layer {
  name: "conv1_1"
  type: "Convolution"
  bottom: "data"
  top: "conv1_1"
  param {
    lr_mult: 1
    decay_mult: 1
  }
  param {
    lr_mult: 2
    decay_mult: 0
  }
  convolution_param {
    num_output: 64
    pad: 1
    kernel_size: 3
  }
}
layer {
  name: "relu1_1"
  type: "ReLU"
  bottom: "conv1_1"
  top: "conv1_1"
}
layer {
  name: "conv1_2"
  type: "Convolution"
  bottom: "conv1_1"
  top: "conv1_2"
  param {
    lr_mult: 1
    decay_mult: 1
  }
  param {
    lr_mult: 2
    decay_mult: 0
  }
  convolution_param {
    num_output: 64
    pad: 1
    kernel_size: 3
  }
}
layer {
  name: "relu1_2"
  type: "ReLU"
  bottom: "conv1_2"
  top: "conv1_2"
}
layer {
  name: "pool1"
  type: "Pooling"
  bottom: "conv1_2"
  top: "pool1"
  pooling_param {
    pool: MAX
    kernel_size: 2
    stride: 2
  }
}
layer {
  name: "conv2_1"
  type: "Convolution"
  bottom: "pool1"
  top: "conv2_1"
  param {
    lr_mult: 1
    decay_mult: 1
  }
  param {
    lr_mult: 2
    decay_mult: 0
  }
  convolution_param {
    num_output: 128
    pad: 1
    kernel_size: 3
  }
}
layer {
  name: "relu2_1"
  type: "ReLU"
  bottom: "conv2_1"
  top: "conv2_1"
}
layer {
  name: "conv2_2"
  type: "Convolution"
  bottom: "conv2_1"
  top: "conv2_2"
  param {
    lr_mult: 1
    decay_mult: 1
  }
  param {
    lr_mult: 2
    decay_mult: 0
  }
  convolution_param {
    num_output: 128
    pad: 1
    kernel_size: 3
  }
}
layer {
  name: "relu2_2"
  type: "ReLU"
  bottom: "conv2_2"
  top: "conv2_2"
}
layer {
  name: "pool2"
  type: "Pooling"
  bottom: "conv2_2"
  top: "pool2"
  pooling_param {
    pool: MAX
    kernel_size: 2
    stride: 2
  }
}
layer {
  name: "conv3_1"
  type: "Convolution"
  bottom: "pool2"
  top: "conv3_1"
  param {
    lr_mult: 1
    decay_mult: 1
  }
  param {
    lr_mult: 2
    decay_mult: 0
  }
  convolution_param {
    num_output: 256
    pad: 1
    kernel_size: 3
  }
}
layer {
  name: "relu3_1"
  type: "ReLU"
  bottom: "conv3_1"
  top: "conv3_1"
}
layer {
  name: "conv3_2"
  type: "Convolution"
  bottom: "conv3_1"
  top: "conv3_2"
  param {
    lr_mult: 1
    decay_mult: 1
  }
  param {
    lr_mult: 2
    decay_mult: 0
  }
  convolution_param {
    num_output: 256
    pad: 1
    kernel_size: 3
  }
}
layer {
  name: "relu3_2"
  type: "ReLU"
  bottom: "conv3_2"
  top: "conv3_2"
}
layer {
  name: "conv3_3"
  type: "Convolution"
  bottom: "conv3_2"
  top: "conv3_3"
  param {
    lr_mult: 1
    decay_mult: 1
  }
  param {
    lr_mult: 2
    decay_mult: 0
  }
  convolution_param {
    num_output: 256
    pad: 1
    kernel_size: 3
  }
}
layer {
  name: "relu3_3"
  type: "ReLU"
  bottom: "conv3_3"
  top: "conv3_3"
}
layer {
  name: "pool3"
  type: "Pooling"
  bottom: "conv3_3"
  top: "pool3"
  pooling_param {
    pool: MAX
    kernel_size: 2
    stride: 2
  }
}
layer {
  name: "conv4_1"
  type: "Convolution"
  bottom: "pool3"
  top: "conv4_1"
  param {
    lr_mult: 1
    decay_mult: 1
  }
  param {
    lr_mult: 2
    decay_mult: 0
  }
  convolution_param {
    num_output: 512
    pad: 1
    kernel_size: 3
  }
}
layer {
  name: "relu4_1"
  type: "ReLU"
  bottom: "conv4_1"
  top: "conv4_1"
}
layer {
  name: "conv4_2"
  type: "Convolution"
  bottom: "conv4_1"
  top: "conv4_2"
  param {
    lr_mult: 1
    decay_mult: 1
  }
  param {
    lr_mult: 2
    decay_mult: 0
  }
  convolution_param {
    num_output: 512
    pad: 1
    kernel_size: 3
  }
}
layer {
  name: "relu4_2"
  type: "ReLU"
  bottom: "conv4_2"
  top: "conv4_2"
}
layer {
  name: "conv4_3"
  type: "Convolution"
  bottom: "conv4_2"
  top: "conv4_3"
  param {
    lr_mult: 1
    decay_mult: 1
  }
  param {
    lr_mult: 2
    decay_mult: 0
  }
  convolution_param {
    num_output: 512
    pad: 1
    kernel_size: 3
  }
}
layer {
  name: "relu4_3"
  type: "ReLU"
  bottom: "conv4_3"
  top: "conv4_3"
}
layer {
  name: "pool4"
  type: "Pooling"
  bottom: "conv4_3"
  top: "pool4"
  pooling_param {
    pool: MAX
    kernel_size: 2
    stride: 2
  }
}
layer {
  name: "conv5_1"
  type: "Convolution"
  bottom: "pool4"
  top: "conv5_1"
  param {
    lr_mult: 1
    decay_mult: 1
  }
  param {
    lr_mult: 2
    decay_mult: 0
  }
  convolution_param {
    num_output: 512
    pad: 1
    kernel_size: 3
  }
}
layer {
  name: "relu5_1"
  type: "ReLU"
  bottom: "conv5_1"
  top: "conv5_1"
}
layer {
  name: "conv5_2"
  type: "Convolution"
  bottom: "conv5_1"
  top: "conv5_2"
  param {
    lr_mult: 1
    decay_mult: 1
  }
  param {
    lr_mult: 2
    decay_mult: 0
  }
  convolution_param {
    num_output: 512
    pad: 1
    kernel_size: 3
  }
}
layer {
  name: "relu5_2"
  type: "ReLU"
  bottom: "conv5_2"
  top: "conv5_2"
}
layer {
  name: "conv5_3"
  type: "Convolution"
  bottom: "conv5_2"
  top: "conv5_3"
  param {
    lr_mult: 1
    decay_mult: 1
  }
  param {
    lr_mult: 2
    decay_mult: 0
  }
  convolution_param {
    num_output: 512
    pad: 1
    kernel_size: 3
  }
}
layer {
  name: "relu5_3"
  type: "ReLU"
  bottom: "conv5_3"
  top: "conv5_3"
}
layer {
  name: "pool5"
  type: "Pooling"
  bottom: "conv5_3"
  top: "pool5"
  pooling_param {
    pool: MAX
    kernel_size: 2
    stride: 2
  }
}
layer {
  name: "fc6-conv"
  type: "Convolution"
  bottom: "pool5"
  top: "fc6-conv"
  param {
    lr_mult: 1
    decay_mult: 1
  }
  param {
    lr_mult: 2
    decay_mult: 0
  }
  convolution_param {
    num_output: 4096
    kernel_size: 7
  }
}
layer {
  name: "relu6"
  type: "ReLU"
  bottom: "fc6-conv"
  top: "fc6-conv"
}
layer {
  name: "drop6"
  type: "Dropout"
  bottom: "fc6-conv"
  top: "fc6-conv"
  dropout_param {
    dropout_ratio: 0.5
  }
}
layer {
  name: "fc7-conv"
  type: "Convolution"
  bottom: "fc6-conv"
  top: "fc7-conv"
  param {
    lr_mult: 1
    decay_mult: 1
  }
  param {
    lr_mult: 2
    decay_mult: 0
  }
  convolution_param {
    num_output: 4096
    kernel_size: 1
  }
}
layer {
  name: "relu7"
  type: "ReLU"
  bottom: "fc7-conv"
  top: "fc7-conv"
}
layer {
  name: "hypercolumns"
  type: "HyperColumns"
  bottom: "normal"
  bottom: "conv1_2"
  bottom: "conv2_2"
  bottom: "conv3_3"
  bottom: "conv4_3"
  bottom: "conv5_3"
  bottom: "fc7-conv"
  top: "hypercolumns"
  top: "normal_point"
  hypercolumns_param {
    is_train: true
  }
}
layer {
  name: "fc1"
  type: "InnerProduct"
  bottom: "hypercolumns"
  top: "fc1"
  param {
    lr_mult: 1
    decay_mult: 1
  }
  param {
    lr_mult: 2
    decay_mult: 0
  }
  inner_product_param {
    num_output: 4096
    weight_filler {
      type: "gaussian"
      std: 0.003
    }
    bias_filler {
      type: "constant"
      value: 0
    }
  }
}
layer {
  name: "relu1"
  type: "ReLU"
  bottom: "fc1"
  top: "fc1"
}
layer {
  name: "drop1"
  type: "Dropout"
  bottom: "fc1"
  top: "fc1"
  dropout_param {
    dropout_ratio: 0.5
  }
}
layer {
  name: "fc2"
  type: "InnerProduct"
  bottom: "fc1"
  top: "fc2"
  param {
    lr_mult: 1
    decay_mult: 1
  }
  param {
    lr_mult: 2
    decay_mult: 0
  }
  inner_product_param {
    num_output: 4096
    weight_filler {
      type: "gaussian"
      std: 0.002
    }
    bias_filler {
      type: "constant"
      value: 0
    }
  }
}
layer {
  name: "relu2"
  type: "ReLU"
  bottom: "fc2"
  top: "fc2"
}
layer {
  name: "drop2"
  type: "Dropout"
  bottom: "fc2"
  top: "fc2"
  dropout_param {
    dropout_ratio: 0.5
  }
}
layer {
  name: "fc3"
  type: "InnerProduct"
  bottom: "fc2"
  top: "fc3"
  param {
    lr_mult: 1
    decay_mult: 1
  }
  param {
    lr_mult: 2
    decay_mult: 0
  }
  inner_product_param {
    num_output: 3
    weight_filler {
      type: "gaussian"
      std: 0.001
    }
    bias_filler {
      type: "constant"
      value: 0
    }
  }
}
layer {
  name: "loss"
  type: "EuclideanLoss"
  bottom: "fc3"
  bottom: "normal_point"
  top: "loss"
  propagate_down: true
  propagate_down: false
}
I0726 16:29:22.401530  4773 layer_factory.hpp:77] Creating layer data
I0726 16:29:22.401561  4773 net.cpp:91] Creating Layer data
I0726 16:29:22.401568  4773 net.cpp:399] data -> data
I0726 16:29:22.401593  4773 net.cpp:399] data -> normal
I0726 16:29:22.402122  4773 image_normal_data_layer.cpp:43] opeing file /home/qinhong/project/normal_recovery/data/source.txt
I0726 16:29:22.406646  4773 image_normal_data_layer.cpp:54] Shuffing data
I0726 16:29:22.407624  4773 image_normal_data_layer.cpp:59] A total of 4105 images.
I0726 16:29:22.431500  4773 image_normal_data_layer.cpp:79] output data size: 8,3,224,224
I0726 16:29:22.447672  4773 net.cpp:141] Setting up data
I0726 16:29:22.447706  4773 net.cpp:148] Top shape: 8 3 224 224 (1204224)
I0726 16:29:22.447712  4773 net.cpp:148] Top shape: 8 3 224 224 (1204224)
I0726 16:29:22.447715  4773 net.cpp:156] Memory required for data: 9633792
I0726 16:29:22.447723  4773 layer_factory.hpp:77] Creating layer conv1_1
I0726 16:29:22.447752  4773 net.cpp:91] Creating Layer conv1_1
I0726 16:29:22.447758  4773 net.cpp:425] conv1_1 <- data
I0726 16:29:22.447773  4773 net.cpp:399] conv1_1 -> conv1_1
I0726 16:29:22.690227  4773 net.cpp:141] Setting up conv1_1
I0726 16:29:22.690264  4773 net.cpp:148] Top shape: 8 64 224 224 (25690112)
I0726 16:29:22.690269  4773 net.cpp:156] Memory required for data: 112394240
I0726 16:29:22.690294  4773 layer_factory.hpp:77] Creating layer relu1_1
I0726 16:29:22.690312  4773 net.cpp:91] Creating Layer relu1_1
I0726 16:29:22.690316  4773 net.cpp:425] relu1_1 <- conv1_1
I0726 16:29:22.690322  4773 net.cpp:386] relu1_1 -> conv1_1 (in-place)
I0726 16:29:22.690625  4773 net.cpp:141] Setting up relu1_1
I0726 16:29:22.690644  4773 net.cpp:148] Top shape: 8 64 224 224 (25690112)
I0726 16:29:22.690647  4773 net.cpp:156] Memory required for data: 215154688
I0726 16:29:22.690651  4773 layer_factory.hpp:77] Creating layer conv1_2
I0726 16:29:22.690668  4773 net.cpp:91] Creating Layer conv1_2
I0726 16:29:22.690673  4773 net.cpp:425] conv1_2 <- conv1_1
I0726 16:29:22.690680  4773 net.cpp:399] conv1_2 -> conv1_2
I0726 16:29:22.691700  4773 net.cpp:141] Setting up conv1_2
I0726 16:29:22.691715  4773 net.cpp:148] Top shape: 8 64 224 224 (25690112)
I0726 16:29:22.691720  4773 net.cpp:156] Memory required for data: 317915136
I0726 16:29:22.691730  4773 layer_factory.hpp:77] Creating layer relu1_2
I0726 16:29:22.691736  4773 net.cpp:91] Creating Layer relu1_2
I0726 16:29:22.691740  4773 net.cpp:425] relu1_2 <- conv1_2
I0726 16:29:22.691745  4773 net.cpp:386] relu1_2 -> conv1_2 (in-place)
I0726 16:29:22.692019  4773 net.cpp:141] Setting up relu1_2
I0726 16:29:22.692033  4773 net.cpp:148] Top shape: 8 64 224 224 (25690112)
I0726 16:29:22.692035  4773 net.cpp:156] Memory required for data: 420675584
I0726 16:29:22.692039  4773 layer_factory.hpp:77] Creating layer conv1_2_relu1_2_0_split
I0726 16:29:22.692045  4773 net.cpp:91] Creating Layer conv1_2_relu1_2_0_split
I0726 16:29:22.692049  4773 net.cpp:425] conv1_2_relu1_2_0_split <- conv1_2
I0726 16:29:22.692054  4773 net.cpp:399] conv1_2_relu1_2_0_split -> conv1_2_relu1_2_0_split_0
I0726 16:29:22.692062  4773 net.cpp:399] conv1_2_relu1_2_0_split -> conv1_2_relu1_2_0_split_1
I0726 16:29:22.692104  4773 net.cpp:141] Setting up conv1_2_relu1_2_0_split
I0726 16:29:22.692111  4773 net.cpp:148] Top shape: 8 64 224 224 (25690112)
I0726 16:29:22.692116  4773 net.cpp:148] Top shape: 8 64 224 224 (25690112)
I0726 16:29:22.692118  4773 net.cpp:156] Memory required for data: 626196480
I0726 16:29:22.692140  4773 layer_factory.hpp:77] Creating layer pool1
I0726 16:29:22.692148  4773 net.cpp:91] Creating Layer pool1
I0726 16:29:22.692152  4773 net.cpp:425] pool1 <- conv1_2_relu1_2_0_split_0
I0726 16:29:22.692157  4773 net.cpp:399] pool1 -> pool1
I0726 16:29:22.692204  4773 net.cpp:141] Setting up pool1
I0726 16:29:22.692212  4773 net.cpp:148] Top shape: 8 64 112 112 (6422528)
I0726 16:29:22.692215  4773 net.cpp:156] Memory required for data: 651886592
I0726 16:29:22.692219  4773 layer_factory.hpp:77] Creating layer conv2_1
I0726 16:29:22.692226  4773 net.cpp:91] Creating Layer conv2_1
I0726 16:29:22.692229  4773 net.cpp:425] conv2_1 <- pool1
I0726 16:29:22.692234  4773 net.cpp:399] conv2_1 -> conv2_1
I0726 16:29:22.694409  4773 net.cpp:141] Setting up conv2_1
I0726 16:29:22.694425  4773 net.cpp:148] Top shape: 8 128 112 112 (12845056)
I0726 16:29:22.694428  4773 net.cpp:156] Memory required for data: 703266816
I0726 16:29:22.694438  4773 layer_factory.hpp:77] Creating layer relu2_1
I0726 16:29:22.694447  4773 net.cpp:91] Creating Layer relu2_1
I0726 16:29:22.694452  4773 net.cpp:425] relu2_1 <- conv2_1
I0726 16:29:22.694456  4773 net.cpp:386] relu2_1 -> conv2_1 (in-place)
I0726 16:29:22.694643  4773 net.cpp:141] Setting up relu2_1
I0726 16:29:22.694653  4773 net.cpp:148] Top shape: 8 128 112 112 (12845056)
I0726 16:29:22.694656  4773 net.cpp:156] Memory required for data: 754647040
I0726 16:29:22.694659  4773 layer_factory.hpp:77] Creating layer conv2_2
I0726 16:29:22.694667  4773 net.cpp:91] Creating Layer conv2_2
I0726 16:29:22.694670  4773 net.cpp:425] conv2_2 <- conv2_1
I0726 16:29:22.694676  4773 net.cpp:399] conv2_2 -> conv2_2
I0726 16:29:22.695827  4773 net.cpp:141] Setting up conv2_2
I0726 16:29:22.695842  4773 net.cpp:148] Top shape: 8 128 112 112 (12845056)
I0726 16:29:22.695844  4773 net.cpp:156] Memory required for data: 806027264
I0726 16:29:22.695852  4773 layer_factory.hpp:77] Creating layer relu2_2
I0726 16:29:22.695863  4773 net.cpp:91] Creating Layer relu2_2
I0726 16:29:22.695866  4773 net.cpp:425] relu2_2 <- conv2_2
I0726 16:29:22.695873  4773 net.cpp:386] relu2_2 -> conv2_2 (in-place)
I0726 16:29:22.696177  4773 net.cpp:141] Setting up relu2_2
I0726 16:29:22.696189  4773 net.cpp:148] Top shape: 8 128 112 112 (12845056)
I0726 16:29:22.696192  4773 net.cpp:156] Memory required for data: 857407488
I0726 16:29:22.696197  4773 layer_factory.hpp:77] Creating layer conv2_2_relu2_2_0_split
I0726 16:29:22.696202  4773 net.cpp:91] Creating Layer conv2_2_relu2_2_0_split
I0726 16:29:22.696205  4773 net.cpp:425] conv2_2_relu2_2_0_split <- conv2_2
I0726 16:29:22.696213  4773 net.cpp:399] conv2_2_relu2_2_0_split -> conv2_2_relu2_2_0_split_0
I0726 16:29:22.696219  4773 net.cpp:399] conv2_2_relu2_2_0_split -> conv2_2_relu2_2_0_split_1
I0726 16:29:22.696270  4773 net.cpp:141] Setting up conv2_2_relu2_2_0_split
I0726 16:29:22.696277  4773 net.cpp:148] Top shape: 8 128 112 112 (12845056)
I0726 16:29:22.696281  4773 net.cpp:148] Top shape: 8 128 112 112 (12845056)
I0726 16:29:22.696290  4773 net.cpp:156] Memory required for data: 960167936
I0726 16:29:22.696295  4773 layer_factory.hpp:77] Creating layer pool2
I0726 16:29:22.696300  4773 net.cpp:91] Creating Layer pool2
I0726 16:29:22.696303  4773 net.cpp:425] pool2 <- conv2_2_relu2_2_0_split_0
I0726 16:29:22.696310  4773 net.cpp:399] pool2 -> pool2
I0726 16:29:22.696348  4773 net.cpp:141] Setting up pool2
I0726 16:29:22.696357  4773 net.cpp:148] Top shape: 8 128 56 56 (3211264)
I0726 16:29:22.696359  4773 net.cpp:156] Memory required for data: 973012992
I0726 16:29:22.696362  4773 layer_factory.hpp:77] Creating layer conv3_1
I0726 16:29:22.696369  4773 net.cpp:91] Creating Layer conv3_1
I0726 16:29:22.696372  4773 net.cpp:425] conv3_1 <- pool2
I0726 16:29:22.696379  4773 net.cpp:399] conv3_1 -> conv3_1
I0726 16:29:22.698115  4773 net.cpp:141] Setting up conv3_1
I0726 16:29:22.698130  4773 net.cpp:148] Top shape: 8 256 56 56 (6422528)
I0726 16:29:22.698138  4773 net.cpp:156] Memory required for data: 998703104
I0726 16:29:22.698148  4773 layer_factory.hpp:77] Creating layer relu3_1
I0726 16:29:22.698168  4773 net.cpp:91] Creating Layer relu3_1
I0726 16:29:22.698173  4773 net.cpp:425] relu3_1 <- conv3_1
I0726 16:29:22.698177  4773 net.cpp:386] relu3_1 -> conv3_1 (in-place)
I0726 16:29:22.698479  4773 net.cpp:141] Setting up relu3_1
I0726 16:29:22.698493  4773 net.cpp:148] Top shape: 8 256 56 56 (6422528)
I0726 16:29:22.698495  4773 net.cpp:156] Memory required for data: 1024393216
I0726 16:29:22.698499  4773 layer_factory.hpp:77] Creating layer conv3_2
I0726 16:29:22.698508  4773 net.cpp:91] Creating Layer conv3_2
I0726 16:29:22.698513  4773 net.cpp:425] conv3_2 <- conv3_1
I0726 16:29:22.698521  4773 net.cpp:399] conv3_2 -> conv3_2
I0726 16:29:22.701014  4773 net.cpp:141] Setting up conv3_2
I0726 16:29:22.701030  4773 net.cpp:148] Top shape: 8 256 56 56 (6422528)
I0726 16:29:22.701033  4773 net.cpp:156] Memory required for data: 1050083328
I0726 16:29:22.701040  4773 layer_factory.hpp:77] Creating layer relu3_2
I0726 16:29:22.701050  4773 net.cpp:91] Creating Layer relu3_2
I0726 16:29:22.701053  4773 net.cpp:425] relu3_2 <- conv3_2
I0726 16:29:22.701059  4773 net.cpp:386] relu3_2 -> conv3_2 (in-place)
I0726 16:29:22.701248  4773 net.cpp:141] Setting up relu3_2
I0726 16:29:22.701259  4773 net.cpp:148] Top shape: 8 256 56 56 (6422528)
I0726 16:29:22.701262  4773 net.cpp:156] Memory required for data: 1075773440
I0726 16:29:22.701266  4773 layer_factory.hpp:77] Creating layer conv3_3
I0726 16:29:22.701274  4773 net.cpp:91] Creating Layer conv3_3
I0726 16:29:22.701278  4773 net.cpp:425] conv3_3 <- conv3_2
I0726 16:29:22.701283  4773 net.cpp:399] conv3_3 -> conv3_3
I0726 16:29:22.703869  4773 net.cpp:141] Setting up conv3_3
I0726 16:29:22.703886  4773 net.cpp:148] Top shape: 8 256 56 56 (6422528)
I0726 16:29:22.703888  4773 net.cpp:156] Memory required for data: 1101463552
I0726 16:29:22.703896  4773 layer_factory.hpp:77] Creating layer relu3_3
I0726 16:29:22.703902  4773 net.cpp:91] Creating Layer relu3_3
I0726 16:29:22.703905  4773 net.cpp:425] relu3_3 <- conv3_3
I0726 16:29:22.703912  4773 net.cpp:386] relu3_3 -> conv3_3 (in-place)
I0726 16:29:22.704223  4773 net.cpp:141] Setting up relu3_3
I0726 16:29:22.704236  4773 net.cpp:148] Top shape: 8 256 56 56 (6422528)
I0726 16:29:22.704239  4773 net.cpp:156] Memory required for data: 1127153664
I0726 16:29:22.704242  4773 layer_factory.hpp:77] Creating layer conv3_3_relu3_3_0_split
I0726 16:29:22.704253  4773 net.cpp:91] Creating Layer conv3_3_relu3_3_0_split
I0726 16:29:22.704257  4773 net.cpp:425] conv3_3_relu3_3_0_split <- conv3_3
I0726 16:29:22.704262  4773 net.cpp:399] conv3_3_relu3_3_0_split -> conv3_3_relu3_3_0_split_0
I0726 16:29:22.704269  4773 net.cpp:399] conv3_3_relu3_3_0_split -> conv3_3_relu3_3_0_split_1
I0726 16:29:22.704319  4773 net.cpp:141] Setting up conv3_3_relu3_3_0_split
I0726 16:29:22.704326  4773 net.cpp:148] Top shape: 8 256 56 56 (6422528)
I0726 16:29:22.704331  4773 net.cpp:148] Top shape: 8 256 56 56 (6422528)
I0726 16:29:22.704334  4773 net.cpp:156] Memory required for data: 1178533888
I0726 16:29:22.704336  4773 layer_factory.hpp:77] Creating layer pool3
I0726 16:29:22.704344  4773 net.cpp:91] Creating Layer pool3
I0726 16:29:22.704347  4773 net.cpp:425] pool3 <- conv3_3_relu3_3_0_split_0
I0726 16:29:22.704351  4773 net.cpp:399] pool3 -> pool3
I0726 16:29:22.704391  4773 net.cpp:141] Setting up pool3
I0726 16:29:22.704398  4773 net.cpp:148] Top shape: 8 256 28 28 (1605632)
I0726 16:29:22.704401  4773 net.cpp:156] Memory required for data: 1184956416
I0726 16:29:22.704404  4773 layer_factory.hpp:77] Creating layer conv4_1
I0726 16:29:22.704412  4773 net.cpp:91] Creating Layer conv4_1
I0726 16:29:22.704416  4773 net.cpp:425] conv4_1 <- pool3
I0726 16:29:22.704421  4773 net.cpp:399] conv4_1 -> conv4_1
I0726 16:29:22.708600  4773 net.cpp:141] Setting up conv4_1
I0726 16:29:22.708616  4773 net.cpp:148] Top shape: 8 512 28 28 (3211264)
I0726 16:29:22.708619  4773 net.cpp:156] Memory required for data: 1197801472
I0726 16:29:22.708626  4773 layer_factory.hpp:77] Creating layer relu4_1
I0726 16:29:22.708649  4773 net.cpp:91] Creating Layer relu4_1
I0726 16:29:22.708654  4773 net.cpp:425] relu4_1 <- conv4_1
I0726 16:29:22.708662  4773 net.cpp:386] relu4_1 -> conv4_1 (in-place)
I0726 16:29:22.708963  4773 net.cpp:141] Setting up relu4_1
I0726 16:29:22.708976  4773 net.cpp:148] Top shape: 8 512 28 28 (3211264)
I0726 16:29:22.708979  4773 net.cpp:156] Memory required for data: 1210646528
I0726 16:29:22.708983  4773 layer_factory.hpp:77] Creating layer conv4_2
I0726 16:29:22.708992  4773 net.cpp:91] Creating Layer conv4_2
I0726 16:29:22.708997  4773 net.cpp:425] conv4_2 <- conv4_1
I0726 16:29:22.709005  4773 net.cpp:399] conv4_2 -> conv4_2
I0726 16:29:22.715416  4773 net.cpp:141] Setting up conv4_2
I0726 16:29:22.715435  4773 net.cpp:148] Top shape: 8 512 28 28 (3211264)
I0726 16:29:22.715442  4773 net.cpp:156] Memory required for data: 1223491584
I0726 16:29:22.715452  4773 layer_factory.hpp:77] Creating layer relu4_2
I0726 16:29:22.715458  4773 net.cpp:91] Creating Layer relu4_2
I0726 16:29:22.715462  4773 net.cpp:425] relu4_2 <- conv4_2
I0726 16:29:22.715469  4773 net.cpp:386] relu4_2 -> conv4_2 (in-place)
I0726 16:29:22.715664  4773 net.cpp:141] Setting up relu4_2
I0726 16:29:22.715674  4773 net.cpp:148] Top shape: 8 512 28 28 (3211264)
I0726 16:29:22.715677  4773 net.cpp:156] Memory required for data: 1236336640
I0726 16:29:22.715682  4773 layer_factory.hpp:77] Creating layer conv4_3
I0726 16:29:22.715690  4773 net.cpp:91] Creating Layer conv4_3
I0726 16:29:22.715693  4773 net.cpp:425] conv4_3 <- conv4_2
I0726 16:29:22.715699  4773 net.cpp:399] conv4_3 -> conv4_3
I0726 16:29:22.722141  4773 net.cpp:141] Setting up conv4_3
I0726 16:29:22.722162  4773 net.cpp:148] Top shape: 8 512 28 28 (3211264)
I0726 16:29:22.722165  4773 net.cpp:156] Memory required for data: 1249181696
I0726 16:29:22.722172  4773 layer_factory.hpp:77] Creating layer relu4_3
I0726 16:29:22.722177  4773 net.cpp:91] Creating Layer relu4_3
I0726 16:29:22.722182  4773 net.cpp:425] relu4_3 <- conv4_3
I0726 16:29:22.722187  4773 net.cpp:386] relu4_3 -> conv4_3 (in-place)
I0726 16:29:22.722502  4773 net.cpp:141] Setting up relu4_3
I0726 16:29:22.722515  4773 net.cpp:148] Top shape: 8 512 28 28 (3211264)
I0726 16:29:22.722518  4773 net.cpp:156] Memory required for data: 1262026752
I0726 16:29:22.722522  4773 layer_factory.hpp:77] Creating layer conv4_3_relu4_3_0_split
I0726 16:29:22.722530  4773 net.cpp:91] Creating Layer conv4_3_relu4_3_0_split
I0726 16:29:22.722534  4773 net.cpp:425] conv4_3_relu4_3_0_split <- conv4_3
I0726 16:29:22.722540  4773 net.cpp:399] conv4_3_relu4_3_0_split -> conv4_3_relu4_3_0_split_0
I0726 16:29:22.722548  4773 net.cpp:399] conv4_3_relu4_3_0_split -> conv4_3_relu4_3_0_split_1
I0726 16:29:22.722597  4773 net.cpp:141] Setting up conv4_3_relu4_3_0_split
I0726 16:29:22.722604  4773 net.cpp:148] Top shape: 8 512 28 28 (3211264)
I0726 16:29:22.722609  4773 net.cpp:148] Top shape: 8 512 28 28 (3211264)
I0726 16:29:22.722611  4773 net.cpp:156] Memory required for data: 1287716864
I0726 16:29:22.722615  4773 layer_factory.hpp:77] Creating layer pool4
I0726 16:29:22.722621  4773 net.cpp:91] Creating Layer pool4
I0726 16:29:22.722625  4773 net.cpp:425] pool4 <- conv4_3_relu4_3_0_split_0
I0726 16:29:22.722630  4773 net.cpp:399] pool4 -> pool4
I0726 16:29:22.722671  4773 net.cpp:141] Setting up pool4
I0726 16:29:22.722677  4773 net.cpp:148] Top shape: 8 512 14 14 (802816)
I0726 16:29:22.722681  4773 net.cpp:156] Memory required for data: 1290928128
I0726 16:29:22.722683  4773 layer_factory.hpp:77] Creating layer conv5_1
I0726 16:29:22.722692  4773 net.cpp:91] Creating Layer conv5_1
I0726 16:29:22.722694  4773 net.cpp:425] conv5_1 <- pool4
I0726 16:29:22.722699  4773 net.cpp:399] conv5_1 -> conv5_1
I0726 16:29:22.729032  4773 net.cpp:141] Setting up conv5_1
I0726 16:29:22.729050  4773 net.cpp:148] Top shape: 8 512 14 14 (802816)
I0726 16:29:22.729054  4773 net.cpp:156] Memory required for data: 1294139392
I0726 16:29:22.729060  4773 layer_factory.hpp:77] Creating layer relu5_1
I0726 16:29:22.729066  4773 net.cpp:91] Creating Layer relu5_1
I0726 16:29:22.729087  4773 net.cpp:425] relu5_1 <- conv5_1
I0726 16:29:22.729094  4773 net.cpp:386] relu5_1 -> conv5_1 (in-place)
I0726 16:29:22.729389  4773 net.cpp:141] Setting up relu5_1
I0726 16:29:22.729403  4773 net.cpp:148] Top shape: 8 512 14 14 (802816)
I0726 16:29:22.729406  4773 net.cpp:156] Memory required for data: 1297350656
I0726 16:29:22.729409  4773 layer_factory.hpp:77] Creating layer conv5_2
I0726 16:29:22.729420  4773 net.cpp:91] Creating Layer conv5_2
I0726 16:29:22.729425  4773 net.cpp:425] conv5_2 <- conv5_1
I0726 16:29:22.729431  4773 net.cpp:399] conv5_2 -> conv5_2
I0726 16:29:22.735788  4773 net.cpp:141] Setting up conv5_2
I0726 16:29:22.735807  4773 net.cpp:148] Top shape: 8 512 14 14 (802816)
I0726 16:29:22.735810  4773 net.cpp:156] Memory required for data: 1300561920
I0726 16:29:22.735817  4773 layer_factory.hpp:77] Creating layer relu5_2
I0726 16:29:22.735836  4773 net.cpp:91] Creating Layer relu5_2
I0726 16:29:22.735841  4773 net.cpp:425] relu5_2 <- conv5_2
I0726 16:29:22.735846  4773 net.cpp:386] relu5_2 -> conv5_2 (in-place)
I0726 16:29:22.736043  4773 net.cpp:141] Setting up relu5_2
I0726 16:29:22.736053  4773 net.cpp:148] Top shape: 8 512 14 14 (802816)
I0726 16:29:22.736057  4773 net.cpp:156] Memory required for data: 1303773184
I0726 16:29:22.736059  4773 layer_factory.hpp:77] Creating layer conv5_3
I0726 16:29:22.736068  4773 net.cpp:91] Creating Layer conv5_3
I0726 16:29:22.736071  4773 net.cpp:425] conv5_3 <- conv5_2
I0726 16:29:22.736078  4773 net.cpp:399] conv5_3 -> conv5_3
I0726 16:29:22.742419  4773 net.cpp:141] Setting up conv5_3
I0726 16:29:22.742435  4773 net.cpp:148] Top shape: 8 512 14 14 (802816)
I0726 16:29:22.742439  4773 net.cpp:156] Memory required for data: 1306984448
I0726 16:29:22.742449  4773 layer_factory.hpp:77] Creating layer relu5_3
I0726 16:29:22.742456  4773 net.cpp:91] Creating Layer relu5_3
I0726 16:29:22.742460  4773 net.cpp:425] relu5_3 <- conv5_3
I0726 16:29:22.742466  4773 net.cpp:386] relu5_3 -> conv5_3 (in-place)
I0726 16:29:22.742791  4773 net.cpp:141] Setting up relu5_3
I0726 16:29:22.742805  4773 net.cpp:148] Top shape: 8 512 14 14 (802816)
I0726 16:29:22.742808  4773 net.cpp:156] Memory required for data: 1310195712
I0726 16:29:22.742811  4773 layer_factory.hpp:77] Creating layer conv5_3_relu5_3_0_split
I0726 16:29:22.742826  4773 net.cpp:91] Creating Layer conv5_3_relu5_3_0_split
I0726 16:29:22.742831  4773 net.cpp:425] conv5_3_relu5_3_0_split <- conv5_3
I0726 16:29:22.742837  4773 net.cpp:399] conv5_3_relu5_3_0_split -> conv5_3_relu5_3_0_split_0
I0726 16:29:22.742844  4773 net.cpp:399] conv5_3_relu5_3_0_split -> conv5_3_relu5_3_0_split_1
I0726 16:29:22.742900  4773 net.cpp:141] Setting up conv5_3_relu5_3_0_split
I0726 16:29:22.742908  4773 net.cpp:148] Top shape: 8 512 14 14 (802816)
I0726 16:29:22.742911  4773 net.cpp:148] Top shape: 8 512 14 14 (802816)
I0726 16:29:22.742914  4773 net.cpp:156] Memory required for data: 1316618240
I0726 16:29:22.742918  4773 layer_factory.hpp:77] Creating layer pool5
I0726 16:29:22.742924  4773 net.cpp:91] Creating Layer pool5
I0726 16:29:22.742928  4773 net.cpp:425] pool5 <- conv5_3_relu5_3_0_split_0
I0726 16:29:22.742933  4773 net.cpp:399] pool5 -> pool5
I0726 16:29:22.742976  4773 net.cpp:141] Setting up pool5
I0726 16:29:22.742983  4773 net.cpp:148] Top shape: 8 512 7 7 (200704)
I0726 16:29:22.742986  4773 net.cpp:156] Memory required for data: 1317421056
I0726 16:29:22.742990  4773 layer_factory.hpp:77] Creating layer fc6-conv
I0726 16:29:22.742997  4773 net.cpp:91] Creating Layer fc6-conv
I0726 16:29:22.743001  4773 net.cpp:425] fc6-conv <- pool5
I0726 16:29:22.743005  4773 net.cpp:399] fc6-conv -> fc6-conv
I0726 16:29:23.013785  4773 net.cpp:141] Setting up fc6-conv
I0726 16:29:23.013823  4773 net.cpp:148] Top shape: 8 4096 1 1 (32768)
I0726 16:29:23.013826  4773 net.cpp:156] Memory required for data: 1317552128
I0726 16:29:23.013836  4773 layer_factory.hpp:77] Creating layer relu6
I0726 16:29:23.013846  4773 net.cpp:91] Creating Layer relu6
I0726 16:29:23.013851  4773 net.cpp:425] relu6 <- fc6-conv
I0726 16:29:23.013878  4773 net.cpp:386] relu6 -> fc6-conv (in-place)
I0726 16:29:23.014188  4773 net.cpp:141] Setting up relu6
I0726 16:29:23.014201  4773 net.cpp:148] Top shape: 8 4096 1 1 (32768)
I0726 16:29:23.014204  4773 net.cpp:156] Memory required for data: 1317683200
I0726 16:29:23.014209  4773 layer_factory.hpp:77] Creating layer drop6
I0726 16:29:23.014215  4773 net.cpp:91] Creating Layer drop6
I0726 16:29:23.014219  4773 net.cpp:425] drop6 <- fc6-conv
I0726 16:29:23.014225  4773 net.cpp:386] drop6 -> fc6-conv (in-place)
I0726 16:29:23.014264  4773 net.cpp:141] Setting up drop6
I0726 16:29:23.014272  4773 net.cpp:148] Top shape: 8 4096 1 1 (32768)
I0726 16:29:23.014276  4773 net.cpp:156] Memory required for data: 1317814272
I0726 16:29:23.014278  4773 layer_factory.hpp:77] Creating layer fc7-conv
I0726 16:29:23.014288  4773 net.cpp:91] Creating Layer fc7-conv
I0726 16:29:23.014292  4773 net.cpp:425] fc7-conv <- fc6-conv
I0726 16:29:23.014297  4773 net.cpp:399] fc7-conv -> fc7-conv
I0726 16:29:23.060215  4773 net.cpp:141] Setting up fc7-conv
I0726 16:29:23.060250  4773 net.cpp:148] Top shape: 8 4096 1 1 (32768)
I0726 16:29:23.060255  4773 net.cpp:156] Memory required for data: 1317945344
I0726 16:29:23.060269  4773 layer_factory.hpp:77] Creating layer relu7
I0726 16:29:23.060277  4773 net.cpp:91] Creating Layer relu7
I0726 16:29:23.060286  4773 net.cpp:425] relu7 <- fc7-conv
I0726 16:29:23.060293  4773 net.cpp:386] relu7 -> fc7-conv (in-place)
I0726 16:29:23.060508  4773 net.cpp:141] Setting up relu7
I0726 16:29:23.060518  4773 net.cpp:148] Top shape: 8 4096 1 1 (32768)
I0726 16:29:23.060520  4773 net.cpp:156] Memory required for data: 1318076416
I0726 16:29:23.060524  4773 layer_factory.hpp:77] Creating layer hypercolumns
I0726 16:29:23.060534  4773 net.cpp:91] Creating Layer hypercolumns
I0726 16:29:23.060537  4773 net.cpp:425] hypercolumns <- normal
I0726 16:29:23.060542  4773 net.cpp:425] hypercolumns <- conv1_2_relu1_2_0_split_1
I0726 16:29:23.060546  4773 net.cpp:425] hypercolumns <- conv2_2_relu2_2_0_split_1
I0726 16:29:23.060550  4773 net.cpp:425] hypercolumns <- conv3_3_relu3_3_0_split_1
I0726 16:29:23.060554  4773 net.cpp:425] hypercolumns <- conv4_3_relu4_3_0_split_1
I0726 16:29:23.060557  4773 net.cpp:425] hypercolumns <- conv5_3_relu5_3_0_split_1
I0726 16:29:23.060561  4773 net.cpp:425] hypercolumns <- fc7-conv
I0726 16:29:23.060569  4773 net.cpp:399] hypercolumns -> hypercolumns
I0726 16:29:23.060587  4773 net.cpp:399] hypercolumns -> normal_point
I0726 16:29:23.060641  4773 net.cpp:141] Setting up hypercolumns
I0726 16:29:23.060648  4773 net.cpp:148] Top shape: 8000 5568 1 1 (44544000)
I0726 16:29:23.060653  4773 net.cpp:148] Top shape: 8000 3 (24000)
I0726 16:29:23.060657  4773 net.cpp:156] Memory required for data: 1496348416
I0726 16:29:23.060659  4773 layer_factory.hpp:77] Creating layer fc1
I0726 16:29:23.060667  4773 net.cpp:91] Creating Layer fc1
I0726 16:29:23.060670  4773 net.cpp:425] fc1 <- hypercolumns
I0726 16:29:23.060678  4773 net.cpp:399] fc1 -> fc1
I0726 16:29:23.370004  4773 net.cpp:141] Setting up fc1
I0726 16:29:23.370050  4773 net.cpp:148] Top shape: 8000 4096 (32768000)
I0726 16:29:23.370054  4773 net.cpp:156] Memory required for data: 1627420416
I0726 16:29:23.370071  4773 layer_factory.hpp:77] Creating layer relu1
I0726 16:29:23.370085  4773 net.cpp:91] Creating Layer relu1
I0726 16:29:23.370098  4773 net.cpp:425] relu1 <- fc1
I0726 16:29:23.370105  4773 net.cpp:386] relu1 -> fc1 (in-place)
I0726 16:29:23.370848  4773 net.cpp:141] Setting up relu1
I0726 16:29:23.370862  4773 net.cpp:148] Top shape: 8000 4096 (32768000)
I0726 16:29:23.370865  4773 net.cpp:156] Memory required for data: 1758492416
I0726 16:29:23.370868  4773 layer_factory.hpp:77] Creating layer drop1
I0726 16:29:23.370879  4773 net.cpp:91] Creating Layer drop1
I0726 16:29:23.370883  4773 net.cpp:425] drop1 <- fc1
I0726 16:29:23.370890  4773 net.cpp:386] drop1 -> fc1 (in-place)
I0726 16:29:23.370929  4773 net.cpp:141] Setting up drop1
I0726 16:29:23.370935  4773 net.cpp:148] Top shape: 8000 4096 (32768000)
I0726 16:29:23.370961  4773 net.cpp:156] Memory required for data: 1889564416
I0726 16:29:23.370965  4773 layer_factory.hpp:77] Creating layer fc2
I0726 16:29:23.370978  4773 net.cpp:91] Creating Layer fc2
I0726 16:29:23.370985  4773 net.cpp:425] fc2 <- fc1
I0726 16:29:23.370992  4773 net.cpp:399] fc2 -> fc2
I0726 16:29:23.569584  4773 net.cpp:141] Setting up fc2
I0726 16:29:23.569634  4773 net.cpp:148] Top shape: 8000 4096 (32768000)
I0726 16:29:23.569638  4773 net.cpp:156] Memory required for data: 2020636416
I0726 16:29:23.569658  4773 layer_factory.hpp:77] Creating layer relu2
I0726 16:29:23.569669  4773 net.cpp:91] Creating Layer relu2
I0726 16:29:23.569674  4773 net.cpp:425] relu2 <- fc2
I0726 16:29:23.569692  4773 net.cpp:386] relu2 -> fc2 (in-place)
I0726 16:29:23.569962  4773 net.cpp:141] Setting up relu2
I0726 16:29:23.569972  4773 net.cpp:148] Top shape: 8000 4096 (32768000)
I0726 16:29:23.569974  4773 net.cpp:156] Memory required for data: 2151708416
I0726 16:29:23.569977  4773 layer_factory.hpp:77] Creating layer drop2
I0726 16:29:23.569984  4773 net.cpp:91] Creating Layer drop2
I0726 16:29:23.569988  4773 net.cpp:425] drop2 <- fc2
I0726 16:29:23.569994  4773 net.cpp:386] drop2 -> fc2 (in-place)
I0726 16:29:23.570024  4773 net.cpp:141] Setting up drop2
I0726 16:29:23.570034  4773 net.cpp:148] Top shape: 8000 4096 (32768000)
I0726 16:29:23.570036  4773 net.cpp:156] Memory required for data: 2282780416
I0726 16:29:23.570039  4773 layer_factory.hpp:77] Creating layer fc3
I0726 16:29:23.570045  4773 net.cpp:91] Creating Layer fc3
I0726 16:29:23.570049  4773 net.cpp:425] fc3 <- fc2
I0726 16:29:23.570055  4773 net.cpp:399] fc3 -> fc3
I0726 16:29:23.570325  4773 net.cpp:141] Setting up fc3
I0726 16:29:23.570333  4773 net.cpp:148] Top shape: 8000 3 (24000)
I0726 16:29:23.570334  4773 net.cpp:156] Memory required for data: 2282876416
I0726 16:29:23.570340  4773 layer_factory.hpp:77] Creating layer loss
I0726 16:29:23.570348  4773 net.cpp:91] Creating Layer loss
I0726 16:29:23.570350  4773 net.cpp:425] loss <- fc3
I0726 16:29:23.570354  4773 net.cpp:425] loss <- normal_point
I0726 16:29:23.570358  4773 net.cpp:399] loss -> loss
I0726 16:29:23.570410  4773 net.cpp:141] Setting up loss
…
