…
I0726 18:01:09.129334  4950 solver.cpp:91] Creating training net from net file: /home/qinhong/project/normal_recovery/model/t3/train.prototxt
I0726 18:01:09.130112  4950 net.cpp:49] Initializing net from parameters: 
name: "hyper_normal_layers"
state {
  phase: TRAIN
}
layer {
  name: "data"
  type: "ImageNormalData"
  top: "data"
  top: "normal"
  transform_param {
    mirror: true
    mean_value: 104
    mean_value: 117
    mean_value: 123
  }
  image_data_param {
    source: "/home/qinhong/project/normal_recovery/data/source.txt"
    batch_size: 8
    shuffle: true
    new_height: 224
    new_width: 224
  }
}
layer {
  name: "conv1_1"
  type: "Convolution"
  bottom: "data"
  top: "conv1_1"
  param {
    lr_mult: 1
    decay_mult: 1
  }
  param {
    lr_mult: 2
    decay_mult: 0
  }
  convolution_param {
    num_output: 64
    pad: 1
    kernel_size: 3
  }
}
layer {
  name: "relu1_1"
  type: "ReLU"
  bottom: "conv1_1"
  top: "conv1_1"
}
layer {
  name: "conv1_2"
  type: "Convolution"
  bottom: "conv1_1"
  top: "conv1_2"
  param {
    lr_mult: 1
    decay_mult: 1
  }
  param {
    lr_mult: 2
    decay_mult: 0
  }
  convolution_param {
    num_output: 64
    pad: 1
    kernel_size: 3
  }
}
layer {
  name: "relu1_2"
  type: "ReLU"
  bottom: "conv1_2"
  top: "conv1_2"
}
layer {
  name: "pool1"
  type: "Pooling"
  bottom: "conv1_2"
  top: "pool1"
  pooling_param {
    pool: MAX
    kernel_size: 2
    stride: 2
  }
}
layer {
  name: "conv2_1"
  type: "Convolution"
  bottom: "pool1"
  top: "conv2_1"
  param {
    lr_mult: 1
    decay_mult: 1
  }
  param {
    lr_mult: 2
    decay_mult: 0
  }
  convolution_param {
    num_output: 128
    pad: 1
    kernel_size: 3
  }
}
layer {
  name: "relu2_1"
  type: "ReLU"
  bottom: "conv2_1"
  top: "conv2_1"
}
layer {
  name: "conv2_2"
  type: "Convolution"
  bottom: "conv2_1"
  top: "conv2_2"
  param {
    lr_mult: 1
    decay_mult: 1
  }
  param {
    lr_mult: 2
    decay_mult: 0
  }
  convolution_param {
    num_output: 128
    pad: 1
    kernel_size: 3
  }
}
layer {
  name: "relu2_2"
  type: "ReLU"
  bottom: "conv2_2"
  top: "conv2_2"
}
layer {
  name: "pool2"
  type: "Pooling"
  bottom: "conv2_2"
  top: "pool2"
  pooling_param {
    pool: MAX
    kernel_size: 2
    stride: 2
  }
}
layer {
  name: "conv3_1"
  type: "Convolution"
  bottom: "pool2"
  top: "conv3_1"
  param {
    lr_mult: 1
    decay_mult: 1
  }
  param {
    lr_mult: 2
    decay_mult: 0
  }
  convolution_param {
    num_output: 256
    pad: 1
    kernel_size: 3
  }
}
layer {
  name: "relu3_1"
  type: "ReLU"
  bottom: "conv3_1"
  top: "conv3_1"
}
layer {
  name: "conv3_2"
  type: "Convolution"
  bottom: "conv3_1"
  top: "conv3_2"
  param {
    lr_mult: 1
    decay_mult: 1
  }
  param {
    lr_mult: 2
    decay_mult: 0
  }
  convolution_param {
    num_output: 256
    pad: 1
    kernel_size: 3
  }
}
layer {
  name: "relu3_2"
  type: "ReLU"
  bottom: "conv3_2"
  top: "conv3_2"
}
layer {
  name: "conv3_3"
  type: "Convolution"
  bottom: "conv3_2"
  top: "conv3_3"
  param {
    lr_mult: 1
    decay_mult: 1
  }
  param {
    lr_mult: 2
    decay_mult: 0
  }
  convolution_param {
    num_output: 256
    pad: 1
    kernel_size: 3
  }
}
layer {
  name: "relu3_3"
  type: "ReLU"
  bottom: "conv3_3"
  top: "conv3_3"
}
layer {
  name: "pool3"
  type: "Pooling"
  bottom: "conv3_3"
  top: "pool3"
  pooling_param {
    pool: MAX
    kernel_size: 2
    stride: 2
  }
}
layer {
  name: "conv4_1"
  type: "Convolution"
  bottom: "pool3"
  top: "conv4_1"
  param {
    lr_mult: 1
    decay_mult: 1
  }
  param {
    lr_mult: 2
    decay_mult: 0
  }
  convolution_param {
    num_output: 512
    pad: 1
    kernel_size: 3
  }
}
layer {
  name: "relu4_1"
  type: "ReLU"
  bottom: "conv4_1"
  top: "conv4_1"
}
layer {
  name: "conv4_2"
  type: "Convolution"
  bottom: "conv4_1"
  top: "conv4_2"
  param {
    lr_mult: 1
    decay_mult: 1
  }
  param {
    lr_mult: 2
    decay_mult: 0
  }
  convolution_param {
    num_output: 512
    pad: 1
    kernel_size: 3
  }
}
layer {
  name: "relu4_2"
  type: "ReLU"
  bottom: "conv4_2"
  top: "conv4_2"
}
layer {
  name: "conv4_3"
  type: "Convolution"
  bottom: "conv4_2"
  top: "conv4_3"
  param {
    lr_mult: 1
    decay_mult: 1
  }
  param {
    lr_mult: 2
    decay_mult: 0
  }
  convolution_param {
    num_output: 512
    pad: 1
    kernel_size: 3
  }
}
layer {
  name: "relu4_3"
  type: "ReLU"
  bottom: "conv4_3"
  top: "conv4_3"
}
layer {
  name: "pool4"
  type: "Pooling"
  bottom: "conv4_3"
  top: "pool4"
  pooling_param {
    pool: MAX
    kernel_size: 2
    stride: 2
  }
}
layer {
  name: "conv5_1"
  type: "Convolution"
  bottom: "pool4"
  top: "conv5_1"
  param {
    lr_mult: 1
    decay_mult: 1
  }
  param {
    lr_mult: 2
    decay_mult: 0
  }
  convolution_param {
    num_output: 512
    pad: 1
    kernel_size: 3
  }
}
layer {
  name: "relu5_1"
  type: "ReLU"
  bottom: "conv5_1"
  top: "conv5_1"
}
layer {
  name: "conv5_2"
  type: "Convolution"
  bottom: "conv5_1"
  top: "conv5_2"
  param {
    lr_mult: 1
    decay_mult: 1
  }
  param {
    lr_mult: 2
    decay_mult: 0
  }
  convolution_param {
    num_output: 512
    pad: 1
    kernel_size: 3
  }
}
layer {
  name: "relu5_2"
  type: "ReLU"
  bottom: "conv5_2"
  top: "conv5_2"
}
layer {
  name: "conv5_3"
  type: "Convolution"
  bottom: "conv5_2"
  top: "conv5_3"
  param {
    lr_mult: 1
    decay_mult: 1
  }
  param {
    lr_mult: 2
    decay_mult: 0
  }
  convolution_param {
    num_output: 512
    pad: 1
    kernel_size: 3
  }
}
layer {
  name: "relu5_3"
  type: "ReLU"
  bottom: "conv5_3"
  top: "conv5_3"
}
layer {
  name: "pool5"
  type: "Pooling"
  bottom: "conv5_3"
  top: "pool5"
  pooling_param {
    pool: MAX
    kernel_size: 2
    stride: 2
  }
}
layer {
  name: "fc6-conv"
  type: "Convolution"
  bottom: "pool5"
  top: "fc6-conv"
  param {
    lr_mult: 1
    decay_mult: 1
  }
  param {
    lr_mult: 2
    decay_mult: 0
  }
  convolution_param {
    num_output: 4096
    kernel_size: 7
  }
}
layer {
  name: "relu6"
  type: "ReLU"
  bottom: "fc6-conv"
  top: "fc6-conv"
}
layer {
  name: "drop6"
  type: "Dropout"
  bottom: "fc6-conv"
  top: "fc6-conv"
  dropout_param {
    dropout_ratio: 0.5
  }
}
layer {
  name: "fc7-conv"
  type: "Convolution"
  bottom: "fc6-conv"
  top: "fc7-conv"
  param {
    lr_mult: 1
    decay_mult: 1
  }
  param {
    lr_mult: 2
    decay_mult: 0
  }
  convolution_param {
    num_output: 4096
    kernel_size: 1
  }
}
layer {
  name: "relu7"
  type: "ReLU"
  bottom: "fc7-conv"
  top: "fc7-conv"
}
layer {
  name: "hypercolumns"
  type: "HyperColumns"
  bottom: "normal"
  bottom: "conv1_2"
  bottom: "conv2_2"
  bottom: "conv3_3"
  bottom: "conv4_3"
  bottom: "conv5_3"
  bottom: "fc7-conv"
  top: "hypercolumns"
  top: "normal_point"
  hypercolumns_param {
    is_train: true
  }
}
layer {
  name: "fc1"
  type: "InnerProduct"
  bottom: "hypercolumns"
  top: "fc1"
  param {
    lr_mult: 1
    decay_mult: 1
  }
  param {
    lr_mult: 2
    decay_mult: 0
  }
  inner_product_param {
    num_output: 4096
    weight_filler {
      type: "gaussian"
      std: 0.003
    }
    bias_filler {
      type: "constant"
      value: 0
    }
  }
}
layer {
  name: "relu1"
  type: "ReLU"
  bottom: "fc1"
  top: "fc1"
}
layer {
  name: "drop1"
  type: "Dropout"
  bottom: "fc1"
  top: "fc1"
  dropout_param {
    dropout_ratio: 0.5
  }
}
layer {
  name: "fc2"
  type: "InnerProduct"
  bottom: "fc1"
  top: "fc2"
  param {
    lr_mult: 1
    decay_mult: 1
  }
  param {
    lr_mult: 2
    decay_mult: 0
  }
  inner_product_param {
    num_output: 4096
    weight_filler {
      type: "gaussian"
      std: 0.002
    }
    bias_filler {
      type: "constant"
      value: 0
    }
  }
}
layer {
  name: "relu2"
  type: "ReLU"
  bottom: "fc2"
  top: "fc2"
}
layer {
  name: "drop2"
  type: "Dropout"
  bottom: "fc2"
  top: "fc2"
  dropout_param {
    dropout_ratio: 0.5
  }
}
layer {
  name: "fc3"
  type: "InnerProduct"
  bottom: "fc2"
  top: "fc3"
  param {
    lr_mult: 1
    decay_mult: 1
  }
  param {
    lr_mult: 2
    decay_mult: 0
  }
  inner_product_param {
    num_output: 3
    weight_filler {
      type: "gaussian"
      std: 0.001
    }
    bias_filler {
      type: "constant"
      value: 0
    }
  }
}
layer {
  name: "loss"
  type: "EuclideanLoss"
  bottom: "fc3"
  bottom: "normal_point"
  top: "loss"
  propagate_down: true
  propagate_down: false
}
I0726 18:01:09.130358  4950 layer_factory.hpp:77] Creating layer data
I0726 18:01:09.130401  4950 net.cpp:91] Creating Layer data
I0726 18:01:09.130409  4950 net.cpp:399] data -> data
I0726 18:01:09.130437  4950 net.cpp:399] data -> normal
I0726 18:01:09.130820  4950 image_normal_data_layer.cpp:43] opeing file /home/qinhong/project/normal_recovery/data/source.txt
I0726 18:01:09.135401  4950 image_normal_data_layer.cpp:54] Shuffing data
I0726 18:01:09.136396  4950 image_normal_data_layer.cpp:59] A total of 4105 images.
I0726 18:01:09.159180  4950 image_normal_data_layer.cpp:79] output data size: 8,3,224,224
I0726 18:01:09.175626  4950 net.cpp:141] Setting up data
I0726 18:01:09.175662  4950 net.cpp:148] Top shape: 8 3 224 224 (1204224)
I0726 18:01:09.175668  4950 net.cpp:148] Top shape: 8 3 224 224 (1204224)
I0726 18:01:09.175670  4950 net.cpp:156] Memory required for data: 9633792
I0726 18:01:09.175680  4950 layer_factory.hpp:77] Creating layer conv1_1
I0726 18:01:09.175712  4950 net.cpp:91] Creating Layer conv1_1
I0726 18:01:09.175719  4950 net.cpp:425] conv1_1 <- data
I0726 18:01:09.175734  4950 net.cpp:399] conv1_1 -> conv1_1
I0726 18:01:09.367383  4950 net.cpp:141] Setting up conv1_1
I0726 18:01:09.367424  4950 net.cpp:148] Top shape: 8 64 224 224 (25690112)
I0726 18:01:09.367429  4950 net.cpp:156] Memory required for data: 112394240
I0726 18:01:09.367460  4950 layer_factory.hpp:77] Creating layer relu1_1
I0726 18:01:09.367477  4950 net.cpp:91] Creating Layer relu1_1
I0726 18:01:09.367483  4950 net.cpp:425] relu1_1 <- conv1_1
I0726 18:01:09.367489  4950 net.cpp:386] relu1_1 -> conv1_1 (in-place)
I0726 18:01:09.367797  4950 net.cpp:141] Setting up relu1_1
I0726 18:01:09.367811  4950 net.cpp:148] Top shape: 8 64 224 224 (25690112)
I0726 18:01:09.367815  4950 net.cpp:156] Memory required for data: 215154688
I0726 18:01:09.367818  4950 layer_factory.hpp:77] Creating layer conv1_2
I0726 18:01:09.367831  4950 net.cpp:91] Creating Layer conv1_2
I0726 18:01:09.367836  4950 net.cpp:425] conv1_2 <- conv1_1
I0726 18:01:09.367842  4950 net.cpp:399] conv1_2 -> conv1_2
I0726 18:01:09.368880  4950 net.cpp:141] Setting up conv1_2
I0726 18:01:09.368896  4950 net.cpp:148] Top shape: 8 64 224 224 (25690112)
I0726 18:01:09.368898  4950 net.cpp:156] Memory required for data: 317915136
I0726 18:01:09.368908  4950 layer_factory.hpp:77] Creating layer relu1_2
I0726 18:01:09.368917  4950 net.cpp:91] Creating Layer relu1_2
I0726 18:01:09.368922  4950 net.cpp:425] relu1_2 <- conv1_2
I0726 18:01:09.368927  4950 net.cpp:386] relu1_2 -> conv1_2 (in-place)
I0726 18:01:09.369199  4950 net.cpp:141] Setting up relu1_2
I0726 18:01:09.369211  4950 net.cpp:148] Top shape: 8 64 224 224 (25690112)
I0726 18:01:09.369215  4950 net.cpp:156] Memory required for data: 420675584
I0726 18:01:09.369218  4950 layer_factory.hpp:77] Creating layer conv1_2_relu1_2_0_split
I0726 18:01:09.369225  4950 net.cpp:91] Creating Layer conv1_2_relu1_2_0_split
I0726 18:01:09.369228  4950 net.cpp:425] conv1_2_relu1_2_0_split <- conv1_2
I0726 18:01:09.369235  4950 net.cpp:399] conv1_2_relu1_2_0_split -> conv1_2_relu1_2_0_split_0
I0726 18:01:09.369242  4950 net.cpp:399] conv1_2_relu1_2_0_split -> conv1_2_relu1_2_0_split_1
I0726 18:01:09.369285  4950 net.cpp:141] Setting up conv1_2_relu1_2_0_split
I0726 18:01:09.369292  4950 net.cpp:148] Top shape: 8 64 224 224 (25690112)
I0726 18:01:09.369295  4950 net.cpp:148] Top shape: 8 64 224 224 (25690112)
I0726 18:01:09.369298  4950 net.cpp:156] Memory required for data: 626196480
I0726 18:01:09.369323  4950 layer_factory.hpp:77] Creating layer pool1
I0726 18:01:09.369330  4950 net.cpp:91] Creating Layer pool1
I0726 18:01:09.369334  4950 net.cpp:425] pool1 <- conv1_2_relu1_2_0_split_0
I0726 18:01:09.369338  4950 net.cpp:399] pool1 -> pool1
I0726 18:01:09.369392  4950 net.cpp:141] Setting up pool1
I0726 18:01:09.369400  4950 net.cpp:148] Top shape: 8 64 112 112 (6422528)
I0726 18:01:09.369402  4950 net.cpp:156] Memory required for data: 651886592
I0726 18:01:09.369405  4950 layer_factory.hpp:77] Creating layer conv2_1
I0726 18:01:09.369413  4950 net.cpp:91] Creating Layer conv2_1
I0726 18:01:09.369416  4950 net.cpp:425] conv2_1 <- pool1
I0726 18:01:09.369421  4950 net.cpp:399] conv2_1 -> conv2_1
I0726 18:01:09.371667  4950 net.cpp:141] Setting up conv2_1
I0726 18:01:09.371683  4950 net.cpp:148] Top shape: 8 128 112 112 (12845056)
I0726 18:01:09.371687  4950 net.cpp:156] Memory required for data: 703266816
I0726 18:01:09.371696  4950 layer_factory.hpp:77] Creating layer relu2_1
I0726 18:01:09.371704  4950 net.cpp:91] Creating Layer relu2_1
I0726 18:01:09.371711  4950 net.cpp:425] relu2_1 <- conv2_1
I0726 18:01:09.371716  4950 net.cpp:386] relu2_1 -> conv2_1 (in-place)
I0726 18:01:09.371896  4950 net.cpp:141] Setting up relu2_1
I0726 18:01:09.371906  4950 net.cpp:148] Top shape: 8 128 112 112 (12845056)
I0726 18:01:09.371909  4950 net.cpp:156] Memory required for data: 754647040
I0726 18:01:09.371912  4950 layer_factory.hpp:77] Creating layer conv2_2
I0726 18:01:09.371920  4950 net.cpp:91] Creating Layer conv2_2
I0726 18:01:09.371923  4950 net.cpp:425] conv2_2 <- conv2_1
I0726 18:01:09.371928  4950 net.cpp:399] conv2_2 -> conv2_2
I0726 18:01:09.373018  4950 net.cpp:141] Setting up conv2_2
I0726 18:01:09.373033  4950 net.cpp:148] Top shape: 8 128 112 112 (12845056)
I0726 18:01:09.373035  4950 net.cpp:156] Memory required for data: 806027264
I0726 18:01:09.373042  4950 layer_factory.hpp:77] Creating layer relu2_2
I0726 18:01:09.373049  4950 net.cpp:91] Creating Layer relu2_2
I0726 18:01:09.373051  4950 net.cpp:425] relu2_2 <- conv2_2
I0726 18:01:09.373056  4950 net.cpp:386] relu2_2 -> conv2_2 (in-place)
I0726 18:01:09.373342  4950 net.cpp:141] Setting up relu2_2
I0726 18:01:09.373354  4950 net.cpp:148] Top shape: 8 128 112 112 (12845056)
I0726 18:01:09.373358  4950 net.cpp:156] Memory required for data: 857407488
I0726 18:01:09.373360  4950 layer_factory.hpp:77] Creating layer conv2_2_relu2_2_0_split
I0726 18:01:09.373368  4950 net.cpp:91] Creating Layer conv2_2_relu2_2_0_split
I0726 18:01:09.373370  4950 net.cpp:425] conv2_2_relu2_2_0_split <- conv2_2
I0726 18:01:09.373375  4950 net.cpp:399] conv2_2_relu2_2_0_split -> conv2_2_relu2_2_0_split_0
I0726 18:01:09.373383  4950 net.cpp:399] conv2_2_relu2_2_0_split -> conv2_2_relu2_2_0_split_1
I0726 18:01:09.373425  4950 net.cpp:141] Setting up conv2_2_relu2_2_0_split
I0726 18:01:09.373433  4950 net.cpp:148] Top shape: 8 128 112 112 (12845056)
I0726 18:01:09.373436  4950 net.cpp:148] Top shape: 8 128 112 112 (12845056)
I0726 18:01:09.373440  4950 net.cpp:156] Memory required for data: 960167936
I0726 18:01:09.373442  4950 layer_factory.hpp:77] Creating layer pool2
I0726 18:01:09.373448  4950 net.cpp:91] Creating Layer pool2
I0726 18:01:09.373451  4950 net.cpp:425] pool2 <- conv2_2_relu2_2_0_split_0
I0726 18:01:09.373457  4950 net.cpp:399] pool2 -> pool2
I0726 18:01:09.373493  4950 net.cpp:141] Setting up pool2
I0726 18:01:09.373500  4950 net.cpp:148] Top shape: 8 128 56 56 (3211264)
I0726 18:01:09.373503  4950 net.cpp:156] Memory required for data: 973012992
I0726 18:01:09.373505  4950 layer_factory.hpp:77] Creating layer conv3_1
I0726 18:01:09.373512  4950 net.cpp:91] Creating Layer conv3_1
I0726 18:01:09.373517  4950 net.cpp:425] conv3_1 <- pool2
I0726 18:01:09.373520  4950 net.cpp:399] conv3_1 -> conv3_1
I0726 18:01:09.375263  4950 net.cpp:141] Setting up conv3_1
I0726 18:01:09.375280  4950 net.cpp:148] Top shape: 8 256 56 56 (6422528)
I0726 18:01:09.375283  4950 net.cpp:156] Memory required for data: 998703104
I0726 18:01:09.375293  4950 layer_factory.hpp:77] Creating layer relu3_1
I0726 18:01:09.375319  4950 net.cpp:91] Creating Layer relu3_1
I0726 18:01:09.375326  4950 net.cpp:425] relu3_1 <- conv3_1
I0726 18:01:09.375332  4950 net.cpp:386] relu3_1 -> conv3_1 (in-place)
I0726 18:01:09.375636  4950 net.cpp:141] Setting up relu3_1
I0726 18:01:09.375649  4950 net.cpp:148] Top shape: 8 256 56 56 (6422528)
I0726 18:01:09.375653  4950 net.cpp:156] Memory required for data: 1024393216
I0726 18:01:09.375655  4950 layer_factory.hpp:77] Creating layer conv3_2
I0726 18:01:09.375668  4950 net.cpp:91] Creating Layer conv3_2
I0726 18:01:09.375671  4950 net.cpp:425] conv3_2 <- conv3_1
I0726 18:01:09.375677  4950 net.cpp:399] conv3_2 -> conv3_2
I0726 18:01:09.378268  4950 net.cpp:141] Setting up conv3_2
I0726 18:01:09.378285  4950 net.cpp:148] Top shape: 8 256 56 56 (6422528)
I0726 18:01:09.378288  4950 net.cpp:156] Memory required for data: 1050083328
I0726 18:01:09.378295  4950 layer_factory.hpp:77] Creating layer relu3_2
I0726 18:01:09.378309  4950 net.cpp:91] Creating Layer relu3_2
I0726 18:01:09.378314  4950 net.cpp:425] relu3_2 <- conv3_2
I0726 18:01:09.378319  4950 net.cpp:386] relu3_2 -> conv3_2 (in-place)
I0726 18:01:09.378509  4950 net.cpp:141] Setting up relu3_2
I0726 18:01:09.378520  4950 net.cpp:148] Top shape: 8 256 56 56 (6422528)
I0726 18:01:09.378522  4950 net.cpp:156] Memory required for data: 1075773440
I0726 18:01:09.378525  4950 layer_factory.hpp:77] Creating layer conv3_3
I0726 18:01:09.378536  4950 net.cpp:91] Creating Layer conv3_3
I0726 18:01:09.378541  4950 net.cpp:425] conv3_3 <- conv3_2
I0726 18:01:09.378546  4950 net.cpp:399] conv3_3 -> conv3_3
I0726 18:01:09.381189  4950 net.cpp:141] Setting up conv3_3
I0726 18:01:09.381206  4950 net.cpp:148] Top shape: 8 256 56 56 (6422528)
I0726 18:01:09.381208  4950 net.cpp:156] Memory required for data: 1101463552
I0726 18:01:09.381216  4950 layer_factory.hpp:77] Creating layer relu3_3
I0726 18:01:09.381222  4950 net.cpp:91] Creating Layer relu3_3
I0726 18:01:09.381227  4950 net.cpp:425] relu3_3 <- conv3_3
I0726 18:01:09.381232  4950 net.cpp:386] relu3_3 -> conv3_3 (in-place)
I0726 18:01:09.381552  4950 net.cpp:141] Setting up relu3_3
I0726 18:01:09.381567  4950 net.cpp:148] Top shape: 8 256 56 56 (6422528)
I0726 18:01:09.381569  4950 net.cpp:156] Memory required for data: 1127153664
I0726 18:01:09.381573  4950 layer_factory.hpp:77] Creating layer conv3_3_relu3_3_0_split
I0726 18:01:09.381579  4950 net.cpp:91] Creating Layer conv3_3_relu3_3_0_split
I0726 18:01:09.381583  4950 net.cpp:425] conv3_3_relu3_3_0_split <- conv3_3
I0726 18:01:09.381592  4950 net.cpp:399] conv3_3_relu3_3_0_split -> conv3_3_relu3_3_0_split_0
I0726 18:01:09.381598  4950 net.cpp:399] conv3_3_relu3_3_0_split -> conv3_3_relu3_3_0_split_1
I0726 18:01:09.381652  4950 net.cpp:141] Setting up conv3_3_relu3_3_0_split
I0726 18:01:09.381659  4950 net.cpp:148] Top shape: 8 256 56 56 (6422528)
I0726 18:01:09.381664  4950 net.cpp:148] Top shape: 8 256 56 56 (6422528)
I0726 18:01:09.381666  4950 net.cpp:156] Memory required for data: 1178533888
I0726 18:01:09.381669  4950 layer_factory.hpp:77] Creating layer pool3
I0726 18:01:09.381677  4950 net.cpp:91] Creating Layer pool3
I0726 18:01:09.381680  4950 net.cpp:425] pool3 <- conv3_3_relu3_3_0_split_0
I0726 18:01:09.381685  4950 net.cpp:399] pool3 -> pool3
I0726 18:01:09.381727  4950 net.cpp:141] Setting up pool3
I0726 18:01:09.381733  4950 net.cpp:148] Top shape: 8 256 28 28 (1605632)
I0726 18:01:09.381736  4950 net.cpp:156] Memory required for data: 1184956416
I0726 18:01:09.381739  4950 layer_factory.hpp:77] Creating layer conv4_1
I0726 18:01:09.381748  4950 net.cpp:91] Creating Layer conv4_1
I0726 18:01:09.381752  4950 net.cpp:425] conv4_1 <- pool3
I0726 18:01:09.381765  4950 net.cpp:399] conv4_1 -> conv4_1
I0726 18:01:09.386061  4950 net.cpp:141] Setting up conv4_1
I0726 18:01:09.386078  4950 net.cpp:148] Top shape: 8 512 28 28 (3211264)
I0726 18:01:09.386081  4950 net.cpp:156] Memory required for data: 1197801472
I0726 18:01:09.386088  4950 layer_factory.hpp:77] Creating layer relu4_1
I0726 18:01:09.386109  4950 net.cpp:91] Creating Layer relu4_1
I0726 18:01:09.386113  4950 net.cpp:425] relu4_1 <- conv4_1
I0726 18:01:09.386121  4950 net.cpp:386] relu4_1 -> conv4_1 (in-place)
I0726 18:01:09.386428  4950 net.cpp:141] Setting up relu4_1
I0726 18:01:09.386441  4950 net.cpp:148] Top shape: 8 512 28 28 (3211264)
I0726 18:01:09.386445  4950 net.cpp:156] Memory required for data: 1210646528
I0726 18:01:09.386448  4950 layer_factory.hpp:77] Creating layer conv4_2
I0726 18:01:09.386458  4950 net.cpp:91] Creating Layer conv4_2
I0726 18:01:09.386462  4950 net.cpp:425] conv4_2 <- conv4_1
I0726 18:01:09.386471  4950 net.cpp:399] conv4_2 -> conv4_2
I0726 18:01:09.393023  4950 net.cpp:141] Setting up conv4_2
I0726 18:01:09.393043  4950 net.cpp:148] Top shape: 8 512 28 28 (3211264)
I0726 18:01:09.393045  4950 net.cpp:156] Memory required for data: 1223491584
I0726 18:01:09.393059  4950 layer_factory.hpp:77] Creating layer relu4_2
I0726 18:01:09.393066  4950 net.cpp:91] Creating Layer relu4_2
I0726 18:01:09.393074  4950 net.cpp:425] relu4_2 <- conv4_2
I0726 18:01:09.393080  4950 net.cpp:386] relu4_2 -> conv4_2 (in-place)
I0726 18:01:09.393271  4950 net.cpp:141] Setting up relu4_2
I0726 18:01:09.393281  4950 net.cpp:148] Top shape: 8 512 28 28 (3211264)
I0726 18:01:09.393283  4950 net.cpp:156] Memory required for data: 1236336640
I0726 18:01:09.393287  4950 layer_factory.hpp:77] Creating layer conv4_3
I0726 18:01:09.393296  4950 net.cpp:91] Creating Layer conv4_3
I0726 18:01:09.393303  4950 net.cpp:425] conv4_3 <- conv4_2
I0726 18:01:09.393308  4950 net.cpp:399] conv4_3 -> conv4_3
I0726 18:01:09.399852  4950 net.cpp:141] Setting up conv4_3
I0726 18:01:09.399869  4950 net.cpp:148] Top shape: 8 512 28 28 (3211264)
I0726 18:01:09.399873  4950 net.cpp:156] Memory required for data: 1249181696
I0726 18:01:09.399879  4950 layer_factory.hpp:77] Creating layer relu4_3
I0726 18:01:09.399885  4950 net.cpp:91] Creating Layer relu4_3
I0726 18:01:09.399888  4950 net.cpp:425] relu4_3 <- conv4_3
I0726 18:01:09.399895  4950 net.cpp:386] relu4_3 -> conv4_3 (in-place)
I0726 18:01:09.400207  4950 net.cpp:141] Setting up relu4_3
I0726 18:01:09.400221  4950 net.cpp:148] Top shape: 8 512 28 28 (3211264)
I0726 18:01:09.400224  4950 net.cpp:156] Memory required for data: 1262026752
I0726 18:01:09.400228  4950 layer_factory.hpp:77] Creating layer conv4_3_relu4_3_0_split
I0726 18:01:09.400234  4950 net.cpp:91] Creating Layer conv4_3_relu4_3_0_split
I0726 18:01:09.400239  4950 net.cpp:425] conv4_3_relu4_3_0_split <- conv4_3
I0726 18:01:09.400244  4950 net.cpp:399] conv4_3_relu4_3_0_split -> conv4_3_relu4_3_0_split_0
I0726 18:01:09.400252  4950 net.cpp:399] conv4_3_relu4_3_0_split -> conv4_3_relu4_3_0_split_1
I0726 18:01:09.400305  4950 net.cpp:141] Setting up conv4_3_relu4_3_0_split
I0726 18:01:09.400311  4950 net.cpp:148] Top shape: 8 512 28 28 (3211264)
I0726 18:01:09.400315  4950 net.cpp:148] Top shape: 8 512 28 28 (3211264)
I0726 18:01:09.400317  4950 net.cpp:156] Memory required for data: 1287716864
I0726 18:01:09.400321  4950 layer_factory.hpp:77] Creating layer pool4
I0726 18:01:09.400326  4950 net.cpp:91] Creating Layer pool4
I0726 18:01:09.400331  4950 net.cpp:425] pool4 <- conv4_3_relu4_3_0_split_0
I0726 18:01:09.400337  4950 net.cpp:399] pool4 -> pool4
I0726 18:01:09.400379  4950 net.cpp:141] Setting up pool4
I0726 18:01:09.400387  4950 net.cpp:148] Top shape: 8 512 14 14 (802816)
I0726 18:01:09.400389  4950 net.cpp:156] Memory required for data: 1290928128
I0726 18:01:09.400393  4950 layer_factory.hpp:77] Creating layer conv5_1
I0726 18:01:09.400403  4950 net.cpp:91] Creating Layer conv5_1
I0726 18:01:09.400406  4950 net.cpp:425] conv5_1 <- pool4
I0726 18:01:09.400413  4950 net.cpp:399] conv5_1 -> conv5_1
I0726 18:01:09.406875  4950 net.cpp:141] Setting up conv5_1
I0726 18:01:09.406899  4950 net.cpp:148] Top shape: 8 512 14 14 (802816)
I0726 18:01:09.406905  4950 net.cpp:156] Memory required for data: 1294139392
I0726 18:01:09.406913  4950 layer_factory.hpp:77] Creating layer relu5_1
I0726 18:01:09.406919  4950 net.cpp:91] Creating Layer relu5_1
I0726 18:01:09.406951  4950 net.cpp:425] relu5_1 <- conv5_1
I0726 18:01:09.406957  4950 net.cpp:386] relu5_1 -> conv5_1 (in-place)
I0726 18:01:09.407260  4950 net.cpp:141] Setting up relu5_1
I0726 18:01:09.407276  4950 net.cpp:148] Top shape: 8 512 14 14 (802816)
I0726 18:01:09.407279  4950 net.cpp:156] Memory required for data: 1297350656
I0726 18:01:09.407282  4950 layer_factory.hpp:77] Creating layer conv5_2
I0726 18:01:09.407291  4950 net.cpp:91] Creating Layer conv5_2
I0726 18:01:09.407294  4950 net.cpp:425] conv5_2 <- conv5_1
I0726 18:01:09.407302  4950 net.cpp:399] conv5_2 -> conv5_2
I0726 18:01:09.413805  4950 net.cpp:141] Setting up conv5_2
I0726 18:01:09.413825  4950 net.cpp:148] Top shape: 8 512 14 14 (802816)
I0726 18:01:09.413830  4950 net.cpp:156] Memory required for data: 1300561920
I0726 18:01:09.413836  4950 layer_factory.hpp:77] Creating layer relu5_2
I0726 18:01:09.413851  4950 net.cpp:91] Creating Layer relu5_2
I0726 18:01:09.413856  4950 net.cpp:425] relu5_2 <- conv5_2
I0726 18:01:09.413861  4950 net.cpp:386] relu5_2 -> conv5_2 (in-place)
I0726 18:01:09.414059  4950 net.cpp:141] Setting up relu5_2
I0726 18:01:09.414070  4950 net.cpp:148] Top shape: 8 512 14 14 (802816)
I0726 18:01:09.414073  4950 net.cpp:156] Memory required for data: 1303773184
I0726 18:01:09.414077  4950 layer_factory.hpp:77] Creating layer conv5_3
I0726 18:01:09.414086  4950 net.cpp:91] Creating Layer conv5_3
I0726 18:01:09.414091  4950 net.cpp:425] conv5_3 <- conv5_2
I0726 18:01:09.414099  4950 net.cpp:399] conv5_3 -> conv5_3
I0726 18:01:09.420559  4950 net.cpp:141] Setting up conv5_3
I0726 18:01:09.420577  4950 net.cpp:148] Top shape: 8 512 14 14 (802816)
I0726 18:01:09.420580  4950 net.cpp:156] Memory required for data: 1306984448
I0726 18:01:09.420586  4950 layer_factory.hpp:77] Creating layer relu5_3
I0726 18:01:09.420593  4950 net.cpp:91] Creating Layer relu5_3
I0726 18:01:09.420598  4950 net.cpp:425] relu5_3 <- conv5_3
I0726 18:01:09.420604  4950 net.cpp:386] relu5_3 -> conv5_3 (in-place)
I0726 18:01:09.420917  4950 net.cpp:141] Setting up relu5_3
I0726 18:01:09.420930  4950 net.cpp:148] Top shape: 8 512 14 14 (802816)
I0726 18:01:09.420933  4950 net.cpp:156] Memory required for data: 1310195712
I0726 18:01:09.420936  4950 layer_factory.hpp:77] Creating layer conv5_3_relu5_3_0_split
I0726 18:01:09.420943  4950 net.cpp:91] Creating Layer conv5_3_relu5_3_0_split
I0726 18:01:09.420948  4950 net.cpp:425] conv5_3_relu5_3_0_split <- conv5_3
I0726 18:01:09.420954  4950 net.cpp:399] conv5_3_relu5_3_0_split -> conv5_3_relu5_3_0_split_0
I0726 18:01:09.420961  4950 net.cpp:399] conv5_3_relu5_3_0_split -> conv5_3_relu5_3_0_split_1
I0726 18:01:09.421016  4950 net.cpp:141] Setting up conv5_3_relu5_3_0_split
I0726 18:01:09.421023  4950 net.cpp:148] Top shape: 8 512 14 14 (802816)
I0726 18:01:09.421027  4950 net.cpp:148] Top shape: 8 512 14 14 (802816)
I0726 18:01:09.421030  4950 net.cpp:156] Memory required for data: 1316618240
I0726 18:01:09.421033  4950 layer_factory.hpp:77] Creating layer pool5
I0726 18:01:09.421044  4950 net.cpp:91] Creating Layer pool5
I0726 18:01:09.421049  4950 net.cpp:425] pool5 <- conv5_3_relu5_3_0_split_0
I0726 18:01:09.421054  4950 net.cpp:399] pool5 -> pool5
I0726 18:01:09.421100  4950 net.cpp:141] Setting up pool5
I0726 18:01:09.421106  4950 net.cpp:148] Top shape: 8 512 7 7 (200704)
I0726 18:01:09.421109  4950 net.cpp:156] Memory required for data: 1317421056
I0726 18:01:09.421113  4950 layer_factory.hpp:77] Creating layer fc6-conv
I0726 18:01:09.421121  4950 net.cpp:91] Creating Layer fc6-conv
I0726 18:01:09.421125  4950 net.cpp:425] fc6-conv <- pool5
I0726 18:01:09.421130  4950 net.cpp:399] fc6-conv -> fc6-conv
I0726 18:01:09.694116  4950 net.cpp:141] Setting up fc6-conv
I0726 18:01:09.694159  4950 net.cpp:148] Top shape: 8 4096 1 1 (32768)
I0726 18:01:09.694164  4950 net.cpp:156] Memory required for data: 1317552128
I0726 18:01:09.694175  4950 layer_factory.hpp:77] Creating layer relu6
I0726 18:01:09.694187  4950 net.cpp:91] Creating Layer relu6
I0726 18:01:09.694195  4950 net.cpp:425] relu6 <- fc6-conv
I0726 18:01:09.694226  4950 net.cpp:386] relu6 -> fc6-conv (in-place)
I0726 18:01:09.694537  4950 net.cpp:141] Setting up relu6
I0726 18:01:09.694551  4950 net.cpp:148] Top shape: 8 4096 1 1 (32768)
I0726 18:01:09.694555  4950 net.cpp:156] Memory required for data: 1317683200
I0726 18:01:09.694558  4950 layer_factory.hpp:77] Creating layer drop6
I0726 18:01:09.694566  4950 net.cpp:91] Creating Layer drop6
I0726 18:01:09.694571  4950 net.cpp:425] drop6 <- fc6-conv
I0726 18:01:09.694578  4950 net.cpp:386] drop6 -> fc6-conv (in-place)
I0726 18:01:09.694618  4950 net.cpp:141] Setting up drop6
I0726 18:01:09.694625  4950 net.cpp:148] Top shape: 8 4096 1 1 (32768)
I0726 18:01:09.694628  4950 net.cpp:156] Memory required for data: 1317814272
I0726 18:01:09.694631  4950 layer_factory.hpp:77] Creating layer fc7-conv
I0726 18:01:09.694645  4950 net.cpp:91] Creating Layer fc7-conv
I0726 18:01:09.694649  4950 net.cpp:425] fc7-conv <- fc6-conv
I0726 18:01:09.694655  4950 net.cpp:399] fc7-conv -> fc7-conv
I0726 18:01:09.740828  4950 net.cpp:141] Setting up fc7-conv
I0726 18:01:09.740874  4950 net.cpp:148] Top shape: 8 4096 1 1 (32768)
I0726 18:01:09.740878  4950 net.cpp:156] Memory required for data: 1317945344
I0726 18:01:09.740888  4950 layer_factory.hpp:77] Creating layer relu7
I0726 18:01:09.740900  4950 net.cpp:91] Creating Layer relu7
I0726 18:01:09.740908  4950 net.cpp:425] relu7 <- fc7-conv
I0726 18:01:09.740916  4950 net.cpp:386] relu7 -> fc7-conv (in-place)
I0726 18:01:09.741127  4950 net.cpp:141] Setting up relu7
I0726 18:01:09.741137  4950 net.cpp:148] Top shape: 8 4096 1 1 (32768)
I0726 18:01:09.741139  4950 net.cpp:156] Memory required for data: 1318076416
I0726 18:01:09.741143  4950 layer_factory.hpp:77] Creating layer hypercolumns
I0726 18:01:09.741154  4950 net.cpp:91] Creating Layer hypercolumns
I0726 18:01:09.741158  4950 net.cpp:425] hypercolumns <- normal
I0726 18:01:09.741163  4950 net.cpp:425] hypercolumns <- conv1_2_relu1_2_0_split_1
I0726 18:01:09.741168  4950 net.cpp:425] hypercolumns <- conv2_2_relu2_2_0_split_1
I0726 18:01:09.741173  4950 net.cpp:425] hypercolumns <- conv3_3_relu3_3_0_split_1
I0726 18:01:09.741175  4950 net.cpp:425] hypercolumns <- conv4_3_relu4_3_0_split_1
I0726 18:01:09.741179  4950 net.cpp:425] hypercolumns <- conv5_3_relu5_3_0_split_1
I0726 18:01:09.741183  4950 net.cpp:425] hypercolumns <- fc7-conv
I0726 18:01:09.741190  4950 net.cpp:399] hypercolumns -> hypercolumns
I0726 18:01:09.741212  4950 net.cpp:399] hypercolumns -> normal_point
I0726 18:01:09.741267  4950 net.cpp:141] Setting up hypercolumns
I0726 18:01:09.741274  4950 net.cpp:148] Top shape: 8000 5568 1 1 (44544000)
I0726 18:01:09.741278  4950 net.cpp:148] Top shape: 8000 3 (24000)
I0726 18:01:09.741281  4950 net.cpp:156] Memory required for data: 1496348416
I0726 18:01:09.741284  4950 layer_factory.hpp:77] Creating layer fc1
I0726 18:01:09.741293  4950 net.cpp:91] Creating Layer fc1
I0726 18:01:09.741297  4950 net.cpp:425] fc1 <- hypercolumns
I0726 18:01:09.741304  4950 net.cpp:399] fc1 -> fc1
I0726 18:01:10.022927  4950 net.cpp:141] Setting up fc1
I0726 18:01:10.022982  4950 net.cpp:148] Top shape: 8000 4096 (32768000)
I0726 18:01:10.022986  4950 net.cpp:156] Memory required for data: 1627420416
I0726 18:01:10.023008  4950 layer_factory.hpp:77] Creating layer relu1
I0726 18:01:10.023037  4950 net.cpp:91] Creating Layer relu1
I0726 18:01:10.023046  4950 net.cpp:425] relu1 <- fc1
I0726 18:01:10.023054  4950 net.cpp:386] relu1 -> fc1 (in-place)
I0726 18:01:10.023742  4950 net.cpp:141] Setting up relu1
I0726 18:01:10.023757  4950 net.cpp:148] Top shape: 8000 4096 (32768000)
I0726 18:01:10.023759  4950 net.cpp:156] Memory required for data: 1758492416
I0726 18:01:10.023762  4950 layer_factory.hpp:77] Creating layer drop1
I0726 18:01:10.023774  4950 net.cpp:91] Creating Layer drop1
I0726 18:01:10.023778  4950 net.cpp:425] drop1 <- fc1
I0726 18:01:10.023784  4950 net.cpp:386] drop1 -> fc1 (in-place)
I0726 18:01:10.023818  4950 net.cpp:141] Setting up drop1
I0726 18:01:10.023825  4950 net.cpp:148] Top shape: 8000 4096 (32768000)
I0726 18:01:10.023844  4950 net.cpp:156] Memory required for data: 1889564416
I0726 18:01:10.023849  4950 layer_factory.hpp:77] Creating layer fc2
I0726 18:01:10.023866  4950 net.cpp:91] Creating Layer fc2
I0726 18:01:10.023871  4950 net.cpp:425] fc2 <- fc1
I0726 18:01:10.023876  4950 net.cpp:399] fc2 -> fc2
I0726 18:01:10.221324  4950 net.cpp:141] Setting up fc2
I0726 18:01:10.221381  4950 net.cpp:148] Top shape: 8000 4096 (32768000)
I0726 18:01:10.221385  4950 net.cpp:156] Memory required for data: 2020636416
I0726 18:01:10.221410  4950 layer_factory.hpp:77] Creating layer relu2
I0726 18:01:10.221426  4950 net.cpp:91] Creating Layer relu2
I0726 18:01:10.221431  4950 net.cpp:425] relu2 <- fc2
I0726 18:01:10.221438  4950 net.cpp:386] relu2 -> fc2 (in-place)
I0726 18:01:10.221736  4950 net.cpp:141] Setting up relu2
I0726 18:01:10.221746  4950 net.cpp:148] Top shape: 8000 4096 (32768000)
I0726 18:01:10.221748  4950 net.cpp:156] Memory required for data: 2151708416
I0726 18:01:10.221751  4950 layer_factory.hpp:77] Creating layer drop2
I0726 18:01:10.221763  4950 net.cpp:91] Creating Layer drop2
I0726 18:01:10.221766  4950 net.cpp:425] drop2 <- fc2
I0726 18:01:10.221772  4950 net.cpp:386] drop2 -> fc2 (in-place)
I0726 18:01:10.221804  4950 net.cpp:141] Setting up drop2
I0726 18:01:10.221810  4950 net.cpp:148] Top shape: 8000 4096 (32768000)
I0726 18:01:10.221813  4950 net.cpp:156] Memory required for data: 2282780416
I0726 18:01:10.221817  4950 layer_factory.hpp:77] Creating layer fc3
I0726 18:01:10.221825  4950 net.cpp:91] Creating Layer fc3
I0726 18:01:10.221829  4950 net.cpp:425] fc3 <- fc2
I0726 18:01:10.221835  4950 net.cpp:399] fc3 -> fc3
I0726 18:01:10.222100  4950 net.cpp:141] Setting up fc3
I0726 18:01:10.222108  4950 net.cpp:148] Top shape: 8000 3 (24000)
I0726 18:01:10.222110  4950 net.cpp:156] Memory required for data: 2282876416
I0726 18:01:10.222115  4950 layer_factory.hpp:77] Creating layer loss
I0726 18:01:10.222123  4950 net.cpp:91] Creating Layer loss
I0726 18:01:10.222126  4950 net.cpp:425] loss <- fc3
I0726 18:01:10.222131  4950 net.cpp:425] loss <- normal_point
I0726 18:01:10.222134  4950 net.cpp:399] loss -> loss
I0726 18:01:10.222201  4950 net.cpp:141] Setting up loss
…
