…
type: "SGD"
I0731 19:31:44.988212 14410 solver.cpp:91] Creating training net from net file: /home/qinhong/project/normal_recovery/model/t2/train.prototxt
I0731 19:31:44.989163 14410 net.cpp:49] Initializing net from parameters: 
name: "hyper_normal_layers"
state {
  phase: TRAIN
}
layer {
  name: "data"
  type: "ImageNormalData"
  top: "data"
  top: "normal"
  transform_param {
  }
  image_data_param {
    source: "/home/qinhong/project/normal_recovery/data/source.txt"
    batch_size: 8
    shuffle: true
    new_height: 224
    new_width: 224
  }
}
layer {
  name: "conv1_1"
  type: "Convolution"
  bottom: "data"
  top: "conv1_1"
  param {
    lr_mult: 1
    decay_mult: 1
  }
  param {
    lr_mult: 2
    decay_mult: 0
  }
  convolution_param {
    num_output: 64
    pad: 1
    kernel_size: 3
  }
}
layer {
  name: "relu1_1"
  type: "ReLU"
  bottom: "conv1_1"
  top: "conv1_1"
}
layer {
  name: "conv1_2"
  type: "Convolution"
  bottom: "conv1_1"
  top: "conv1_2"
  param {
    lr_mult: 1
    decay_mult: 1
  }
  param {
    lr_mult: 2
    decay_mult: 0
  }
  convolution_param {
    num_output: 64
    pad: 1
    kernel_size: 3
  }
}
layer {
  name: "relu1_2"
  type: "ReLU"
  bottom: "conv1_2"
  top: "conv1_2"
}
layer {
  name: "pool1"
  type: "Pooling"
  bottom: "conv1_2"
  top: "pool1"
  pooling_param {
    pool: MAX
    kernel_size: 2
    stride: 2
  }
}
layer {
  name: "conv2_1"
  type: "Convolution"
  bottom: "pool1"
  top: "conv2_1"
  param {
    lr_mult: 1
    decay_mult: 1
  }
  param {
    lr_mult: 2
    decay_mult: 0
  }
  convolution_param {
    num_output: 128
    pad: 1
    kernel_size: 3
  }
}
layer {
  name: "relu2_1"
  type: "ReLU"
  bottom: "conv2_1"
  top: "conv2_1"
}
layer {
  name: "conv2_2"
  type: "Convolution"
  bottom: "conv2_1"
  top: "conv2_2"
  param {
    lr_mult: 1
    decay_mult: 1
  }
  param {
    lr_mult: 2
    decay_mult: 0
  }
  convolution_param {
    num_output: 128
    pad: 1
    kernel_size: 3
  }
}
layer {
  name: "relu2_2"
  type: "ReLU"
  bottom: "conv2_2"
  top: "conv2_2"
}
layer {
  name: "pool2"
  type: "Pooling"
  bottom: "conv2_2"
  top: "pool2"
  pooling_param {
    pool: MAX
    kernel_size: 2
    stride: 2
  }
}
layer {
  name: "conv3_1"
  type: "Convolution"
  bottom: "pool2"
  top: "conv3_1"
  param {
    lr_mult: 1
    decay_mult: 1
  }
  param {
    lr_mult: 2
    decay_mult: 0
  }
  convolution_param {
    num_output: 256
    pad: 1
    kernel_size: 3
  }
}
layer {
  name: "relu3_1"
  type: "ReLU"
  bottom: "conv3_1"
  top: "conv3_1"
}
layer {
  name: "conv3_2"
  type: "Convolution"
  bottom: "conv3_1"
  top: "conv3_2"
  param {
    lr_mult: 1
    decay_mult: 1
  }
  param {
    lr_mult: 2
    decay_mult: 0
  }
  convolution_param {
    num_output: 256
    pad: 1
    kernel_size: 3
  }
}
layer {
  name: "relu3_2"
  type: "ReLU"
  bottom: "conv3_2"
  top: "conv3_2"
}
layer {
  name: "conv3_3"
  type: "Convolution"
  bottom: "conv3_2"
  top: "conv3_3"
  param {
    lr_mult: 1
    decay_mult: 1
  }
  param {
    lr_mult: 2
    decay_mult: 0
  }
  convolution_param {
    num_output: 256
    pad: 1
    kernel_size: 3
  }
}
layer {
  name: "relu3_3"
  type: "ReLU"
  bottom: "conv3_3"
  top: "conv3_3"
}
layer {
  name: "pool3"
  type: "Pooling"
  bottom: "conv3_3"
  top: "pool3"
  pooling_param {
    pool: MAX
    kernel_size: 2
    stride: 2
  }
}
layer {
  name: "conv4_1"
  type: "Convolution"
  bottom: "pool3"
  top: "conv4_1"
  param {
    lr_mult: 1
    decay_mult: 1
  }
  param {
    lr_mult: 2
    decay_mult: 0
  }
  convolution_param {
    num_output: 512
    pad: 1
    kernel_size: 3
  }
}
layer {
  name: "relu4_1"
  type: "ReLU"
  bottom: "conv4_1"
  top: "conv4_1"
}
layer {
  name: "conv4_2"
  type: "Convolution"
  bottom: "conv4_1"
  top: "conv4_2"
  param {
    lr_mult: 1
    decay_mult: 1
  }
  param {
    lr_mult: 2
    decay_mult: 0
  }
  convolution_param {
    num_output: 512
    pad: 1
    kernel_size: 3
  }
}
layer {
  name: "relu4_2"
  type: "ReLU"
  bottom: "conv4_2"
  top: "conv4_2"
}
layer {
  name: "conv4_3"
  type: "Convolution"
  bottom: "conv4_2"
  top: "conv4_3"
  param {
    lr_mult: 1
    decay_mult: 1
  }
  param {
    lr_mult: 2
    decay_mult: 0
  }
  convolution_param {
    num_output: 512
    pad: 1
    kernel_size: 3
  }
}
layer {
  name: "relu4_3"
  type: "ReLU"
  bottom: "conv4_3"
  top: "conv4_3"
}
layer {
  name: "pool4"
  type: "Pooling"
  bottom: "conv4_3"
  top: "pool4"
  pooling_param {
    pool: MAX
    kernel_size: 2
    stride: 2
  }
}
layer {
  name: "conv5_1"
  type: "Convolution"
  bottom: "pool4"
  top: "conv5_1"
  param {
    lr_mult: 1
    decay_mult: 1
  }
  param {
    lr_mult: 2
    decay_mult: 0
  }
  convolution_param {
    num_output: 512
    pad: 1
    kernel_size: 3
  }
}
layer {
  name: "relu5_1"
  type: "ReLU"
  bottom: "conv5_1"
  top: "conv5_1"
}
layer {
  name: "conv5_2"
  type: "Convolution"
  bottom: "conv5_1"
  top: "conv5_2"
  param {
    lr_mult: 1
    decay_mult: 1
  }
  param {
    lr_mult: 2
    decay_mult: 0
  }
  convolution_param {
    num_output: 512
    pad: 1
    kernel_size: 3
  }
}
layer {
  name: "relu5_2"
  type: "ReLU"
  bottom: "conv5_2"
  top: "conv5_2"
}
layer {
  name: "conv5_3"
  type: "Convolution"
  bottom: "conv5_2"
  top: "conv5_3"
  param {
    lr_mult: 1
    decay_mult: 1
  }
  param {
    lr_mult: 2
    decay_mult: 0
  }
  convolution_param {
    num_output: 512
    pad: 1
    kernel_size: 3
  }
}
layer {
  name: "relu5_3"
  type: "ReLU"
  bottom: "conv5_3"
  top: "conv5_3"
}
layer {
  name: "pool5"
  type: "Pooling"
  bottom: "conv5_3"
  top: "pool5"
  pooling_param {
    pool: MAX
    kernel_size: 2
    stride: 2
  }
}
layer {
  name: "fc6-conv"
  type: "Convolution"
  bottom: "pool5"
  top: "fc6-conv"
  param {
    lr_mult: 1
    decay_mult: 1
  }
  param {
    lr_mult: 2
    decay_mult: 0
  }
  convolution_param {
    num_output: 4096
    kernel_size: 7
  }
}
layer {
  name: "relu6"
  type: "ReLU"
  bottom: "fc6-conv"
  top: "fc6-conv"
}
layer {
  name: "drop6"
  type: "Dropout"
  bottom: "fc6-conv"
  top: "fc6-conv"
  dropout_param {
    dropout_ratio: 0.5
  }
}
layer {
  name: "fc7-conv"
  type: "Convolution"
  bottom: "fc6-conv"
  top: "fc7-conv"
  param {
    lr_mult: 1
    decay_mult: 1
  }
  param {
    lr_mult: 2
    decay_mult: 0
  }
  convolution_param {
    num_output: 4096
    kernel_size: 1
  }
}
layer {
  name: "relu7"
  type: "ReLU"
  bottom: "fc7-conv"
  top: "fc7-conv"
}
layer {
  name: "hypercolumns"
  type: "HyperColumns"
  bottom: "normal"
  bottom: "conv1_2"
  bottom: "conv2_2"
  bottom: "conv3_3"
  bottom: "conv4_3"
  bottom: "conv5_3"
  bottom: "fc7-conv"
  top: "hypercolumns"
  top: "normal_point"
  hypercolumns_param {
    is_train: true
  }
}
layer {
  name: "fc1"
  type: "InnerProduct"
  bottom: "hypercolumns"
  top: "fc1"
  param {
    lr_mult: 1
    decay_mult: 1
  }
  param {
    lr_mult: 2
    decay_mult: 0
  }
  inner_product_param {
    num_output: 4096
    weight_filler {
      type: "gaussian"
      std: 0.003
    }
    bias_filler {
      type: "constant"
      value: 0
    }
  }
}
layer {
  name: "relu1"
  type: "ReLU"
  bottom: "fc1"
  top: "fc1"
}
layer {
  name: "drop1"
  type: "Dropout"
  bottom: "fc1"
  top: "fc1"
  dropout_param {
    dropout_ratio: 0.5
  }
}
layer {
  name: "fc2"
  type: "InnerProduct"
  bottom: "fc1"
  top: "fc2"
  param {
    lr_mult: 1
    decay_mult: 1
  }
  param {
    lr_mult: 2
    decay_mult: 0
  }
  inner_product_param {
    num_output: 4096
    weight_filler {
      type: "gaussian"
      std: 0.002
    }
    bias_filler {
      type: "constant"
      value: 0
    }
  }
}
layer {
  name: "relu2"
  type: "ReLU"
  bottom: "fc2"
  top: "fc2"
}
layer {
  name: "drop2"
  type: "Dropout"
  bottom: "fc2"
  top: "fc2"
  dropout_param {
    dropout_ratio: 0.5
  }
}
layer {
  name: "fc3"
  type: "InnerProduct"
  bottom: "fc2"
  top: "fc3"
  param {
    lr_mult: 1
    decay_mult: 1
  }
  param {
    lr_mult: 2
    decay_mult: 0
  }
  inner_product_param {
    num_output: 3
    weight_filler {
      type: "gaussian"
      std: 0.001
    }
    bias_filler {
      type: "constant"
      value: 0
    }
  }
}
layer {
  name: "loss"
  type: "EuclideanLoss"
  bottom: "fc3"
  bottom: "normal_point"
  top: "loss"
  propagate_down: true
  propagate_down: false
}
I0731 19:31:44.989414 14410 layer_factory.hpp:77] Creating layer data
I0731 19:31:44.989472 14410 net.cpp:91] Creating Layer data
I0731 19:31:44.989481 14410 net.cpp:399] data -> data
I0731 19:31:44.989517 14410 net.cpp:399] data -> normal
I0731 19:31:44.989538 14410 image_normal_data_layer.cpp:43] opeing file /home/qinhong/project/normal_recovery/data/source.txt
I0731 19:31:44.994274 14410 image_normal_data_layer.cpp:54] Shuffing data
I0731 19:31:44.995678 14410 image_normal_data_layer.cpp:59] A total of 4105 images.
I0731 19:31:45.021263 14410 image_normal_data_layer.cpp:79] output data size: 8,3,224,224
I0731 19:31:45.040096 14410 net.cpp:141] Setting up data
I0731 19:31:45.040130 14410 net.cpp:148] Top shape: 8 3 224 224 (1204224)
I0731 19:31:45.040138 14410 net.cpp:148] Top shape: 8 3 224 224 (1204224)
I0731 19:31:45.040140 14410 net.cpp:156] Memory required for data: 9633792
I0731 19:31:45.040150 14410 layer_factory.hpp:77] Creating layer conv1_1
I0731 19:31:45.040179 14410 net.cpp:91] Creating Layer conv1_1
I0731 19:31:45.040186 14410 net.cpp:425] conv1_1 <- data
I0731 19:31:45.040202 14410 net.cpp:399] conv1_1 -> conv1_1
I0731 19:31:45.279533 14410 net.cpp:141] Setting up conv1_1
I0731 19:31:45.279567 14410 net.cpp:148] Top shape: 8 64 224 224 (25690112)
I0731 19:31:45.279572 14410 net.cpp:156] Memory required for data: 112394240
I0731 19:31:45.279600 14410 layer_factory.hpp:77] Creating layer relu1_1
I0731 19:31:45.279615 14410 net.cpp:91] Creating Layer relu1_1
I0731 19:31:45.279619 14410 net.cpp:425] relu1_1 <- conv1_1
I0731 19:31:45.279626 14410 net.cpp:386] relu1_1 -> conv1_1 (in-place)
I0731 19:31:45.279942 14410 net.cpp:141] Setting up relu1_1
I0731 19:31:45.279958 14410 net.cpp:148] Top shape: 8 64 224 224 (25690112)
I0731 19:31:45.279961 14410 net.cpp:156] Memory required for data: 215154688
I0731 19:31:45.279965 14410 layer_factory.hpp:77] Creating layer conv1_2
I0731 19:31:45.279978 14410 net.cpp:91] Creating Layer conv1_2
I0731 19:31:45.279981 14410 net.cpp:425] conv1_2 <- conv1_1
I0731 19:31:45.279988 14410 net.cpp:399] conv1_2 -> conv1_2
I0731 19:31:45.281064 14410 net.cpp:141] Setting up conv1_2
I0731 19:31:45.281081 14410 net.cpp:148] Top shape: 8 64 224 224 (25690112)
I0731 19:31:45.281085 14410 net.cpp:156] Memory required for data: 317915136
I0731 19:31:45.281102 14410 layer_factory.hpp:77] Creating layer relu1_2
I0731 19:31:45.281111 14410 net.cpp:91] Creating Layer relu1_2
I0731 19:31:45.281114 14410 net.cpp:425] relu1_2 <- conv1_2
I0731 19:31:45.281119 14410 net.cpp:386] relu1_2 -> conv1_2 (in-place)
I0731 19:31:45.281415 14410 net.cpp:141] Setting up relu1_2
I0731 19:31:45.281430 14410 net.cpp:148] Top shape: 8 64 224 224 (25690112)
I0731 19:31:45.281432 14410 net.cpp:156] Memory required for data: 420675584
I0731 19:31:45.281436 14410 layer_factory.hpp:77] Creating layer conv1_2_relu1_2_0_split
I0731 19:31:45.281445 14410 net.cpp:91] Creating Layer conv1_2_relu1_2_0_split
I0731 19:31:45.281450 14410 net.cpp:425] conv1_2_relu1_2_0_split <- conv1_2
I0731 19:31:45.281455 14410 net.cpp:399] conv1_2_relu1_2_0_split -> conv1_2_relu1_2_0_split_0
I0731 19:31:45.281464 14410 net.cpp:399] conv1_2_relu1_2_0_split -> conv1_2_relu1_2_0_split_1
I0731 19:31:45.281513 14410 net.cpp:141] Setting up conv1_2_relu1_2_0_split
I0731 19:31:45.281522 14410 net.cpp:148] Top shape: 8 64 224 224 (25690112)
I0731 19:31:45.281527 14410 net.cpp:148] Top shape: 8 64 224 224 (25690112)
I0731 19:31:45.281528 14410 net.cpp:156] Memory required for data: 626196480
I0731 19:31:45.281533 14410 layer_factory.hpp:77] Creating layer pool1
I0731 19:31:45.281560 14410 net.cpp:91] Creating Layer pool1
I0731 19:31:45.281568 14410 net.cpp:425] pool1 <- conv1_2_relu1_2_0_split_0
I0731 19:31:45.281574 14410 net.cpp:399] pool1 -> pool1
I0731 19:31:45.281635 14410 net.cpp:141] Setting up pool1
I0731 19:31:45.281643 14410 net.cpp:148] Top shape: 8 64 112 112 (6422528)
I0731 19:31:45.281647 14410 net.cpp:156] Memory required for data: 651886592
I0731 19:31:45.281651 14410 layer_factory.hpp:77] Creating layer conv2_1
I0731 19:31:45.281661 14410 net.cpp:91] Creating Layer conv2_1
I0731 19:31:45.281663 14410 net.cpp:425] conv2_1 <- pool1
I0731 19:31:45.281669 14410 net.cpp:399] conv2_1 -> conv2_1
I0731 19:31:45.284134 14410 net.cpp:141] Setting up conv2_1
I0731 19:31:45.284152 14410 net.cpp:148] Top shape: 8 128 112 112 (12845056)
I0731 19:31:45.284155 14410 net.cpp:156] Memory required for data: 703266816
I0731 19:31:45.284165 14410 layer_factory.hpp:77] Creating layer relu2_1
I0731 19:31:45.284176 14410 net.cpp:91] Creating Layer relu2_1
I0731 19:31:45.284180 14410 net.cpp:425] relu2_1 <- conv2_1
I0731 19:31:45.284185 14410 net.cpp:386] relu2_1 -> conv2_1 (in-place)
I0731 19:31:45.284386 14410 net.cpp:141] Setting up relu2_1
I0731 19:31:45.284399 14410 net.cpp:148] Top shape: 8 128 112 112 (12845056)
I0731 19:31:45.284402 14410 net.cpp:156] Memory required for data: 754647040
I0731 19:31:45.284407 14410 layer_factory.hpp:77] Creating layer conv2_2
I0731 19:31:45.284417 14410 net.cpp:91] Creating Layer conv2_2
I0731 19:31:45.284422 14410 net.cpp:425] conv2_2 <- conv2_1
I0731 19:31:45.284428 14410 net.cpp:399] conv2_2 -> conv2_2
I0731 19:31:45.285656 14410 net.cpp:141] Setting up conv2_2
I0731 19:31:45.285673 14410 net.cpp:148] Top shape: 8 128 112 112 (12845056)
I0731 19:31:45.285676 14410 net.cpp:156] Memory required for data: 806027264
I0731 19:31:45.285683 14410 layer_factory.hpp:77] Creating layer relu2_2
I0731 19:31:45.285691 14410 net.cpp:91] Creating Layer relu2_2
I0731 19:31:45.285693 14410 net.cpp:425] relu2_2 <- conv2_2
I0731 19:31:45.285701 14410 net.cpp:386] relu2_2 -> conv2_2 (in-place)
I0731 19:31:45.286028 14410 net.cpp:141] Setting up relu2_2
I0731 19:31:45.286044 14410 net.cpp:148] Top shape: 8 128 112 112 (12845056)
I0731 19:31:45.286047 14410 net.cpp:156] Memory required for data: 857407488
I0731 19:31:45.286051 14410 layer_factory.hpp:77] Creating layer conv2_2_relu2_2_0_split
I0731 19:31:45.286058 14410 net.cpp:91] Creating Layer conv2_2_relu2_2_0_split
I0731 19:31:45.286062 14410 net.cpp:425] conv2_2_relu2_2_0_split <- conv2_2
I0731 19:31:45.286069 14410 net.cpp:399] conv2_2_relu2_2_0_split -> conv2_2_relu2_2_0_split_0
I0731 19:31:45.286077 14410 net.cpp:399] conv2_2_relu2_2_0_split -> conv2_2_relu2_2_0_split_1
I0731 19:31:45.286128 14410 net.cpp:141] Setting up conv2_2_relu2_2_0_split
I0731 19:31:45.286135 14410 net.cpp:148] Top shape: 8 128 112 112 (12845056)
I0731 19:31:45.286139 14410 net.cpp:148] Top shape: 8 128 112 112 (12845056)
I0731 19:31:45.286141 14410 net.cpp:156] Memory required for data: 960167936
I0731 19:31:45.286145 14410 layer_factory.hpp:77] Creating layer pool2
I0731 19:31:45.286154 14410 net.cpp:91] Creating Layer pool2
I0731 19:31:45.286157 14410 net.cpp:425] pool2 <- conv2_2_relu2_2_0_split_0
I0731 19:31:45.286162 14410 net.cpp:399] pool2 -> pool2
I0731 19:31:45.286204 14410 net.cpp:141] Setting up pool2
I0731 19:31:45.286212 14410 net.cpp:148] Top shape: 8 128 56 56 (3211264)
I0731 19:31:45.286216 14410 net.cpp:156] Memory required for data: 973012992
I0731 19:31:45.286217 14410 layer_factory.hpp:77] Creating layer conv3_1
I0731 19:31:45.286228 14410 net.cpp:91] Creating Layer conv3_1
I0731 19:31:45.286231 14410 net.cpp:425] conv3_1 <- pool2
I0731 19:31:45.286237 14410 net.cpp:399] conv3_1 -> conv3_1
I0731 19:31:45.288110 14410 net.cpp:141] Setting up conv3_1
I0731 19:31:45.288128 14410 net.cpp:148] Top shape: 8 256 56 56 (6422528)
I0731 19:31:45.288131 14410 net.cpp:156] Memory required for data: 998703104
I0731 19:31:45.288141 14410 layer_factory.hpp:77] Creating layer relu3_1
I0731 19:31:45.288148 14410 net.cpp:91] Creating Layer relu3_1
I0731 19:31:45.288166 14410 net.cpp:425] relu3_1 <- conv3_1
I0731 19:31:45.288174 14410 net.cpp:386] relu3_1 -> conv3_1 (in-place)
I0731 19:31:45.288491 14410 net.cpp:141] Setting up relu3_1
I0731 19:31:45.288506 14410 net.cpp:148] Top shape: 8 256 56 56 (6422528)
I0731 19:31:45.288509 14410 net.cpp:156] Memory required for data: 1024393216
I0731 19:31:45.288513 14410 layer_factory.hpp:77] Creating layer conv3_2
I0731 19:31:45.288523 14410 net.cpp:91] Creating Layer conv3_2
I0731 19:31:45.288527 14410 net.cpp:425] conv3_2 <- conv3_1
I0731 19:31:45.288534 14410 net.cpp:399] conv3_2 -> conv3_2
I0731 19:31:45.291259 14410 net.cpp:141] Setting up conv3_2
I0731 19:31:45.291276 14410 net.cpp:148] Top shape: 8 256 56 56 (6422528)
I0731 19:31:45.291280 14410 net.cpp:156] Memory required for data: 1050083328
I0731 19:31:45.291286 14410 layer_factory.hpp:77] Creating layer relu3_2
I0731 19:31:45.291297 14410 net.cpp:91] Creating Layer relu3_2
I0731 19:31:45.291301 14410 net.cpp:425] relu3_2 <- conv3_2
I0731 19:31:45.291306 14410 net.cpp:386] relu3_2 -> conv3_2 (in-place)
I0731 19:31:45.291507 14410 net.cpp:141] Setting up relu3_2
I0731 19:31:45.291518 14410 net.cpp:148] Top shape: 8 256 56 56 (6422528)
I0731 19:31:45.291522 14410 net.cpp:156] Memory required for data: 1075773440
I0731 19:31:45.291524 14410 layer_factory.hpp:77] Creating layer conv3_3
I0731 19:31:45.291534 14410 net.cpp:91] Creating Layer conv3_3
I0731 19:31:45.291538 14410 net.cpp:425] conv3_3 <- conv3_2
I0731 19:31:45.291548 14410 net.cpp:399] conv3_3 -> conv3_3
I0731 19:31:45.294374 14410 net.cpp:141] Setting up conv3_3
I0731 19:31:45.294391 14410 net.cpp:148] Top shape: 8 256 56 56 (6422528)
I0731 19:31:45.294394 14410 net.cpp:156] Memory required for data: 1101463552
I0731 19:31:45.294401 14410 layer_factory.hpp:77] Creating layer relu3_3
I0731 19:31:45.294407 14410 net.cpp:91] Creating Layer relu3_3
I0731 19:31:45.294414 14410 net.cpp:425] relu3_3 <- conv3_3
I0731 19:31:45.294419 14410 net.cpp:386] relu3_3 -> conv3_3 (in-place)
I0731 19:31:45.294750 14410 net.cpp:141] Setting up relu3_3
I0731 19:31:45.294764 14410 net.cpp:148] Top shape: 8 256 56 56 (6422528)
I0731 19:31:45.294767 14410 net.cpp:156] Memory required for data: 1127153664
I0731 19:31:45.294771 14410 layer_factory.hpp:77] Creating layer conv3_3_relu3_3_0_split
I0731 19:31:45.294782 14410 net.cpp:91] Creating Layer conv3_3_relu3_3_0_split
I0731 19:31:45.294785 14410 net.cpp:425] conv3_3_relu3_3_0_split <- conv3_3
I0731 19:31:45.294791 14410 net.cpp:399] conv3_3_relu3_3_0_split -> conv3_3_relu3_3_0_split_0
I0731 19:31:45.294811 14410 net.cpp:399] conv3_3_relu3_3_0_split -> conv3_3_relu3_3_0_split_1
I0731 19:31:45.294867 14410 net.cpp:141] Setting up conv3_3_relu3_3_0_split
I0731 19:31:45.294877 14410 net.cpp:148] Top shape: 8 256 56 56 (6422528)
I0731 19:31:45.294880 14410 net.cpp:148] Top shape: 8 256 56 56 (6422528)
I0731 19:31:45.294883 14410 net.cpp:156] Memory required for data: 1178533888
I0731 19:31:45.294886 14410 layer_factory.hpp:77] Creating layer pool3
I0731 19:31:45.294893 14410 net.cpp:91] Creating Layer pool3
I0731 19:31:45.294895 14410 net.cpp:425] pool3 <- conv3_3_relu3_3_0_split_0
I0731 19:31:45.294903 14410 net.cpp:399] pool3 -> pool3
I0731 19:31:45.294945 14410 net.cpp:141] Setting up pool3
I0731 19:31:45.294952 14410 net.cpp:148] Top shape: 8 256 28 28 (1605632)
I0731 19:31:45.294955 14410 net.cpp:156] Memory required for data: 1184956416
I0731 19:31:45.294958 14410 layer_factory.hpp:77] Creating layer conv4_1
I0731 19:31:45.294967 14410 net.cpp:91] Creating Layer conv4_1
I0731 19:31:45.294971 14410 net.cpp:425] conv4_1 <- pool3
I0731 19:31:45.294978 14410 net.cpp:399] conv4_1 -> conv4_1
I0731 19:31:45.299700 14410 net.cpp:141] Setting up conv4_1
I0731 19:31:45.299716 14410 net.cpp:148] Top shape: 8 512 28 28 (3211264)
I0731 19:31:45.299720 14410 net.cpp:156] Memory required for data: 1197801472
I0731 19:31:45.299726 14410 layer_factory.hpp:77] Creating layer relu4_1
I0731 19:31:45.299736 14410 net.cpp:91] Creating Layer relu4_1
I0731 19:31:45.299738 14410 net.cpp:425] relu4_1 <- conv4_1
I0731 19:31:45.299757 14410 net.cpp:386] relu4_1 -> conv4_1 (in-place)
I0731 19:31:45.300082 14410 net.cpp:141] Setting up relu4_1
I0731 19:31:45.300099 14410 net.cpp:148] Top shape: 8 512 28 28 (3211264)
I0731 19:31:45.300102 14410 net.cpp:156] Memory required for data: 1210646528
I0731 19:31:45.300107 14410 layer_factory.hpp:77] Creating layer conv4_2
I0731 19:31:45.300114 14410 net.cpp:91] Creating Layer conv4_2
I0731 19:31:45.300118 14410 net.cpp:425] conv4_2 <- conv4_1
I0731 19:31:45.300127 14410 net.cpp:399] conv4_2 -> conv4_2
I0731 19:31:45.307376 14410 net.cpp:141] Setting up conv4_2
I0731 19:31:45.307395 14410 net.cpp:148] Top shape: 8 512 28 28 (3211264)
I0731 19:31:45.307399 14410 net.cpp:156] Memory required for data: 1223491584
I0731 19:31:45.307410 14410 layer_factory.hpp:77] Creating layer relu4_2
I0731 19:31:45.307420 14410 net.cpp:91] Creating Layer relu4_2
I0731 19:31:45.307423 14410 net.cpp:425] relu4_2 <- conv4_2
I0731 19:31:45.307428 14410 net.cpp:386] relu4_2 -> conv4_2 (in-place)
I0731 19:31:45.307632 14410 net.cpp:141] Setting up relu4_2
I0731 19:31:45.307644 14410 net.cpp:148] Top shape: 8 512 28 28 (3211264)
I0731 19:31:45.307647 14410 net.cpp:156] Memory required for data: 1236336640
I0731 19:31:45.307651 14410 layer_factory.hpp:77] Creating layer conv4_3
I0731 19:31:45.307662 14410 net.cpp:91] Creating Layer conv4_3
I0731 19:31:45.307664 14410 net.cpp:425] conv4_3 <- conv4_2
I0731 19:31:45.307674 14410 net.cpp:399] conv4_3 -> conv4_3
I0731 19:31:45.315007 14410 net.cpp:141] Setting up conv4_3
I0731 19:31:45.315029 14410 net.cpp:148] Top shape: 8 512 28 28 (3211264)
I0731 19:31:45.315033 14410 net.cpp:156] Memory required for data: 1249181696
I0731 19:31:45.315040 14410 layer_factory.hpp:77] Creating layer relu4_3
I0731 19:31:45.315047 14410 net.cpp:91] Creating Layer relu4_3
I0731 19:31:45.315052 14410 net.cpp:425] relu4_3 <- conv4_3
I0731 19:31:45.315060 14410 net.cpp:386] relu4_3 -> conv4_3 (in-place)
I0731 19:31:45.315384 14410 net.cpp:141] Setting up relu4_3
I0731 19:31:45.315399 14410 net.cpp:148] Top shape: 8 512 28 28 (3211264)
I0731 19:31:45.315402 14410 net.cpp:156] Memory required for data: 1262026752
I0731 19:31:45.315405 14410 layer_factory.hpp:77] Creating layer conv4_3_relu4_3_0_split
I0731 19:31:45.315415 14410 net.cpp:91] Creating Layer conv4_3_relu4_3_0_split
I0731 19:31:45.315418 14410 net.cpp:425] conv4_3_relu4_3_0_split <- conv4_3
I0731 19:31:45.315426 14410 net.cpp:399] conv4_3_relu4_3_0_split -> conv4_3_relu4_3_0_split_0
I0731 19:31:45.315434 14410 net.cpp:399] conv4_3_relu4_3_0_split -> conv4_3_relu4_3_0_split_1
I0731 19:31:45.315485 14410 net.cpp:141] Setting up conv4_3_relu4_3_0_split
I0731 19:31:45.315495 14410 net.cpp:148] Top shape: 8 512 28 28 (3211264)
I0731 19:31:45.315500 14410 net.cpp:148] Top shape: 8 512 28 28 (3211264)
I0731 19:31:45.315502 14410 net.cpp:156] Memory required for data: 1287716864
I0731 19:31:45.315505 14410 layer_factory.hpp:77] Creating layer pool4
I0731 19:31:45.315513 14410 net.cpp:91] Creating Layer pool4
I0731 19:31:45.315516 14410 net.cpp:425] pool4 <- conv4_3_relu4_3_0_split_0
I0731 19:31:45.315521 14410 net.cpp:399] pool4 -> pool4
I0731 19:31:45.315568 14410 net.cpp:141] Setting up pool4
I0731 19:31:45.315577 14410 net.cpp:148] Top shape: 8 512 14 14 (802816)
I0731 19:31:45.315579 14410 net.cpp:156] Memory required for data: 1290928128
I0731 19:31:45.315582 14410 layer_factory.hpp:77] Creating layer conv5_1
I0731 19:31:45.315593 14410 net.cpp:91] Creating Layer conv5_1
I0731 19:31:45.315596 14410 net.cpp:425] conv5_1 <- pool4
I0731 19:31:45.315605 14410 net.cpp:399] conv5_1 -> conv5_1
I0731 19:31:45.322765 14410 net.cpp:141] Setting up conv5_1
I0731 19:31:45.322783 14410 net.cpp:148] Top shape: 8 512 14 14 (802816)
I0731 19:31:45.322787 14410 net.cpp:156] Memory required for data: 1294139392
I0731 19:31:45.322794 14410 layer_factory.hpp:77] Creating layer relu5_1
I0731 19:31:45.322801 14410 net.cpp:91] Creating Layer relu5_1
I0731 19:31:45.322804 14410 net.cpp:425] relu5_1 <- conv5_1
I0731 19:31:45.322834 14410 net.cpp:386] relu5_1 -> conv5_1 (in-place)
I0731 19:31:45.323153 14410 net.cpp:141] Setting up relu5_1
I0731 19:31:45.323168 14410 net.cpp:148] Top shape: 8 512 14 14 (802816)
I0731 19:31:45.323171 14410 net.cpp:156] Memory required for data: 1297350656
I0731 19:31:45.323174 14410 layer_factory.hpp:77] Creating layer conv5_2
I0731 19:31:45.323185 14410 net.cpp:91] Creating Layer conv5_2
I0731 19:31:45.323189 14410 net.cpp:425] conv5_2 <- conv5_1
I0731 19:31:45.323195 14410 net.cpp:399] conv5_2 -> conv5_2
I0731 19:31:45.330394 14410 net.cpp:141] Setting up conv5_2
I0731 19:31:45.330415 14410 net.cpp:148] Top shape: 8 512 14 14 (802816)
I0731 19:31:45.330418 14410 net.cpp:156] Memory required for data: 1300561920
I0731 19:31:45.330426 14410 layer_factory.hpp:77] Creating layer relu5_2
I0731 19:31:45.330445 14410 net.cpp:91] Creating Layer relu5_2
I0731 19:31:45.330448 14410 net.cpp:425] relu5_2 <- conv5_2
I0731 19:31:45.330454 14410 net.cpp:386] relu5_2 -> conv5_2 (in-place)
I0731 19:31:45.330654 14410 net.cpp:141] Setting up relu5_2
I0731 19:31:45.330667 14410 net.cpp:148] Top shape: 8 512 14 14 (802816)
I0731 19:31:45.330669 14410 net.cpp:156] Memory required for data: 1303773184
I0731 19:31:45.330672 14410 layer_factory.hpp:77] Creating layer conv5_3
I0731 19:31:45.330683 14410 net.cpp:91] Creating Layer conv5_3
I0731 19:31:45.330687 14410 net.cpp:425] conv5_3 <- conv5_2
I0731 19:31:45.330695 14410 net.cpp:399] conv5_3 -> conv5_3
I0731 19:31:45.337913 14410 net.cpp:141] Setting up conv5_3
I0731 19:31:45.337934 14410 net.cpp:148] Top shape: 8 512 14 14 (802816)
I0731 19:31:45.337937 14410 net.cpp:156] Memory required for data: 1306984448
I0731 19:31:45.337944 14410 layer_factory.hpp:77] Creating layer relu5_3
I0731 19:31:45.337951 14410 net.cpp:91] Creating Layer relu5_3
I0731 19:31:45.337955 14410 net.cpp:425] relu5_3 <- conv5_3
I0731 19:31:45.337960 14410 net.cpp:386] relu5_3 -> conv5_3 (in-place)
I0731 19:31:45.338289 14410 net.cpp:141] Setting up relu5_3
I0731 19:31:45.338305 14410 net.cpp:148] Top shape: 8 512 14 14 (802816)
I0731 19:31:45.338309 14410 net.cpp:156] Memory required for data: 1310195712
I0731 19:31:45.338311 14410 layer_factory.hpp:77] Creating layer conv5_3_relu5_3_0_split
I0731 19:31:45.338320 14410 net.cpp:91] Creating Layer conv5_3_relu5_3_0_split
I0731 19:31:45.338323 14410 net.cpp:425] conv5_3_relu5_3_0_split <- conv5_3
I0731 19:31:45.338330 14410 net.cpp:399] conv5_3_relu5_3_0_split -> conv5_3_relu5_3_0_split_0
I0731 19:31:45.338338 14410 net.cpp:399] conv5_3_relu5_3_0_split -> conv5_3_relu5_3_0_split_1
I0731 19:31:45.338395 14410 net.cpp:141] Setting up conv5_3_relu5_3_0_split
I0731 19:31:45.338404 14410 net.cpp:148] Top shape: 8 512 14 14 (802816)
I0731 19:31:45.338408 14410 net.cpp:148] Top shape: 8 512 14 14 (802816)
I0731 19:31:45.338412 14410 net.cpp:156] Memory required for data: 1316618240
I0731 19:31:45.338415 14410 layer_factory.hpp:77] Creating layer pool5
I0731 19:31:45.338424 14410 net.cpp:91] Creating Layer pool5
I0731 19:31:45.338428 14410 net.cpp:425] pool5 <- conv5_3_relu5_3_0_split_0
I0731 19:31:45.338433 14410 net.cpp:399] pool5 -> pool5
I0731 19:31:45.338480 14410 net.cpp:141] Setting up pool5
I0731 19:31:45.338488 14410 net.cpp:148] Top shape: 8 512 7 7 (200704)
I0731 19:31:45.338491 14410 net.cpp:156] Memory required for data: 1317421056
I0731 19:31:45.338495 14410 layer_factory.hpp:77] Creating layer fc6-conv
I0731 19:31:45.338505 14410 net.cpp:91] Creating Layer fc6-conv
I0731 19:31:45.338508 14410 net.cpp:425] fc6-conv <- pool5
I0731 19:31:45.338515 14410 net.cpp:399] fc6-conv -> fc6-conv
I0731 19:31:45.664388 14410 net.cpp:141] Setting up fc6-conv
I0731 19:31:45.664435 14410 net.cpp:148] Top shape: 8 4096 1 1 (32768)
I0731 19:31:45.664439 14410 net.cpp:156] Memory required for data: 1317552128
I0731 19:31:45.664451 14410 layer_factory.hpp:77] Creating layer relu6
I0731 19:31:45.664466 14410 net.cpp:91] Creating Layer relu6
I0731 19:31:45.664474 14410 net.cpp:425] relu6 <- fc6-conv
I0731 19:31:45.664480 14410 net.cpp:386] relu6 -> fc6-conv (in-place)
I0731 19:31:45.664832 14410 net.cpp:141] Setting up relu6
I0731 19:31:45.664847 14410 net.cpp:148] Top shape: 8 4096 1 1 (32768)
I0731 19:31:45.664850 14410 net.cpp:156] Memory required for data: 1317683200
I0731 19:31:45.664855 14410 layer_factory.hpp:77] Creating layer drop6
I0731 19:31:45.664865 14410 net.cpp:91] Creating Layer drop6
I0731 19:31:45.664868 14410 net.cpp:425] drop6 <- fc6-conv
I0731 19:31:45.664875 14410 net.cpp:386] drop6 -> fc6-conv (in-place)
I0731 19:31:45.664918 14410 net.cpp:141] Setting up drop6
I0731 19:31:45.664927 14410 net.cpp:148] Top shape: 8 4096 1 1 (32768)
I0731 19:31:45.664930 14410 net.cpp:156] Memory required for data: 1317814272
I0731 19:31:45.664934 14410 layer_factory.hpp:77] Creating layer fc7-conv
I0731 19:31:45.664947 14410 net.cpp:91] Creating Layer fc7-conv
I0731 19:31:45.664952 14410 net.cpp:425] fc7-conv <- fc6-conv
I0731 19:31:45.664959 14410 net.cpp:399] fc7-conv -> fc7-conv
I0731 19:31:45.720058 14410 net.cpp:141] Setting up fc7-conv
I0731 19:31:45.720101 14410 net.cpp:148] Top shape: 8 4096 1 1 (32768)
I0731 19:31:45.720105 14410 net.cpp:156] Memory required for data: 1317945344
I0731 19:31:45.720118 14410 layer_factory.hpp:77] Creating layer relu7
I0731 19:31:45.720130 14410 net.cpp:91] Creating Layer relu7
I0731 19:31:45.720136 14410 net.cpp:425] relu7 <- fc7-conv
I0731 19:31:45.720146 14410 net.cpp:386] relu7 -> fc7-conv (in-place)
I0731 19:31:45.720371 14410 net.cpp:141] Setting up relu7
I0731 19:31:45.720382 14410 net.cpp:148] Top shape: 8 4096 1 1 (32768)
I0731 19:31:45.720386 14410 net.cpp:156] Memory required for data: 1318076416
I0731 19:31:45.720389 14410 layer_factory.hpp:77] Creating layer hypercolumns
I0731 19:31:45.720401 14410 net.cpp:91] Creating Layer hypercolumns
I0731 19:31:45.720404 14410 net.cpp:425] hypercolumns <- normal
I0731 19:31:45.720410 14410 net.cpp:425] hypercolumns <- conv1_2_relu1_2_0_split_1
I0731 19:31:45.720415 14410 net.cpp:425] hypercolumns <- conv2_2_relu2_2_0_split_1
I0731 19:31:45.720419 14410 net.cpp:425] hypercolumns <- conv3_3_relu3_3_0_split_1
I0731 19:31:45.720423 14410 net.cpp:425] hypercolumns <- conv4_3_relu4_3_0_split_1
I0731 19:31:45.720427 14410 net.cpp:425] hypercolumns <- conv5_3_relu5_3_0_split_1
I0731 19:31:45.720430 14410 net.cpp:425] hypercolumns <- fc7-conv
I0731 19:31:45.720445 14410 net.cpp:399] hypercolumns -> hypercolumns
I0731 19:31:45.720468 14410 net.cpp:399] hypercolumns -> normal_point
I0731 19:31:45.720530 14410 net.cpp:141] Setting up hypercolumns
I0731 19:31:45.720540 14410 net.cpp:148] Top shape: 8000 5568 1 1 (44544000)
I0731 19:31:45.720543 14410 net.cpp:148] Top shape: 8000 3 (24000)
I0731 19:31:45.720546 14410 net.cpp:156] Memory required for data: 1496348416
I0731 19:31:45.720549 14410 layer_factory.hpp:77] Creating layer fc1
I0731 19:31:45.720561 14410 net.cpp:91] Creating Layer fc1
I0731 19:31:45.720566 14410 net.cpp:425] fc1 <- hypercolumns
I0731 19:31:45.720573 14410 net.cpp:399] fc1 -> fc1
I0731 19:31:46.078197 14410 net.cpp:141] Setting up fc1
I0731 19:31:46.078253 14410 net.cpp:148] Top shape: 8000 4096 (32768000)
I0731 19:31:46.078258 14410 net.cpp:156] Memory required for data: 1627420416
I0731 19:31:46.078272 14410 layer_factory.hpp:77] Creating layer relu1
I0731 19:31:46.078289 14410 net.cpp:91] Creating Layer relu1
I0731 19:31:46.078295 14410 net.cpp:425] relu1 <- fc1
I0731 19:31:46.078306 14410 net.cpp:386] relu1 -> fc1 (in-place)
I0731 19:31:46.078933 14410 net.cpp:141] Setting up relu1
I0731 19:31:46.078948 14410 net.cpp:148] Top shape: 8000 4096 (32768000)
I0731 19:31:46.078951 14410 net.cpp:156] Memory required for data: 1758492416
I0731 19:31:46.078955 14410 layer_factory.hpp:77] Creating layer drop1
I0731 19:31:46.078965 14410 net.cpp:91] Creating Layer drop1
I0731 19:31:46.078969 14410 net.cpp:425] drop1 <- fc1
I0731 19:31:46.078976 14410 net.cpp:386] drop1 -> fc1 (in-place)
I0731 19:31:46.079015 14410 net.cpp:141] Setting up drop1
I0731 19:31:46.079023 14410 net.cpp:148] Top shape: 8000 4096 (32768000)
I0731 19:31:46.079026 14410 net.cpp:156] Memory required for data: 1889564416
I0731 19:31:46.079059 14410 layer_factory.hpp:77] Creating layer fc2
I0731 19:31:46.079072 14410 net.cpp:91] Creating Layer fc2
I0731 19:31:46.079077 14410 net.cpp:425] fc2 <- fc1
I0731 19:31:46.079083 14410 net.cpp:399] fc2 -> fc2
I0731 19:31:46.314940 14410 net.cpp:141] Setting up fc2
I0731 19:31:46.314996 14410 net.cpp:148] Top shape: 8000 4096 (32768000)
I0731 19:31:46.315001 14410 net.cpp:156] Memory required for data: 2020636416
I0731 19:31:46.315027 14410 layer_factory.hpp:77] Creating layer relu2
I0731 19:31:46.315045 14410 net.cpp:91] Creating Layer relu2
I0731 19:31:46.315052 14410 net.cpp:425] relu2 <- fc2
I0731 19:31:46.315060 14410 net.cpp:386] relu2 -> fc2 (in-place)
I0731 19:31:46.315407 14410 net.cpp:141] Setting up relu2
I0731 19:31:46.315419 14410 net.cpp:148] Top shape: 8000 4096 (32768000)
I0731 19:31:46.315423 14410 net.cpp:156] Memory required for data: 2151708416
I0731 19:31:46.315425 14410 layer_factory.hpp:77] Creating layer drop2
I0731 19:31:46.315439 14410 net.cpp:91] Creating Layer drop2
I0731 19:31:46.315443 14410 net.cpp:425] drop2 <- fc2
I0731 19:31:46.315449 14410 net.cpp:386] drop2 -> fc2 (in-place)
I0731 19:31:46.315488 14410 net.cpp:141] Setting up drop2
I0731 19:31:46.315496 14410 net.cpp:148] Top shape: 8000 4096 (32768000)
I0731 19:31:46.315498 14410 net.cpp:156] Memory required for data: 2282780416
I0731 19:31:46.315502 14410 layer_factory.hpp:77] Creating layer fc3
I0731 19:31:46.315511 14410 net.cpp:91] Creating Layer fc3
I0731 19:31:46.315517 14410 net.cpp:425] fc3 <- fc2
I0731 19:31:46.315524 14410 net.cpp:399] fc3 -> fc3
I0731 19:31:46.315834 14410 net.cpp:141] Setting up fc3
I0731 19:31:46.315843 14410 net.cpp:148] Top shape: 8000 3 (24000)
I0731 19:31:46.315846 14410 net.cpp:156] Memory required for data: 2282876416
I0731 19:31:46.315852 14410 layer_factory.hpp:77] Creating layer loss
I0731 19:31:46.315860 14410 net.cpp:91] Creating Layer loss
I0731 19:31:46.315863 14410 net.cpp:425] loss <- fc3
I0731 19:31:46.315868 14410 net.cpp:425] loss <- normal_point
I0731 19:31:46.315877 14410 net.cpp:399] loss -> loss
I0731 19:31:46.315937 14410 net.cpp:141] Setting up loss
…
