…
I0726 17:57:22.934000  4928 solver.cpp:91] Creating training net from net file: /home/qinhong/project/normal_recovery/model/t2/train.prototxt
I0726 17:57:22.934752  4928 net.cpp:49] Initializing net from parameters: 
name: "hyper_normal_layers"
state {
  phase: TRAIN
}
layer {
  name: "data"
  type: "ImageNormalData"
  top: "data"
  top: "normal"
  transform_param {
    mirror: true
    mean_value: 104
    mean_value: 117
    mean_value: 123
  }
  image_data_param {
    source: "/home/qinhong/project/normal_recovery/data/source.txt"
    batch_size: 8
    shuffle: true
    new_height: 224
    new_width: 224
  }
}
layer {
  name: "conv1_1"
  type: "Convolution"
  bottom: "data"
  top: "conv1_1"
  param {
    lr_mult: 1
    decay_mult: 1
  }
  param {
    lr_mult: 2
    decay_mult: 0
  }
  convolution_param {
    num_output: 64
    pad: 1
    kernel_size: 3
  }
}
layer {
  name: "relu1_1"
  type: "ReLU"
  bottom: "conv1_1"
  top: "conv1_1"
}
layer {
  name: "conv1_2"
  type: "Convolution"
  bottom: "conv1_1"
  top: "conv1_2"
  param {
    lr_mult: 1
    decay_mult: 1
  }
  param {
    lr_mult: 2
    decay_mult: 0
  }
  convolution_param {
    num_output: 64
    pad: 1
    kernel_size: 3
  }
}
layer {
  name: "relu1_2"
  type: "ReLU"
  bottom: "conv1_2"
  top: "conv1_2"
}
layer {
  name: "pool1"
  type: "Pooling"
  bottom: "conv1_2"
  top: "pool1"
  pooling_param {
    pool: MAX
    kernel_size: 2
    stride: 2
  }
}
layer {
  name: "conv2_1"
  type: "Convolution"
  bottom: "pool1"
  top: "conv2_1"
  param {
    lr_mult: 1
    decay_mult: 1
  }
  param {
    lr_mult: 2
    decay_mult: 0
  }
  convolution_param {
    num_output: 128
    pad: 1
    kernel_size: 3
  }
}
layer {
  name: "relu2_1"
  type: "ReLU"
  bottom: "conv2_1"
  top: "conv2_1"
}
layer {
  name: "conv2_2"
  type: "Convolution"
  bottom: "conv2_1"
  top: "conv2_2"
  param {
    lr_mult: 1
    decay_mult: 1
  }
  param {
    lr_mult: 2
    decay_mult: 0
  }
  convolution_param {
    num_output: 128
    pad: 1
    kernel_size: 3
  }
}
layer {
  name: "relu2_2"
  type: "ReLU"
  bottom: "conv2_2"
  top: "conv2_2"
}
layer {
  name: "pool2"
  type: "Pooling"
  bottom: "conv2_2"
  top: "pool2"
  pooling_param {
    pool: MAX
    kernel_size: 2
    stride: 2
  }
}
layer {
  name: "conv3_1"
  type: "Convolution"
  bottom: "pool2"
  top: "conv3_1"
  param {
    lr_mult: 1
    decay_mult: 1
  }
  param {
    lr_mult: 2
    decay_mult: 0
  }
  convolution_param {
    num_output: 256
    pad: 1
    kernel_size: 3
  }
}
layer {
  name: "relu3_1"
  type: "ReLU"
  bottom: "conv3_1"
  top: "conv3_1"
}
layer {
  name: "conv3_2"
  type: "Convolution"
  bottom: "conv3_1"
  top: "conv3_2"
  param {
    lr_mult: 1
    decay_mult: 1
  }
  param {
    lr_mult: 2
    decay_mult: 0
  }
  convolution_param {
    num_output: 256
    pad: 1
    kernel_size: 3
  }
}
layer {
  name: "relu3_2"
  type: "ReLU"
  bottom: "conv3_2"
  top: "conv3_2"
}
layer {
  name: "conv3_3"
  type: "Convolution"
  bottom: "conv3_2"
  top: "conv3_3"
  param {
    lr_mult: 1
    decay_mult: 1
  }
  param {
    lr_mult: 2
    decay_mult: 0
  }
  convolution_param {
    num_output: 256
    pad: 1
    kernel_size: 3
  }
}
layer {
  name: "relu3_3"
  type: "ReLU"
  bottom: "conv3_3"
  top: "conv3_3"
}
layer {
  name: "pool3"
  type: "Pooling"
  bottom: "conv3_3"
  top: "pool3"
  pooling_param {
    pool: MAX
    kernel_size: 2
    stride: 2
  }
}
layer {
  name: "conv4_1"
  type: "Convolution"
  bottom: "pool3"
  top: "conv4_1"
  param {
    lr_mult: 1
    decay_mult: 1
  }
  param {
    lr_mult: 2
    decay_mult: 0
  }
  convolution_param {
    num_output: 512
    pad: 1
    kernel_size: 3
  }
}
layer {
  name: "relu4_1"
  type: "ReLU"
  bottom: "conv4_1"
  top: "conv4_1"
}
layer {
  name: "conv4_2"
  type: "Convolution"
  bottom: "conv4_1"
  top: "conv4_2"
  param {
    lr_mult: 1
    decay_mult: 1
  }
  param {
    lr_mult: 2
    decay_mult: 0
  }
  convolution_param {
    num_output: 512
    pad: 1
    kernel_size: 3
  }
}
layer {
  name: "relu4_2"
  type: "ReLU"
  bottom: "conv4_2"
  top: "conv4_2"
}
layer {
  name: "conv4_3"
  type: "Convolution"
  bottom: "conv4_2"
  top: "conv4_3"
  param {
    lr_mult: 1
    decay_mult: 1
  }
  param {
    lr_mult: 2
    decay_mult: 0
  }
  convolution_param {
    num_output: 512
    pad: 1
    kernel_size: 3
  }
}
layer {
  name: "relu4_3"
  type: "ReLU"
  bottom: "conv4_3"
  top: "conv4_3"
}
layer {
  name: "pool4"
  type: "Pooling"
  bottom: "conv4_3"
  top: "pool4"
  pooling_param {
    pool: MAX
    kernel_size: 2
    stride: 2
  }
}
layer {
  name: "conv5_1"
  type: "Convolution"
  bottom: "pool4"
  top: "conv5_1"
  param {
    lr_mult: 1
    decay_mult: 1
  }
  param {
    lr_mult: 2
    decay_mult: 0
  }
  convolution_param {
    num_output: 512
    pad: 1
    kernel_size: 3
  }
}
layer {
  name: "relu5_1"
  type: "ReLU"
  bottom: "conv5_1"
  top: "conv5_1"
}
layer {
  name: "conv5_2"
  type: "Convolution"
  bottom: "conv5_1"
  top: "conv5_2"
  param {
    lr_mult: 1
    decay_mult: 1
  }
  param {
    lr_mult: 2
    decay_mult: 0
  }
  convolution_param {
    num_output: 512
    pad: 1
    kernel_size: 3
  }
}
layer {
  name: "relu5_2"
  type: "ReLU"
  bottom: "conv5_2"
  top: "conv5_2"
}
layer {
  name: "conv5_3"
  type: "Convolution"
  bottom: "conv5_2"
  top: "conv5_3"
  param {
    lr_mult: 1
    decay_mult: 1
  }
  param {
    lr_mult: 2
    decay_mult: 0
  }
  convolution_param {
    num_output: 512
    pad: 1
    kernel_size: 3
  }
}
layer {
  name: "relu5_3"
  type: "ReLU"
  bottom: "conv5_3"
  top: "conv5_3"
}
layer {
  name: "pool5"
  type: "Pooling"
  bottom: "conv5_3"
  top: "pool5"
  pooling_param {
    pool: MAX
    kernel_size: 2
    stride: 2
  }
}
layer {
  name: "fc6-conv"
  type: "Convolution"
  bottom: "pool5"
  top: "fc6-conv"
  param {
    lr_mult: 1
    decay_mult: 1
  }
  param {
    lr_mult: 2
    decay_mult: 0
  }
  convolution_param {
    num_output: 4096
    kernel_size: 7
  }
}
layer {
  name: "relu6"
  type: "ReLU"
  bottom: "fc6-conv"
  top: "fc6-conv"
}
layer {
  name: "drop6"
  type: "Dropout"
  bottom: "fc6-conv"
  top: "fc6-conv"
  dropout_param {
    dropout_ratio: 0.5
  }
}
layer {
  name: "fc7-conv"
  type: "Convolution"
  bottom: "fc6-conv"
  top: "fc7-conv"
  param {
    lr_mult: 1
    decay_mult: 1
  }
  param {
    lr_mult: 2
    decay_mult: 0
  }
  convolution_param {
    num_output: 4096
    kernel_size: 1
  }
}
layer {
  name: "relu7"
  type: "ReLU"
  bottom: "fc7-conv"
  top: "fc7-conv"
}
layer {
  name: "hypercolumns"
  type: "HyperColumns"
  bottom: "normal"
  bottom: "conv1_2"
  bottom: "conv2_2"
  bottom: "conv3_3"
  bottom: "conv4_3"
  bottom: "conv5_3"
  bottom: "fc7-conv"
  top: "hypercolumns"
  top: "normal_point"
  hypercolumns_param {
    is_train: true
  }
}
layer {
  name: "fc1"
  type: "InnerProduct"
  bottom: "hypercolumns"
  top: "fc1"
  param {
    lr_mult: 1
    decay_mult: 1
  }
  param {
    lr_mult: 2
    decay_mult: 0
  }
  inner_product_param {
    num_output: 4096
    weight_filler {
      type: "gaussian"
      std: 0.003
    }
    bias_filler {
      type: "constant"
      value: 0
    }
  }
}
layer {
  name: "relu1"
  type: "ReLU"
  bottom: "fc1"
  top: "fc1"
}
layer {
  name: "drop1"
  type: "Dropout"
  bottom: "fc1"
  top: "fc1"
  dropout_param {
    dropout_ratio: 0.5
  }
}
layer {
  name: "fc2"
  type: "InnerProduct"
  bottom: "fc1"
  top: "fc2"
  param {
    lr_mult: 1
    decay_mult: 1
  }
  param {
    lr_mult: 2
    decay_mult: 0
  }
  inner_product_param {
    num_output: 4096
    weight_filler {
      type: "gaussian"
      std: 0.002
    }
    bias_filler {
      type: "constant"
      value: 0
    }
  }
}
layer {
  name: "relu2"
  type: "ReLU"
  bottom: "fc2"
  top: "fc2"
}
layer {
  name: "drop2"
  type: "Dropout"
  bottom: "fc2"
  top: "fc2"
  dropout_param {
    dropout_ratio: 0.5
  }
}
layer {
  name: "fc3"
  type: "InnerProduct"
  bottom: "fc2"
  top: "fc3"
  param {
    lr_mult: 1
    decay_mult: 1
  }
  param {
    lr_mult: 2
    decay_mult: 0
  }
  inner_product_param {
    num_output: 3
    weight_filler {
      type: "gaussian"
      std: 0.001
    }
    bias_filler {
      type: "constant"
      value: 0
    }
  }
}
layer {
  name: "loss"
  type: "EuclideanLoss"
  bottom: "fc3"
  bottom: "normal_point"
  top: "loss"
  propagate_down: true
  propagate_down: false
}
I0726 17:57:22.934998  4928 layer_factory.hpp:77] Creating layer data
I0726 17:57:22.935046  4928 net.cpp:91] Creating Layer data
I0726 17:57:22.935055  4928 net.cpp:399] data -> data
I0726 17:57:22.935083  4928 net.cpp:399] data -> normal
I0726 17:57:22.935468  4928 image_normal_data_layer.cpp:43] opeing file /home/qinhong/project/normal_recovery/data/source.txt
I0726 17:57:22.940029  4928 image_normal_data_layer.cpp:54] Shuffing data
I0726 17:57:22.941017  4928 image_normal_data_layer.cpp:59] A total of 4105 images.
I0726 17:57:22.965523  4928 image_normal_data_layer.cpp:79] output data size: 8,3,224,224
I0726 17:57:22.981647  4928 net.cpp:141] Setting up data
I0726 17:57:22.981679  4928 net.cpp:148] Top shape: 8 3 224 224 (1204224)
I0726 17:57:22.981685  4928 net.cpp:148] Top shape: 8 3 224 224 (1204224)
I0726 17:57:22.981688  4928 net.cpp:156] Memory required for data: 9633792
I0726 17:57:22.981703  4928 layer_factory.hpp:77] Creating layer conv1_1
I0726 17:57:22.981729  4928 net.cpp:91] Creating Layer conv1_1
I0726 17:57:22.981739  4928 net.cpp:425] conv1_1 <- data
I0726 17:57:22.981761  4928 net.cpp:399] conv1_1 -> conv1_1
I0726 17:57:23.171761  4928 net.cpp:141] Setting up conv1_1
I0726 17:57:23.171800  4928 net.cpp:148] Top shape: 8 64 224 224 (25690112)
I0726 17:57:23.171804  4928 net.cpp:156] Memory required for data: 112394240
I0726 17:57:23.171838  4928 layer_factory.hpp:77] Creating layer relu1_1
I0726 17:57:23.171854  4928 net.cpp:91] Creating Layer relu1_1
I0726 17:57:23.171860  4928 net.cpp:425] relu1_1 <- conv1_1
I0726 17:57:23.171866  4928 net.cpp:386] relu1_1 -> conv1_1 (in-place)
I0726 17:57:23.172173  4928 net.cpp:141] Setting up relu1_1
I0726 17:57:23.172188  4928 net.cpp:148] Top shape: 8 64 224 224 (25690112)
I0726 17:57:23.172191  4928 net.cpp:156] Memory required for data: 215154688
I0726 17:57:23.172195  4928 layer_factory.hpp:77] Creating layer conv1_2
I0726 17:57:23.172207  4928 net.cpp:91] Creating Layer conv1_2
I0726 17:57:23.172212  4928 net.cpp:425] conv1_2 <- conv1_1
I0726 17:57:23.172219  4928 net.cpp:399] conv1_2 -> conv1_2
I0726 17:57:23.173249  4928 net.cpp:141] Setting up conv1_2
I0726 17:57:23.173265  4928 net.cpp:148] Top shape: 8 64 224 224 (25690112)
I0726 17:57:23.173269  4928 net.cpp:156] Memory required for data: 317915136
I0726 17:57:23.173279  4928 layer_factory.hpp:77] Creating layer relu1_2
I0726 17:57:23.173286  4928 net.cpp:91] Creating Layer relu1_2
I0726 17:57:23.173290  4928 net.cpp:425] relu1_2 <- conv1_2
I0726 17:57:23.173295  4928 net.cpp:386] relu1_2 -> conv1_2 (in-place)
I0726 17:57:23.173571  4928 net.cpp:141] Setting up relu1_2
I0726 17:57:23.173584  4928 net.cpp:148] Top shape: 8 64 224 224 (25690112)
I0726 17:57:23.173588  4928 net.cpp:156] Memory required for data: 420675584
I0726 17:57:23.173593  4928 layer_factory.hpp:77] Creating layer conv1_2_relu1_2_0_split
I0726 17:57:23.173599  4928 net.cpp:91] Creating Layer conv1_2_relu1_2_0_split
I0726 17:57:23.173602  4928 net.cpp:425] conv1_2_relu1_2_0_split <- conv1_2
I0726 17:57:23.173609  4928 net.cpp:399] conv1_2_relu1_2_0_split -> conv1_2_relu1_2_0_split_0
I0726 17:57:23.173616  4928 net.cpp:399] conv1_2_relu1_2_0_split -> conv1_2_relu1_2_0_split_1
I0726 17:57:23.173658  4928 net.cpp:141] Setting up conv1_2_relu1_2_0_split
I0726 17:57:23.173666  4928 net.cpp:148] Top shape: 8 64 224 224 (25690112)
I0726 17:57:23.173671  4928 net.cpp:148] Top shape: 8 64 224 224 (25690112)
I0726 17:57:23.173673  4928 net.cpp:156] Memory required for data: 626196480
I0726 17:57:23.173696  4928 layer_factory.hpp:77] Creating layer pool1
I0726 17:57:23.173704  4928 net.cpp:91] Creating Layer pool1
I0726 17:57:23.173708  4928 net.cpp:425] pool1 <- conv1_2_relu1_2_0_split_0
I0726 17:57:23.173712  4928 net.cpp:399] pool1 -> pool1
I0726 17:57:23.173771  4928 net.cpp:141] Setting up pool1
I0726 17:57:23.173780  4928 net.cpp:148] Top shape: 8 64 112 112 (6422528)
I0726 17:57:23.173784  4928 net.cpp:156] Memory required for data: 651886592
I0726 17:57:23.173787  4928 layer_factory.hpp:77] Creating layer conv2_1
I0726 17:57:23.173794  4928 net.cpp:91] Creating Layer conv2_1
I0726 17:57:23.173797  4928 net.cpp:425] conv2_1 <- pool1
I0726 17:57:23.173804  4928 net.cpp:399] conv2_1 -> conv2_1
I0726 17:57:23.176108  4928 net.cpp:141] Setting up conv2_1
I0726 17:57:23.176125  4928 net.cpp:148] Top shape: 8 128 112 112 (12845056)
I0726 17:57:23.176128  4928 net.cpp:156] Memory required for data: 703266816
I0726 17:57:23.176138  4928 layer_factory.hpp:77] Creating layer relu2_1
I0726 17:57:23.176146  4928 net.cpp:91] Creating Layer relu2_1
I0726 17:57:23.176152  4928 net.cpp:425] relu2_1 <- conv2_1
I0726 17:57:23.176157  4928 net.cpp:386] relu2_1 -> conv2_1 (in-place)
I0726 17:57:23.176337  4928 net.cpp:141] Setting up relu2_1
I0726 17:57:23.176347  4928 net.cpp:148] Top shape: 8 128 112 112 (12845056)
I0726 17:57:23.176349  4928 net.cpp:156] Memory required for data: 754647040
I0726 17:57:23.176352  4928 layer_factory.hpp:77] Creating layer conv2_2
I0726 17:57:23.176362  4928 net.cpp:91] Creating Layer conv2_2
I0726 17:57:23.176364  4928 net.cpp:425] conv2_2 <- conv2_1
I0726 17:57:23.176370  4928 net.cpp:399] conv2_2 -> conv2_2
I0726 17:57:23.177496  4928 net.cpp:141] Setting up conv2_2
I0726 17:57:23.177513  4928 net.cpp:148] Top shape: 8 128 112 112 (12845056)
I0726 17:57:23.177516  4928 net.cpp:156] Memory required for data: 806027264
I0726 17:57:23.177523  4928 layer_factory.hpp:77] Creating layer relu2_2
I0726 17:57:23.177530  4928 net.cpp:91] Creating Layer relu2_2
I0726 17:57:23.177533  4928 net.cpp:425] relu2_2 <- conv2_2
I0726 17:57:23.177538  4928 net.cpp:386] relu2_2 -> conv2_2 (in-place)
I0726 17:57:23.177853  4928 net.cpp:141] Setting up relu2_2
I0726 17:57:23.177868  4928 net.cpp:148] Top shape: 8 128 112 112 (12845056)
I0726 17:57:23.177872  4928 net.cpp:156] Memory required for data: 857407488
I0726 17:57:23.177875  4928 layer_factory.hpp:77] Creating layer conv2_2_relu2_2_0_split
I0726 17:57:23.177883  4928 net.cpp:91] Creating Layer conv2_2_relu2_2_0_split
I0726 17:57:23.177886  4928 net.cpp:425] conv2_2_relu2_2_0_split <- conv2_2
I0726 17:57:23.177893  4928 net.cpp:399] conv2_2_relu2_2_0_split -> conv2_2_relu2_2_0_split_0
I0726 17:57:23.177901  4928 net.cpp:399] conv2_2_relu2_2_0_split -> conv2_2_relu2_2_0_split_1
I0726 17:57:23.177947  4928 net.cpp:141] Setting up conv2_2_relu2_2_0_split
I0726 17:57:23.177955  4928 net.cpp:148] Top shape: 8 128 112 112 (12845056)
I0726 17:57:23.177959  4928 net.cpp:148] Top shape: 8 128 112 112 (12845056)
I0726 17:57:23.177963  4928 net.cpp:156] Memory required for data: 960167936
I0726 17:57:23.177965  4928 layer_factory.hpp:77] Creating layer pool2
I0726 17:57:23.177970  4928 net.cpp:91] Creating Layer pool2
I0726 17:57:23.177973  4928 net.cpp:425] pool2 <- conv2_2_relu2_2_0_split_0
I0726 17:57:23.177978  4928 net.cpp:399] pool2 -> pool2
I0726 17:57:23.178017  4928 net.cpp:141] Setting up pool2
I0726 17:57:23.178025  4928 net.cpp:148] Top shape: 8 128 56 56 (3211264)
I0726 17:57:23.178027  4928 net.cpp:156] Memory required for data: 973012992
I0726 17:57:23.178030  4928 layer_factory.hpp:77] Creating layer conv3_1
I0726 17:57:23.178040  4928 net.cpp:91] Creating Layer conv3_1
I0726 17:57:23.178042  4928 net.cpp:425] conv3_1 <- pool2
I0726 17:57:23.178050  4928 net.cpp:399] conv3_1 -> conv3_1
I0726 17:57:23.179795  4928 net.cpp:141] Setting up conv3_1
I0726 17:57:23.179811  4928 net.cpp:148] Top shape: 8 256 56 56 (6422528)
I0726 17:57:23.179814  4928 net.cpp:156] Memory required for data: 998703104
I0726 17:57:23.179823  4928 layer_factory.hpp:77] Creating layer relu3_1
I0726 17:57:23.179846  4928 net.cpp:91] Creating Layer relu3_1
I0726 17:57:23.179849  4928 net.cpp:425] relu3_1 <- conv3_1
I0726 17:57:23.179855  4928 net.cpp:386] relu3_1 -> conv3_1 (in-place)
I0726 17:57:23.180162  4928 net.cpp:141] Setting up relu3_1
I0726 17:57:23.180176  4928 net.cpp:148] Top shape: 8 256 56 56 (6422528)
I0726 17:57:23.180179  4928 net.cpp:156] Memory required for data: 1024393216
I0726 17:57:23.180184  4928 layer_factory.hpp:77] Creating layer conv3_2
I0726 17:57:23.180196  4928 net.cpp:91] Creating Layer conv3_2
I0726 17:57:23.180200  4928 net.cpp:425] conv3_2 <- conv3_1
I0726 17:57:23.180205  4928 net.cpp:399] conv3_2 -> conv3_2
I0726 17:57:23.182724  4928 net.cpp:141] Setting up conv3_2
I0726 17:57:23.182740  4928 net.cpp:148] Top shape: 8 256 56 56 (6422528)
I0726 17:57:23.182744  4928 net.cpp:156] Memory required for data: 1050083328
I0726 17:57:23.182750  4928 layer_factory.hpp:77] Creating layer relu3_2
I0726 17:57:23.182762  4928 net.cpp:91] Creating Layer relu3_2
I0726 17:57:23.182767  4928 net.cpp:425] relu3_2 <- conv3_2
I0726 17:57:23.182772  4928 net.cpp:386] relu3_2 -> conv3_2 (in-place)
I0726 17:57:23.182967  4928 net.cpp:141] Setting up relu3_2
I0726 17:57:23.182977  4928 net.cpp:148] Top shape: 8 256 56 56 (6422528)
I0726 17:57:23.182981  4928 net.cpp:156] Memory required for data: 1075773440
I0726 17:57:23.182984  4928 layer_factory.hpp:77] Creating layer conv3_3
I0726 17:57:23.182993  4928 net.cpp:91] Creating Layer conv3_3
I0726 17:57:23.182997  4928 net.cpp:425] conv3_3 <- conv3_2
I0726 17:57:23.183003  4928 net.cpp:399] conv3_3 -> conv3_3
I0726 17:57:23.185592  4928 net.cpp:141] Setting up conv3_3
I0726 17:57:23.185609  4928 net.cpp:148] Top shape: 8 256 56 56 (6422528)
I0726 17:57:23.185613  4928 net.cpp:156] Memory required for data: 1101463552
I0726 17:57:23.185621  4928 layer_factory.hpp:77] Creating layer relu3_3
I0726 17:57:23.185626  4928 net.cpp:91] Creating Layer relu3_3
I0726 17:57:23.185629  4928 net.cpp:425] relu3_3 <- conv3_3
I0726 17:57:23.185634  4928 net.cpp:386] relu3_3 -> conv3_3 (in-place)
I0726 17:57:23.185964  4928 net.cpp:141] Setting up relu3_3
I0726 17:57:23.185979  4928 net.cpp:148] Top shape: 8 256 56 56 (6422528)
I0726 17:57:23.185983  4928 net.cpp:156] Memory required for data: 1127153664
I0726 17:57:23.185986  4928 layer_factory.hpp:77] Creating layer conv3_3_relu3_3_0_split
I0726 17:57:23.185993  4928 net.cpp:91] Creating Layer conv3_3_relu3_3_0_split
I0726 17:57:23.185997  4928 net.cpp:425] conv3_3_relu3_3_0_split <- conv3_3
I0726 17:57:23.186004  4928 net.cpp:399] conv3_3_relu3_3_0_split -> conv3_3_relu3_3_0_split_0
I0726 17:57:23.186013  4928 net.cpp:399] conv3_3_relu3_3_0_split -> conv3_3_relu3_3_0_split_1
I0726 17:57:23.186066  4928 net.cpp:141] Setting up conv3_3_relu3_3_0_split
I0726 17:57:23.186074  4928 net.cpp:148] Top shape: 8 256 56 56 (6422528)
I0726 17:57:23.186079  4928 net.cpp:148] Top shape: 8 256 56 56 (6422528)
I0726 17:57:23.186080  4928 net.cpp:156] Memory required for data: 1178533888
I0726 17:57:23.186084  4928 layer_factory.hpp:77] Creating layer pool3
I0726 17:57:23.186091  4928 net.cpp:91] Creating Layer pool3
I0726 17:57:23.186094  4928 net.cpp:425] pool3 <- conv3_3_relu3_3_0_split_0
I0726 17:57:23.186100  4928 net.cpp:399] pool3 -> pool3
I0726 17:57:23.186141  4928 net.cpp:141] Setting up pool3
I0726 17:57:23.186147  4928 net.cpp:148] Top shape: 8 256 28 28 (1605632)
I0726 17:57:23.186151  4928 net.cpp:156] Memory required for data: 1184956416
I0726 17:57:23.186153  4928 layer_factory.hpp:77] Creating layer conv4_1
I0726 17:57:23.186161  4928 net.cpp:91] Creating Layer conv4_1
I0726 17:57:23.186164  4928 net.cpp:425] conv4_1 <- pool3
I0726 17:57:23.186169  4928 net.cpp:399] conv4_1 -> conv4_1
I0726 17:57:23.190357  4928 net.cpp:141] Setting up conv4_1
I0726 17:57:23.190373  4928 net.cpp:148] Top shape: 8 512 28 28 (3211264)
I0726 17:57:23.190377  4928 net.cpp:156] Memory required for data: 1197801472
I0726 17:57:23.190384  4928 layer_factory.hpp:77] Creating layer relu4_1
I0726 17:57:23.190405  4928 net.cpp:91] Creating Layer relu4_1
I0726 17:57:23.190409  4928 net.cpp:425] relu4_1 <- conv4_1
I0726 17:57:23.190417  4928 net.cpp:386] relu4_1 -> conv4_1 (in-place)
I0726 17:57:23.190726  4928 net.cpp:141] Setting up relu4_1
I0726 17:57:23.190739  4928 net.cpp:148] Top shape: 8 512 28 28 (3211264)
I0726 17:57:23.190742  4928 net.cpp:156] Memory required for data: 1210646528
I0726 17:57:23.190747  4928 layer_factory.hpp:77] Creating layer conv4_2
I0726 17:57:23.190757  4928 net.cpp:91] Creating Layer conv4_2
I0726 17:57:23.190762  4928 net.cpp:425] conv4_2 <- conv4_1
I0726 17:57:23.190769  4928 net.cpp:399] conv4_2 -> conv4_2
I0726 17:57:23.197074  4928 net.cpp:141] Setting up conv4_2
I0726 17:57:23.197091  4928 net.cpp:148] Top shape: 8 512 28 28 (3211264)
I0726 17:57:23.197094  4928 net.cpp:156] Memory required for data: 1223491584
I0726 17:57:23.197106  4928 layer_factory.hpp:77] Creating layer relu4_2
I0726 17:57:23.197113  4928 net.cpp:91] Creating Layer relu4_2
I0726 17:57:23.197118  4928 net.cpp:425] relu4_2 <- conv4_2
I0726 17:57:23.197124  4928 net.cpp:386] relu4_2 -> conv4_2 (in-place)
I0726 17:57:23.197319  4928 net.cpp:141] Setting up relu4_2
I0726 17:57:23.197330  4928 net.cpp:148] Top shape: 8 512 28 28 (3211264)
I0726 17:57:23.197334  4928 net.cpp:156] Memory required for data: 1236336640
I0726 17:57:23.197336  4928 layer_factory.hpp:77] Creating layer conv4_3
I0726 17:57:23.197345  4928 net.cpp:91] Creating Layer conv4_3
I0726 17:57:23.197350  4928 net.cpp:425] conv4_3 <- conv4_2
I0726 17:57:23.197356  4928 net.cpp:399] conv4_3 -> conv4_3
I0726 17:57:23.203814  4928 net.cpp:141] Setting up conv4_3
I0726 17:57:23.203837  4928 net.cpp:148] Top shape: 8 512 28 28 (3211264)
I0726 17:57:23.203841  4928 net.cpp:156] Memory required for data: 1249181696
I0726 17:57:23.203848  4928 layer_factory.hpp:77] Creating layer relu4_3
I0726 17:57:23.203855  4928 net.cpp:91] Creating Layer relu4_3
I0726 17:57:23.203858  4928 net.cpp:425] relu4_3 <- conv4_3
I0726 17:57:23.203866  4928 net.cpp:386] relu4_3 -> conv4_3 (in-place)
I0726 17:57:23.204180  4928 net.cpp:141] Setting up relu4_3
I0726 17:57:23.204192  4928 net.cpp:148] Top shape: 8 512 28 28 (3211264)
I0726 17:57:23.204196  4928 net.cpp:156] Memory required for data: 1262026752
I0726 17:57:23.204200  4928 layer_factory.hpp:77] Creating layer conv4_3_relu4_3_0_split
I0726 17:57:23.204206  4928 net.cpp:91] Creating Layer conv4_3_relu4_3_0_split
I0726 17:57:23.204210  4928 net.cpp:425] conv4_3_relu4_3_0_split <- conv4_3
I0726 17:57:23.204217  4928 net.cpp:399] conv4_3_relu4_3_0_split -> conv4_3_relu4_3_0_split_0
I0726 17:57:23.204226  4928 net.cpp:399] conv4_3_relu4_3_0_split -> conv4_3_relu4_3_0_split_1
I0726 17:57:23.204277  4928 net.cpp:141] Setting up conv4_3_relu4_3_0_split
I0726 17:57:23.204283  4928 net.cpp:148] Top shape: 8 512 28 28 (3211264)
I0726 17:57:23.204288  4928 net.cpp:148] Top shape: 8 512 28 28 (3211264)
I0726 17:57:23.204290  4928 net.cpp:156] Memory required for data: 1287716864
I0726 17:57:23.204294  4928 layer_factory.hpp:77] Creating layer pool4
I0726 17:57:23.204300  4928 net.cpp:91] Creating Layer pool4
I0726 17:57:23.204304  4928 net.cpp:425] pool4 <- conv4_3_relu4_3_0_split_0
I0726 17:57:23.204310  4928 net.cpp:399] pool4 -> pool4
I0726 17:57:23.204354  4928 net.cpp:141] Setting up pool4
I0726 17:57:23.204360  4928 net.cpp:148] Top shape: 8 512 14 14 (802816)
I0726 17:57:23.204363  4928 net.cpp:156] Memory required for data: 1290928128
I0726 17:57:23.204366  4928 layer_factory.hpp:77] Creating layer conv5_1
I0726 17:57:23.204376  4928 net.cpp:91] Creating Layer conv5_1
I0726 17:57:23.204380  4928 net.cpp:425] conv5_1 <- pool4
I0726 17:57:23.204385  4928 net.cpp:399] conv5_1 -> conv5_1
I0726 17:57:23.210713  4928 net.cpp:141] Setting up conv5_1
I0726 17:57:23.210731  4928 net.cpp:148] Top shape: 8 512 14 14 (802816)
I0726 17:57:23.210734  4928 net.cpp:156] Memory required for data: 1294139392
I0726 17:57:23.210741  4928 layer_factory.hpp:77] Creating layer relu5_1
I0726 17:57:23.210749  4928 net.cpp:91] Creating Layer relu5_1
I0726 17:57:23.210773  4928 net.cpp:425] relu5_1 <- conv5_1
I0726 17:57:23.210779  4928 net.cpp:386] relu5_1 -> conv5_1 (in-place)
I0726 17:57:23.211082  4928 net.cpp:141] Setting up relu5_1
I0726 17:57:23.211097  4928 net.cpp:148] Top shape: 8 512 14 14 (802816)
I0726 17:57:23.211099  4928 net.cpp:156] Memory required for data: 1297350656
I0726 17:57:23.211103  4928 layer_factory.hpp:77] Creating layer conv5_2
I0726 17:57:23.211113  4928 net.cpp:91] Creating Layer conv5_2
I0726 17:57:23.211119  4928 net.cpp:425] conv5_2 <- conv5_1
I0726 17:57:23.211127  4928 net.cpp:399] conv5_2 -> conv5_2
I0726 17:57:23.217456  4928 net.cpp:141] Setting up conv5_2
I0726 17:57:23.217475  4928 net.cpp:148] Top shape: 8 512 14 14 (802816)
I0726 17:57:23.217479  4928 net.cpp:156] Memory required for data: 1300561920
I0726 17:57:23.217486  4928 layer_factory.hpp:77] Creating layer relu5_2
I0726 17:57:23.217500  4928 net.cpp:91] Creating Layer relu5_2
I0726 17:57:23.217505  4928 net.cpp:425] relu5_2 <- conv5_2
I0726 17:57:23.217510  4928 net.cpp:386] relu5_2 -> conv5_2 (in-place)
I0726 17:57:23.217703  4928 net.cpp:141] Setting up relu5_2
I0726 17:57:23.217716  4928 net.cpp:148] Top shape: 8 512 14 14 (802816)
I0726 17:57:23.217720  4928 net.cpp:156] Memory required for data: 1303773184
I0726 17:57:23.217722  4928 layer_factory.hpp:77] Creating layer conv5_3
I0726 17:57:23.217730  4928 net.cpp:91] Creating Layer conv5_3
I0726 17:57:23.217735  4928 net.cpp:425] conv5_3 <- conv5_2
I0726 17:57:23.217741  4928 net.cpp:399] conv5_3 -> conv5_3
I0726 17:57:23.224083  4928 net.cpp:141] Setting up conv5_3
I0726 17:57:23.224102  4928 net.cpp:148] Top shape: 8 512 14 14 (802816)
I0726 17:57:23.224107  4928 net.cpp:156] Memory required for data: 1306984448
I0726 17:57:23.224113  4928 layer_factory.hpp:77] Creating layer relu5_3
I0726 17:57:23.224119  4928 net.cpp:91] Creating Layer relu5_3
I0726 17:57:23.224123  4928 net.cpp:425] relu5_3 <- conv5_3
I0726 17:57:23.224130  4928 net.cpp:386] relu5_3 -> conv5_3 (in-place)
I0726 17:57:23.224442  4928 net.cpp:141] Setting up relu5_3
I0726 17:57:23.224457  4928 net.cpp:148] Top shape: 8 512 14 14 (802816)
I0726 17:57:23.224459  4928 net.cpp:156] Memory required for data: 1310195712
I0726 17:57:23.224463  4928 layer_factory.hpp:77] Creating layer conv5_3_relu5_3_0_split
I0726 17:57:23.224472  4928 net.cpp:91] Creating Layer conv5_3_relu5_3_0_split
I0726 17:57:23.224475  4928 net.cpp:425] conv5_3_relu5_3_0_split <- conv5_3
I0726 17:57:23.224483  4928 net.cpp:399] conv5_3_relu5_3_0_split -> conv5_3_relu5_3_0_split_0
I0726 17:57:23.224490  4928 net.cpp:399] conv5_3_relu5_3_0_split -> conv5_3_relu5_3_0_split_1
I0726 17:57:23.224544  4928 net.cpp:141] Setting up conv5_3_relu5_3_0_split
I0726 17:57:23.224551  4928 net.cpp:148] Top shape: 8 512 14 14 (802816)
I0726 17:57:23.224555  4928 net.cpp:148] Top shape: 8 512 14 14 (802816)
I0726 17:57:23.224558  4928 net.cpp:156] Memory required for data: 1316618240
I0726 17:57:23.224561  4928 layer_factory.hpp:77] Creating layer pool5
I0726 17:57:23.224568  4928 net.cpp:91] Creating Layer pool5
I0726 17:57:23.224572  4928 net.cpp:425] pool5 <- conv5_3_relu5_3_0_split_0
I0726 17:57:23.224578  4928 net.cpp:399] pool5 -> pool5
I0726 17:57:23.224623  4928 net.cpp:141] Setting up pool5
I0726 17:57:23.224630  4928 net.cpp:148] Top shape: 8 512 7 7 (200704)
I0726 17:57:23.224633  4928 net.cpp:156] Memory required for data: 1317421056
I0726 17:57:23.224637  4928 layer_factory.hpp:77] Creating layer fc6-conv
I0726 17:57:23.224642  4928 net.cpp:91] Creating Layer fc6-conv
I0726 17:57:23.224647  4928 net.cpp:425] fc6-conv <- pool5
I0726 17:57:23.224653  4928 net.cpp:399] fc6-conv -> fc6-conv
I0726 17:57:23.494312  4928 net.cpp:141] Setting up fc6-conv
I0726 17:57:23.494350  4928 net.cpp:148] Top shape: 8 4096 1 1 (32768)
I0726 17:57:23.494354  4928 net.cpp:156] Memory required for data: 1317552128
I0726 17:57:23.494364  4928 layer_factory.hpp:77] Creating layer relu6
I0726 17:57:23.494376  4928 net.cpp:91] Creating Layer relu6
I0726 17:57:23.494381  4928 net.cpp:425] relu6 <- fc6-conv
I0726 17:57:23.494416  4928 net.cpp:386] relu6 -> fc6-conv (in-place)
I0726 17:57:23.494729  4928 net.cpp:141] Setting up relu6
I0726 17:57:23.494742  4928 net.cpp:148] Top shape: 8 4096 1 1 (32768)
I0726 17:57:23.494745  4928 net.cpp:156] Memory required for data: 1317683200
I0726 17:57:23.494748  4928 layer_factory.hpp:77] Creating layer drop6
I0726 17:57:23.494756  4928 net.cpp:91] Creating Layer drop6
I0726 17:57:23.494760  4928 net.cpp:425] drop6 <- fc6-conv
I0726 17:57:23.494766  4928 net.cpp:386] drop6 -> fc6-conv (in-place)
I0726 17:57:23.494806  4928 net.cpp:141] Setting up drop6
I0726 17:57:23.494814  4928 net.cpp:148] Top shape: 8 4096 1 1 (32768)
I0726 17:57:23.494817  4928 net.cpp:156] Memory required for data: 1317814272
I0726 17:57:23.494819  4928 layer_factory.hpp:77] Creating layer fc7-conv
I0726 17:57:23.494832  4928 net.cpp:91] Creating Layer fc7-conv
I0726 17:57:23.494834  4928 net.cpp:425] fc7-conv <- fc6-conv
I0726 17:57:23.494842  4928 net.cpp:399] fc7-conv -> fc7-conv
I0726 17:57:23.540434  4928 net.cpp:141] Setting up fc7-conv
I0726 17:57:23.540479  4928 net.cpp:148] Top shape: 8 4096 1 1 (32768)
I0726 17:57:23.540483  4928 net.cpp:156] Memory required for data: 1317945344
I0726 17:57:23.540496  4928 layer_factory.hpp:77] Creating layer relu7
I0726 17:57:23.540508  4928 net.cpp:91] Creating Layer relu7
I0726 17:57:23.540513  4928 net.cpp:425] relu7 <- fc7-conv
I0726 17:57:23.540520  4928 net.cpp:386] relu7 -> fc7-conv (in-place)
I0726 17:57:23.540726  4928 net.cpp:141] Setting up relu7
I0726 17:57:23.540737  4928 net.cpp:148] Top shape: 8 4096 1 1 (32768)
I0726 17:57:23.540741  4928 net.cpp:156] Memory required for data: 1318076416
I0726 17:57:23.540745  4928 layer_factory.hpp:77] Creating layer hypercolumns
I0726 17:57:23.540755  4928 net.cpp:91] Creating Layer hypercolumns
I0726 17:57:23.540760  4928 net.cpp:425] hypercolumns <- normal
I0726 17:57:23.540765  4928 net.cpp:425] hypercolumns <- conv1_2_relu1_2_0_split_1
I0726 17:57:23.540768  4928 net.cpp:425] hypercolumns <- conv2_2_relu2_2_0_split_1
I0726 17:57:23.540772  4928 net.cpp:425] hypercolumns <- conv3_3_relu3_3_0_split_1
I0726 17:57:23.540776  4928 net.cpp:425] hypercolumns <- conv4_3_relu4_3_0_split_1
I0726 17:57:23.540779  4928 net.cpp:425] hypercolumns <- conv5_3_relu5_3_0_split_1
I0726 17:57:23.540783  4928 net.cpp:425] hypercolumns <- fc7-conv
I0726 17:57:23.540791  4928 net.cpp:399] hypercolumns -> hypercolumns
I0726 17:57:23.540815  4928 net.cpp:399] hypercolumns -> normal_point
I0726 17:57:23.540868  4928 net.cpp:141] Setting up hypercolumns
I0726 17:57:23.540877  4928 net.cpp:148] Top shape: 8000 5568 1 1 (44544000)
I0726 17:57:23.540881  4928 net.cpp:148] Top shape: 8000 3 (24000)
I0726 17:57:23.540884  4928 net.cpp:156] Memory required for data: 1496348416
I0726 17:57:23.540887  4928 layer_factory.hpp:77] Creating layer fc1
I0726 17:57:23.540897  4928 net.cpp:91] Creating Layer fc1
I0726 17:57:23.540902  4928 net.cpp:425] fc1 <- hypercolumns
I0726 17:57:23.540910  4928 net.cpp:399] fc1 -> fc1
I0726 17:57:23.832608  4928 net.cpp:141] Setting up fc1
I0726 17:57:23.832664  4928 net.cpp:148] Top shape: 8000 4096 (32768000)
I0726 17:57:23.832669  4928 net.cpp:156] Memory required for data: 1627420416
I0726 17:57:23.832703  4928 layer_factory.hpp:77] Creating layer relu1
I0726 17:57:23.832736  4928 net.cpp:91] Creating Layer relu1
I0726 17:57:23.832744  4928 net.cpp:425] relu1 <- fc1
I0726 17:57:23.832751  4928 net.cpp:386] relu1 -> fc1 (in-place)
I0726 17:57:23.833422  4928 net.cpp:141] Setting up relu1
I0726 17:57:23.833436  4928 net.cpp:148] Top shape: 8000 4096 (32768000)
I0726 17:57:23.833439  4928 net.cpp:156] Memory required for data: 1758492416
I0726 17:57:23.833443  4928 layer_factory.hpp:77] Creating layer drop1
I0726 17:57:23.833465  4928 net.cpp:91] Creating Layer drop1
I0726 17:57:23.833470  4928 net.cpp:425] drop1 <- fc1
I0726 17:57:23.833474  4928 net.cpp:386] drop1 -> fc1 (in-place)
I0726 17:57:23.833511  4928 net.cpp:141] Setting up drop1
I0726 17:57:23.833518  4928 net.cpp:148] Top shape: 8000 4096 (32768000)
I0726 17:57:23.833539  4928 net.cpp:156] Memory required for data: 1889564416
I0726 17:57:23.833544  4928 layer_factory.hpp:77] Creating layer fc2
I0726 17:57:23.833561  4928 net.cpp:91] Creating Layer fc2
I0726 17:57:23.833566  4928 net.cpp:425] fc2 <- fc1
I0726 17:57:23.833571  4928 net.cpp:399] fc2 -> fc2
I0726 17:57:24.036754  4928 net.cpp:141] Setting up fc2
I0726 17:57:24.036797  4928 net.cpp:148] Top shape: 8000 4096 (32768000)
I0726 17:57:24.036799  4928 net.cpp:156] Memory required for data: 2020636416
I0726 17:57:24.036821  4928 layer_factory.hpp:77] Creating layer relu2
I0726 17:57:24.036839  4928 net.cpp:91] Creating Layer relu2
I0726 17:57:24.036846  4928 net.cpp:425] relu2 <- fc2
I0726 17:57:24.036852  4928 net.cpp:386] relu2 -> fc2 (in-place)
I0726 17:57:24.037148  4928 net.cpp:141] Setting up relu2
I0726 17:57:24.037159  4928 net.cpp:148] Top shape: 8000 4096 (32768000)
I0726 17:57:24.037163  4928 net.cpp:156] Memory required for data: 2151708416
I0726 17:57:24.037165  4928 layer_factory.hpp:77] Creating layer drop2
I0726 17:57:24.037173  4928 net.cpp:91] Creating Layer drop2
I0726 17:57:24.037176  4928 net.cpp:425] drop2 <- fc2
I0726 17:57:24.037184  4928 net.cpp:386] drop2 -> fc2 (in-place)
I0726 17:57:24.037214  4928 net.cpp:141] Setting up drop2
I0726 17:57:24.037220  4928 net.cpp:148] Top shape: 8000 4096 (32768000)
I0726 17:57:24.037223  4928 net.cpp:156] Memory required for data: 2282780416
I0726 17:57:24.037226  4928 layer_factory.hpp:77] Creating layer fc3
I0726 17:57:24.037235  4928 net.cpp:91] Creating Layer fc3
I0726 17:57:24.037240  4928 net.cpp:425] fc3 <- fc2
I0726 17:57:24.037246  4928 net.cpp:399] fc3 -> fc3
I0726 17:57:24.037508  4928 net.cpp:141] Setting up fc3
I0726 17:57:24.037515  4928 net.cpp:148] Top shape: 8000 3 (24000)
I0726 17:57:24.037518  4928 net.cpp:156] Memory required for data: 2282876416
I0726 17:57:24.037524  4928 layer_factory.hpp:77] Creating layer loss
I0726 17:57:24.037531  4928 net.cpp:91] Creating Layer loss
I0726 17:57:24.037534  4928 net.cpp:425] loss <- fc3
I0726 17:57:24.037539  4928 net.cpp:425] loss <- normal_point
I0726 17:57:24.037544  4928 net.cpp:399] loss -> loss
I0726 17:57:24.037611  4928 net.cpp:141] Setting up loss
…
