…
net: "/home/qinhong/project/cmu_project/model/t1/train.prototxt"
type: "SGD"
I0808 18:15:56.688400 23477 solver.cpp:91] Creating training net from net file: /home/qinhong/project/cmu_project/model/t1/train.prototxt
I0808 18:15:56.691383 23477 net.cpp:49] Initializing net from parameters: 
name: "hyper_normal_layers"
state {
  phase: TRAIN
}
layer {
  name: "data"
  type: "ImageNormalData"
  top: "data"
  top: "normal"
  transform_param {
  }
  image_data_param {
    source: "/home/qinhong/project/cmu_project/data/source.txt"
    batch_size: 7
    shuffle: true
    new_height: 224
    new_width: 224
  }
}
layer {
  name: "conv1_1"
  type: "Convolution"
  bottom: "data"
  top: "conv1_1"
  param {
    lr_mult: 1
    decay_mult: 1
  }
  param {
    lr_mult: 2
    decay_mult: 0
  }
  convolution_param {
    num_output: 64
    pad: 1
    kernel_size: 3
  }
}
layer {
  name: "relu1_1"
  type: "ReLU"
  bottom: "conv1_1"
  top: "conv1_1"
}
layer {
  name: "conv1_2"
  type: "Convolution"
  bottom: "conv1_1"
  top: "conv1_2"
  param {
    lr_mult: 1
    decay_mult: 1
  }
  param {
    lr_mult: 2
    decay_mult: 0
  }
  convolution_param {
    num_output: 64
    pad: 1
    kernel_size: 3
  }
}
layer {
  name: "relu1_2"
  type: "ReLU"
  bottom: "conv1_2"
  top: "conv1_2"
}
layer {
  name: "pool1"
  type: "Pooling"
  bottom: "conv1_2"
  top: "pool1"
  pooling_param {
    pool: MAX
    kernel_size: 2
    stride: 2
  }
}
layer {
  name: "conv2_1"
  type: "Convolution"
  bottom: "pool1"
  top: "conv2_1"
  param {
    lr_mult: 1
    decay_mult: 1
  }
  param {
    lr_mult: 2
    decay_mult: 0
  }
  convolution_param {
    num_output: 128
    pad: 1
    kernel_size: 3
  }
}
layer {
  name: "relu2_1"
  type: "ReLU"
  bottom: "conv2_1"
  top: "conv2_1"
}
layer {
  name: "conv2_2"
  type: "Convolution"
  bottom: "conv2_1"
  top: "conv2_2"
  param {
    lr_mult: 1
    decay_mult: 1
  }
  param {
    lr_mult: 2
    decay_mult: 0
  }
  convolution_param {
    num_output: 128
    pad: 1
    kernel_size: 3
  }
}
layer {
  name: "relu2_2"
  type: "ReLU"
  bottom: "conv2_2"
  top: "conv2_2"
}
layer {
  name: "pool2"
  type: "Pooling"
  bottom: "conv2_2"
  top: "pool2"
  pooling_param {
    pool: MAX
    kernel_size: 2
    stride: 2
  }
}
layer {
  name: "conv3_1"
  type: "Convolution"
  bottom: "pool2"
  top: "conv3_1"
  param {
    lr_mult: 1
    decay_mult: 1
  }
  param {
    lr_mult: 2
    decay_mult: 0
  }
  convolution_param {
    num_output: 256
    pad: 1
    kernel_size: 3
  }
}
layer {
  name: "relu3_1"
  type: "ReLU"
  bottom: "conv3_1"
  top: "conv3_1"
}
layer {
  name: "conv3_2"
  type: "Convolution"
  bottom: "conv3_1"
  top: "conv3_2"
  param {
    lr_mult: 1
    decay_mult: 1
  }
  param {
    lr_mult: 2
    decay_mult: 0
  }
  convolution_param {
    num_output: 256
    pad: 1
    kernel_size: 3
  }
}
layer {
  name: "relu3_2"
  type: "ReLU"
  bottom: "conv3_2"
  top: "conv3_2"
}
layer {
  name: "conv3_3"
  type: "Convolution"
  bottom: "conv3_2"
  top: "conv3_3"
  param {
    lr_mult: 1
    decay_mult: 1
  }
  param {
    lr_mult: 2
    decay_mult: 0
  }
  convolution_param {
    num_output: 256
    pad: 1
    kernel_size: 3
  }
}
layer {
  name: "relu3_3"
  type: "ReLU"
  bottom: "conv3_3"
  top: "conv3_3"
}
layer {
  name: "pool3"
  type: "Pooling"
  bottom: "conv3_3"
  top: "pool3"
  pooling_param {
    pool: MAX
    kernel_size: 2
    stride: 2
  }
}
layer {
  name: "conv4_1"
  type: "Convolution"
  bottom: "pool3"
  top: "conv4_1"
  param {
    lr_mult: 1
    decay_mult: 1
  }
  param {
    lr_mult: 2
    decay_mult: 0
  }
  convolution_param {
    num_output: 512
    pad: 1
    kernel_size: 3
  }
}
layer {
  name: "relu4_1"
  type: "ReLU"
  bottom: "conv4_1"
  top: "conv4_1"
}
layer {
  name: "conv4_2"
  type: "Convolution"
  bottom: "conv4_1"
  top: "conv4_2"
  param {
    lr_mult: 1
    decay_mult: 1
  }
  param {
    lr_mult: 2
    decay_mult: 0
  }
  convolution_param {
    num_output: 512
    pad: 1
    kernel_size: 3
  }
}
layer {
  name: "relu4_2"
  type: "ReLU"
  bottom: "conv4_2"
  top: "conv4_2"
}
layer {
  name: "conv4_3"
  type: "Convolution"
  bottom: "conv4_2"
  top: "conv4_3"
  param {
    lr_mult: 1
    decay_mult: 1
  }
  param {
    lr_mult: 2
    decay_mult: 0
  }
  convolution_param {
    num_output: 512
    pad: 1
    kernel_size: 3
  }
}
layer {
  name: "relu4_3"
  type: "ReLU"
  bottom: "conv4_3"
  top: "conv4_3"
}
layer {
  name: "pool4"
  type: "Pooling"
  bottom: "conv4_3"
  top: "pool4"
  pooling_param {
    pool: MAX
    kernel_size: 2
    stride: 2
  }
}
layer {
  name: "conv5_1"
  type: "Convolution"
  bottom: "pool4"
  top: "conv5_1"
  param {
    lr_mult: 1
    decay_mult: 1
  }
  param {
    lr_mult: 2
    decay_mult: 0
  }
  convolution_param {
    num_output: 512
    pad: 1
    kernel_size: 3
  }
}
layer {
  name: "relu5_1"
  type: "ReLU"
  bottom: "conv5_1"
  top: "conv5_1"
}
layer {
  name: "conv5_2"
  type: "Convolution"
  bottom: "conv5_1"
  top: "conv5_2"
  param {
    lr_mult: 1
    decay_mult: 1
  }
  param {
    lr_mult: 2
    decay_mult: 0
  }
  convolution_param {
    num_output: 512
    pad: 1
    kernel_size: 3
  }
}
layer {
  name: "relu5_2"
  type: "ReLU"
  bottom: "conv5_2"
  top: "conv5_2"
}
layer {
  name: "conv5_3"
  type: "Convolution"
  bottom: "conv5_2"
  top: "conv5_3"
  param {
    lr_mult: 1
    decay_mult: 1
  }
  param {
    lr_mult: 2
    decay_mult: 0
  }
  convolution_param {
    num_output: 512
    pad: 1
    kernel_size: 3
  }
}
layer {
  name: "relu5_3"
  type: "ReLU"
  bottom: "conv5_3"
  top: "conv5_3"
}
layer {
  name: "pool5"
  type: "Pooling"
  bottom: "conv5_3"
  top: "pool5"
  pooling_param {
    pool: MAX
    kernel_size: 2
    stride: 2
  }
}
layer {
  name: "fc6-conv"
  type: "Convolution"
  bottom: "pool5"
  top: "fc6-conv"
  param {
    lr_mult: 1
    decay_mult: 1
  }
  param {
    lr_mult: 2
    decay_mult: 0
  }
  convolution_param {
    num_output: 4096
    kernel_size: 7
  }
}
layer {
  name: "relu6"
  type: "ReLU"
  bottom: "fc6-conv"
  top: "fc6-conv"
}
layer {
  name: "drop6"
  type: "Dropout"
  bottom: "fc6-conv"
  top: "fc6-conv"
  dropout_param {
    dropout_ratio: 0.5
  }
}
layer {
  name: "fc7-conv"
  type: "Convolution"
  bottom: "fc6-conv"
  top: "fc7-conv"
  param {
    lr_mult: 1
    decay_mult: 1
  }
  param {
    lr_mult: 2
    decay_mult: 0
  }
  convolution_param {
    num_output: 4096
    kernel_size: 1
  }
}
layer {
  name: "relu7"
  type: "ReLU"
  bottom: "fc7-conv"
  top: "fc7-conv"
}
layer {
  name: "hypercolumns"
  type: "HyperColumns"
  bottom: "normal"
  bottom: "conv1_2"
  bottom: "conv2_2"
  bottom: "conv3_3"
  bottom: "conv4_3"
  bottom: "conv5_3"
  bottom: "fc7-conv"
  top: "hypercolumns"
  top: "normal_point"
  hypercolumns_param {
    is_train: true
  }
}
layer {
  name: "fc1"
  type: "InnerProduct"
  bottom: "hypercolumns"
  top: "fc1"
  param {
    lr_mult: 1
    decay_mult: 1
  }
  param {
    lr_mult: 2
    decay_mult: 0
  }
  inner_product_param {
    num_output: 4096
    weight_filler {
      type: "gaussian"
      std: 0.02
    }
    bias_filler {
      type: "constant"
      value: 0
    }
  }
}
layer {
  name: "relu1"
  type: "ReLU"
  bottom: "fc1"
  top: "fc1"
}
layer {
  name: "drop1"
  type: "Dropout"
  bottom: "fc1"
  top: "fc1"
  dropout_param {
    dropout_ratio: 0.5
  }
}
layer {
  name: "fc2"
  type: "InnerProduct"
  bottom: "fc1"
  top: "fc2"
  param {
    lr_mult: 1
    decay_mult: 1
  }
  param {
    lr_mult: 2
    decay_mult: 0
  }
  inner_product_param {
    num_output: 4096
    weight_filler {
      type: "gaussian"
      std: 0.01
    }
    bias_filler {
      type: "constant"
      value: 0
    }
  }
}
layer {
  name: "relu2"
  type: "ReLU"
  bottom: "fc2"
  top: "fc2"
}
layer {
  name: "drop2"
  type: "Dropout"
  bottom: "fc2"
  top: "fc2"
  dropout_param {
    dropout_ratio: 0.5
  }
}
layer {
  name: "fc3"
  type: "InnerProduct"
  bottom: "fc2"
  top: "fc3"
  param {
    lr_mult: 1
    decay_mult: 1
  }
  param {
    lr_mult: 2
    decay_mult: 0
  }
  inner_product_param {
    num_output: 3
    weight_filler {
      type: "gaussian"
      std: 0.01
    }
    bias_filler {
      type: "constant"
      value: 0
    }
  }
}
layer {
  name: "loss"
  type: "EuclideanLoss"
  bottom: "fc3"
  bottom: "normal_point"
  top: "loss"
  propagate_down: true
  propagate_down: false
}
I0808 18:15:56.691843 23477 layer_factory.hpp:77] Creating layer data
I0808 18:15:56.691889 23477 net.cpp:91] Creating Layer data
I0808 18:15:56.691902 23477 net.cpp:399] data -> data
I0808 18:15:56.691938 23477 net.cpp:399] data -> normal
I0808 18:15:56.691959 23477 image_normal_data_layer.cpp:43] opeing file /home/qinhong/project/cmu_project/data/source.txt
I0808 18:15:56.695830 23477 image_normal_data_layer.cpp:54] Shuffing data
I0808 18:15:56.697448 23477 image_normal_data_layer.cpp:59] A total of 4105 images.
I0808 18:15:56.730643 23477 image_normal_data_layer.cpp:79] output data size: 7,3,224,224
I0808 18:15:56.750867 23477 net.cpp:141] Setting up data
I0808 18:15:56.750898 23477 net.cpp:148] Top shape: 7 3 224 224 (1053696)
I0808 18:15:56.750910 23477 net.cpp:148] Top shape: 7 3 224 224 (1053696)
I0808 18:15:56.750916 23477 net.cpp:156] Memory required for data: 8429568
I0808 18:15:56.750928 23477 layer_factory.hpp:77] Creating layer conv1_1
I0808 18:15:56.750964 23477 net.cpp:91] Creating Layer conv1_1
I0808 18:15:56.750974 23477 net.cpp:425] conv1_1 <- data
I0808 18:15:56.750993 23477 net.cpp:399] conv1_1 -> conv1_1
I0808 18:15:57.016134 23477 net.cpp:141] Setting up conv1_1
I0808 18:15:57.016165 23477 net.cpp:148] Top shape: 7 64 224 224 (22478848)
I0808 18:15:57.016172 23477 net.cpp:156] Memory required for data: 98344960
I0808 18:15:57.016196 23477 layer_factory.hpp:77] Creating layer relu1_1
I0808 18:15:57.016223 23477 net.cpp:91] Creating Layer relu1_1
I0808 18:15:57.016232 23477 net.cpp:425] relu1_1 <- conv1_1
I0808 18:15:57.016242 23477 net.cpp:386] relu1_1 -> conv1_1 (in-place)
I0808 18:15:57.016535 23477 net.cpp:141] Setting up relu1_1
I0808 18:15:57.016561 23477 net.cpp:148] Top shape: 7 64 224 224 (22478848)
I0808 18:15:57.016582 23477 net.cpp:156] Memory required for data: 188260352
I0808 18:15:57.016599 23477 layer_factory.hpp:77] Creating layer conv1_2
I0808 18:15:57.016628 23477 net.cpp:91] Creating Layer conv1_2
I0808 18:15:57.016635 23477 net.cpp:425] conv1_2 <- conv1_1
I0808 18:15:57.016647 23477 net.cpp:399] conv1_2 -> conv1_2
I0808 18:15:57.018124 23477 net.cpp:141] Setting up conv1_2
I0808 18:15:57.018146 23477 net.cpp:148] Top shape: 7 64 224 224 (22478848)
I0808 18:15:57.018153 23477 net.cpp:156] Memory required for data: 278175744
I0808 18:15:57.018167 23477 layer_factory.hpp:77] Creating layer relu1_2
I0808 18:15:57.018190 23477 net.cpp:91] Creating Layer relu1_2
I0808 18:15:57.018198 23477 net.cpp:425] relu1_2 <- conv1_2
I0808 18:15:57.018208 23477 net.cpp:386] relu1_2 -> conv1_2 (in-place)
I0808 18:15:57.018647 23477 net.cpp:141] Setting up relu1_2
I0808 18:15:57.018676 23477 net.cpp:148] Top shape: 7 64 224 224 (22478848)
I0808 18:15:57.018683 23477 net.cpp:156] Memory required for data: 368091136
I0808 18:15:57.018692 23477 layer_factory.hpp:77] Creating layer conv1_2_relu1_2_0_split
I0808 18:15:57.018702 23477 net.cpp:91] Creating Layer conv1_2_relu1_2_0_split
I0808 18:15:57.018721 23477 net.cpp:425] conv1_2_relu1_2_0_split <- conv1_2
I0808 18:15:57.018733 23477 net.cpp:399] conv1_2_relu1_2_0_split -> conv1_2_relu1_2_0_split_0
I0808 18:15:57.018761 23477 net.cpp:399] conv1_2_relu1_2_0_split -> conv1_2_relu1_2_0_split_1
I0808 18:15:57.018832 23477 net.cpp:141] Setting up conv1_2_relu1_2_0_split
I0808 18:15:57.018848 23477 net.cpp:148] Top shape: 7 64 224 224 (22478848)
I0808 18:15:57.018858 23477 net.cpp:148] Top shape: 7 64 224 224 (22478848)
I0808 18:15:57.018865 23477 net.cpp:156] Memory required for data: 547921920
I0808 18:15:57.018872 23477 layer_factory.hpp:77] Creating layer pool1
I0808 18:15:57.018908 23477 net.cpp:91] Creating Layer pool1
I0808 18:15:57.018915 23477 net.cpp:425] pool1 <- conv1_2_relu1_2_0_split_0
I0808 18:15:57.018924 23477 net.cpp:399] pool1 -> pool1
I0808 18:15:57.018996 23477 net.cpp:141] Setting up pool1
I0808 18:15:57.019009 23477 net.cpp:148] Top shape: 7 64 112 112 (5619712)
I0808 18:15:57.019016 23477 net.cpp:156] Memory required for data: 570400768
I0808 18:15:57.019024 23477 layer_factory.hpp:77] Creating layer conv2_1
I0808 18:15:57.019039 23477 net.cpp:91] Creating Layer conv2_1
I0808 18:15:57.019047 23477 net.cpp:425] conv2_1 <- pool1
I0808 18:15:57.019059 23477 net.cpp:399] conv2_1 -> conv2_1
I0808 18:15:57.022037 23477 net.cpp:141] Setting up conv2_1
I0808 18:15:57.022056 23477 net.cpp:148] Top shape: 7 128 112 112 (11239424)
I0808 18:15:57.022063 23477 net.cpp:156] Memory required for data: 615358464
I0808 18:15:57.022078 23477 layer_factory.hpp:77] Creating layer relu2_1
I0808 18:15:57.022089 23477 net.cpp:91] Creating Layer relu2_1
I0808 18:15:57.022109 23477 net.cpp:425] relu2_1 <- conv2_1
I0808 18:15:57.022121 23477 net.cpp:386] relu2_1 -> conv2_1 (in-place)
I0808 18:15:57.022416 23477 net.cpp:141] Setting up relu2_1
I0808 18:15:57.022444 23477 net.cpp:148] Top shape: 7 128 112 112 (11239424)
I0808 18:15:57.022451 23477 net.cpp:156] Memory required for data: 660316160
I0808 18:15:57.022459 23477 layer_factory.hpp:77] Creating layer conv2_2
I0808 18:15:57.022470 23477 net.cpp:91] Creating Layer conv2_2
I0808 18:15:57.022478 23477 net.cpp:425] conv2_2 <- conv2_1
I0808 18:15:57.022501 23477 net.cpp:399] conv2_2 -> conv2_2
I0808 18:15:57.024040 23477 net.cpp:141] Setting up conv2_2
I0808 18:15:57.024060 23477 net.cpp:148] Top shape: 7 128 112 112 (11239424)
I0808 18:15:57.024068 23477 net.cpp:156] Memory required for data: 705273856
I0808 18:15:57.024080 23477 layer_factory.hpp:77] Creating layer relu2_2
I0808 18:15:57.024090 23477 net.cpp:91] Creating Layer relu2_2
I0808 18:15:57.024107 23477 net.cpp:425] relu2_2 <- conv2_2
I0808 18:15:57.024117 23477 net.cpp:386] relu2_2 -> conv2_2 (in-place)
I0808 18:15:57.024400 23477 net.cpp:141] Setting up relu2_2
I0808 18:15:57.024415 23477 net.cpp:148] Top shape: 7 128 112 112 (11239424)
I0808 18:15:57.024422 23477 net.cpp:156] Memory required for data: 750231552
I0808 18:15:57.024430 23477 layer_factory.hpp:77] Creating layer conv2_2_relu2_2_0_split
I0808 18:15:57.024440 23477 net.cpp:91] Creating Layer conv2_2_relu2_2_0_split
I0808 18:15:57.024447 23477 net.cpp:425] conv2_2_relu2_2_0_split <- conv2_2
I0808 18:15:57.024459 23477 net.cpp:399] conv2_2_relu2_2_0_split -> conv2_2_relu2_2_0_split_0
I0808 18:15:57.024471 23477 net.cpp:399] conv2_2_relu2_2_0_split -> conv2_2_relu2_2_0_split_1
I0808 18:15:57.024533 23477 net.cpp:141] Setting up conv2_2_relu2_2_0_split
I0808 18:15:57.024550 23477 net.cpp:148] Top shape: 7 128 112 112 (11239424)
I0808 18:15:57.024561 23477 net.cpp:148] Top shape: 7 128 112 112 (11239424)
I0808 18:15:57.024569 23477 net.cpp:156] Memory required for data: 840146944
I0808 18:15:57.024576 23477 layer_factory.hpp:77] Creating layer pool2
I0808 18:15:57.024586 23477 net.cpp:91] Creating Layer pool2
I0808 18:15:57.024595 23477 net.cpp:425] pool2 <- conv2_2_relu2_2_0_split_0
I0808 18:15:57.024605 23477 net.cpp:399] pool2 -> pool2
I0808 18:15:57.024662 23477 net.cpp:141] Setting up pool2
I0808 18:15:57.024673 23477 net.cpp:148] Top shape: 7 128 56 56 (2809856)
I0808 18:15:57.024680 23477 net.cpp:156] Memory required for data: 851386368
I0808 18:15:57.024688 23477 layer_factory.hpp:77] Creating layer conv3_1
I0808 18:15:57.024703 23477 net.cpp:91] Creating Layer conv3_1
I0808 18:15:57.024710 23477 net.cpp:425] conv3_1 <- pool2
I0808 18:15:57.024724 23477 net.cpp:399] conv3_1 -> conv3_1
I0808 18:15:57.027086 23477 net.cpp:141] Setting up conv3_1
I0808 18:15:57.027107 23477 net.cpp:148] Top shape: 7 256 56 56 (5619712)
I0808 18:15:57.027114 23477 net.cpp:156] Memory required for data: 873865216
I0808 18:15:57.027129 23477 layer_factory.hpp:77] Creating layer relu3_1
I0808 18:15:57.027150 23477 net.cpp:91] Creating Layer relu3_1
I0808 18:15:57.027170 23477 net.cpp:425] relu3_1 <- conv3_1
I0808 18:15:57.027180 23477 net.cpp:386] relu3_1 -> conv3_1 (in-place)
I0808 18:15:57.027626 23477 net.cpp:141] Setting up relu3_1
I0808 18:15:57.027642 23477 net.cpp:148] Top shape: 7 256 56 56 (5619712)
I0808 18:15:57.027662 23477 net.cpp:156] Memory required for data: 896344064
I0808 18:15:57.027669 23477 layer_factory.hpp:77] Creating layer conv3_2
I0808 18:15:57.027695 23477 net.cpp:91] Creating Layer conv3_2
I0808 18:15:57.027704 23477 net.cpp:425] conv3_2 <- conv3_1
I0808 18:15:57.027725 23477 net.cpp:399] conv3_2 -> conv3_2
I0808 18:15:57.030844 23477 net.cpp:141] Setting up conv3_2
I0808 18:15:57.030864 23477 net.cpp:148] Top shape: 7 256 56 56 (5619712)
I0808 18:15:57.030870 23477 net.cpp:156] Memory required for data: 918822912
I0808 18:15:57.030881 23477 layer_factory.hpp:77] Creating layer relu3_2
I0808 18:15:57.030895 23477 net.cpp:91] Creating Layer relu3_2
I0808 18:15:57.030915 23477 net.cpp:425] relu3_2 <- conv3_2
I0808 18:15:57.030923 23477 net.cpp:386] relu3_2 -> conv3_2 (in-place)
I0808 18:15:57.031208 23477 net.cpp:141] Setting up relu3_2
I0808 18:15:57.031224 23477 net.cpp:148] Top shape: 7 256 56 56 (5619712)
I0808 18:15:57.031230 23477 net.cpp:156] Memory required for data: 941301760
I0808 18:15:57.031239 23477 layer_factory.hpp:77] Creating layer conv3_3
I0808 18:15:57.031253 23477 net.cpp:91] Creating Layer conv3_3
I0808 18:15:57.031260 23477 net.cpp:425] conv3_3 <- conv3_2
I0808 18:15:57.031273 23477 net.cpp:399] conv3_3 -> conv3_3
I0808 18:15:57.034432 23477 net.cpp:141] Setting up conv3_3
I0808 18:15:57.034451 23477 net.cpp:148] Top shape: 7 256 56 56 (5619712)
I0808 18:15:57.034458 23477 net.cpp:156] Memory required for data: 963780608
I0808 18:15:57.034469 23477 layer_factory.hpp:77] Creating layer relu3_3
I0808 18:15:57.034479 23477 net.cpp:91] Creating Layer relu3_3
I0808 18:15:57.034498 23477 net.cpp:425] relu3_3 <- conv3_3
I0808 18:15:57.034510 23477 net.cpp:386] relu3_3 -> conv3_3 (in-place)
I0808 18:15:57.034793 23477 net.cpp:141] Setting up relu3_3
I0808 18:15:57.034807 23477 net.cpp:148] Top shape: 7 256 56 56 (5619712)
I0808 18:15:57.034816 23477 net.cpp:156] Memory required for data: 986259456
I0808 18:15:57.034823 23477 layer_factory.hpp:77] Creating layer conv3_3_relu3_3_0_split
I0808 18:15:57.034835 23477 net.cpp:91] Creating Layer conv3_3_relu3_3_0_split
I0808 18:15:57.034842 23477 net.cpp:425] conv3_3_relu3_3_0_split <- conv3_3
I0808 18:15:57.034852 23477 net.cpp:399] conv3_3_relu3_3_0_split -> conv3_3_relu3_3_0_split_0
I0808 18:15:57.034864 23477 net.cpp:399] conv3_3_relu3_3_0_split -> conv3_3_relu3_3_0_split_1
I0808 18:15:57.034931 23477 net.cpp:141] Setting up conv3_3_relu3_3_0_split
I0808 18:15:57.034947 23477 net.cpp:148] Top shape: 7 256 56 56 (5619712)
I0808 18:15:57.034961 23477 net.cpp:148] Top shape: 7 256 56 56 (5619712)
I0808 18:15:57.034976 23477 net.cpp:156] Memory required for data: 1031217152
I0808 18:15:57.034983 23477 layer_factory.hpp:77] Creating layer pool3
I0808 18:15:57.034994 23477 net.cpp:91] Creating Layer pool3
I0808 18:15:57.035002 23477 net.cpp:425] pool3 <- conv3_3_relu3_3_0_split_0
I0808 18:15:57.035012 23477 net.cpp:399] pool3 -> pool3
I0808 18:15:57.035071 23477 net.cpp:141] Setting up pool3
I0808 18:15:57.035084 23477 net.cpp:148] Top shape: 7 256 28 28 (1404928)
I0808 18:15:57.035092 23477 net.cpp:156] Memory required for data: 1036836864
I0808 18:15:57.035100 23477 layer_factory.hpp:77] Creating layer conv4_1
I0808 18:15:57.035115 23477 net.cpp:91] Creating Layer conv4_1
I0808 18:15:57.035131 23477 net.cpp:425] conv4_1 <- pool3
I0808 18:15:57.035143 23477 net.cpp:399] conv4_1 -> conv4_1
I0808 18:15:57.040693 23477 net.cpp:141] Setting up conv4_1
I0808 18:15:57.040724 23477 net.cpp:148] Top shape: 7 512 28 28 (2809856)
I0808 18:15:57.040731 23477 net.cpp:156] Memory required for data: 1048076288
I0808 18:15:57.040743 23477 layer_factory.hpp:77] Creating layer relu4_1
I0808 18:15:57.040796 23477 net.cpp:91] Creating Layer relu4_1
I0808 18:15:57.040805 23477 net.cpp:425] relu4_1 <- conv4_1
I0808 18:15:57.040832 23477 net.cpp:386] relu4_1 -> conv4_1 (in-place)
I0808 18:15:57.041311 23477 net.cpp:141] Setting up relu4_1
I0808 18:15:57.041328 23477 net.cpp:148] Top shape: 7 512 28 28 (2809856)
I0808 18:15:57.041347 23477 net.cpp:156] Memory required for data: 1059315712
I0808 18:15:57.041355 23477 layer_factory.hpp:77] Creating layer conv4_2
I0808 18:15:57.041383 23477 net.cpp:91] Creating Layer conv4_2
I0808 18:15:57.041390 23477 net.cpp:425] conv4_2 <- conv4_1
I0808 18:15:57.041404 23477 net.cpp:399] conv4_2 -> conv4_2
I0808 18:15:57.049118 23477 net.cpp:141] Setting up conv4_2
I0808 18:15:57.049136 23477 net.cpp:148] Top shape: 7 512 28 28 (2809856)
I0808 18:15:57.049144 23477 net.cpp:156] Memory required for data: 1070555136
I0808 18:15:57.049163 23477 layer_factory.hpp:77] Creating layer relu4_2
I0808 18:15:57.049185 23477 net.cpp:91] Creating Layer relu4_2
I0808 18:15:57.049192 23477 net.cpp:425] relu4_2 <- conv4_2
I0808 18:15:57.049202 23477 net.cpp:386] relu4_2 -> conv4_2 (in-place)
I0808 18:15:57.049491 23477 net.cpp:141] Setting up relu4_2
I0808 18:15:57.049506 23477 net.cpp:148] Top shape: 7 512 28 28 (2809856)
I0808 18:15:57.049513 23477 net.cpp:156] Memory required for data: 1081794560
I0808 18:15:57.049521 23477 layer_factory.hpp:77] Creating layer conv4_3
I0808 18:15:57.049557 23477 net.cpp:91] Creating Layer conv4_3
I0808 18:15:57.049566 23477 net.cpp:425] conv4_3 <- conv4_2
I0808 18:15:57.049576 23477 net.cpp:399] conv4_3 -> conv4_3
I0808 18:15:57.057255 23477 net.cpp:141] Setting up conv4_3
I0808 18:15:57.057273 23477 net.cpp:148] Top shape: 7 512 28 28 (2809856)
I0808 18:15:57.057281 23477 net.cpp:156] Memory required for data: 1093033984
I0808 18:15:57.057292 23477 layer_factory.hpp:77] Creating layer relu4_3
I0808 18:15:57.057302 23477 net.cpp:91] Creating Layer relu4_3
I0808 18:15:57.057320 23477 net.cpp:425] relu4_3 <- conv4_3
I0808 18:15:57.057332 23477 net.cpp:386] relu4_3 -> conv4_3 (in-place)
I0808 18:15:57.057613 23477 net.cpp:141] Setting up relu4_3
I0808 18:15:57.057628 23477 net.cpp:148] Top shape: 7 512 28 28 (2809856)
I0808 18:15:57.057636 23477 net.cpp:156] Memory required for data: 1104273408
I0808 18:15:57.057643 23477 layer_factory.hpp:77] Creating layer conv4_3_relu4_3_0_split
I0808 18:15:57.057656 23477 net.cpp:91] Creating Layer conv4_3_relu4_3_0_split
I0808 18:15:57.057663 23477 net.cpp:425] conv4_3_relu4_3_0_split <- conv4_3
I0808 18:15:57.057674 23477 net.cpp:399] conv4_3_relu4_3_0_split -> conv4_3_relu4_3_0_split_0
I0808 18:15:57.057687 23477 net.cpp:399] conv4_3_relu4_3_0_split -> conv4_3_relu4_3_0_split_1
I0808 18:15:57.057755 23477 net.cpp:141] Setting up conv4_3_relu4_3_0_split
I0808 18:15:57.057770 23477 net.cpp:148] Top shape: 7 512 28 28 (2809856)
I0808 18:15:57.057780 23477 net.cpp:148] Top shape: 7 512 28 28 (2809856)
I0808 18:15:57.057786 23477 net.cpp:156] Memory required for data: 1126752256
I0808 18:15:57.057795 23477 layer_factory.hpp:77] Creating layer pool4
I0808 18:15:57.057806 23477 net.cpp:91] Creating Layer pool4
I0808 18:15:57.057812 23477 net.cpp:425] pool4 <- conv4_3_relu4_3_0_split_0
I0808 18:15:57.057826 23477 net.cpp:399] pool4 -> pool4
I0808 18:15:57.057884 23477 net.cpp:141] Setting up pool4
I0808 18:15:57.057896 23477 net.cpp:148] Top shape: 7 512 14 14 (702464)
I0808 18:15:57.057904 23477 net.cpp:156] Memory required for data: 1129562112
I0808 18:15:57.057911 23477 layer_factory.hpp:77] Creating layer conv5_1
I0808 18:15:57.057927 23477 net.cpp:91] Creating Layer conv5_1
I0808 18:15:57.057943 23477 net.cpp:425] conv5_1 <- pool4
I0808 18:15:57.057955 23477 net.cpp:399] conv5_1 -> conv5_1
I0808 18:15:57.065982 23477 net.cpp:141] Setting up conv5_1
I0808 18:15:57.066001 23477 net.cpp:148] Top shape: 7 512 14 14 (702464)
I0808 18:15:57.066009 23477 net.cpp:156] Memory required for data: 1132371968
I0808 18:15:57.066020 23477 layer_factory.hpp:77] Creating layer relu5_1
I0808 18:15:57.066030 23477 net.cpp:91] Creating Layer relu5_1
I0808 18:15:57.066050 23477 net.cpp:425] relu5_1 <- conv5_1
I0808 18:15:57.066058 23477 net.cpp:386] relu5_1 -> conv5_1 (in-place)
I0808 18:15:57.066541 23477 net.cpp:141] Setting up relu5_1
I0808 18:15:57.066570 23477 net.cpp:148] Top shape: 7 512 14 14 (702464)
I0808 18:15:57.066577 23477 net.cpp:156] Memory required for data: 1135181824
I0808 18:15:57.066586 23477 layer_factory.hpp:77] Creating layer conv5_2
I0808 18:15:57.066612 23477 net.cpp:91] Creating Layer conv5_2
I0808 18:15:57.066620 23477 net.cpp:425] conv5_2 <- conv5_1
I0808 18:15:57.066633 23477 net.cpp:399] conv5_2 -> conv5_2
I0808 18:15:57.074362 23477 net.cpp:141] Setting up conv5_2
I0808 18:15:57.074381 23477 net.cpp:148] Top shape: 7 512 14 14 (702464)
I0808 18:15:57.074388 23477 net.cpp:156] Memory required for data: 1137991680
I0808 18:15:57.074400 23477 layer_factory.hpp:77] Creating layer relu5_2
I0808 18:15:57.074427 23477 net.cpp:91] Creating Layer relu5_2
I0808 18:15:57.074435 23477 net.cpp:425] relu5_2 <- conv5_2
I0808 18:15:57.074448 23477 net.cpp:386] relu5_2 -> conv5_2 (in-place)
I0808 18:15:57.074733 23477 net.cpp:141] Setting up relu5_2
I0808 18:15:57.074748 23477 net.cpp:148] Top shape: 7 512 14 14 (702464)
I0808 18:15:57.074755 23477 net.cpp:156] Memory required for data: 1140801536
I0808 18:15:57.074764 23477 layer_factory.hpp:77] Creating layer conv5_3
I0808 18:15:57.074779 23477 net.cpp:91] Creating Layer conv5_3
I0808 18:15:57.074785 23477 net.cpp:425] conv5_3 <- conv5_2
I0808 18:15:57.074798 23477 net.cpp:399] conv5_3 -> conv5_3
I0808 18:15:57.082672 23477 net.cpp:141] Setting up conv5_3
I0808 18:15:57.082693 23477 net.cpp:148] Top shape: 7 512 14 14 (702464)
I0808 18:15:57.082700 23477 net.cpp:156] Memory required for data: 1143611392
I0808 18:15:57.082711 23477 layer_factory.hpp:77] Creating layer relu5_3
I0808 18:15:57.082721 23477 net.cpp:91] Creating Layer relu5_3
I0808 18:15:57.082728 23477 net.cpp:425] relu5_3 <- conv5_3
I0808 18:15:57.082752 23477 net.cpp:386] relu5_3 -> conv5_3 (in-place)
I0808 18:15:57.083045 23477 net.cpp:141] Setting up relu5_3
I0808 18:15:57.083063 23477 net.cpp:148] Top shape: 7 512 14 14 (702464)
I0808 18:15:57.083070 23477 net.cpp:156] Memory required for data: 1146421248
I0808 18:15:57.083077 23477 layer_factory.hpp:77] Creating layer conv5_3_relu5_3_0_split
I0808 18:15:57.083088 23477 net.cpp:91] Creating Layer conv5_3_relu5_3_0_split
I0808 18:15:57.083096 23477 net.cpp:425] conv5_3_relu5_3_0_split <- conv5_3
I0808 18:15:57.083106 23477 net.cpp:399] conv5_3_relu5_3_0_split -> conv5_3_relu5_3_0_split_0
I0808 18:15:57.083119 23477 net.cpp:399] conv5_3_relu5_3_0_split -> conv5_3_relu5_3_0_split_1
I0808 18:15:57.083190 23477 net.cpp:141] Setting up conv5_3_relu5_3_0_split
I0808 18:15:57.083202 23477 net.cpp:148] Top shape: 7 512 14 14 (702464)
I0808 18:15:57.083212 23477 net.cpp:148] Top shape: 7 512 14 14 (702464)
I0808 18:15:57.083220 23477 net.cpp:156] Memory required for data: 1152040960
I0808 18:15:57.083228 23477 layer_factory.hpp:77] Creating layer pool5
I0808 18:15:57.083245 23477 net.cpp:91] Creating Layer pool5
I0808 18:15:57.083261 23477 net.cpp:425] pool5 <- conv5_3_relu5_3_0_split_0
I0808 18:15:57.083272 23477 net.cpp:399] pool5 -> pool5
I0808 18:15:57.083336 23477 net.cpp:141] Setting up pool5
I0808 18:15:57.083349 23477 net.cpp:148] Top shape: 7 512 7 7 (175616)
I0808 18:15:57.083356 23477 net.cpp:156] Memory required for data: 1152743424
I0808 18:15:57.083364 23477 layer_factory.hpp:77] Creating layer fc6-conv
I0808 18:15:57.083377 23477 net.cpp:91] Creating Layer fc6-conv
I0808 18:15:57.083384 23477 net.cpp:425] fc6-conv <- pool5
I0808 18:15:57.083395 23477 net.cpp:399] fc6-conv -> fc6-conv
I0808 18:15:57.387097 23477 net.cpp:141] Setting up fc6-conv
I0808 18:15:57.387135 23477 net.cpp:148] Top shape: 7 4096 1 1 (28672)
I0808 18:15:57.387142 23477 net.cpp:156] Memory required for data: 1152858112
I0808 18:15:57.387156 23477 layer_factory.hpp:77] Creating layer relu6
I0808 18:15:57.387172 23477 net.cpp:91] Creating Layer relu6
I0808 18:15:57.387192 23477 net.cpp:425] relu6 <- fc6-conv
I0808 18:15:57.387203 23477 net.cpp:386] relu6 -> fc6-conv (in-place)
I0808 18:15:57.387660 23477 net.cpp:141] Setting up relu6
I0808 18:15:57.387703 23477 net.cpp:148] Top shape: 7 4096 1 1 (28672)
I0808 18:15:57.387713 23477 net.cpp:156] Memory required for data: 1152972800
I0808 18:15:57.387722 23477 layer_factory.hpp:77] Creating layer drop6
I0808 18:15:57.387759 23477 net.cpp:91] Creating Layer drop6
I0808 18:15:57.387768 23477 net.cpp:425] drop6 <- fc6-conv
I0808 18:15:57.387789 23477 net.cpp:386] drop6 -> fc6-conv (in-place)
I0808 18:15:57.387851 23477 net.cpp:141] Setting up drop6
I0808 18:15:57.387864 23477 net.cpp:148] Top shape: 7 4096 1 1 (28672)
I0808 18:15:57.387871 23477 net.cpp:156] Memory required for data: 1153087488
I0808 18:15:57.387879 23477 layer_factory.hpp:77] Creating layer fc7-conv
I0808 18:15:57.387895 23477 net.cpp:91] Creating Layer fc7-conv
I0808 18:15:57.387912 23477 net.cpp:425] fc7-conv <- fc6-conv
I0808 18:15:57.387925 23477 net.cpp:399] fc7-conv -> fc7-conv
I0808 18:15:57.438798 23477 net.cpp:141] Setting up fc7-conv
I0808 18:15:57.438835 23477 net.cpp:148] Top shape: 7 4096 1 1 (28672)
I0808 18:15:57.438843 23477 net.cpp:156] Memory required for data: 1153202176
I0808 18:15:57.438856 23477 layer_factory.hpp:77] Creating layer relu7
I0808 18:15:57.438870 23477 net.cpp:91] Creating Layer relu7
I0808 18:15:57.438879 23477 net.cpp:425] relu7 <- fc7-conv
I0808 18:15:57.438902 23477 net.cpp:386] relu7 -> fc7-conv (in-place)
I0808 18:15:57.439204 23477 net.cpp:141] Setting up relu7
I0808 18:15:57.439220 23477 net.cpp:148] Top shape: 7 4096 1 1 (28672)
I0808 18:15:57.439227 23477 net.cpp:156] Memory required for data: 1153316864
I0808 18:15:57.439234 23477 layer_factory.hpp:77] Creating layer hypercolumns
I0808 18:15:57.439250 23477 net.cpp:91] Creating Layer hypercolumns
I0808 18:15:57.439257 23477 net.cpp:425] hypercolumns <- normal
I0808 18:15:57.439267 23477 net.cpp:425] hypercolumns <- conv1_2_relu1_2_0_split_1
I0808 18:15:57.439277 23477 net.cpp:425] hypercolumns <- conv2_2_relu2_2_0_split_1
I0808 18:15:57.439285 23477 net.cpp:425] hypercolumns <- conv3_3_relu3_3_0_split_1
I0808 18:15:57.439293 23477 net.cpp:425] hypercolumns <- conv4_3_relu4_3_0_split_1
I0808 18:15:57.439301 23477 net.cpp:425] hypercolumns <- conv5_3_relu5_3_0_split_1
I0808 18:15:57.439309 23477 net.cpp:425] hypercolumns <- fc7-conv
I0808 18:15:57.439321 23477 net.cpp:399] hypercolumns -> hypercolumns
I0808 18:15:57.439345 23477 net.cpp:399] hypercolumns -> normal_point
I0808 18:15:57.439427 23477 net.cpp:141] Setting up hypercolumns
I0808 18:15:57.439441 23477 net.cpp:148] Top shape: 7000 5568 1 1 (38976000)
I0808 18:15:57.439450 23477 net.cpp:148] Top shape: 7000 3 (21000)
I0808 18:15:57.439458 23477 net.cpp:156] Memory required for data: 1309304864
I0808 18:15:57.439465 23477 layer_factory.hpp:77] Creating layer fc1
I0808 18:15:57.439483 23477 net.cpp:91] Creating Layer fc1
I0808 18:15:57.439498 23477 net.cpp:425] fc1 <- hypercolumns
I0808 18:15:57.439512 23477 net.cpp:399] fc1 -> fc1
I0808 18:15:58.652510 23477 net.cpp:141] Setting up fc1
I0808 18:15:58.652550 23477 net.cpp:148] Top shape: 7000 4096 (28672000)
I0808 18:15:58.652559 23477 net.cpp:156] Memory required for data: 1423992864
I0808 18:15:58.652578 23477 layer_factory.hpp:77] Creating layer relu1
I0808 18:15:58.652607 23477 net.cpp:91] Creating Layer relu1
I0808 18:15:58.652623 23477 net.cpp:425] relu1 <- fc1
I0808 18:15:58.652636 23477 net.cpp:386] relu1 -> fc1 (in-place)
I0808 18:15:58.653477 23477 net.cpp:141] Setting up relu1
I0808 18:15:58.653497 23477 net.cpp:148] Top shape: 7000 4096 (28672000)
I0808 18:15:58.653504 23477 net.cpp:156] Memory required for data: 1538680864
I0808 18:15:58.653512 23477 layer_factory.hpp:77] Creating layer drop1
I0808 18:15:58.653525 23477 net.cpp:91] Creating Layer drop1
I0808 18:15:58.653543 23477 net.cpp:425] drop1 <- fc1
I0808 18:15:58.653553 23477 net.cpp:386] drop1 -> fc1 (in-place)
I0808 18:15:58.654269 23477 net.cpp:141] Setting up drop1
I0808 18:15:58.654321 23477 net.cpp:148] Top shape: 7000 4096 (28672000)
I0808 18:15:58.654331 23477 net.cpp:156] Memory required for data: 1653368864
I0808 18:15:58.654358 23477 layer_factory.hpp:77] Creating layer fc2
I0808 18:15:58.654438 23477 net.cpp:91] Creating Layer fc2
I0808 18:15:58.654454 23477 net.cpp:425] fc2 <- fc1
I0808 18:15:58.654487 23477 net.cpp:399] fc2 -> fc2
I0808 18:15:59.555752 23477 net.cpp:141] Setting up fc2
I0808 18:15:59.555800 23477 net.cpp:148] Top shape: 7000 4096 (28672000)
I0808 18:15:59.555809 23477 net.cpp:156] Memory required for data: 1768056864
I0808 18:15:59.555932 23477 layer_factory.hpp:77] Creating layer relu2
I0808 18:15:59.555958 23477 net.cpp:91] Creating Layer relu2
I0808 18:15:59.555972 23477 net.cpp:425] relu2 <- fc2
I0808 18:15:59.555985 23477 net.cpp:386] relu2 -> fc2 (in-place)
I0808 18:15:59.556382 23477 net.cpp:141] Setting up relu2
I0808 18:15:59.556396 23477 net.cpp:148] Top shape: 7000 4096 (28672000)
I0808 18:15:59.556416 23477 net.cpp:156] Memory required for data: 1882744864
I0808 18:15:59.556423 23477 layer_factory.hpp:77] Creating layer drop2
I0808 18:15:59.556449 23477 net.cpp:91] Creating Layer drop2
I0808 18:15:59.556457 23477 net.cpp:425] drop2 <- fc2
I0808 18:15:59.556469 23477 net.cpp:386] drop2 -> fc2 (in-place)
I0808 18:15:59.556514 23477 net.cpp:141] Setting up drop2
I0808 18:15:59.556525 23477 net.cpp:148] Top shape: 7000 4096 (28672000)
I0808 18:15:59.556532 23477 net.cpp:156] Memory required for data: 1997432864
I0808 18:15:59.556540 23477 layer_factory.hpp:77] Creating layer fc3
I0808 18:15:59.556557 23477 net.cpp:91] Creating Layer fc3
I0808 18:15:59.556565 23477 net.cpp:425] fc3 <- fc2
I0808 18:15:59.556581 23477 net.cpp:399] fc3 -> fc3
I0808 18:15:59.557485 23477 net.cpp:141] Setting up fc3
I0808 18:15:59.557500 23477 net.cpp:148] Top shape: 7000 3 (21000)
I0808 18:15:59.557507 23477 net.cpp:156] Memory required for data: 1997516864
I0808 18:15:59.557518 23477 layer_factory.hpp:77] Creating layer loss
I0808 18:15:59.557551 23477 net.cpp:91] Creating Layer loss
I0808 18:15:59.557559 23477 net.cpp:425] loss <- fc3
I0808 18:15:59.557569 23477 net.cpp:425] loss <- normal_point
I0808 18:15:59.557584 23477 net.cpp:399] loss -> loss
I0808 18:15:59.557672 23477 net.cpp:141] Setting up loss
…
