…
type: "SGD"
I0808 09:57:50.656287 27399 solver.cpp:91] Creating training net from net file: /home/qinhong/project/normal_recovery/model/t4/train.prototxt
I0808 09:57:50.657022 27399 net.cpp:49] Initializing net from parameters: 
name: "hyper_normal_layers"
state {
  phase: TRAIN
}
layer {
  name: "data"
  type: "ImageNormalData"
  top: "data"
  top: "normal"
  transform_param {
  }
  image_data_param {
    source: "/home/qinhong/project/normal_recovery/data/source.txt"
    batch_size: 7
    shuffle: true
    new_height: 224
    new_width: 224
  }
}
layer {
  name: "conv1_1"
  type: "Convolution"
  bottom: "data"
  top: "conv1_1"
  param {
    lr_mult: 1
    decay_mult: 1
  }
  param {
    lr_mult: 2
    decay_mult: 0
  }
  convolution_param {
    num_output: 64
    pad: 1
    kernel_size: 3
  }
}
layer {
  name: "relu1_1"
  type: "ReLU"
  bottom: "conv1_1"
  top: "conv1_1"
}
layer {
  name: "conv1_2"
  type: "Convolution"
  bottom: "conv1_1"
  top: "conv1_2"
  param {
    lr_mult: 1
    decay_mult: 1
  }
  param {
    lr_mult: 2
    decay_mult: 0
  }
  convolution_param {
    num_output: 64
    pad: 1
    kernel_size: 3
  }
}
layer {
  name: "relu1_2"
  type: "ReLU"
  bottom: "conv1_2"
  top: "conv1_2"
}
layer {
  name: "pool1"
  type: "Pooling"
  bottom: "conv1_2"
  top: "pool1"
  pooling_param {
    pool: MAX
    kernel_size: 2
    stride: 2
  }
}
layer {
  name: "conv2_1"
  type: "Convolution"
  bottom: "pool1"
  top: "conv2_1"
  param {
    lr_mult: 1
    decay_mult: 1
  }
  param {
    lr_mult: 2
    decay_mult: 0
  }
  convolution_param {
    num_output: 128
    pad: 1
    kernel_size: 3
  }
}
layer {
  name: "relu2_1"
  type: "ReLU"
  bottom: "conv2_1"
  top: "conv2_1"
}
layer {
  name: "conv2_2"
  type: "Convolution"
  bottom: "conv2_1"
  top: "conv2_2"
  param {
    lr_mult: 1
    decay_mult: 1
  }
  param {
    lr_mult: 2
    decay_mult: 0
  }
  convolution_param {
    num_output: 128
    pad: 1
    kernel_size: 3
  }
}
layer {
  name: "relu2_2"
  type: "ReLU"
  bottom: "conv2_2"
  top: "conv2_2"
}
layer {
  name: "pool2"
  type: "Pooling"
  bottom: "conv2_2"
  top: "pool2"
  pooling_param {
    pool: MAX
    kernel_size: 2
    stride: 2
  }
}
layer {
  name: "conv3_1"
  type: "Convolution"
  bottom: "pool2"
  top: "conv3_1"
  param {
    lr_mult: 1
    decay_mult: 1
  }
  param {
    lr_mult: 2
    decay_mult: 0
  }
  convolution_param {
    num_output: 256
    pad: 1
    kernel_size: 3
  }
}
layer {
  name: "relu3_1"
  type: "ReLU"
  bottom: "conv3_1"
  top: "conv3_1"
}
layer {
  name: "conv3_2"
  type: "Convolution"
  bottom: "conv3_1"
  top: "conv3_2"
  param {
    lr_mult: 1
    decay_mult: 1
  }
  param {
    lr_mult: 2
    decay_mult: 0
  }
  convolution_param {
    num_output: 256
    pad: 1
    kernel_size: 3
  }
}
layer {
  name: "relu3_2"
  type: "ReLU"
  bottom: "conv3_2"
  top: "conv3_2"
}
layer {
  name: "conv3_3"
  type: "Convolution"
  bottom: "conv3_2"
  top: "conv3_3"
  param {
    lr_mult: 1
    decay_mult: 1
  }
  param {
    lr_mult: 2
    decay_mult: 0
  }
  convolution_param {
    num_output: 256
    pad: 1
    kernel_size: 3
  }
}
layer {
  name: "relu3_3"
  type: "ReLU"
  bottom: "conv3_3"
  top: "conv3_3"
}
layer {
  name: "pool3"
  type: "Pooling"
  bottom: "conv3_3"
  top: "pool3"
  pooling_param {
    pool: MAX
    kernel_size: 2
    stride: 2
  }
}
layer {
  name: "conv4_1"
  type: "Convolution"
  bottom: "pool3"
  top: "conv4_1"
  param {
    lr_mult: 1
    decay_mult: 1
  }
  param {
    lr_mult: 2
    decay_mult: 0
  }
  convolution_param {
    num_output: 512
    pad: 1
    kernel_size: 3
  }
}
layer {
  name: "relu4_1"
  type: "ReLU"
  bottom: "conv4_1"
  top: "conv4_1"
}
layer {
  name: "conv4_2"
  type: "Convolution"
  bottom: "conv4_1"
  top: "conv4_2"
  param {
    lr_mult: 1
    decay_mult: 1
  }
  param {
    lr_mult: 2
    decay_mult: 0
  }
  convolution_param {
    num_output: 512
    pad: 1
    kernel_size: 3
  }
}
layer {
  name: "relu4_2"
  type: "ReLU"
  bottom: "conv4_2"
  top: "conv4_2"
}
layer {
  name: "conv4_3"
  type: "Convolution"
  bottom: "conv4_2"
  top: "conv4_3"
  param {
    lr_mult: 1
    decay_mult: 1
  }
  param {
    lr_mult: 2
    decay_mult: 0
  }
  convolution_param {
    num_output: 512
    pad: 1
    kernel_size: 3
  }
}
layer {
  name: "relu4_3"
  type: "ReLU"
  bottom: "conv4_3"
  top: "conv4_3"
}
layer {
  name: "pool4"
  type: "Pooling"
  bottom: "conv4_3"
  top: "pool4"
  pooling_param {
    pool: MAX
    kernel_size: 2
    stride: 2
  }
}
layer {
  name: "conv5_1"
  type: "Convolution"
  bottom: "pool4"
  top: "conv5_1"
  param {
    lr_mult: 1
    decay_mult: 1
  }
  param {
    lr_mult: 2
    decay_mult: 0
  }
  convolution_param {
    num_output: 512
    pad: 1
    kernel_size: 3
  }
}
layer {
  name: "relu5_1"
  type: "ReLU"
  bottom: "conv5_1"
  top: "conv5_1"
}
layer {
  name: "conv5_2"
  type: "Convolution"
  bottom: "conv5_1"
  top: "conv5_2"
  param {
    lr_mult: 1
    decay_mult: 1
  }
  param {
    lr_mult: 2
    decay_mult: 0
  }
  convolution_param {
    num_output: 512
    pad: 1
    kernel_size: 3
  }
}
layer {
  name: "relu5_2"
  type: "ReLU"
  bottom: "conv5_2"
  top: "conv5_2"
}
layer {
  name: "conv5_3"
  type: "Convolution"
  bottom: "conv5_2"
  top: "conv5_3"
  param {
    lr_mult: 1
    decay_mult: 1
  }
  param {
    lr_mult: 2
    decay_mult: 0
  }
  convolution_param {
    num_output: 512
    pad: 1
    kernel_size: 3
  }
}
layer {
  name: "relu5_3"
  type: "ReLU"
  bottom: "conv5_3"
  top: "conv5_3"
}
layer {
  name: "pool5"
  type: "Pooling"
  bottom: "conv5_3"
  top: "pool5"
  pooling_param {
    pool: MAX
    kernel_size: 2
    stride: 2
  }
}
layer {
  name: "fc6-conv"
  type: "Convolution"
  bottom: "pool5"
  top: "fc6-conv"
  param {
    lr_mult: 1
    decay_mult: 1
  }
  param {
    lr_mult: 2
    decay_mult: 0
  }
  convolution_param {
    num_output: 4096
    kernel_size: 7
  }
}
layer {
  name: "relu6"
  type: "ReLU"
  bottom: "fc6-conv"
  top: "fc6-conv"
}
layer {
  name: "drop6"
  type: "Dropout"
  bottom: "fc6-conv"
  top: "fc6-conv"
  dropout_param {
    dropout_ratio: 0.5
  }
}
layer {
  name: "fc7-conv"
  type: "Convolution"
  bottom: "fc6-conv"
  top: "fc7-conv"
  param {
    lr_mult: 1
    decay_mult: 1
  }
  param {
    lr_mult: 2
    decay_mult: 0
  }
  convolution_param {
    num_output: 4096
    kernel_size: 1
  }
}
layer {
  name: "relu7"
  type: "ReLU"
  bottom: "fc7-conv"
  top: "fc7-conv"
}
layer {
  name: "hypercolumns"
  type: "HyperColumns"
  bottom: "normal"
  bottom: "conv1_2"
  bottom: "conv2_2"
  bottom: "conv3_3"
  bottom: "conv4_3"
  bottom: "conv5_3"
  bottom: "fc7-conv"
  top: "hypercolumns"
  top: "normal_point"
  hypercolumns_param {
    is_train: true
  }
}
layer {
  name: "fc1"
  type: "InnerProduct"
  bottom: "hypercolumns"
  top: "fc1"
  param {
    lr_mult: 1
    decay_mult: 1
  }
  param {
    lr_mult: 2
    decay_mult: 0
  }
  inner_product_param {
    num_output: 4096
    weight_filler {
      type: "gaussian"
      std: 0.003
    }
    bias_filler {
      type: "constant"
      value: 0
    }
  }
}
layer {
  name: "relu1"
  type: "ReLU"
  bottom: "fc1"
  top: "fc1"
}
layer {
  name: "drop1"
  type: "Dropout"
  bottom: "fc1"
  top: "fc1"
  dropout_param {
    dropout_ratio: 0.5
  }
}
layer {
  name: "fc2"
  type: "InnerProduct"
  bottom: "fc1"
  top: "fc2"
  param {
    lr_mult: 1
    decay_mult: 1
  }
  param {
    lr_mult: 2
    decay_mult: 0
  }
  inner_product_param {
    num_output: 4096
    weight_filler {
      type: "gaussian"
      std: 0.002
    }
    bias_filler {
      type: "constant"
      value: 0
    }
  }
}
layer {
  name: "relu2"
  type: "ReLU"
  bottom: "fc2"
  top: "fc2"
}
layer {
  name: "drop2"
  type: "Dropout"
  bottom: "fc2"
  top: "fc2"
  dropout_param {
    dropout_ratio: 0.5
  }
}
layer {
  name: "fc3"
  type: "InnerProduct"
  bottom: "fc2"
  top: "fc3"
  param {
    lr_mult: 1
    decay_mult: 1
  }
  param {
    lr_mult: 2
    decay_mult: 0
  }
  inner_product_param {
    num_output: 3
    weight_filler {
      type: "gaussian"
      std: 0.001
    }
    bias_filler {
      type: "constant"
      value: 0
    }
  }
}
layer {
  name: "loss"
  type: "EuclideanLoss"
  bottom: "fc3"
  bottom: "normal_point"
  top: "loss"
  propagate_down: true
  propagate_down: false
}
I0808 09:57:50.657261 27399 layer_factory.hpp:77] Creating layer data
I0808 09:57:50.657299 27399 net.cpp:91] Creating Layer data
I0808 09:57:50.657311 27399 net.cpp:399] data -> data
I0808 09:57:50.657335 27399 net.cpp:399] data -> normal
I0808 09:57:50.657353 27399 image_normal_data_layer.cpp:43] opeing file /home/qinhong/project/normal_recovery/data/source.txt
I0808 09:57:50.661878 27399 image_normal_data_layer.cpp:54] Shuffing data
I0808 09:57:50.663226 27399 image_normal_data_layer.cpp:59] A total of 4105 images.
I0808 09:57:50.687554 27399 image_normal_data_layer.cpp:79] output data size: 7,3,224,224
I0808 09:57:50.701902 27399 net.cpp:141] Setting up data
I0808 09:57:50.701933 27399 net.cpp:148] Top shape: 7 3 224 224 (1053696)
I0808 09:57:50.701939 27399 net.cpp:148] Top shape: 7 3 224 224 (1053696)
I0808 09:57:50.701942 27399 net.cpp:156] Memory required for data: 8429568
I0808 09:57:50.701951 27399 layer_factory.hpp:77] Creating layer conv1_1
I0808 09:57:50.701975 27399 net.cpp:91] Creating Layer conv1_1
I0808 09:57:50.701982 27399 net.cpp:425] conv1_1 <- data
I0808 09:57:50.701997 27399 net.cpp:399] conv1_1 -> conv1_1
I0808 09:57:50.890239 27399 net.cpp:141] Setting up conv1_1
I0808 09:57:50.890276 27399 net.cpp:148] Top shape: 7 64 224 224 (22478848)
I0808 09:57:50.890280 27399 net.cpp:156] Memory required for data: 98344960
I0808 09:57:50.890307 27399 layer_factory.hpp:77] Creating layer relu1_1
I0808 09:57:50.890321 27399 net.cpp:91] Creating Layer relu1_1
I0808 09:57:50.890327 27399 net.cpp:425] relu1_1 <- conv1_1
I0808 09:57:50.890333 27399 net.cpp:386] relu1_1 -> conv1_1 (in-place)
I0808 09:57:50.890643 27399 net.cpp:141] Setting up relu1_1
I0808 09:57:50.890658 27399 net.cpp:148] Top shape: 7 64 224 224 (22478848)
I0808 09:57:50.890661 27399 net.cpp:156] Memory required for data: 188260352
I0808 09:57:50.890666 27399 layer_factory.hpp:77] Creating layer conv1_2
I0808 09:57:50.890681 27399 net.cpp:91] Creating Layer conv1_2
I0808 09:57:50.890686 27399 net.cpp:425] conv1_2 <- conv1_1
I0808 09:57:50.890691 27399 net.cpp:399] conv1_2 -> conv1_2
I0808 09:57:50.891783 27399 net.cpp:141] Setting up conv1_2
I0808 09:57:50.891799 27399 net.cpp:148] Top shape: 7 64 224 224 (22478848)
I0808 09:57:50.891803 27399 net.cpp:156] Memory required for data: 278175744
I0808 09:57:50.891814 27399 layer_factory.hpp:77] Creating layer relu1_2
I0808 09:57:50.891824 27399 net.cpp:91] Creating Layer relu1_2
I0808 09:57:50.891829 27399 net.cpp:425] relu1_2 <- conv1_2
I0808 09:57:50.891834 27399 net.cpp:386] relu1_2 -> conv1_2 (in-place)
I0808 09:57:50.892123 27399 net.cpp:141] Setting up relu1_2
I0808 09:57:50.892139 27399 net.cpp:148] Top shape: 7 64 224 224 (22478848)
I0808 09:57:50.892144 27399 net.cpp:156] Memory required for data: 368091136
I0808 09:57:50.892148 27399 layer_factory.hpp:77] Creating layer conv1_2_relu1_2_0_split
I0808 09:57:50.892155 27399 net.cpp:91] Creating Layer conv1_2_relu1_2_0_split
I0808 09:57:50.892159 27399 net.cpp:425] conv1_2_relu1_2_0_split <- conv1_2
I0808 09:57:50.892165 27399 net.cpp:399] conv1_2_relu1_2_0_split -> conv1_2_relu1_2_0_split_0
I0808 09:57:50.892175 27399 net.cpp:399] conv1_2_relu1_2_0_split -> conv1_2_relu1_2_0_split_1
I0808 09:57:50.892220 27399 net.cpp:141] Setting up conv1_2_relu1_2_0_split
I0808 09:57:50.892228 27399 net.cpp:148] Top shape: 7 64 224 224 (22478848)
I0808 09:57:50.892232 27399 net.cpp:148] Top shape: 7 64 224 224 (22478848)
I0808 09:57:50.892235 27399 net.cpp:156] Memory required for data: 547921920
I0808 09:57:50.892238 27399 layer_factory.hpp:77] Creating layer pool1
I0808 09:57:50.892273 27399 net.cpp:91] Creating Layer pool1
I0808 09:57:50.892278 27399 net.cpp:425] pool1 <- conv1_2_relu1_2_0_split_0
I0808 09:57:50.892284 27399 net.cpp:399] pool1 -> pool1
I0808 09:57:50.892338 27399 net.cpp:141] Setting up pool1
I0808 09:57:50.892346 27399 net.cpp:148] Top shape: 7 64 112 112 (5619712)
I0808 09:57:50.892349 27399 net.cpp:156] Memory required for data: 570400768
I0808 09:57:50.892352 27399 layer_factory.hpp:77] Creating layer conv2_1
I0808 09:57:50.892361 27399 net.cpp:91] Creating Layer conv2_1
I0808 09:57:50.892364 27399 net.cpp:425] conv2_1 <- pool1
I0808 09:57:50.892371 27399 net.cpp:399] conv2_1 -> conv2_1
I0808 09:57:50.894680 27399 net.cpp:141] Setting up conv2_1
I0808 09:57:50.894696 27399 net.cpp:148] Top shape: 7 128 112 112 (11239424)
I0808 09:57:50.894700 27399 net.cpp:156] Memory required for data: 615358464
I0808 09:57:50.894711 27399 layer_factory.hpp:77] Creating layer relu2_1
I0808 09:57:50.894721 27399 net.cpp:91] Creating Layer relu2_1
I0808 09:57:50.894726 27399 net.cpp:425] relu2_1 <- conv2_1
I0808 09:57:50.894731 27399 net.cpp:386] relu2_1 -> conv2_1 (in-place)
I0808 09:57:50.894932 27399 net.cpp:141] Setting up relu2_1
I0808 09:57:50.894942 27399 net.cpp:148] Top shape: 7 128 112 112 (11239424)
I0808 09:57:50.894945 27399 net.cpp:156] Memory required for data: 660316160
I0808 09:57:50.894949 27399 layer_factory.hpp:77] Creating layer conv2_2
I0808 09:57:50.894958 27399 net.cpp:91] Creating Layer conv2_2
I0808 09:57:50.894963 27399 net.cpp:425] conv2_2 <- conv2_1
I0808 09:57:50.894970 27399 net.cpp:399] conv2_2 -> conv2_2
I0808 09:57:50.896128 27399 net.cpp:141] Setting up conv2_2
I0808 09:57:50.896145 27399 net.cpp:148] Top shape: 7 128 112 112 (11239424)
I0808 09:57:50.896148 27399 net.cpp:156] Memory required for data: 705273856
I0808 09:57:50.896155 27399 layer_factory.hpp:77] Creating layer relu2_2
I0808 09:57:50.896162 27399 net.cpp:91] Creating Layer relu2_2
I0808 09:57:50.896165 27399 net.cpp:425] relu2_2 <- conv2_2
I0808 09:57:50.896170 27399 net.cpp:386] relu2_2 -> conv2_2 (in-place)
I0808 09:57:50.896467 27399 net.cpp:141] Setting up relu2_2
I0808 09:57:50.896481 27399 net.cpp:148] Top shape: 7 128 112 112 (11239424)
I0808 09:57:50.896484 27399 net.cpp:156] Memory required for data: 750231552
I0808 09:57:50.896487 27399 layer_factory.hpp:77] Creating layer conv2_2_relu2_2_0_split
I0808 09:57:50.896497 27399 net.cpp:91] Creating Layer conv2_2_relu2_2_0_split
I0808 09:57:50.896502 27399 net.cpp:425] conv2_2_relu2_2_0_split <- conv2_2
I0808 09:57:50.896509 27399 net.cpp:399] conv2_2_relu2_2_0_split -> conv2_2_relu2_2_0_split_0
I0808 09:57:50.896517 27399 net.cpp:399] conv2_2_relu2_2_0_split -> conv2_2_relu2_2_0_split_1
I0808 09:57:50.896559 27399 net.cpp:141] Setting up conv2_2_relu2_2_0_split
I0808 09:57:50.896569 27399 net.cpp:148] Top shape: 7 128 112 112 (11239424)
I0808 09:57:50.896572 27399 net.cpp:148] Top shape: 7 128 112 112 (11239424)
I0808 09:57:50.896575 27399 net.cpp:156] Memory required for data: 840146944
I0808 09:57:50.896579 27399 layer_factory.hpp:77] Creating layer pool2
I0808 09:57:50.896584 27399 net.cpp:91] Creating Layer pool2
I0808 09:57:50.896587 27399 net.cpp:425] pool2 <- conv2_2_relu2_2_0_split_0
I0808 09:57:50.896592 27399 net.cpp:399] pool2 -> pool2
I0808 09:57:50.896636 27399 net.cpp:141] Setting up pool2
I0808 09:57:50.896642 27399 net.cpp:148] Top shape: 7 128 56 56 (2809856)
I0808 09:57:50.896646 27399 net.cpp:156] Memory required for data: 851386368
I0808 09:57:50.896647 27399 layer_factory.hpp:77] Creating layer conv3_1
I0808 09:57:50.896656 27399 net.cpp:91] Creating Layer conv3_1
I0808 09:57:50.896659 27399 net.cpp:425] conv3_1 <- pool2
I0808 09:57:50.896667 27399 net.cpp:399] conv3_1 -> conv3_1
I0808 09:57:50.898433 27399 net.cpp:141] Setting up conv3_1
I0808 09:57:50.898450 27399 net.cpp:148] Top shape: 7 256 56 56 (5619712)
I0808 09:57:50.898453 27399 net.cpp:156] Memory required for data: 873865216
I0808 09:57:50.898463 27399 layer_factory.hpp:77] Creating layer relu3_1
I0808 09:57:50.898478 27399 net.cpp:91] Creating Layer relu3_1
I0808 09:57:50.898495 27399 net.cpp:425] relu3_1 <- conv3_1
I0808 09:57:50.898501 27399 net.cpp:386] relu3_1 -> conv3_1 (in-place)
I0808 09:57:50.898803 27399 net.cpp:141] Setting up relu3_1
I0808 09:57:50.898816 27399 net.cpp:148] Top shape: 7 256 56 56 (5619712)
I0808 09:57:50.898820 27399 net.cpp:156] Memory required for data: 896344064
I0808 09:57:50.898823 27399 layer_factory.hpp:77] Creating layer conv3_2
I0808 09:57:50.898834 27399 net.cpp:91] Creating Layer conv3_2
I0808 09:57:50.898839 27399 net.cpp:425] conv3_2 <- conv3_1
I0808 09:57:50.898845 27399 net.cpp:399] conv3_2 -> conv3_2
I0808 09:57:50.901357 27399 net.cpp:141] Setting up conv3_2
I0808 09:57:50.901373 27399 net.cpp:148] Top shape: 7 256 56 56 (5619712)
I0808 09:57:50.901376 27399 net.cpp:156] Memory required for data: 918822912
I0808 09:57:50.901383 27399 layer_factory.hpp:77] Creating layer relu3_2
I0808 09:57:50.901396 27399 net.cpp:91] Creating Layer relu3_2
I0808 09:57:50.901401 27399 net.cpp:425] relu3_2 <- conv3_2
I0808 09:57:50.901407 27399 net.cpp:386] relu3_2 -> conv3_2 (in-place)
I0808 09:57:50.901594 27399 net.cpp:141] Setting up relu3_2
I0808 09:57:50.901604 27399 net.cpp:148] Top shape: 7 256 56 56 (5619712)
I0808 09:57:50.901607 27399 net.cpp:156] Memory required for data: 941301760
I0808 09:57:50.901610 27399 layer_factory.hpp:77] Creating layer conv3_3
I0808 09:57:50.901620 27399 net.cpp:91] Creating Layer conv3_3
I0808 09:57:50.901625 27399 net.cpp:425] conv3_3 <- conv3_2
I0808 09:57:50.901633 27399 net.cpp:399] conv3_3 -> conv3_3
I0808 09:57:50.904258 27399 net.cpp:141] Setting up conv3_3
I0808 09:57:50.904276 27399 net.cpp:148] Top shape: 7 256 56 56 (5619712)
I0808 09:57:50.904279 27399 net.cpp:156] Memory required for data: 963780608
I0808 09:57:50.904286 27399 layer_factory.hpp:77] Creating layer relu3_3
I0808 09:57:50.904297 27399 net.cpp:91] Creating Layer relu3_3
I0808 09:57:50.904301 27399 net.cpp:425] relu3_3 <- conv3_3
I0808 09:57:50.904306 27399 net.cpp:386] relu3_3 -> conv3_3 (in-place)
I0808 09:57:50.904621 27399 net.cpp:141] Setting up relu3_3
I0808 09:57:50.904635 27399 net.cpp:148] Top shape: 7 256 56 56 (5619712)
I0808 09:57:50.904639 27399 net.cpp:156] Memory required for data: 986259456
I0808 09:57:50.904641 27399 layer_factory.hpp:77] Creating layer conv3_3_relu3_3_0_split
I0808 09:57:50.904647 27399 net.cpp:91] Creating Layer conv3_3_relu3_3_0_split
I0808 09:57:50.904651 27399 net.cpp:425] conv3_3_relu3_3_0_split <- conv3_3
I0808 09:57:50.904661 27399 net.cpp:399] conv3_3_relu3_3_0_split -> conv3_3_relu3_3_0_split_0
I0808 09:57:50.904670 27399 net.cpp:399] conv3_3_relu3_3_0_split -> conv3_3_relu3_3_0_split_1
I0808 09:57:50.904721 27399 net.cpp:141] Setting up conv3_3_relu3_3_0_split
I0808 09:57:50.904728 27399 net.cpp:148] Top shape: 7 256 56 56 (5619712)
I0808 09:57:50.904732 27399 net.cpp:148] Top shape: 7 256 56 56 (5619712)
I0808 09:57:50.904736 27399 net.cpp:156] Memory required for data: 1031217152
I0808 09:57:50.904738 27399 layer_factory.hpp:77] Creating layer pool3
I0808 09:57:50.904745 27399 net.cpp:91] Creating Layer pool3
I0808 09:57:50.904748 27399 net.cpp:425] pool3 <- conv3_3_relu3_3_0_split_0
I0808 09:57:50.904753 27399 net.cpp:399] pool3 -> pool3
I0808 09:57:50.904798 27399 net.cpp:141] Setting up pool3
I0808 09:57:50.904804 27399 net.cpp:148] Top shape: 7 256 28 28 (1404928)
I0808 09:57:50.904808 27399 net.cpp:156] Memory required for data: 1036836864
I0808 09:57:50.904810 27399 layer_factory.hpp:77] Creating layer conv4_1
I0808 09:57:50.904819 27399 net.cpp:91] Creating Layer conv4_1
I0808 09:57:50.904822 27399 net.cpp:425] conv4_1 <- pool3
I0808 09:57:50.904827 27399 net.cpp:399] conv4_1 -> conv4_1
I0808 09:57:50.909032 27399 net.cpp:141] Setting up conv4_1
I0808 09:57:50.909049 27399 net.cpp:148] Top shape: 7 512 28 28 (2809856)
I0808 09:57:50.909052 27399 net.cpp:156] Memory required for data: 1048076288
I0808 09:57:50.909059 27399 layer_factory.hpp:77] Creating layer relu4_1
I0808 09:57:50.909065 27399 net.cpp:91] Creating Layer relu4_1
I0808 09:57:50.909068 27399 net.cpp:425] relu4_1 <- conv4_1
I0808 09:57:50.909090 27399 net.cpp:386] relu4_1 -> conv4_1 (in-place)
I0808 09:57:50.909400 27399 net.cpp:141] Setting up relu4_1
I0808 09:57:50.909415 27399 net.cpp:148] Top shape: 7 512 28 28 (2809856)
I0808 09:57:50.909417 27399 net.cpp:156] Memory required for data: 1059315712
I0808 09:57:50.909421 27399 layer_factory.hpp:77] Creating layer conv4_2
I0808 09:57:50.909431 27399 net.cpp:91] Creating Layer conv4_2
I0808 09:57:50.909436 27399 net.cpp:425] conv4_2 <- conv4_1
I0808 09:57:50.909445 27399 net.cpp:399] conv4_2 -> conv4_2
I0808 09:57:50.915809 27399 net.cpp:141] Setting up conv4_2
I0808 09:57:50.915827 27399 net.cpp:148] Top shape: 7 512 28 28 (2809856)
I0808 09:57:50.915830 27399 net.cpp:156] Memory required for data: 1070555136
I0808 09:57:50.915850 27399 layer_factory.hpp:77] Creating layer relu4_2
I0808 09:57:50.915858 27399 net.cpp:91] Creating Layer relu4_2
I0808 09:57:50.915863 27399 net.cpp:425] relu4_2 <- conv4_2
I0808 09:57:50.915869 27399 net.cpp:386] relu4_2 -> conv4_2 (in-place)
I0808 09:57:50.916064 27399 net.cpp:141] Setting up relu4_2
I0808 09:57:50.916074 27399 net.cpp:148] Top shape: 7 512 28 28 (2809856)
I0808 09:57:50.916076 27399 net.cpp:156] Memory required for data: 1081794560
I0808 09:57:50.916080 27399 layer_factory.hpp:77] Creating layer conv4_3
I0808 09:57:50.916090 27399 net.cpp:91] Creating Layer conv4_3
I0808 09:57:50.916095 27399 net.cpp:425] conv4_3 <- conv4_2
I0808 09:57:50.916102 27399 net.cpp:399] conv4_3 -> conv4_3
I0808 09:57:50.922533 27399 net.cpp:141] Setting up conv4_3
I0808 09:57:50.922555 27399 net.cpp:148] Top shape: 7 512 28 28 (2809856)
I0808 09:57:50.922559 27399 net.cpp:156] Memory required for data: 1093033984
I0808 09:57:50.922566 27399 layer_factory.hpp:77] Creating layer relu4_3
I0808 09:57:50.922572 27399 net.cpp:91] Creating Layer relu4_3
I0808 09:57:50.922576 27399 net.cpp:425] relu4_3 <- conv4_3
I0808 09:57:50.922581 27399 net.cpp:386] relu4_3 -> conv4_3 (in-place)
I0808 09:57:50.922894 27399 net.cpp:141] Setting up relu4_3
I0808 09:57:50.922907 27399 net.cpp:148] Top shape: 7 512 28 28 (2809856)
I0808 09:57:50.922910 27399 net.cpp:156] Memory required for data: 1104273408
I0808 09:57:50.922914 27399 layer_factory.hpp:77] Creating layer conv4_3_relu4_3_0_split
I0808 09:57:50.922920 27399 net.cpp:91] Creating Layer conv4_3_relu4_3_0_split
I0808 09:57:50.922924 27399 net.cpp:425] conv4_3_relu4_3_0_split <- conv4_3
I0808 09:57:50.922931 27399 net.cpp:399] conv4_3_relu4_3_0_split -> conv4_3_relu4_3_0_split_0
I0808 09:57:50.922938 27399 net.cpp:399] conv4_3_relu4_3_0_split -> conv4_3_relu4_3_0_split_1
I0808 09:57:50.922988 27399 net.cpp:141] Setting up conv4_3_relu4_3_0_split
I0808 09:57:50.922996 27399 net.cpp:148] Top shape: 7 512 28 28 (2809856)
I0808 09:57:50.922999 27399 net.cpp:148] Top shape: 7 512 28 28 (2809856)
I0808 09:57:50.923002 27399 net.cpp:156] Memory required for data: 1126752256
I0808 09:57:50.923005 27399 layer_factory.hpp:77] Creating layer pool4
I0808 09:57:50.923012 27399 net.cpp:91] Creating Layer pool4
I0808 09:57:50.923015 27399 net.cpp:425] pool4 <- conv4_3_relu4_3_0_split_0
I0808 09:57:50.923022 27399 net.cpp:399] pool4 -> pool4
I0808 09:57:50.923063 27399 net.cpp:141] Setting up pool4
I0808 09:57:50.923069 27399 net.cpp:148] Top shape: 7 512 14 14 (702464)
I0808 09:57:50.923072 27399 net.cpp:156] Memory required for data: 1129562112
I0808 09:57:50.923074 27399 layer_factory.hpp:77] Creating layer conv5_1
I0808 09:57:50.923086 27399 net.cpp:91] Creating Layer conv5_1
I0808 09:57:50.923089 27399 net.cpp:425] conv5_1 <- pool4
I0808 09:57:50.923096 27399 net.cpp:399] conv5_1 -> conv5_1
I0808 09:57:50.929558 27399 net.cpp:141] Setting up conv5_1
I0808 09:57:50.929576 27399 net.cpp:148] Top shape: 7 512 14 14 (702464)
I0808 09:57:50.929579 27399 net.cpp:156] Memory required for data: 1132371968
I0808 09:57:50.929586 27399 layer_factory.hpp:77] Creating layer relu5_1
I0808 09:57:50.929594 27399 net.cpp:91] Creating Layer relu5_1
I0808 09:57:50.929600 27399 net.cpp:425] relu5_1 <- conv5_1
I0808 09:57:50.929626 27399 net.cpp:386] relu5_1 -> conv5_1 (in-place)
I0808 09:57:50.929939 27399 net.cpp:141] Setting up relu5_1
I0808 09:57:50.929954 27399 net.cpp:148] Top shape: 7 512 14 14 (702464)
I0808 09:57:50.929956 27399 net.cpp:156] Memory required for data: 1135181824
I0808 09:57:50.929960 27399 layer_factory.hpp:77] Creating layer conv5_2
I0808 09:57:50.929970 27399 net.cpp:91] Creating Layer conv5_2
I0808 09:57:50.929975 27399 net.cpp:425] conv5_2 <- conv5_1
I0808 09:57:50.929982 27399 net.cpp:399] conv5_2 -> conv5_2
I0808 09:57:50.940320 27399 net.cpp:141] Setting up conv5_2
I0808 09:57:50.940362 27399 net.cpp:148] Top shape: 7 512 14 14 (702464)
I0808 09:57:50.940379 27399 net.cpp:156] Memory required for data: 1137991680
I0808 09:57:50.940394 27399 layer_factory.hpp:77] Creating layer relu5_2
I0808 09:57:50.940428 27399 net.cpp:91] Creating Layer relu5_2
I0808 09:57:50.940439 27399 net.cpp:425] relu5_2 <- conv5_2
I0808 09:57:50.940450 27399 net.cpp:386] relu5_2 -> conv5_2 (in-place)
I0808 09:57:50.940829 27399 net.cpp:141] Setting up relu5_2
I0808 09:57:50.940850 27399 net.cpp:148] Top shape: 7 512 14 14 (702464)
I0808 09:57:50.940858 27399 net.cpp:156] Memory required for data: 1140801536
I0808 09:57:50.940871 27399 layer_factory.hpp:77] Creating layer conv5_3
I0808 09:57:50.940894 27399 net.cpp:91] Creating Layer conv5_3
I0808 09:57:50.940902 27399 net.cpp:425] conv5_3 <- conv5_2
I0808 09:57:50.940917 27399 net.cpp:399] conv5_3 -> conv5_3
I0808 09:57:50.951650 27399 net.cpp:141] Setting up conv5_3
I0808 09:57:50.951676 27399 net.cpp:148] Top shape: 7 512 14 14 (702464)
I0808 09:57:50.951683 27399 net.cpp:156] Memory required for data: 1143611392
I0808 09:57:50.951695 27399 layer_factory.hpp:77] Creating layer relu5_3
I0808 09:57:50.951707 27399 net.cpp:91] Creating Layer relu5_3
I0808 09:57:50.951716 27399 net.cpp:425] relu5_3 <- conv5_3
I0808 09:57:50.951728 27399 net.cpp:386] relu5_3 -> conv5_3 (in-place)
I0808 09:57:50.952256 27399 net.cpp:141] Setting up relu5_3
I0808 09:57:50.952277 27399 net.cpp:148] Top shape: 7 512 14 14 (702464)
I0808 09:57:50.952283 27399 net.cpp:156] Memory required for data: 1146421248
I0808 09:57:50.952289 27399 layer_factory.hpp:77] Creating layer conv5_3_relu5_3_0_split
I0808 09:57:50.952302 27399 net.cpp:91] Creating Layer conv5_3_relu5_3_0_split
I0808 09:57:50.952311 27399 net.cpp:425] conv5_3_relu5_3_0_split <- conv5_3
I0808 09:57:50.952323 27399 net.cpp:399] conv5_3_relu5_3_0_split -> conv5_3_relu5_3_0_split_0
I0808 09:57:50.952339 27399 net.cpp:399] conv5_3_relu5_3_0_split -> conv5_3_relu5_3_0_split_1
I0808 09:57:50.952436 27399 net.cpp:141] Setting up conv5_3_relu5_3_0_split
I0808 09:57:50.952448 27399 net.cpp:148] Top shape: 7 512 14 14 (702464)
I0808 09:57:50.952455 27399 net.cpp:148] Top shape: 7 512 14 14 (702464)
I0808 09:57:50.952461 27399 net.cpp:156] Memory required for data: 1152040960
I0808 09:57:50.952466 27399 layer_factory.hpp:77] Creating layer pool5
I0808 09:57:50.952477 27399 net.cpp:91] Creating Layer pool5
I0808 09:57:50.952484 27399 net.cpp:425] pool5 <- conv5_3_relu5_3_0_split_0
I0808 09:57:50.952497 27399 net.cpp:399] pool5 -> pool5
I0808 09:57:50.952571 27399 net.cpp:141] Setting up pool5
I0808 09:57:50.952585 27399 net.cpp:148] Top shape: 7 512 7 7 (175616)
I0808 09:57:50.952591 27399 net.cpp:156] Memory required for data: 1152743424
I0808 09:57:50.952597 27399 layer_factory.hpp:77] Creating layer fc6-conv
I0808 09:57:50.952610 27399 net.cpp:91] Creating Layer fc6-conv
I0808 09:57:50.952616 27399 net.cpp:425] fc6-conv <- pool5
I0808 09:57:50.952628 27399 net.cpp:399] fc6-conv -> fc6-conv
I0808 09:57:51.275861 27399 net.cpp:141] Setting up fc6-conv
I0808 09:57:51.275913 27399 net.cpp:148] Top shape: 7 4096 1 1 (28672)
I0808 09:57:51.275916 27399 net.cpp:156] Memory required for data: 1152858112
I0808 09:57:51.275939 27399 layer_factory.hpp:77] Creating layer relu6
I0808 09:57:51.275951 27399 net.cpp:91] Creating Layer relu6
I0808 09:57:51.275959 27399 net.cpp:425] relu6 <- fc6-conv
I0808 09:57:51.275969 27399 net.cpp:386] relu6 -> fc6-conv (in-place)
I0808 09:57:51.276286 27399 net.cpp:141] Setting up relu6
I0808 09:57:51.276300 27399 net.cpp:148] Top shape: 7 4096 1 1 (28672)
I0808 09:57:51.276304 27399 net.cpp:156] Memory required for data: 1152972800
I0808 09:57:51.276307 27399 layer_factory.hpp:77] Creating layer drop6
I0808 09:57:51.276315 27399 net.cpp:91] Creating Layer drop6
I0808 09:57:51.276320 27399 net.cpp:425] drop6 <- fc6-conv
I0808 09:57:51.276327 27399 net.cpp:386] drop6 -> fc6-conv (in-place)
I0808 09:57:51.276368 27399 net.cpp:141] Setting up drop6
I0808 09:57:51.276376 27399 net.cpp:148] Top shape: 7 4096 1 1 (28672)
I0808 09:57:51.276378 27399 net.cpp:156] Memory required for data: 1153087488
I0808 09:57:51.276382 27399 layer_factory.hpp:77] Creating layer fc7-conv
I0808 09:57:51.276392 27399 net.cpp:91] Creating Layer fc7-conv
I0808 09:57:51.276396 27399 net.cpp:425] fc7-conv <- fc6-conv
I0808 09:57:51.276403 27399 net.cpp:399] fc7-conv -> fc7-conv
I0808 09:57:51.320123 27399 net.cpp:141] Setting up fc7-conv
I0808 09:57:51.320173 27399 net.cpp:148] Top shape: 7 4096 1 1 (28672)
I0808 09:57:51.320176 27399 net.cpp:156] Memory required for data: 1153202176
I0808 09:57:51.320188 27399 layer_factory.hpp:77] Creating layer relu7
I0808 09:57:51.320199 27399 net.cpp:91] Creating Layer relu7
I0808 09:57:51.320205 27399 net.cpp:425] relu7 <- fc7-conv
I0808 09:57:51.320212 27399 net.cpp:386] relu7 -> fc7-conv (in-place)
I0808 09:57:51.320407 27399 net.cpp:141] Setting up relu7
I0808 09:57:51.320418 27399 net.cpp:148] Top shape: 7 4096 1 1 (28672)
I0808 09:57:51.320421 27399 net.cpp:156] Memory required for data: 1153316864
I0808 09:57:51.320425 27399 layer_factory.hpp:77] Creating layer hypercolumns
I0808 09:57:51.320436 27399 net.cpp:91] Creating Layer hypercolumns
I0808 09:57:51.320441 27399 net.cpp:425] hypercolumns <- normal
I0808 09:57:51.320446 27399 net.cpp:425] hypercolumns <- conv1_2_relu1_2_0_split_1
I0808 09:57:51.320451 27399 net.cpp:425] hypercolumns <- conv2_2_relu2_2_0_split_1
I0808 09:57:51.320454 27399 net.cpp:425] hypercolumns <- conv3_3_relu3_3_0_split_1
I0808 09:57:51.320458 27399 net.cpp:425] hypercolumns <- conv4_3_relu4_3_0_split_1
I0808 09:57:51.320463 27399 net.cpp:425] hypercolumns <- conv5_3_relu5_3_0_split_1
I0808 09:57:51.320467 27399 net.cpp:425] hypercolumns <- fc7-conv
I0808 09:57:51.320477 27399 net.cpp:399] hypercolumns -> hypercolumns
I0808 09:57:51.320497 27399 net.cpp:399] hypercolumns -> normal_point
I0808 09:57:51.320549 27399 net.cpp:141] Setting up hypercolumns
I0808 09:57:51.320556 27399 net.cpp:148] Top shape: 7000 5568 1 1 (38976000)
I0808 09:57:51.320560 27399 net.cpp:148] Top shape: 7000 3 (21000)
I0808 09:57:51.320564 27399 net.cpp:156] Memory required for data: 1309304864
I0808 09:57:51.320566 27399 layer_factory.hpp:77] Creating layer fc1
I0808 09:57:51.320577 27399 net.cpp:91] Creating Layer fc1
I0808 09:57:51.320582 27399 net.cpp:425] fc1 <- hypercolumns
I0808 09:57:51.320590 27399 net.cpp:399] fc1 -> fc1
I0808 09:57:51.600234 27399 net.cpp:141] Setting up fc1
I0808 09:57:51.600301 27399 net.cpp:148] Top shape: 7000 4096 (28672000)
I0808 09:57:51.600306 27399 net.cpp:156] Memory required for data: 1423992864
I0808 09:57:51.600332 27399 layer_factory.hpp:77] Creating layer relu1
I0808 09:57:51.600361 27399 net.cpp:91] Creating Layer relu1
I0808 09:57:51.600378 27399 net.cpp:425] relu1 <- fc1
I0808 09:57:51.600388 27399 net.cpp:386] relu1 -> fc1 (in-place)
I0808 09:57:51.601068 27399 net.cpp:141] Setting up relu1
I0808 09:57:51.601083 27399 net.cpp:148] Top shape: 7000 4096 (28672000)
I0808 09:57:51.601086 27399 net.cpp:156] Memory required for data: 1538680864
I0808 09:57:51.601090 27399 layer_factory.hpp:77] Creating layer drop1
I0808 09:57:51.601106 27399 net.cpp:91] Creating Layer drop1
I0808 09:57:51.601111 27399 net.cpp:425] drop1 <- fc1
I0808 09:57:51.601116 27399 net.cpp:386] drop1 -> fc1 (in-place)
I0808 09:57:51.601153 27399 net.cpp:141] Setting up drop1
I0808 09:57:51.601161 27399 net.cpp:148] Top shape: 7000 4096 (28672000)
I0808 09:57:51.601164 27399 net.cpp:156] Memory required for data: 1653368864
I0808 09:57:51.601193 27399 layer_factory.hpp:77] Creating layer fc2
I0808 09:57:51.601212 27399 net.cpp:91] Creating Layer fc2
I0808 09:57:51.601217 27399 net.cpp:425] fc2 <- fc1
I0808 09:57:51.601223 27399 net.cpp:399] fc2 -> fc2
I0808 09:57:51.806357 27399 net.cpp:141] Setting up fc2
I0808 09:57:51.806412 27399 net.cpp:148] Top shape: 7000 4096 (28672000)
I0808 09:57:51.806416 27399 net.cpp:156] Memory required for data: 1768056864
I0808 09:57:51.806442 27399 layer_factory.hpp:77] Creating layer relu2
I0808 09:57:51.806460 27399 net.cpp:91] Creating Layer relu2
I0808 09:57:51.806465 27399 net.cpp:425] relu2 <- fc2
I0808 09:57:51.806478 27399 net.cpp:386] relu2 -> fc2 (in-place)
I0808 09:57:51.806766 27399 net.cpp:141] Setting up relu2
I0808 09:57:51.806778 27399 net.cpp:148] Top shape: 7000 4096 (28672000)
I0808 09:57:51.806782 27399 net.cpp:156] Memory required for data: 1882744864
I0808 09:57:51.806785 27399 layer_factory.hpp:77] Creating layer drop2
I0808 09:57:51.806794 27399 net.cpp:91] Creating Layer drop2
I0808 09:57:51.806798 27399 net.cpp:425] drop2 <- fc2
I0808 09:57:51.806805 27399 net.cpp:386] drop2 -> fc2 (in-place)
I0808 09:57:51.806838 27399 net.cpp:141] Setting up drop2
I0808 09:57:51.806846 27399 net.cpp:148] Top shape: 7000 4096 (28672000)
I0808 09:57:51.806849 27399 net.cpp:156] Memory required for data: 1997432864
I0808 09:57:51.806852 27399 layer_factory.hpp:77] Creating layer fc3
I0808 09:57:51.806861 27399 net.cpp:91] Creating Layer fc3
I0808 09:57:51.806865 27399 net.cpp:425] fc3 <- fc2
I0808 09:57:51.806874 27399 net.cpp:399] fc3 -> fc3
I0808 09:57:51.807143 27399 net.cpp:141] Setting up fc3
I0808 09:57:51.807152 27399 net.cpp:148] Top shape: 7000 3 (21000)
I0808 09:57:51.807155 27399 net.cpp:156] Memory required for data: 1997516864
I0808 09:57:51.807162 27399 layer_factory.hpp:77] Creating layer loss
I0808 09:57:51.807168 27399 net.cpp:91] Creating Layer loss
I0808 09:57:51.807173 27399 net.cpp:425] loss <- fc3
I0808 09:57:51.807179 27399 net.cpp:425] loss <- normal_point
I0808 09:57:51.807184 27399 net.cpp:399] loss -> loss
I0808 09:57:51.807255 27399 net.cpp:141] Setting up loss
…
