…
type: "SGD"
I0808 09:50:22.233980 27310 solver.cpp:91] Creating training net from net file: /home/qinhong/project/normal_recovery/model/t3/train.prototxt
I0808 09:50:22.234681 27310 net.cpp:49] Initializing net from parameters: 
name: "hyper_normal_layers"
state {
  phase: TRAIN
}
layer {
  name: "data"
  type: "ImageNormalData"
  top: "data"
  top: "normal"
  transform_param {
  }
  image_data_param {
    source: "/home/qinhong/project/normal_recovery/data/source.txt"
    batch_size: 5
    shuffle: true
    new_height: 224
    new_width: 224
  }
}
layer {
  name: "conv1_1"
  type: "Convolution"
  bottom: "data"
  top: "conv1_1"
  param {
    lr_mult: 1
    decay_mult: 1
  }
  param {
    lr_mult: 2
    decay_mult: 0
  }
  convolution_param {
    num_output: 64
    pad: 1
    kernel_size: 3
  }
}
layer {
  name: "relu1_1"
  type: "ReLU"
  bottom: "conv1_1"
  top: "conv1_1"
}
layer {
  name: "conv1_2"
  type: "Convolution"
  bottom: "conv1_1"
  top: "conv1_2"
  param {
    lr_mult: 1
    decay_mult: 1
  }
  param {
    lr_mult: 2
    decay_mult: 0
  }
  convolution_param {
    num_output: 64
    pad: 1
    kernel_size: 3
  }
}
layer {
  name: "relu1_2"
  type: "ReLU"
  bottom: "conv1_2"
  top: "conv1_2"
}
layer {
  name: "pool1"
  type: "Pooling"
  bottom: "conv1_2"
  top: "pool1"
  pooling_param {
    pool: MAX
    kernel_size: 2
    stride: 2
  }
}
layer {
  name: "conv2_1"
  type: "Convolution"
  bottom: "pool1"
  top: "conv2_1"
  param {
    lr_mult: 1
    decay_mult: 1
  }
  param {
    lr_mult: 2
    decay_mult: 0
  }
  convolution_param {
    num_output: 128
    pad: 1
    kernel_size: 3
  }
}
layer {
  name: "relu2_1"
  type: "ReLU"
  bottom: "conv2_1"
  top: "conv2_1"
}
layer {
  name: "conv2_2"
  type: "Convolution"
  bottom: "conv2_1"
  top: "conv2_2"
  param {
    lr_mult: 1
    decay_mult: 1
  }
  param {
    lr_mult: 2
    decay_mult: 0
  }
  convolution_param {
    num_output: 128
    pad: 1
    kernel_size: 3
  }
}
layer {
  name: "relu2_2"
  type: "ReLU"
  bottom: "conv2_2"
  top: "conv2_2"
}
layer {
  name: "pool2"
  type: "Pooling"
  bottom: "conv2_2"
  top: "pool2"
  pooling_param {
    pool: MAX
    kernel_size: 2
    stride: 2
  }
}
layer {
  name: "conv3_1"
  type: "Convolution"
  bottom: "pool2"
  top: "conv3_1"
  param {
    lr_mult: 1
    decay_mult: 1
  }
  param {
    lr_mult: 2
    decay_mult: 0
  }
  convolution_param {
    num_output: 256
    pad: 1
    kernel_size: 3
  }
}
layer {
  name: "relu3_1"
  type: "ReLU"
  bottom: "conv3_1"
  top: "conv3_1"
}
layer {
  name: "conv3_2"
  type: "Convolution"
  bottom: "conv3_1"
  top: "conv3_2"
  param {
    lr_mult: 1
    decay_mult: 1
  }
  param {
    lr_mult: 2
    decay_mult: 0
  }
  convolution_param {
    num_output: 256
    pad: 1
    kernel_size: 3
  }
}
layer {
  name: "relu3_2"
  type: "ReLU"
  bottom: "conv3_2"
  top: "conv3_2"
}
layer {
  name: "conv3_3"
  type: "Convolution"
  bottom: "conv3_2"
  top: "conv3_3"
  param {
    lr_mult: 1
    decay_mult: 1
  }
  param {
    lr_mult: 2
    decay_mult: 0
  }
  convolution_param {
    num_output: 256
    pad: 1
    kernel_size: 3
  }
}
layer {
  name: "relu3_3"
  type: "ReLU"
  bottom: "conv3_3"
  top: "conv3_3"
}
layer {
  name: "pool3"
  type: "Pooling"
  bottom: "conv3_3"
  top: "pool3"
  pooling_param {
    pool: MAX
    kernel_size: 2
    stride: 2
  }
}
layer {
  name: "conv4_1"
  type: "Convolution"
  bottom: "pool3"
  top: "conv4_1"
  param {
    lr_mult: 1
    decay_mult: 1
  }
  param {
    lr_mult: 2
    decay_mult: 0
  }
  convolution_param {
    num_output: 512
    pad: 1
    kernel_size: 3
  }
}
layer {
  name: "relu4_1"
  type: "ReLU"
  bottom: "conv4_1"
  top: "conv4_1"
}
layer {
  name: "conv4_2"
  type: "Convolution"
  bottom: "conv4_1"
  top: "conv4_2"
  param {
    lr_mult: 1
    decay_mult: 1
  }
  param {
    lr_mult: 2
    decay_mult: 0
  }
  convolution_param {
    num_output: 512
    pad: 1
    kernel_size: 3
  }
}
layer {
  name: "relu4_2"
  type: "ReLU"
  bottom: "conv4_2"
  top: "conv4_2"
}
layer {
  name: "conv4_3"
  type: "Convolution"
  bottom: "conv4_2"
  top: "conv4_3"
  param {
    lr_mult: 1
    decay_mult: 1
  }
  param {
    lr_mult: 2
    decay_mult: 0
  }
  convolution_param {
    num_output: 512
    pad: 1
    kernel_size: 3
  }
}
layer {
  name: "relu4_3"
  type: "ReLU"
  bottom: "conv4_3"
  top: "conv4_3"
}
layer {
  name: "pool4"
  type: "Pooling"
  bottom: "conv4_3"
  top: "pool4"
  pooling_param {
    pool: MAX
    kernel_size: 2
    stride: 2
  }
}
layer {
  name: "conv5_1"
  type: "Convolution"
  bottom: "pool4"
  top: "conv5_1"
  param {
    lr_mult: 1
    decay_mult: 1
  }
  param {
    lr_mult: 2
    decay_mult: 0
  }
  convolution_param {
    num_output: 512
    pad: 1
    kernel_size: 3
  }
}
layer {
  name: "relu5_1"
  type: "ReLU"
  bottom: "conv5_1"
  top: "conv5_1"
}
layer {
  name: "conv5_2"
  type: "Convolution"
  bottom: "conv5_1"
  top: "conv5_2"
  param {
    lr_mult: 1
    decay_mult: 1
  }
  param {
    lr_mult: 2
    decay_mult: 0
  }
  convolution_param {
    num_output: 512
    pad: 1
    kernel_size: 3
  }
}
layer {
  name: "relu5_2"
  type: "ReLU"
  bottom: "conv5_2"
  top: "conv5_2"
}
layer {
  name: "conv5_3"
  type: "Convolution"
  bottom: "conv5_2"
  top: "conv5_3"
  param {
    lr_mult: 1
    decay_mult: 1
  }
  param {
    lr_mult: 2
    decay_mult: 0
  }
  convolution_param {
    num_output: 512
    pad: 1
    kernel_size: 3
  }
}
layer {
  name: "relu5_3"
  type: "ReLU"
  bottom: "conv5_3"
  top: "conv5_3"
}
layer {
  name: "pool5"
  type: "Pooling"
  bottom: "conv5_3"
  top: "pool5"
  pooling_param {
    pool: MAX
    kernel_size: 2
    stride: 2
  }
}
layer {
  name: "fc6-conv"
  type: "Convolution"
  bottom: "pool5"
  top: "fc6-conv"
  param {
    lr_mult: 1
    decay_mult: 1
  }
  param {
    lr_mult: 2
    decay_mult: 0
  }
  convolution_param {
    num_output: 4096
    kernel_size: 7
  }
}
layer {
  name: "relu6"
  type: "ReLU"
  bottom: "fc6-conv"
  top: "fc6-conv"
}
layer {
  name: "drop6"
  type: "Dropout"
  bottom: "fc6-conv"
  top: "fc6-conv"
  dropout_param {
    dropout_ratio: 0.5
  }
}
layer {
  name: "fc7-conv"
  type: "Convolution"
  bottom: "fc6-conv"
  top: "fc7-conv"
  param {
    lr_mult: 1
    decay_mult: 1
  }
  param {
    lr_mult: 2
    decay_mult: 0
  }
  convolution_param {
    num_output: 4096
    kernel_size: 1
  }
}
layer {
  name: "relu7"
  type: "ReLU"
  bottom: "fc7-conv"
  top: "fc7-conv"
}
layer {
  name: "hypercolumns"
  type: "HyperColumns"
  bottom: "normal"
  bottom: "conv1_2"
  bottom: "conv2_2"
  bottom: "conv3_3"
  bottom: "conv4_3"
  bottom: "conv5_3"
  bottom: "fc7-conv"
  top: "hypercolumns"
  top: "normal_point"
  hypercolumns_param {
    is_train: true
  }
}
layer {
  name: "fc1"
  type: "InnerProduct"
  bottom: "hypercolumns"
  top: "fc1"
  param {
    lr_mult: 1
    decay_mult: 1
  }
  param {
    lr_mult: 2
    decay_mult: 0
  }
  inner_product_param {
    num_output: 4096
    weight_filler {
      type: "gaussian"
      std: 0.003
    }
    bias_filler {
      type: "constant"
      value: 0
    }
  }
}
layer {
  name: "relu1"
  type: "ReLU"
  bottom: "fc1"
  top: "fc1"
}
layer {
  name: "drop1"
  type: "Dropout"
  bottom: "fc1"
  top: "fc1"
  dropout_param {
    dropout_ratio: 0.5
  }
}
layer {
  name: "fc2"
  type: "InnerProduct"
  bottom: "fc1"
  top: "fc2"
  param {
    lr_mult: 1
    decay_mult: 1
  }
  param {
    lr_mult: 2
    decay_mult: 0
  }
  inner_product_param {
    num_output: 4096
    weight_filler {
      type: "gaussian"
      std: 0.002
    }
    bias_filler {
      type: "constant"
      value: 0
    }
  }
}
layer {
  name: "relu2"
  type: "ReLU"
  bottom: "fc2"
  top: "fc2"
}
layer {
  name: "drop2"
  type: "Dropout"
  bottom: "fc2"
  top: "fc2"
  dropout_param {
    dropout_ratio: 0.5
  }
}
layer {
  name: "fc3"
  type: "InnerProduct"
  bottom: "fc2"
  top: "fc3"
  param {
    lr_mult: 1
    decay_mult: 1
  }
  param {
    lr_mult: 2
    decay_mult: 0
  }
  inner_product_param {
    num_output: 3
    weight_filler {
      type: "gaussian"
      std: 0.001
    }
    bias_filler {
      type: "constant"
      value: 0
    }
  }
}
layer {
  name: "loss"
  type: "EuclideanLoss"
  bottom: "fc3"
  bottom: "normal_point"
  top: "loss"
  propagate_down: true
  propagate_down: false
}
I0808 09:50:22.234911 27310 layer_factory.hpp:77] Creating layer data
I0808 09:50:22.234954 27310 net.cpp:91] Creating Layer data
I0808 09:50:22.234963 27310 net.cpp:399] data -> data
I0808 09:50:22.234988 27310 net.cpp:399] data -> normal
I0808 09:50:22.235009 27310 image_normal_data_layer.cpp:43] opeing file /home/qinhong/project/normal_recovery/data/source.txt
I0808 09:50:22.239537 27310 image_normal_data_layer.cpp:54] Shuffing data
I0808 09:50:22.240968 27310 image_normal_data_layer.cpp:59] A total of 4105 images.
I0808 09:50:22.264540 27310 image_normal_data_layer.cpp:79] output data size: 5,3,224,224
I0808 09:50:22.275249 27310 net.cpp:141] Setting up data
I0808 09:50:22.275279 27310 net.cpp:148] Top shape: 5 3 224 224 (752640)
I0808 09:50:22.275285 27310 net.cpp:148] Top shape: 5 3 224 224 (752640)
I0808 09:50:22.275290 27310 net.cpp:156] Memory required for data: 6021120
I0808 09:50:22.275297 27310 layer_factory.hpp:77] Creating layer conv1_1
I0808 09:50:22.275318 27310 net.cpp:91] Creating Layer conv1_1
I0808 09:50:22.275326 27310 net.cpp:425] conv1_1 <- data
I0808 09:50:22.275341 27310 net.cpp:399] conv1_1 -> conv1_1
I0808 09:50:22.503739 27310 net.cpp:141] Setting up conv1_1
I0808 09:50:22.503773 27310 net.cpp:148] Top shape: 5 64 224 224 (16056320)
I0808 09:50:22.503777 27310 net.cpp:156] Memory required for data: 70246400
I0808 09:50:22.503806 27310 layer_factory.hpp:77] Creating layer relu1_1
I0808 09:50:22.503818 27310 net.cpp:91] Creating Layer relu1_1
I0808 09:50:22.503823 27310 net.cpp:425] relu1_1 <- conv1_1
I0808 09:50:22.503830 27310 net.cpp:386] relu1_1 -> conv1_1 (in-place)
I0808 09:50:22.504166 27310 net.cpp:141] Setting up relu1_1
I0808 09:50:22.504181 27310 net.cpp:148] Top shape: 5 64 224 224 (16056320)
I0808 09:50:22.504184 27310 net.cpp:156] Memory required for data: 134471680
I0808 09:50:22.504189 27310 layer_factory.hpp:77] Creating layer conv1_2
I0808 09:50:22.504201 27310 net.cpp:91] Creating Layer conv1_2
I0808 09:50:22.504204 27310 net.cpp:425] conv1_2 <- conv1_1
I0808 09:50:22.504212 27310 net.cpp:399] conv1_2 -> conv1_2
I0808 09:50:22.505343 27310 net.cpp:141] Setting up conv1_2
I0808 09:50:22.505360 27310 net.cpp:148] Top shape: 5 64 224 224 (16056320)
I0808 09:50:22.505364 27310 net.cpp:156] Memory required for data: 198696960
I0808 09:50:22.505374 27310 layer_factory.hpp:77] Creating layer relu1_2
I0808 09:50:22.505381 27310 net.cpp:91] Creating Layer relu1_2
I0808 09:50:22.505384 27310 net.cpp:425] relu1_2 <- conv1_2
I0808 09:50:22.505391 27310 net.cpp:386] relu1_2 -> conv1_2 (in-place)
I0808 09:50:22.505692 27310 net.cpp:141] Setting up relu1_2
I0808 09:50:22.505707 27310 net.cpp:148] Top shape: 5 64 224 224 (16056320)
I0808 09:50:22.505709 27310 net.cpp:156] Memory required for data: 262922240
I0808 09:50:22.505713 27310 layer_factory.hpp:77] Creating layer conv1_2_relu1_2_0_split
I0808 09:50:22.505720 27310 net.cpp:91] Creating Layer conv1_2_relu1_2_0_split
I0808 09:50:22.505723 27310 net.cpp:425] conv1_2_relu1_2_0_split <- conv1_2
I0808 09:50:22.505730 27310 net.cpp:399] conv1_2_relu1_2_0_split -> conv1_2_relu1_2_0_split_0
I0808 09:50:22.505739 27310 net.cpp:399] conv1_2_relu1_2_0_split -> conv1_2_relu1_2_0_split_1
I0808 09:50:22.505794 27310 net.cpp:141] Setting up conv1_2_relu1_2_0_split
I0808 09:50:22.505802 27310 net.cpp:148] Top shape: 5 64 224 224 (16056320)
I0808 09:50:22.505806 27310 net.cpp:148] Top shape: 5 64 224 224 (16056320)
I0808 09:50:22.505810 27310 net.cpp:156] Memory required for data: 391372800
I0808 09:50:22.505813 27310 layer_factory.hpp:77] Creating layer pool1
I0808 09:50:22.505841 27310 net.cpp:91] Creating Layer pool1
I0808 09:50:22.505846 27310 net.cpp:425] pool1 <- conv1_2_relu1_2_0_split_0
I0808 09:50:22.505853 27310 net.cpp:399] pool1 -> pool1
I0808 09:50:22.505908 27310 net.cpp:141] Setting up pool1
I0808 09:50:22.505915 27310 net.cpp:148] Top shape: 5 64 112 112 (4014080)
I0808 09:50:22.505918 27310 net.cpp:156] Memory required for data: 407429120
I0808 09:50:22.505921 27310 layer_factory.hpp:77] Creating layer conv2_1
I0808 09:50:22.505933 27310 net.cpp:91] Creating Layer conv2_1
I0808 09:50:22.505935 27310 net.cpp:425] conv2_1 <- pool1
I0808 09:50:22.505940 27310 net.cpp:399] conv2_1 -> conv2_1
I0808 09:50:22.508271 27310 net.cpp:141] Setting up conv2_1
I0808 09:50:22.508290 27310 net.cpp:148] Top shape: 5 128 112 112 (8028160)
I0808 09:50:22.508293 27310 net.cpp:156] Memory required for data: 439541760
I0808 09:50:22.508302 27310 layer_factory.hpp:77] Creating layer relu2_1
I0808 09:50:22.508312 27310 net.cpp:91] Creating Layer relu2_1
I0808 09:50:22.508316 27310 net.cpp:425] relu2_1 <- conv2_1
I0808 09:50:22.508321 27310 net.cpp:386] relu2_1 -> conv2_1 (in-place)
I0808 09:50:22.508522 27310 net.cpp:141] Setting up relu2_1
I0808 09:50:22.508534 27310 net.cpp:148] Top shape: 5 128 112 112 (8028160)
I0808 09:50:22.508538 27310 net.cpp:156] Memory required for data: 471654400
I0808 09:50:22.508541 27310 layer_factory.hpp:77] Creating layer conv2_2
I0808 09:50:22.508551 27310 net.cpp:91] Creating Layer conv2_2
I0808 09:50:22.508555 27310 net.cpp:425] conv2_2 <- conv2_1
I0808 09:50:22.508560 27310 net.cpp:399] conv2_2 -> conv2_2
I0808 09:50:22.509768 27310 net.cpp:141] Setting up conv2_2
I0808 09:50:22.509784 27310 net.cpp:148] Top shape: 5 128 112 112 (8028160)
I0808 09:50:22.509788 27310 net.cpp:156] Memory required for data: 503767040
I0808 09:50:22.509794 27310 layer_factory.hpp:77] Creating layer relu2_2
I0808 09:50:22.509800 27310 net.cpp:91] Creating Layer relu2_2
I0808 09:50:22.509804 27310 net.cpp:425] relu2_2 <- conv2_2
I0808 09:50:22.509810 27310 net.cpp:386] relu2_2 -> conv2_2 (in-place)
I0808 09:50:22.510126 27310 net.cpp:141] Setting up relu2_2
I0808 09:50:22.510141 27310 net.cpp:148] Top shape: 5 128 112 112 (8028160)
I0808 09:50:22.510144 27310 net.cpp:156] Memory required for data: 535879680
I0808 09:50:22.510148 27310 layer_factory.hpp:77] Creating layer conv2_2_relu2_2_0_split
I0808 09:50:22.510154 27310 net.cpp:91] Creating Layer conv2_2_relu2_2_0_split
I0808 09:50:22.510157 27310 net.cpp:425] conv2_2_relu2_2_0_split <- conv2_2
I0808 09:50:22.510164 27310 net.cpp:399] conv2_2_relu2_2_0_split -> conv2_2_relu2_2_0_split_0
I0808 09:50:22.510171 27310 net.cpp:399] conv2_2_relu2_2_0_split -> conv2_2_relu2_2_0_split_1
I0808 09:50:22.510220 27310 net.cpp:141] Setting up conv2_2_relu2_2_0_split
I0808 09:50:22.510226 27310 net.cpp:148] Top shape: 5 128 112 112 (8028160)
I0808 09:50:22.510231 27310 net.cpp:148] Top shape: 5 128 112 112 (8028160)
I0808 09:50:22.510233 27310 net.cpp:156] Memory required for data: 600104960
I0808 09:50:22.510237 27310 layer_factory.hpp:77] Creating layer pool2
I0808 09:50:22.510243 27310 net.cpp:91] Creating Layer pool2
I0808 09:50:22.510246 27310 net.cpp:425] pool2 <- conv2_2_relu2_2_0_split_0
I0808 09:50:22.510252 27310 net.cpp:399] pool2 -> pool2
I0808 09:50:22.510293 27310 net.cpp:141] Setting up pool2
I0808 09:50:22.510300 27310 net.cpp:148] Top shape: 5 128 56 56 (2007040)
I0808 09:50:22.510303 27310 net.cpp:156] Memory required for data: 608133120
I0808 09:50:22.510306 27310 layer_factory.hpp:77] Creating layer conv3_1
I0808 09:50:22.510313 27310 net.cpp:91] Creating Layer conv3_1
I0808 09:50:22.510316 27310 net.cpp:425] conv3_1 <- pool2
I0808 09:50:22.510324 27310 net.cpp:399] conv3_1 -> conv3_1
I0808 09:50:22.512102 27310 net.cpp:141] Setting up conv3_1
I0808 09:50:22.512120 27310 net.cpp:148] Top shape: 5 256 56 56 (4014080)
I0808 09:50:22.512123 27310 net.cpp:156] Memory required for data: 624189440
I0808 09:50:22.512133 27310 layer_factory.hpp:77] Creating layer relu3_1
I0808 09:50:22.512140 27310 net.cpp:91] Creating Layer relu3_1
I0808 09:50:22.512156 27310 net.cpp:425] relu3_1 <- conv3_1
I0808 09:50:22.512163 27310 net.cpp:386] relu3_1 -> conv3_1 (in-place)
I0808 09:50:22.512481 27310 net.cpp:141] Setting up relu3_1
I0808 09:50:22.512495 27310 net.cpp:148] Top shape: 5 256 56 56 (4014080)
I0808 09:50:22.512498 27310 net.cpp:156] Memory required for data: 640245760
I0808 09:50:22.512502 27310 layer_factory.hpp:77] Creating layer conv3_2
I0808 09:50:22.512512 27310 net.cpp:91] Creating Layer conv3_2
I0808 09:50:22.512516 27310 net.cpp:425] conv3_2 <- conv3_1
I0808 09:50:22.512523 27310 net.cpp:399] conv3_2 -> conv3_2
I0808 09:50:22.515072 27310 net.cpp:141] Setting up conv3_2
I0808 09:50:22.515089 27310 net.cpp:148] Top shape: 5 256 56 56 (4014080)
I0808 09:50:22.515092 27310 net.cpp:156] Memory required for data: 656302080
I0808 09:50:22.515100 27310 layer_factory.hpp:77] Creating layer relu3_2
I0808 09:50:22.515110 27310 net.cpp:91] Creating Layer relu3_2
I0808 09:50:22.515112 27310 net.cpp:425] relu3_2 <- conv3_2
I0808 09:50:22.515118 27310 net.cpp:386] relu3_2 -> conv3_2 (in-place)
I0808 09:50:22.515322 27310 net.cpp:141] Setting up relu3_2
I0808 09:50:22.515334 27310 net.cpp:148] Top shape: 5 256 56 56 (4014080)
I0808 09:50:22.515337 27310 net.cpp:156] Memory required for data: 672358400
I0808 09:50:22.515341 27310 layer_factory.hpp:77] Creating layer conv3_3
I0808 09:50:22.515349 27310 net.cpp:91] Creating Layer conv3_3
I0808 09:50:22.515353 27310 net.cpp:425] conv3_3 <- conv3_2
I0808 09:50:22.515358 27310 net.cpp:399] conv3_3 -> conv3_3
I0808 09:50:22.518023 27310 net.cpp:141] Setting up conv3_3
I0808 09:50:22.518040 27310 net.cpp:148] Top shape: 5 256 56 56 (4014080)
I0808 09:50:22.518043 27310 net.cpp:156] Memory required for data: 688414720
I0808 09:50:22.518050 27310 layer_factory.hpp:77] Creating layer relu3_3
I0808 09:50:22.518056 27310 net.cpp:91] Creating Layer relu3_3
I0808 09:50:22.518059 27310 net.cpp:425] relu3_3 <- conv3_3
I0808 09:50:22.518069 27310 net.cpp:386] relu3_3 -> conv3_3 (in-place)
I0808 09:50:22.518393 27310 net.cpp:141] Setting up relu3_3
I0808 09:50:22.518406 27310 net.cpp:148] Top shape: 5 256 56 56 (4014080)
I0808 09:50:22.518409 27310 net.cpp:156] Memory required for data: 704471040
I0808 09:50:22.518414 27310 layer_factory.hpp:77] Creating layer conv3_3_relu3_3_0_split
I0808 09:50:22.518421 27310 net.cpp:91] Creating Layer conv3_3_relu3_3_0_split
I0808 09:50:22.518425 27310 net.cpp:425] conv3_3_relu3_3_0_split <- conv3_3
I0808 09:50:22.518430 27310 net.cpp:399] conv3_3_relu3_3_0_split -> conv3_3_relu3_3_0_split_0
I0808 09:50:22.518438 27310 net.cpp:399] conv3_3_relu3_3_0_split -> conv3_3_relu3_3_0_split_1
I0808 09:50:22.518491 27310 net.cpp:141] Setting up conv3_3_relu3_3_0_split
I0808 09:50:22.518499 27310 net.cpp:148] Top shape: 5 256 56 56 (4014080)
I0808 09:50:22.518503 27310 net.cpp:148] Top shape: 5 256 56 56 (4014080)
I0808 09:50:22.518506 27310 net.cpp:156] Memory required for data: 736583680
I0808 09:50:22.518509 27310 layer_factory.hpp:77] Creating layer pool3
I0808 09:50:22.518517 27310 net.cpp:91] Creating Layer pool3
I0808 09:50:22.518520 27310 net.cpp:425] pool3 <- conv3_3_relu3_3_0_split_0
I0808 09:50:22.518527 27310 net.cpp:399] pool3 -> pool3
I0808 09:50:22.518568 27310 net.cpp:141] Setting up pool3
I0808 09:50:22.518574 27310 net.cpp:148] Top shape: 5 256 28 28 (1003520)
I0808 09:50:22.518578 27310 net.cpp:156] Memory required for data: 740597760
I0808 09:50:22.518579 27310 layer_factory.hpp:77] Creating layer conv4_1
I0808 09:50:22.518589 27310 net.cpp:91] Creating Layer conv4_1
I0808 09:50:22.518592 27310 net.cpp:425] conv4_1 <- pool3
I0808 09:50:22.518599 27310 net.cpp:399] conv4_1 -> conv4_1
I0808 09:50:22.522840 27310 net.cpp:141] Setting up conv4_1
I0808 09:50:22.522856 27310 net.cpp:148] Top shape: 5 512 28 28 (2007040)
I0808 09:50:22.522860 27310 net.cpp:156] Memory required for data: 748625920
I0808 09:50:22.522866 27310 layer_factory.hpp:77] Creating layer relu4_1
I0808 09:50:22.522876 27310 net.cpp:91] Creating Layer relu4_1
I0808 09:50:22.522881 27310 net.cpp:425] relu4_1 <- conv4_1
I0808 09:50:22.522899 27310 net.cpp:386] relu4_1 -> conv4_1 (in-place)
I0808 09:50:22.523218 27310 net.cpp:141] Setting up relu4_1
I0808 09:50:22.523234 27310 net.cpp:148] Top shape: 5 512 28 28 (2007040)
I0808 09:50:22.523237 27310 net.cpp:156] Memory required for data: 756654080
I0808 09:50:22.523241 27310 layer_factory.hpp:77] Creating layer conv4_2
I0808 09:50:22.523249 27310 net.cpp:91] Creating Layer conv4_2
I0808 09:50:22.523252 27310 net.cpp:425] conv4_2 <- conv4_1
I0808 09:50:22.523259 27310 net.cpp:399] conv4_2 -> conv4_2
I0808 09:50:22.529677 27310 net.cpp:141] Setting up conv4_2
I0808 09:50:22.529695 27310 net.cpp:148] Top shape: 5 512 28 28 (2007040)
I0808 09:50:22.529700 27310 net.cpp:156] Memory required for data: 764682240
I0808 09:50:22.529709 27310 layer_factory.hpp:77] Creating layer relu4_2
I0808 09:50:22.529717 27310 net.cpp:91] Creating Layer relu4_2
I0808 09:50:22.529721 27310 net.cpp:425] relu4_2 <- conv4_2
I0808 09:50:22.529726 27310 net.cpp:386] relu4_2 -> conv4_2 (in-place)
I0808 09:50:22.529947 27310 net.cpp:141] Setting up relu4_2
I0808 09:50:22.529959 27310 net.cpp:148] Top shape: 5 512 28 28 (2007040)
I0808 09:50:22.529963 27310 net.cpp:156] Memory required for data: 772710400
I0808 09:50:22.529966 27310 layer_factory.hpp:77] Creating layer conv4_3
I0808 09:50:22.529976 27310 net.cpp:91] Creating Layer conv4_3
I0808 09:50:22.529980 27310 net.cpp:425] conv4_3 <- conv4_2
I0808 09:50:22.529986 27310 net.cpp:399] conv4_3 -> conv4_3
I0808 09:50:22.536422 27310 net.cpp:141] Setting up conv4_3
I0808 09:50:22.536440 27310 net.cpp:148] Top shape: 5 512 28 28 (2007040)
I0808 09:50:22.536444 27310 net.cpp:156] Memory required for data: 780738560
I0808 09:50:22.536451 27310 layer_factory.hpp:77] Creating layer relu4_3
I0808 09:50:22.536458 27310 net.cpp:91] Creating Layer relu4_3
I0808 09:50:22.536463 27310 net.cpp:425] relu4_3 <- conv4_3
I0808 09:50:22.536469 27310 net.cpp:386] relu4_3 -> conv4_3 (in-place)
I0808 09:50:22.536792 27310 net.cpp:141] Setting up relu4_3
I0808 09:50:22.536808 27310 net.cpp:148] Top shape: 5 512 28 28 (2007040)
I0808 09:50:22.536810 27310 net.cpp:156] Memory required for data: 788766720
I0808 09:50:22.536814 27310 layer_factory.hpp:77] Creating layer conv4_3_relu4_3_0_split
I0808 09:50:22.536825 27310 net.cpp:91] Creating Layer conv4_3_relu4_3_0_split
I0808 09:50:22.536828 27310 net.cpp:425] conv4_3_relu4_3_0_split <- conv4_3
I0808 09:50:22.536834 27310 net.cpp:399] conv4_3_relu4_3_0_split -> conv4_3_relu4_3_0_split_0
I0808 09:50:22.536844 27310 net.cpp:399] conv4_3_relu4_3_0_split -> conv4_3_relu4_3_0_split_1
I0808 09:50:22.536891 27310 net.cpp:141] Setting up conv4_3_relu4_3_0_split
I0808 09:50:22.536898 27310 net.cpp:148] Top shape: 5 512 28 28 (2007040)
I0808 09:50:22.536902 27310 net.cpp:148] Top shape: 5 512 28 28 (2007040)
I0808 09:50:22.536906 27310 net.cpp:156] Memory required for data: 804823040
I0808 09:50:22.536908 27310 layer_factory.hpp:77] Creating layer pool4
I0808 09:50:22.536917 27310 net.cpp:91] Creating Layer pool4
I0808 09:50:22.536921 27310 net.cpp:425] pool4 <- conv4_3_relu4_3_0_split_0
I0808 09:50:22.536926 27310 net.cpp:399] pool4 -> pool4
I0808 09:50:22.536972 27310 net.cpp:141] Setting up pool4
I0808 09:50:22.536978 27310 net.cpp:148] Top shape: 5 512 14 14 (501760)
I0808 09:50:22.536981 27310 net.cpp:156] Memory required for data: 806830080
I0808 09:50:22.536984 27310 layer_factory.hpp:77] Creating layer conv5_1
I0808 09:50:22.536993 27310 net.cpp:91] Creating Layer conv5_1
I0808 09:50:22.536998 27310 net.cpp:425] conv5_1 <- pool4
I0808 09:50:22.537003 27310 net.cpp:399] conv5_1 -> conv5_1
I0808 09:50:22.543507 27310 net.cpp:141] Setting up conv5_1
I0808 09:50:22.543526 27310 net.cpp:148] Top shape: 5 512 14 14 (501760)
I0808 09:50:22.543530 27310 net.cpp:156] Memory required for data: 808837120
I0808 09:50:22.543539 27310 layer_factory.hpp:77] Creating layer relu5_1
I0808 09:50:22.543545 27310 net.cpp:91] Creating Layer relu5_1
I0808 09:50:22.543548 27310 net.cpp:425] relu5_1 <- conv5_1
I0808 09:50:22.543555 27310 net.cpp:386] relu5_1 -> conv5_1 (in-place)
I0808 09:50:22.543886 27310 net.cpp:141] Setting up relu5_1
I0808 09:50:22.543900 27310 net.cpp:148] Top shape: 5 512 14 14 (501760)
I0808 09:50:22.543905 27310 net.cpp:156] Memory required for data: 810844160
I0808 09:50:22.543907 27310 layer_factory.hpp:77] Creating layer conv5_2
I0808 09:50:22.543917 27310 net.cpp:91] Creating Layer conv5_2
I0808 09:50:22.543920 27310 net.cpp:425] conv5_2 <- conv5_1
I0808 09:50:22.543926 27310 net.cpp:399] conv5_2 -> conv5_2
I0808 09:50:22.550359 27310 net.cpp:141] Setting up conv5_2
I0808 09:50:22.550375 27310 net.cpp:148] Top shape: 5 512 14 14 (501760)
I0808 09:50:22.550379 27310 net.cpp:156] Memory required for data: 812851200
I0808 09:50:22.550386 27310 layer_factory.hpp:77] Creating layer relu5_2
I0808 09:50:22.550401 27310 net.cpp:91] Creating Layer relu5_2
I0808 09:50:22.550405 27310 net.cpp:425] relu5_2 <- conv5_2
I0808 09:50:22.550410 27310 net.cpp:386] relu5_2 -> conv5_2 (in-place)
I0808 09:50:22.550609 27310 net.cpp:141] Setting up relu5_2
I0808 09:50:22.550621 27310 net.cpp:148] Top shape: 5 512 14 14 (501760)
I0808 09:50:22.550624 27310 net.cpp:156] Memory required for data: 814858240
I0808 09:50:22.550627 27310 layer_factory.hpp:77] Creating layer conv5_3
I0808 09:50:22.550637 27310 net.cpp:91] Creating Layer conv5_3
I0808 09:50:22.550640 27310 net.cpp:425] conv5_3 <- conv5_2
I0808 09:50:22.550647 27310 net.cpp:399] conv5_3 -> conv5_3
I0808 09:50:22.557508 27310 net.cpp:141] Setting up conv5_3
I0808 09:50:22.557526 27310 net.cpp:148] Top shape: 5 512 14 14 (501760)
I0808 09:50:22.557530 27310 net.cpp:156] Memory required for data: 816865280
I0808 09:50:22.557538 27310 layer_factory.hpp:77] Creating layer relu5_3
I0808 09:50:22.557544 27310 net.cpp:91] Creating Layer relu5_3
I0808 09:50:22.557548 27310 net.cpp:425] relu5_3 <- conv5_3
I0808 09:50:22.557554 27310 net.cpp:386] relu5_3 -> conv5_3 (in-place)
I0808 09:50:22.557894 27310 net.cpp:141] Setting up relu5_3
I0808 09:50:22.557911 27310 net.cpp:148] Top shape: 5 512 14 14 (501760)
I0808 09:50:22.557914 27310 net.cpp:156] Memory required for data: 818872320
I0808 09:50:22.557917 27310 layer_factory.hpp:77] Creating layer conv5_3_relu5_3_0_split
I0808 09:50:22.557925 27310 net.cpp:91] Creating Layer conv5_3_relu5_3_0_split
I0808 09:50:22.557929 27310 net.cpp:425] conv5_3_relu5_3_0_split <- conv5_3
I0808 09:50:22.557934 27310 net.cpp:399] conv5_3_relu5_3_0_split -> conv5_3_relu5_3_0_split_0
I0808 09:50:22.557943 27310 net.cpp:399] conv5_3_relu5_3_0_split -> conv5_3_relu5_3_0_split_1
I0808 09:50:22.557996 27310 net.cpp:141] Setting up conv5_3_relu5_3_0_split
I0808 09:50:22.558003 27310 net.cpp:148] Top shape: 5 512 14 14 (501760)
I0808 09:50:22.558007 27310 net.cpp:148] Top shape: 5 512 14 14 (501760)
I0808 09:50:22.558009 27310 net.cpp:156] Memory required for data: 822886400
I0808 09:50:22.558012 27310 layer_factory.hpp:77] Creating layer pool5
I0808 09:50:22.558022 27310 net.cpp:91] Creating Layer pool5
I0808 09:50:22.558025 27310 net.cpp:425] pool5 <- conv5_3_relu5_3_0_split_0
I0808 09:50:22.558030 27310 net.cpp:399] pool5 -> pool5
I0808 09:50:22.558074 27310 net.cpp:141] Setting up pool5
I0808 09:50:22.558081 27310 net.cpp:148] Top shape: 5 512 7 7 (125440)
I0808 09:50:22.558084 27310 net.cpp:156] Memory required for data: 823388160
I0808 09:50:22.558087 27310 layer_factory.hpp:77] Creating layer fc6-conv
I0808 09:50:22.558096 27310 net.cpp:91] Creating Layer fc6-conv
I0808 09:50:22.558099 27310 net.cpp:425] fc6-conv <- pool5
I0808 09:50:22.558106 27310 net.cpp:399] fc6-conv -> fc6-conv
I0808 09:50:22.848773 27310 net.cpp:141] Setting up fc6-conv
I0808 09:50:22.848825 27310 net.cpp:148] Top shape: 5 4096 1 1 (20480)
I0808 09:50:22.848830 27310 net.cpp:156] Memory required for data: 823470080
I0808 09:50:22.848841 27310 layer_factory.hpp:77] Creating layer relu6
I0808 09:50:22.848853 27310 net.cpp:91] Creating Layer relu6
I0808 09:50:22.848860 27310 net.cpp:425] relu6 <- fc6-conv
I0808 09:50:22.848870 27310 net.cpp:386] relu6 -> fc6-conv (in-place)
I0808 09:50:22.849197 27310 net.cpp:141] Setting up relu6
I0808 09:50:22.849236 27310 net.cpp:148] Top shape: 5 4096 1 1 (20480)
I0808 09:50:22.849241 27310 net.cpp:156] Memory required for data: 823552000
I0808 09:50:22.849243 27310 layer_factory.hpp:77] Creating layer drop6
I0808 09:50:22.849253 27310 net.cpp:91] Creating Layer drop6
I0808 09:50:22.849257 27310 net.cpp:425] drop6 <- fc6-conv
I0808 09:50:22.849263 27310 net.cpp:386] drop6 -> fc6-conv (in-place)
I0808 09:50:22.849308 27310 net.cpp:141] Setting up drop6
I0808 09:50:22.849318 27310 net.cpp:148] Top shape: 5 4096 1 1 (20480)
I0808 09:50:22.849323 27310 net.cpp:156] Memory required for data: 823633920
I0808 09:50:22.849326 27310 layer_factory.hpp:77] Creating layer fc7-conv
I0808 09:50:22.849337 27310 net.cpp:91] Creating Layer fc7-conv
I0808 09:50:22.849344 27310 net.cpp:425] fc7-conv <- fc6-conv
I0808 09:50:22.849349 27310 net.cpp:399] fc7-conv -> fc7-conv
I0808 09:50:22.895606 27310 net.cpp:141] Setting up fc7-conv
I0808 09:50:22.895644 27310 net.cpp:148] Top shape: 5 4096 1 1 (20480)
I0808 09:50:22.895648 27310 net.cpp:156] Memory required for data: 823715840
I0808 09:50:22.895660 27310 layer_factory.hpp:77] Creating layer relu7
I0808 09:50:22.895671 27310 net.cpp:91] Creating Layer relu7
I0808 09:50:22.895678 27310 net.cpp:425] relu7 <- fc7-conv
I0808 09:50:22.895689 27310 net.cpp:386] relu7 -> fc7-conv (in-place)
I0808 09:50:22.895903 27310 net.cpp:141] Setting up relu7
I0808 09:50:22.895916 27310 net.cpp:148] Top shape: 5 4096 1 1 (20480)
I0808 09:50:22.895920 27310 net.cpp:156] Memory required for data: 823797760
I0808 09:50:22.895923 27310 layer_factory.hpp:77] Creating layer hypercolumns
I0808 09:50:22.895934 27310 net.cpp:91] Creating Layer hypercolumns
I0808 09:50:22.895938 27310 net.cpp:425] hypercolumns <- normal
I0808 09:50:22.895946 27310 net.cpp:425] hypercolumns <- conv1_2_relu1_2_0_split_1
I0808 09:50:22.895951 27310 net.cpp:425] hypercolumns <- conv2_2_relu2_2_0_split_1
I0808 09:50:22.895956 27310 net.cpp:425] hypercolumns <- conv3_3_relu3_3_0_split_1
I0808 09:50:22.895961 27310 net.cpp:425] hypercolumns <- conv4_3_relu4_3_0_split_1
I0808 09:50:22.895965 27310 net.cpp:425] hypercolumns <- conv5_3_relu5_3_0_split_1
I0808 09:50:22.895970 27310 net.cpp:425] hypercolumns <- fc7-conv
I0808 09:50:22.895982 27310 net.cpp:399] hypercolumns -> hypercolumns
I0808 09:50:22.896003 27310 net.cpp:399] hypercolumns -> normal_point
I0808 09:50:22.896059 27310 net.cpp:141] Setting up hypercolumns
I0808 09:50:22.896070 27310 net.cpp:148] Top shape: 5000 5568 1 1 (27840000)
I0808 09:50:22.896073 27310 net.cpp:148] Top shape: 5000 3 (15000)
I0808 09:50:22.896076 27310 net.cpp:156] Memory required for data: 935217760
I0808 09:50:22.896080 27310 layer_factory.hpp:77] Creating layer fc1
I0808 09:50:22.896090 27310 net.cpp:91] Creating Layer fc1
I0808 09:50:22.896095 27310 net.cpp:425] fc1 <- hypercolumns
I0808 09:50:22.896103 27310 net.cpp:399] fc1 -> fc1
I0808 09:50:23.209756 27310 net.cpp:141] Setting up fc1
I0808 09:50:23.209822 27310 net.cpp:148] Top shape: 5000 4096 (20480000)
I0808 09:50:23.209827 27310 net.cpp:156] Memory required for data: 1017137760
I0808 09:50:23.209867 27310 layer_factory.hpp:77] Creating layer relu1
I0808 09:50:23.209882 27310 net.cpp:91] Creating Layer relu1
I0808 09:50:23.209908 27310 net.cpp:425] relu1 <- fc1
I0808 09:50:23.209920 27310 net.cpp:386] relu1 -> fc1 (in-place)
I0808 09:50:23.210930 27310 net.cpp:141] Setting up relu1
I0808 09:50:23.210947 27310 net.cpp:148] Top shape: 5000 4096 (20480000)
I0808 09:50:23.210950 27310 net.cpp:156] Memory required for data: 1099057760
I0808 09:50:23.210958 27310 layer_factory.hpp:77] Creating layer drop1
I0808 09:50:23.210968 27310 net.cpp:91] Creating Layer drop1
I0808 09:50:23.210971 27310 net.cpp:425] drop1 <- fc1
I0808 09:50:23.210979 27310 net.cpp:386] drop1 -> fc1 (in-place)
I0808 09:50:23.211025 27310 net.cpp:141] Setting up drop1
I0808 09:50:23.211040 27310 net.cpp:148] Top shape: 5000 4096 (20480000)
I0808 09:50:23.211042 27310 net.cpp:156] Memory required for data: 1180977760
I0808 09:50:23.211047 27310 layer_factory.hpp:77] Creating layer fc2
I0808 09:50:23.211078 27310 net.cpp:91] Creating Layer fc2
I0808 09:50:23.211084 27310 net.cpp:425] fc2 <- fc1
I0808 09:50:23.211093 27310 net.cpp:399] fc2 -> fc2
I0808 09:50:23.439055 27310 net.cpp:141] Setting up fc2
I0808 09:50:23.439100 27310 net.cpp:148] Top shape: 5000 4096 (20480000)
I0808 09:50:23.439103 27310 net.cpp:156] Memory required for data: 1262897760
I0808 09:50:23.439141 27310 layer_factory.hpp:77] Creating layer relu2
I0808 09:50:23.439154 27310 net.cpp:91] Creating Layer relu2
I0808 09:50:23.439160 27310 net.cpp:425] relu2 <- fc2
I0808 09:50:23.439170 27310 net.cpp:386] relu2 -> fc2 (in-place)
I0808 09:50:23.439450 27310 net.cpp:141] Setting up relu2
I0808 09:50:23.439462 27310 net.cpp:148] Top shape: 5000 4096 (20480000)
I0808 09:50:23.439465 27310 net.cpp:156] Memory required for data: 1344817760
I0808 09:50:23.439468 27310 layer_factory.hpp:77] Creating layer drop2
I0808 09:50:23.439476 27310 net.cpp:91] Creating Layer drop2
I0808 09:50:23.439481 27310 net.cpp:425] drop2 <- fc2
I0808 09:50:23.439489 27310 net.cpp:386] drop2 -> fc2 (in-place)
I0808 09:50:23.439527 27310 net.cpp:141] Setting up drop2
I0808 09:50:23.439543 27310 net.cpp:148] Top shape: 5000 4096 (20480000)
I0808 09:50:23.439548 27310 net.cpp:156] Memory required for data: 1426737760
I0808 09:50:23.439550 27310 layer_factory.hpp:77] Creating layer fc3
I0808 09:50:23.439559 27310 net.cpp:91] Creating Layer fc3
I0808 09:50:23.439563 27310 net.cpp:425] fc3 <- fc2
I0808 09:50:23.439571 27310 net.cpp:399] fc3 -> fc3
I0808 09:50:23.439910 27310 net.cpp:141] Setting up fc3
I0808 09:50:23.439920 27310 net.cpp:148] Top shape: 5000 3 (15000)
I0808 09:50:23.439924 27310 net.cpp:156] Memory required for data: 1426797760
I0808 09:50:23.439936 27310 layer_factory.hpp:77] Creating layer loss
I0808 09:50:23.439949 27310 net.cpp:91] Creating Layer loss
I0808 09:50:23.439952 27310 net.cpp:425] loss <- fc3
I0808 09:50:23.439961 27310 net.cpp:425] loss <- normal_point
I0808 09:50:23.439967 27310 net.cpp:399] loss -> loss
I0808 09:50:23.440033 27310 net.cpp:141] Setting up loss
…
