…
type: "SGD"
I0808 19:16:03.272320 32157 solver.cpp:91] Creating training net from net file: /home/qinhong/project/normal_recovery/model/t3/train.prototxt
I0808 19:16:03.273085 32157 net.cpp:49] Initializing net from parameters: 
name: "hyper_normal_layers"
state {
  phase: TRAIN
}
layer {
  name: "data"
  type: "ImageNormalData"
  top: "data"
  top: "normal"
  transform_param {
  }
  image_data_param {
    source: "/home/qinhong/project/normal_recovery/data/source.txt"
    batch_size: 7
    shuffle: true
    new_height: 224
    new_width: 224
  }
}
layer {
  name: "conv1_1"
  type: "Convolution"
  bottom: "data"
  top: "conv1_1"
  param {
    lr_mult: 1
    decay_mult: 1
  }
  param {
    lr_mult: 2
    decay_mult: 0
  }
  convolution_param {
    num_output: 64
    pad: 1
    kernel_size: 3
  }
}
layer {
  name: "relu1_1"
  type: "ReLU"
  bottom: "conv1_1"
  top: "conv1_1"
}
layer {
  name: "conv1_2"
  type: "Convolution"
  bottom: "conv1_1"
  top: "conv1_2"
  param {
    lr_mult: 1
    decay_mult: 1
  }
  param {
    lr_mult: 2
    decay_mult: 0
  }
  convolution_param {
    num_output: 64
    pad: 1
    kernel_size: 3
  }
}
layer {
  name: "relu1_2"
  type: "ReLU"
  bottom: "conv1_2"
  top: "conv1_2"
}
layer {
  name: "pool1"
  type: "Pooling"
  bottom: "conv1_2"
  top: "pool1"
  pooling_param {
    pool: MAX
    kernel_size: 2
    stride: 2
  }
}
layer {
  name: "conv2_1"
  type: "Convolution"
  bottom: "pool1"
  top: "conv2_1"
  param {
    lr_mult: 1
    decay_mult: 1
  }
  param {
    lr_mult: 2
    decay_mult: 0
  }
  convolution_param {
    num_output: 128
    pad: 1
    kernel_size: 3
  }
}
layer {
  name: "relu2_1"
  type: "ReLU"
  bottom: "conv2_1"
  top: "conv2_1"
}
layer {
  name: "conv2_2"
  type: "Convolution"
  bottom: "conv2_1"
  top: "conv2_2"
  param {
    lr_mult: 1
    decay_mult: 1
  }
  param {
    lr_mult: 2
    decay_mult: 0
  }
  convolution_param {
    num_output: 128
    pad: 1
    kernel_size: 3
  }
}
layer {
  name: "relu2_2"
  type: "ReLU"
  bottom: "conv2_2"
  top: "conv2_2"
}
layer {
  name: "pool2"
  type: "Pooling"
  bottom: "conv2_2"
  top: "pool2"
  pooling_param {
    pool: MAX
    kernel_size: 2
    stride: 2
  }
}
layer {
  name: "conv3_1"
  type: "Convolution"
  bottom: "pool2"
  top: "conv3_1"
  param {
    lr_mult: 1
    decay_mult: 1
  }
  param {
    lr_mult: 2
    decay_mult: 0
  }
  convolution_param {
    num_output: 256
    pad: 1
    kernel_size: 3
  }
}
layer {
  name: "relu3_1"
  type: "ReLU"
  bottom: "conv3_1"
  top: "conv3_1"
}
layer {
  name: "conv3_2"
  type: "Convolution"
  bottom: "conv3_1"
  top: "conv3_2"
  param {
    lr_mult: 1
    decay_mult: 1
  }
  param {
    lr_mult: 2
    decay_mult: 0
  }
  convolution_param {
    num_output: 256
    pad: 1
    kernel_size: 3
  }
}
layer {
  name: "relu3_2"
  type: "ReLU"
  bottom: "conv3_2"
  top: "conv3_2"
}
layer {
  name: "conv3_3"
  type: "Convolution"
  bottom: "conv3_2"
  top: "conv3_3"
  param {
    lr_mult: 1
    decay_mult: 1
  }
  param {
    lr_mult: 2
    decay_mult: 0
  }
  convolution_param {
    num_output: 256
    pad: 1
    kernel_size: 3
  }
}
layer {
  name: "relu3_3"
  type: "ReLU"
  bottom: "conv3_3"
  top: "conv3_3"
}
layer {
  name: "pool3"
  type: "Pooling"
  bottom: "conv3_3"
  top: "pool3"
  pooling_param {
    pool: MAX
    kernel_size: 2
    stride: 2
  }
}
layer {
  name: "conv4_1"
  type: "Convolution"
  bottom: "pool3"
  top: "conv4_1"
  param {
    lr_mult: 1
    decay_mult: 1
  }
  param {
    lr_mult: 2
    decay_mult: 0
  }
  convolution_param {
    num_output: 512
    pad: 1
    kernel_size: 3
  }
}
layer {
  name: "relu4_1"
  type: "ReLU"
  bottom: "conv4_1"
  top: "conv4_1"
}
layer {
  name: "conv4_2"
  type: "Convolution"
  bottom: "conv4_1"
  top: "conv4_2"
  param {
    lr_mult: 1
    decay_mult: 1
  }
  param {
    lr_mult: 2
    decay_mult: 0
  }
  convolution_param {
    num_output: 512
    pad: 1
    kernel_size: 3
  }
}
layer {
  name: "relu4_2"
  type: "ReLU"
  bottom: "conv4_2"
  top: "conv4_2"
}
layer {
  name: "conv4_3"
  type: "Convolution"
  bottom: "conv4_2"
  top: "conv4_3"
  param {
    lr_mult: 1
    decay_mult: 1
  }
  param {
    lr_mult: 2
    decay_mult: 0
  }
  convolution_param {
    num_output: 512
    pad: 1
    kernel_size: 3
  }
}
layer {
  name: "relu4_3"
  type: "ReLU"
  bottom: "conv4_3"
  top: "conv4_3"
}
layer {
  name: "pool4"
  type: "Pooling"
  bottom: "conv4_3"
  top: "pool4"
  pooling_param {
    pool: MAX
    kernel_size: 2
    stride: 2
  }
}
layer {
  name: "conv5_1"
  type: "Convolution"
  bottom: "pool4"
  top: "conv5_1"
  param {
    lr_mult: 1
    decay_mult: 1
  }
  param {
    lr_mult: 2
    decay_mult: 0
  }
  convolution_param {
    num_output: 512
    pad: 1
    kernel_size: 3
  }
}
layer {
  name: "relu5_1"
  type: "ReLU"
  bottom: "conv5_1"
  top: "conv5_1"
}
layer {
  name: "conv5_2"
  type: "Convolution"
  bottom: "conv5_1"
  top: "conv5_2"
  param {
    lr_mult: 1
    decay_mult: 1
  }
  param {
    lr_mult: 2
    decay_mult: 0
  }
  convolution_param {
    num_output: 512
    pad: 1
    kernel_size: 3
  }
}
layer {
  name: "relu5_2"
  type: "ReLU"
  bottom: "conv5_2"
  top: "conv5_2"
}
layer {
  name: "conv5_3"
  type: "Convolution"
  bottom: "conv5_2"
  top: "conv5_3"
  param {
    lr_mult: 1
    decay_mult: 1
  }
  param {
    lr_mult: 2
    decay_mult: 0
  }
  convolution_param {
    num_output: 512
    pad: 1
    kernel_size: 3
  }
}
layer {
  name: "relu5_3"
  type: "ReLU"
  bottom: "conv5_3"
  top: "conv5_3"
}
layer {
  name: "pool5"
  type: "Pooling"
  bottom: "conv5_3"
  top: "pool5"
  pooling_param {
    pool: MAX
    kernel_size: 2
    stride: 2
  }
}
layer {
  name: "fc6-conv"
  type: "Convolution"
  bottom: "pool5"
  top: "fc6-conv"
  param {
    lr_mult: 1
    decay_mult: 1
  }
  param {
    lr_mult: 2
    decay_mult: 0
  }
  convolution_param {
    num_output: 4096
    kernel_size: 7
  }
}
layer {
  name: "relu6"
  type: "ReLU"
  bottom: "fc6-conv"
  top: "fc6-conv"
}
layer {
  name: "drop6"
  type: "Dropout"
  bottom: "fc6-conv"
  top: "fc6-conv"
  dropout_param {
    dropout_ratio: 0.5
  }
}
layer {
  name: "fc7-conv"
  type: "Convolution"
  bottom: "fc6-conv"
  top: "fc7-conv"
  param {
    lr_mult: 1
    decay_mult: 1
  }
  param {
    lr_mult: 2
    decay_mult: 0
  }
  convolution_param {
    num_output: 4096
    kernel_size: 1
  }
}
layer {
  name: "relu7"
  type: "ReLU"
  bottom: "fc7-conv"
  top: "fc7-conv"
}
layer {
  name: "hypercolumns"
  type: "HyperColumns"
  bottom: "normal"
  bottom: "conv1_2"
  bottom: "conv2_2"
  bottom: "conv3_3"
  bottom: "conv4_3"
  bottom: "conv5_3"
  bottom: "fc7-conv"
  top: "hypercolumns"
  top: "normal_point"
  hypercolumns_param {
    is_train: true
  }
}
layer {
  name: "fc1"
  type: "InnerProduct"
  bottom: "hypercolumns"
  top: "fc1"
  param {
    lr_mult: 1
    decay_mult: 1
  }
  param {
    lr_mult: 2
    decay_mult: 0
  }
  inner_product_param {
    num_output: 4096
    weight_filler {
      type: "gaussian"
      std: 0.003
    }
    bias_filler {
      type: "constant"
      value: 0
    }
  }
}
layer {
  name: "relu1"
  type: "ReLU"
  bottom: "fc1"
  top: "fc1"
}
layer {
  name: "drop1"
  type: "Dropout"
  bottom: "fc1"
  top: "fc1"
  dropout_param {
    dropout_ratio: 0.5
  }
}
layer {
  name: "fc2"
  type: "InnerProduct"
  bottom: "fc1"
  top: "fc2"
  param {
    lr_mult: 1
    decay_mult: 1
  }
  param {
    lr_mult: 2
    decay_mult: 0
  }
  inner_product_param {
    num_output: 4096
    weight_filler {
      type: "gaussian"
      std: 0.002
    }
    bias_filler {
      type: "constant"
      value: 0
    }
  }
}
layer {
  name: "relu2"
  type: "ReLU"
  bottom: "fc2"
  top: "fc2"
}
layer {
  name: "drop2"
  type: "Dropout"
  bottom: "fc2"
  top: "fc2"
  dropout_param {
    dropout_ratio: 0.5
  }
}
layer {
  name: "fc3"
  type: "InnerProduct"
  bottom: "fc2"
  top: "fc3"
  param {
    lr_mult: 1
    decay_mult: 1
  }
  param {
    lr_mult: 2
    decay_mult: 0
  }
  inner_product_param {
    num_output: 3
    weight_filler {
      type: "gaussian"
      std: 0.001
    }
    bias_filler {
      type: "constant"
      value: 0
    }
  }
}
layer {
  name: "loss"
  type: "EuclideanLoss"
  bottom: "fc3"
  bottom: "normal_point"
  top: "loss"
  propagate_down: true
  propagate_down: false
}
I0808 19:16:03.273344 32157 layer_factory.hpp:77] Creating layer data
I0808 19:16:03.273388 32157 net.cpp:91] Creating Layer data
I0808 19:16:03.273397 32157 net.cpp:399] data -> data
I0808 19:16:03.273425 32157 net.cpp:399] data -> normal
I0808 19:16:03.273448 32157 image_normal_data_layer.cpp:43] opeing file /home/qinhong/project/normal_recovery/data/source.txt
I0808 19:16:03.278255 32157 image_normal_data_layer.cpp:54] Shuffing data
I0808 19:16:03.279618 32157 image_normal_data_layer.cpp:59] A total of 4105 images.
I0808 19:16:03.304441 32157 image_normal_data_layer.cpp:79] output data size: 7,3,224,224
I0808 19:16:03.319322 32157 net.cpp:141] Setting up data
I0808 19:16:03.319355 32157 net.cpp:148] Top shape: 7 3 224 224 (1053696)
I0808 19:16:03.319361 32157 net.cpp:148] Top shape: 7 3 224 224 (1053696)
I0808 19:16:03.319365 32157 net.cpp:156] Memory required for data: 8429568
I0808 19:16:03.319380 32157 layer_factory.hpp:77] Creating layer conv1_1
I0808 19:16:03.319404 32157 net.cpp:91] Creating Layer conv1_1
I0808 19:16:03.319442 32157 net.cpp:425] conv1_1 <- data
I0808 19:16:03.319458 32157 net.cpp:399] conv1_1 -> conv1_1
I0808 19:16:03.510454 32157 net.cpp:141] Setting up conv1_1
I0808 19:16:03.510488 32157 net.cpp:148] Top shape: 7 64 224 224 (22478848)
I0808 19:16:03.510493 32157 net.cpp:156] Memory required for data: 98344960
I0808 19:16:03.510520 32157 layer_factory.hpp:77] Creating layer relu1_1
I0808 19:16:03.510536 32157 net.cpp:91] Creating Layer relu1_1
I0808 19:16:03.510543 32157 net.cpp:425] relu1_1 <- conv1_1
I0808 19:16:03.510550 32157 net.cpp:386] relu1_1 -> conv1_1 (in-place)
I0808 19:16:03.510861 32157 net.cpp:141] Setting up relu1_1
I0808 19:16:03.510875 32157 net.cpp:148] Top shape: 7 64 224 224 (22478848)
I0808 19:16:03.510879 32157 net.cpp:156] Memory required for data: 188260352
I0808 19:16:03.510882 32157 layer_factory.hpp:77] Creating layer conv1_2
I0808 19:16:03.510895 32157 net.cpp:91] Creating Layer conv1_2
I0808 19:16:03.510900 32157 net.cpp:425] conv1_2 <- conv1_1
I0808 19:16:03.510905 32157 net.cpp:399] conv1_2 -> conv1_2
I0808 19:16:03.512006 32157 net.cpp:141] Setting up conv1_2
I0808 19:16:03.512020 32157 net.cpp:148] Top shape: 7 64 224 224 (22478848)
I0808 19:16:03.512023 32157 net.cpp:156] Memory required for data: 278175744
I0808 19:16:03.512033 32157 layer_factory.hpp:77] Creating layer relu1_2
I0808 19:16:03.512044 32157 net.cpp:91] Creating Layer relu1_2
I0808 19:16:03.512049 32157 net.cpp:425] relu1_2 <- conv1_2
I0808 19:16:03.512054 32157 net.cpp:386] relu1_2 -> conv1_2 (in-place)
I0808 19:16:03.512356 32157 net.cpp:141] Setting up relu1_2
I0808 19:16:03.512368 32157 net.cpp:148] Top shape: 7 64 224 224 (22478848)
I0808 19:16:03.512372 32157 net.cpp:156] Memory required for data: 368091136
I0808 19:16:03.512375 32157 layer_factory.hpp:77] Creating layer conv1_2_relu1_2_0_split
I0808 19:16:03.512387 32157 net.cpp:91] Creating Layer conv1_2_relu1_2_0_split
I0808 19:16:03.512392 32157 net.cpp:425] conv1_2_relu1_2_0_split <- conv1_2
I0808 19:16:03.512399 32157 net.cpp:399] conv1_2_relu1_2_0_split -> conv1_2_relu1_2_0_split_0
I0808 19:16:03.512409 32157 net.cpp:399] conv1_2_relu1_2_0_split -> conv1_2_relu1_2_0_split_1
I0808 19:16:03.512455 32157 net.cpp:141] Setting up conv1_2_relu1_2_0_split
I0808 19:16:03.512465 32157 net.cpp:148] Top shape: 7 64 224 224 (22478848)
I0808 19:16:03.512468 32157 net.cpp:148] Top shape: 7 64 224 224 (22478848)
I0808 19:16:03.512470 32157 net.cpp:156] Memory required for data: 547921920
I0808 19:16:03.512475 32157 layer_factory.hpp:77] Creating layer pool1
I0808 19:16:03.512501 32157 net.cpp:91] Creating Layer pool1
I0808 19:16:03.512506 32157 net.cpp:425] pool1 <- conv1_2_relu1_2_0_split_0
I0808 19:16:03.512511 32157 net.cpp:399] pool1 -> pool1
I0808 19:16:03.512565 32157 net.cpp:141] Setting up pool1
I0808 19:16:03.512573 32157 net.cpp:148] Top shape: 7 64 112 112 (5619712)
I0808 19:16:03.512576 32157 net.cpp:156] Memory required for data: 570400768
I0808 19:16:03.512579 32157 layer_factory.hpp:77] Creating layer conv2_1
I0808 19:16:03.512588 32157 net.cpp:91] Creating Layer conv2_1
I0808 19:16:03.512591 32157 net.cpp:425] conv2_1 <- pool1
I0808 19:16:03.512599 32157 net.cpp:399] conv2_1 -> conv2_1
I0808 19:16:03.514876 32157 net.cpp:141] Setting up conv2_1
I0808 19:16:03.514892 32157 net.cpp:148] Top shape: 7 128 112 112 (11239424)
I0808 19:16:03.514896 32157 net.cpp:156] Memory required for data: 615358464
I0808 19:16:03.514906 32157 layer_factory.hpp:77] Creating layer relu2_1
I0808 19:16:03.514917 32157 net.cpp:91] Creating Layer relu2_1
I0808 19:16:03.514922 32157 net.cpp:425] relu2_1 <- conv2_1
I0808 19:16:03.514930 32157 net.cpp:386] relu2_1 -> conv2_1 (in-place)
I0808 19:16:03.515125 32157 net.cpp:141] Setting up relu2_1
I0808 19:16:03.515136 32157 net.cpp:148] Top shape: 7 128 112 112 (11239424)
I0808 19:16:03.515138 32157 net.cpp:156] Memory required for data: 660316160
I0808 19:16:03.515141 32157 layer_factory.hpp:77] Creating layer conv2_2
I0808 19:16:03.515151 32157 net.cpp:91] Creating Layer conv2_2
I0808 19:16:03.515154 32157 net.cpp:425] conv2_2 <- conv2_1
I0808 19:16:03.515161 32157 net.cpp:399] conv2_2 -> conv2_2
I0808 19:16:03.516325 32157 net.cpp:141] Setting up conv2_2
I0808 19:16:03.516343 32157 net.cpp:148] Top shape: 7 128 112 112 (11239424)
I0808 19:16:03.516346 32157 net.cpp:156] Memory required for data: 705273856
I0808 19:16:03.516353 32157 layer_factory.hpp:77] Creating layer relu2_2
I0808 19:16:03.516360 32157 net.cpp:91] Creating Layer relu2_2
I0808 19:16:03.516363 32157 net.cpp:425] relu2_2 <- conv2_2
I0808 19:16:03.516367 32157 net.cpp:386] relu2_2 -> conv2_2 (in-place)
I0808 19:16:03.516669 32157 net.cpp:141] Setting up relu2_2
I0808 19:16:03.516683 32157 net.cpp:148] Top shape: 7 128 112 112 (11239424)
I0808 19:16:03.516686 32157 net.cpp:156] Memory required for data: 750231552
I0808 19:16:03.516690 32157 layer_factory.hpp:77] Creating layer conv2_2_relu2_2_0_split
I0808 19:16:03.516696 32157 net.cpp:91] Creating Layer conv2_2_relu2_2_0_split
I0808 19:16:03.516700 32157 net.cpp:425] conv2_2_relu2_2_0_split <- conv2_2
I0808 19:16:03.516705 32157 net.cpp:399] conv2_2_relu2_2_0_split -> conv2_2_relu2_2_0_split_0
I0808 19:16:03.516715 32157 net.cpp:399] conv2_2_relu2_2_0_split -> conv2_2_relu2_2_0_split_1
I0808 19:16:03.516760 32157 net.cpp:141] Setting up conv2_2_relu2_2_0_split
I0808 19:16:03.516767 32157 net.cpp:148] Top shape: 7 128 112 112 (11239424)
I0808 19:16:03.516772 32157 net.cpp:148] Top shape: 7 128 112 112 (11239424)
I0808 19:16:03.516774 32157 net.cpp:156] Memory required for data: 840146944
I0808 19:16:03.516778 32157 layer_factory.hpp:77] Creating layer pool2
I0808 19:16:03.516785 32157 net.cpp:91] Creating Layer pool2
I0808 19:16:03.516789 32157 net.cpp:425] pool2 <- conv2_2_relu2_2_0_split_0
I0808 19:16:03.516794 32157 net.cpp:399] pool2 -> pool2
I0808 19:16:03.516832 32157 net.cpp:141] Setting up pool2
I0808 19:16:03.516839 32157 net.cpp:148] Top shape: 7 128 56 56 (2809856)
I0808 19:16:03.516842 32157 net.cpp:156] Memory required for data: 851386368
I0808 19:16:03.516844 32157 layer_factory.hpp:77] Creating layer conv3_1
I0808 19:16:03.516854 32157 net.cpp:91] Creating Layer conv3_1
I0808 19:16:03.516856 32157 net.cpp:425] conv3_1 <- pool2
I0808 19:16:03.516863 32157 net.cpp:399] conv3_1 -> conv3_1
I0808 19:16:03.518615 32157 net.cpp:141] Setting up conv3_1
I0808 19:16:03.518630 32157 net.cpp:148] Top shape: 7 256 56 56 (5619712)
I0808 19:16:03.518635 32157 net.cpp:156] Memory required for data: 873865216
I0808 19:16:03.518646 32157 layer_factory.hpp:77] Creating layer relu3_1
I0808 19:16:03.518654 32157 net.cpp:91] Creating Layer relu3_1
I0808 19:16:03.518671 32157 net.cpp:425] relu3_1 <- conv3_1
I0808 19:16:03.518676 32157 net.cpp:386] relu3_1 -> conv3_1 (in-place)
I0808 19:16:03.518985 32157 net.cpp:141] Setting up relu3_1
I0808 19:16:03.518999 32157 net.cpp:148] Top shape: 7 256 56 56 (5619712)
I0808 19:16:03.519003 32157 net.cpp:156] Memory required for data: 896344064
I0808 19:16:03.519006 32157 layer_factory.hpp:77] Creating layer conv3_2
I0808 19:16:03.519014 32157 net.cpp:91] Creating Layer conv3_2
I0808 19:16:03.519021 32157 net.cpp:425] conv3_2 <- conv3_1
I0808 19:16:03.519027 32157 net.cpp:399] conv3_2 -> conv3_2
I0808 19:16:03.521543 32157 net.cpp:141] Setting up conv3_2
I0808 19:16:03.521559 32157 net.cpp:148] Top shape: 7 256 56 56 (5619712)
I0808 19:16:03.521565 32157 net.cpp:156] Memory required for data: 918822912
I0808 19:16:03.521572 32157 layer_factory.hpp:77] Creating layer relu3_2
I0808 19:16:03.521580 32157 net.cpp:91] Creating Layer relu3_2
I0808 19:16:03.521586 32157 net.cpp:425] relu3_2 <- conv3_2
I0808 19:16:03.521594 32157 net.cpp:386] relu3_2 -> conv3_2 (in-place)
I0808 19:16:03.521787 32157 net.cpp:141] Setting up relu3_2
I0808 19:16:03.521800 32157 net.cpp:148] Top shape: 7 256 56 56 (5619712)
I0808 19:16:03.521803 32157 net.cpp:156] Memory required for data: 941301760
I0808 19:16:03.521806 32157 layer_factory.hpp:77] Creating layer conv3_3
I0808 19:16:03.521814 32157 net.cpp:91] Creating Layer conv3_3
I0808 19:16:03.521817 32157 net.cpp:425] conv3_3 <- conv3_2
I0808 19:16:03.521824 32157 net.cpp:399] conv3_3 -> conv3_3
I0808 19:16:03.524437 32157 net.cpp:141] Setting up conv3_3
I0808 19:16:03.524456 32157 net.cpp:148] Top shape: 7 256 56 56 (5619712)
I0808 19:16:03.524459 32157 net.cpp:156] Memory required for data: 963780608
I0808 19:16:03.524466 32157 layer_factory.hpp:77] Creating layer relu3_3
I0808 19:16:03.524476 32157 net.cpp:91] Creating Layer relu3_3
I0808 19:16:03.524478 32157 net.cpp:425] relu3_3 <- conv3_3
I0808 19:16:03.524483 32157 net.cpp:386] relu3_3 -> conv3_3 (in-place)
I0808 19:16:03.524806 32157 net.cpp:141] Setting up relu3_3
I0808 19:16:03.524821 32157 net.cpp:148] Top shape: 7 256 56 56 (5619712)
I0808 19:16:03.524823 32157 net.cpp:156] Memory required for data: 986259456
I0808 19:16:03.524827 32157 layer_factory.hpp:77] Creating layer conv3_3_relu3_3_0_split
I0808 19:16:03.524833 32157 net.cpp:91] Creating Layer conv3_3_relu3_3_0_split
I0808 19:16:03.524837 32157 net.cpp:425] conv3_3_relu3_3_0_split <- conv3_3
I0808 19:16:03.524844 32157 net.cpp:399] conv3_3_relu3_3_0_split -> conv3_3_relu3_3_0_split_0
I0808 19:16:03.524853 32157 net.cpp:399] conv3_3_relu3_3_0_split -> conv3_3_relu3_3_0_split_1
I0808 19:16:03.524905 32157 net.cpp:141] Setting up conv3_3_relu3_3_0_split
I0808 19:16:03.524914 32157 net.cpp:148] Top shape: 7 256 56 56 (5619712)
I0808 19:16:03.524917 32157 net.cpp:148] Top shape: 7 256 56 56 (5619712)
I0808 19:16:03.524920 32157 net.cpp:156] Memory required for data: 1031217152
I0808 19:16:03.524924 32157 layer_factory.hpp:77] Creating layer pool3
I0808 19:16:03.524930 32157 net.cpp:91] Creating Layer pool3
I0808 19:16:03.524932 32157 net.cpp:425] pool3 <- conv3_3_relu3_3_0_split_0
I0808 19:16:03.524938 32157 net.cpp:399] pool3 -> pool3
I0808 19:16:03.524979 32157 net.cpp:141] Setting up pool3
I0808 19:16:03.524987 32157 net.cpp:148] Top shape: 7 256 28 28 (1404928)
I0808 19:16:03.524991 32157 net.cpp:156] Memory required for data: 1036836864
I0808 19:16:03.524992 32157 layer_factory.hpp:77] Creating layer conv4_1
I0808 19:16:03.525002 32157 net.cpp:91] Creating Layer conv4_1
I0808 19:16:03.525004 32157 net.cpp:425] conv4_1 <- pool3
I0808 19:16:03.525009 32157 net.cpp:399] conv4_1 -> conv4_1
I0808 19:16:03.529238 32157 net.cpp:141] Setting up conv4_1
I0808 19:16:03.529256 32157 net.cpp:148] Top shape: 7 512 28 28 (2809856)
I0808 19:16:03.529260 32157 net.cpp:156] Memory required for data: 1048076288
I0808 19:16:03.529268 32157 layer_factory.hpp:77] Creating layer relu4_1
I0808 19:16:03.529274 32157 net.cpp:91] Creating Layer relu4_1
I0808 19:16:03.529278 32157 net.cpp:425] relu4_1 <- conv4_1
I0808 19:16:03.529301 32157 net.cpp:386] relu4_1 -> conv4_1 (in-place)
I0808 19:16:03.529618 32157 net.cpp:141] Setting up relu4_1
I0808 19:16:03.529631 32157 net.cpp:148] Top shape: 7 512 28 28 (2809856)
I0808 19:16:03.529634 32157 net.cpp:156] Memory required for data: 1059315712
I0808 19:16:03.529639 32157 layer_factory.hpp:77] Creating layer conv4_2
I0808 19:16:03.529649 32157 net.cpp:91] Creating Layer conv4_2
I0808 19:16:03.529654 32157 net.cpp:425] conv4_2 <- conv4_1
I0808 19:16:03.529661 32157 net.cpp:399] conv4_2 -> conv4_2
I0808 19:16:03.536099 32157 net.cpp:141] Setting up conv4_2
I0808 19:16:03.536115 32157 net.cpp:148] Top shape: 7 512 28 28 (2809856)
I0808 19:16:03.536119 32157 net.cpp:156] Memory required for data: 1070555136
I0808 19:16:03.536140 32157 layer_factory.hpp:77] Creating layer relu4_2
I0808 19:16:03.536149 32157 net.cpp:91] Creating Layer relu4_2
I0808 19:16:03.536152 32157 net.cpp:425] relu4_2 <- conv4_2
I0808 19:16:03.536159 32157 net.cpp:386] relu4_2 -> conv4_2 (in-place)
I0808 19:16:03.536353 32157 net.cpp:141] Setting up relu4_2
I0808 19:16:03.536363 32157 net.cpp:148] Top shape: 7 512 28 28 (2809856)
I0808 19:16:03.536366 32157 net.cpp:156] Memory required for data: 1081794560
I0808 19:16:03.536370 32157 layer_factory.hpp:77] Creating layer conv4_3
I0808 19:16:03.536380 32157 net.cpp:91] Creating Layer conv4_3
I0808 19:16:03.536382 32157 net.cpp:425] conv4_3 <- conv4_2
I0808 19:16:03.536389 32157 net.cpp:399] conv4_3 -> conv4_3
I0808 19:16:03.542894 32157 net.cpp:141] Setting up conv4_3
I0808 19:16:03.542912 32157 net.cpp:148] Top shape: 7 512 28 28 (2809856)
I0808 19:16:03.542917 32157 net.cpp:156] Memory required for data: 1093033984
I0808 19:16:03.542923 32157 layer_factory.hpp:77] Creating layer relu4_3
I0808 19:16:03.542929 32157 net.cpp:91] Creating Layer relu4_3
I0808 19:16:03.542933 32157 net.cpp:425] relu4_3 <- conv4_3
I0808 19:16:03.542938 32157 net.cpp:386] relu4_3 -> conv4_3 (in-place)
I0808 19:16:03.543258 32157 net.cpp:141] Setting up relu4_3
I0808 19:16:03.543272 32157 net.cpp:148] Top shape: 7 512 28 28 (2809856)
I0808 19:16:03.543275 32157 net.cpp:156] Memory required for data: 1104273408
I0808 19:16:03.543278 32157 layer_factory.hpp:77] Creating layer conv4_3_relu4_3_0_split
I0808 19:16:03.543285 32157 net.cpp:91] Creating Layer conv4_3_relu4_3_0_split
I0808 19:16:03.543288 32157 net.cpp:425] conv4_3_relu4_3_0_split <- conv4_3
I0808 19:16:03.543295 32157 net.cpp:399] conv4_3_relu4_3_0_split -> conv4_3_relu4_3_0_split_0
I0808 19:16:03.543306 32157 net.cpp:399] conv4_3_relu4_3_0_split -> conv4_3_relu4_3_0_split_1
I0808 19:16:03.543356 32157 net.cpp:141] Setting up conv4_3_relu4_3_0_split
I0808 19:16:03.543364 32157 net.cpp:148] Top shape: 7 512 28 28 (2809856)
I0808 19:16:03.543367 32157 net.cpp:148] Top shape: 7 512 28 28 (2809856)
I0808 19:16:03.543370 32157 net.cpp:156] Memory required for data: 1126752256
I0808 19:16:03.543373 32157 layer_factory.hpp:77] Creating layer pool4
I0808 19:16:03.543380 32157 net.cpp:91] Creating Layer pool4
I0808 19:16:03.543382 32157 net.cpp:425] pool4 <- conv4_3_relu4_3_0_split_0
I0808 19:16:03.543390 32157 net.cpp:399] pool4 -> pool4
I0808 19:16:03.543431 32157 net.cpp:141] Setting up pool4
I0808 19:16:03.543439 32157 net.cpp:148] Top shape: 7 512 14 14 (702464)
I0808 19:16:03.543442 32157 net.cpp:156] Memory required for data: 1129562112
I0808 19:16:03.543445 32157 layer_factory.hpp:77] Creating layer conv5_1
I0808 19:16:03.543452 32157 net.cpp:91] Creating Layer conv5_1
I0808 19:16:03.543455 32157 net.cpp:425] conv5_1 <- pool4
I0808 19:16:03.543462 32157 net.cpp:399] conv5_1 -> conv5_1
I0808 19:16:03.550048 32157 net.cpp:141] Setting up conv5_1
I0808 19:16:03.550072 32157 net.cpp:148] Top shape: 7 512 14 14 (702464)
I0808 19:16:03.550076 32157 net.cpp:156] Memory required for data: 1132371968
I0808 19:16:03.550084 32157 layer_factory.hpp:77] Creating layer relu5_1
I0808 19:16:03.550094 32157 net.cpp:91] Creating Layer relu5_1
I0808 19:16:03.550101 32157 net.cpp:425] relu5_1 <- conv5_1
I0808 19:16:03.550129 32157 net.cpp:386] relu5_1 -> conv5_1 (in-place)
I0808 19:16:03.550441 32157 net.cpp:141] Setting up relu5_1
I0808 19:16:03.550454 32157 net.cpp:148] Top shape: 7 512 14 14 (702464)
I0808 19:16:03.550458 32157 net.cpp:156] Memory required for data: 1135181824
I0808 19:16:03.550462 32157 layer_factory.hpp:77] Creating layer conv5_2
I0808 19:16:03.550472 32157 net.cpp:91] Creating Layer conv5_2
I0808 19:16:03.550477 32157 net.cpp:425] conv5_2 <- conv5_1
I0808 19:16:03.550484 32157 net.cpp:399] conv5_2 -> conv5_2
I0808 19:16:03.557051 32157 net.cpp:141] Setting up conv5_2
I0808 19:16:03.557072 32157 net.cpp:148] Top shape: 7 512 14 14 (702464)
I0808 19:16:03.557075 32157 net.cpp:156] Memory required for data: 1137991680
I0808 19:16:03.557085 32157 layer_factory.hpp:77] Creating layer relu5_2
I0808 19:16:03.557104 32157 net.cpp:91] Creating Layer relu5_2
I0808 19:16:03.557111 32157 net.cpp:425] relu5_2 <- conv5_2
I0808 19:16:03.557116 32157 net.cpp:386] relu5_2 -> conv5_2 (in-place)
I0808 19:16:03.557317 32157 net.cpp:141] Setting up relu5_2
I0808 19:16:03.557327 32157 net.cpp:148] Top shape: 7 512 14 14 (702464)
I0808 19:16:03.557330 32157 net.cpp:156] Memory required for data: 1140801536
I0808 19:16:03.557334 32157 layer_factory.hpp:77] Creating layer conv5_3
I0808 19:16:03.557343 32157 net.cpp:91] Creating Layer conv5_3
I0808 19:16:03.557348 32157 net.cpp:425] conv5_3 <- conv5_2
I0808 19:16:03.557355 32157 net.cpp:399] conv5_3 -> conv5_3
I0808 19:16:03.563859 32157 net.cpp:141] Setting up conv5_3
I0808 19:16:03.563877 32157 net.cpp:148] Top shape: 7 512 14 14 (702464)
I0808 19:16:03.563880 32157 net.cpp:156] Memory required for data: 1143611392
I0808 19:16:03.563889 32157 layer_factory.hpp:77] Creating layer relu5_3
I0808 19:16:03.563894 32157 net.cpp:91] Creating Layer relu5_3
I0808 19:16:03.563899 32157 net.cpp:425] relu5_3 <- conv5_3
I0808 19:16:03.563905 32157 net.cpp:386] relu5_3 -> conv5_3 (in-place)
I0808 19:16:03.564223 32157 net.cpp:141] Setting up relu5_3
I0808 19:16:03.564236 32157 net.cpp:148] Top shape: 7 512 14 14 (702464)
I0808 19:16:03.564239 32157 net.cpp:156] Memory required for data: 1146421248
I0808 19:16:03.564242 32157 layer_factory.hpp:77] Creating layer conv5_3_relu5_3_0_split
I0808 19:16:03.564250 32157 net.cpp:91] Creating Layer conv5_3_relu5_3_0_split
I0808 19:16:03.564254 32157 net.cpp:425] conv5_3_relu5_3_0_split <- conv5_3
I0808 19:16:03.564261 32157 net.cpp:399] conv5_3_relu5_3_0_split -> conv5_3_relu5_3_0_split_0
I0808 19:16:03.564270 32157 net.cpp:399] conv5_3_relu5_3_0_split -> conv5_3_relu5_3_0_split_1
I0808 19:16:03.564323 32157 net.cpp:141] Setting up conv5_3_relu5_3_0_split
I0808 19:16:03.564330 32157 net.cpp:148] Top shape: 7 512 14 14 (702464)
I0808 19:16:03.564334 32157 net.cpp:148] Top shape: 7 512 14 14 (702464)
I0808 19:16:03.564337 32157 net.cpp:156] Memory required for data: 1152040960
I0808 19:16:03.564340 32157 layer_factory.hpp:77] Creating layer pool5
I0808 19:16:03.564347 32157 net.cpp:91] Creating Layer pool5
I0808 19:16:03.564350 32157 net.cpp:425] pool5 <- conv5_3_relu5_3_0_split_0
I0808 19:16:03.564357 32157 net.cpp:399] pool5 -> pool5
I0808 19:16:03.564401 32157 net.cpp:141] Setting up pool5
I0808 19:16:03.564409 32157 net.cpp:148] Top shape: 7 512 7 7 (175616)
I0808 19:16:03.564411 32157 net.cpp:156] Memory required for data: 1152743424
I0808 19:16:03.564414 32157 layer_factory.hpp:77] Creating layer fc6-conv
I0808 19:16:03.564425 32157 net.cpp:91] Creating Layer fc6-conv
I0808 19:16:03.564429 32157 net.cpp:425] fc6-conv <- pool5
I0808 19:16:03.564435 32157 net.cpp:399] fc6-conv -> fc6-conv
I0808 19:16:03.839651 32157 net.cpp:141] Setting up fc6-conv
I0808 19:16:03.839685 32157 net.cpp:148] Top shape: 7 4096 1 1 (28672)
I0808 19:16:03.839690 32157 net.cpp:156] Memory required for data: 1152858112
I0808 19:16:03.839700 32157 layer_factory.hpp:77] Creating layer relu6
I0808 19:16:03.839714 32157 net.cpp:91] Creating Layer relu6
I0808 19:16:03.839718 32157 net.cpp:425] relu6 <- fc6-conv
I0808 19:16:03.839725 32157 net.cpp:386] relu6 -> fc6-conv (in-place)
I0808 19:16:03.840073 32157 net.cpp:141] Setting up relu6
I0808 19:16:03.840087 32157 net.cpp:148] Top shape: 7 4096 1 1 (28672)
I0808 19:16:03.840090 32157 net.cpp:156] Memory required for data: 1152972800
I0808 19:16:03.840093 32157 layer_factory.hpp:77] Creating layer drop6
I0808 19:16:03.840102 32157 net.cpp:91] Creating Layer drop6
I0808 19:16:03.840106 32157 net.cpp:425] drop6 <- fc6-conv
I0808 19:16:03.840112 32157 net.cpp:386] drop6 -> fc6-conv (in-place)
I0808 19:16:03.840153 32157 net.cpp:141] Setting up drop6
I0808 19:16:03.840164 32157 net.cpp:148] Top shape: 7 4096 1 1 (28672)
I0808 19:16:03.840167 32157 net.cpp:156] Memory required for data: 1153087488
I0808 19:16:03.840172 32157 layer_factory.hpp:77] Creating layer fc7-conv
I0808 19:16:03.840180 32157 net.cpp:91] Creating Layer fc7-conv
I0808 19:16:03.840183 32157 net.cpp:425] fc7-conv <- fc6-conv
I0808 19:16:03.840190 32157 net.cpp:399] fc7-conv -> fc7-conv
I0808 19:16:03.887017 32157 net.cpp:141] Setting up fc7-conv
I0808 19:16:03.887056 32157 net.cpp:148] Top shape: 7 4096 1 1 (28672)
I0808 19:16:03.887061 32157 net.cpp:156] Memory required for data: 1153202176
I0808 19:16:03.887073 32157 layer_factory.hpp:77] Creating layer relu7
I0808 19:16:03.887086 32157 net.cpp:91] Creating Layer relu7
I0808 19:16:03.887094 32157 net.cpp:425] relu7 <- fc7-conv
I0808 19:16:03.887100 32157 net.cpp:386] relu7 -> fc7-conv (in-place)
I0808 19:16:03.887313 32157 net.cpp:141] Setting up relu7
I0808 19:16:03.887323 32157 net.cpp:148] Top shape: 7 4096 1 1 (28672)
I0808 19:16:03.887327 32157 net.cpp:156] Memory required for data: 1153316864
I0808 19:16:03.887331 32157 layer_factory.hpp:77] Creating layer hypercolumns
I0808 19:16:03.887339 32157 net.cpp:91] Creating Layer hypercolumns
I0808 19:16:03.887342 32157 net.cpp:425] hypercolumns <- normal
I0808 19:16:03.887351 32157 net.cpp:425] hypercolumns <- conv1_2_relu1_2_0_split_1
I0808 19:16:03.887354 32157 net.cpp:425] hypercolumns <- conv2_2_relu2_2_0_split_1
I0808 19:16:03.887359 32157 net.cpp:425] hypercolumns <- conv3_3_relu3_3_0_split_1
I0808 19:16:03.887362 32157 net.cpp:425] hypercolumns <- conv4_3_relu4_3_0_split_1
I0808 19:16:03.887367 32157 net.cpp:425] hypercolumns <- conv5_3_relu5_3_0_split_1
I0808 19:16:03.887370 32157 net.cpp:425] hypercolumns <- fc7-conv
I0808 19:16:03.887379 32157 net.cpp:399] hypercolumns -> hypercolumns
I0808 19:16:03.887400 32157 net.cpp:399] hypercolumns -> normal_point
I0808 19:16:03.887454 32157 net.cpp:141] Setting up hypercolumns
I0808 19:16:03.887464 32157 net.cpp:148] Top shape: 7000 5568 1 1 (38976000)
I0808 19:16:03.887467 32157 net.cpp:148] Top shape: 7000 3 (21000)
I0808 19:16:03.887470 32157 net.cpp:156] Memory required for data: 1309304864
I0808 19:16:03.887473 32157 layer_factory.hpp:77] Creating layer fc1
I0808 19:16:03.887482 32157 net.cpp:91] Creating Layer fc1
I0808 19:16:03.887485 32157 net.cpp:425] fc1 <- hypercolumns
I0808 19:16:03.887493 32157 net.cpp:399] fc1 -> fc1
I0808 19:16:04.169411 32157 net.cpp:141] Setting up fc1
I0808 19:16:04.169474 32157 net.cpp:148] Top shape: 7000 4096 (28672000)
I0808 19:16:04.169478 32157 net.cpp:156] Memory required for data: 1423992864
I0808 19:16:04.169503 32157 layer_factory.hpp:77] Creating layer relu1
I0808 19:16:04.169550 32157 net.cpp:91] Creating Layer relu1
I0808 19:16:04.169560 32157 net.cpp:425] relu1 <- fc1
I0808 19:16:04.169569 32157 net.cpp:386] relu1 -> fc1 (in-place)
I0808 19:16:04.170233 32157 net.cpp:141] Setting up relu1
I0808 19:16:04.170245 32157 net.cpp:148] Top shape: 7000 4096 (28672000)
I0808 19:16:04.170259 32157 net.cpp:156] Memory required for data: 1538680864
I0808 19:16:04.170263 32157 layer_factory.hpp:77] Creating layer drop1
I0808 19:16:04.170276 32157 net.cpp:91] Creating Layer drop1
I0808 19:16:04.170280 32157 net.cpp:425] drop1 <- fc1
I0808 19:16:04.170285 32157 net.cpp:386] drop1 -> fc1 (in-place)
I0808 19:16:04.170320 32157 net.cpp:141] Setting up drop1
I0808 19:16:04.170326 32157 net.cpp:148] Top shape: 7000 4096 (28672000)
I0808 19:16:04.170328 32157 net.cpp:156] Memory required for data: 1653368864
I0808 19:16:04.170354 32157 layer_factory.hpp:77] Creating layer fc2
I0808 19:16:04.170370 32157 net.cpp:91] Creating Layer fc2
I0808 19:16:04.170374 32157 net.cpp:425] fc2 <- fc1
I0808 19:16:04.170385 32157 net.cpp:399] fc2 -> fc2
I0808 19:16:04.366116 32157 net.cpp:141] Setting up fc2
I0808 19:16:04.366163 32157 net.cpp:148] Top shape: 7000 4096 (28672000)
I0808 19:16:04.366166 32157 net.cpp:156] Memory required for data: 1768056864
I0808 19:16:04.366200 32157 layer_factory.hpp:77] Creating layer relu2
I0808 19:16:04.366227 32157 net.cpp:91] Creating Layer relu2
I0808 19:16:04.366232 32157 net.cpp:425] relu2 <- fc2
I0808 19:16:04.366240 32157 net.cpp:386] relu2 -> fc2 (in-place)
I0808 19:16:04.366515 32157 net.cpp:141] Setting up relu2
I0808 19:16:04.366528 32157 net.cpp:148] Top shape: 7000 4096 (28672000)
I0808 19:16:04.366530 32157 net.cpp:156] Memory required for data: 1882744864
I0808 19:16:04.366534 32157 layer_factory.hpp:77] Creating layer drop2
I0808 19:16:04.366541 32157 net.cpp:91] Creating Layer drop2
I0808 19:16:04.366544 32157 net.cpp:425] drop2 <- fc2
I0808 19:16:04.366549 32157 net.cpp:386] drop2 -> fc2 (in-place)
I0808 19:16:04.366581 32157 net.cpp:141] Setting up drop2
I0808 19:16:04.366588 32157 net.cpp:148] Top shape: 7000 4096 (28672000)
I0808 19:16:04.366590 32157 net.cpp:156] Memory required for data: 1997432864
I0808 19:16:04.366593 32157 layer_factory.hpp:77] Creating layer fc3
I0808 19:16:04.366602 32157 net.cpp:91] Creating Layer fc3
I0808 19:16:04.366605 32157 net.cpp:425] fc3 <- fc2
I0808 19:16:04.366611 32157 net.cpp:399] fc3 -> fc3
I0808 19:16:04.366879 32157 net.cpp:141] Setting up fc3
I0808 19:16:04.366886 32157 net.cpp:148] Top shape: 7000 3 (21000)
I0808 19:16:04.366889 32157 net.cpp:156] Memory required for data: 1997516864
I0808 19:16:04.366894 32157 layer_factory.hpp:77] Creating layer loss
I0808 19:16:04.366900 32157 net.cpp:91] Creating Layer loss
I0808 19:16:04.366904 32157 net.cpp:425] loss <- fc3
I0808 19:16:04.366909 32157 net.cpp:425] loss <- normal_point
I0808 19:16:04.366917 32157 net.cpp:399] loss -> loss
I0808 19:16:04.366987 32157 net.cpp:141] Setting up loss
…
