…
I0807 13:34:17.469832 23620 solver.cpp:91] Creating training net from net file: /home/qinhong/project/normal_recovery/model/t3/train.prototxt
I0807 13:34:17.470573 23620 net.cpp:49] Initializing net from parameters: 
name: "hyper_normal_layers"
state {
  phase: TRAIN
}
layer {
  name: "data"
  type: "ImageNormalData"
  top: "data"
  top: "normal"
  transform_param {
    scale: 0.00390625
    mirror: true
    mean_value: 104
    mean_value: 117
    mean_value: 123
  }
  image_data_param {
    source: "/home/qinhong/project/normal_recovery/data/source.txt"
    batch_size: 5
    shuffle: true
    new_height: 224
    new_width: 224
  }
}
layer {
  name: "conv1_1"
  type: "Convolution"
  bottom: "data"
  top: "conv1_1"
  param {
    lr_mult: 1
    decay_mult: 1
  }
  param {
    lr_mult: 2
    decay_mult: 0
  }
  convolution_param {
    num_output: 64
    pad: 1
    kernel_size: 3
  }
}
layer {
  name: "relu1_1"
  type: "ReLU"
  bottom: "conv1_1"
  top: "conv1_1"
}
layer {
  name: "conv1_2"
  type: "Convolution"
  bottom: "conv1_1"
  top: "conv1_2"
  param {
    lr_mult: 1
    decay_mult: 1
  }
  param {
    lr_mult: 2
    decay_mult: 0
  }
  convolution_param {
    num_output: 64
    pad: 1
    kernel_size: 3
  }
}
layer {
  name: "relu1_2"
  type: "ReLU"
  bottom: "conv1_2"
  top: "conv1_2"
}
layer {
  name: "pool1"
  type: "Pooling"
  bottom: "conv1_2"
  top: "pool1"
  pooling_param {
    pool: MAX
    kernel_size: 2
    stride: 2
  }
}
layer {
  name: "conv2_1"
  type: "Convolution"
  bottom: "pool1"
  top: "conv2_1"
  param {
    lr_mult: 1
    decay_mult: 1
  }
  param {
    lr_mult: 2
    decay_mult: 0
  }
  convolution_param {
    num_output: 128
    pad: 1
    kernel_size: 3
  }
}
layer {
  name: "relu2_1"
  type: "ReLU"
  bottom: "conv2_1"
  top: "conv2_1"
}
layer {
  name: "conv2_2"
  type: "Convolution"
  bottom: "conv2_1"
  top: "conv2_2"
  param {
    lr_mult: 1
    decay_mult: 1
  }
  param {
    lr_mult: 2
    decay_mult: 0
  }
  convolution_param {
    num_output: 128
    pad: 1
    kernel_size: 3
  }
}
layer {
  name: "relu2_2"
  type: "ReLU"
  bottom: "conv2_2"
  top: "conv2_2"
}
layer {
  name: "pool2"
  type: "Pooling"
  bottom: "conv2_2"
  top: "pool2"
  pooling_param {
    pool: MAX
    kernel_size: 2
    stride: 2
  }
}
layer {
  name: "conv3_1"
  type: "Convolution"
  bottom: "pool2"
  top: "conv3_1"
  param {
    lr_mult: 1
    decay_mult: 1
  }
  param {
    lr_mult: 2
    decay_mult: 0
  }
  convolution_param {
    num_output: 256
    pad: 1
    kernel_size: 3
  }
}
layer {
  name: "relu3_1"
  type: "ReLU"
  bottom: "conv3_1"
  top: "conv3_1"
}
layer {
  name: "conv3_2"
  type: "Convolution"
  bottom: "conv3_1"
  top: "conv3_2"
  param {
    lr_mult: 1
    decay_mult: 1
  }
  param {
    lr_mult: 2
    decay_mult: 0
  }
  convolution_param {
    num_output: 256
    pad: 1
    kernel_size: 3
  }
}
layer {
  name: "relu3_2"
  type: "ReLU"
  bottom: "conv3_2"
  top: "conv3_2"
}
layer {
  name: "conv3_3"
  type: "Convolution"
  bottom: "conv3_2"
  top: "conv3_3"
  param {
    lr_mult: 1
    decay_mult: 1
  }
  param {
    lr_mult: 2
    decay_mult: 0
  }
  convolution_param {
    num_output: 256
    pad: 1
    kernel_size: 3
  }
}
layer {
  name: "relu3_3"
  type: "ReLU"
  bottom: "conv3_3"
  top: "conv3_3"
}
layer {
  name: "pool3"
  type: "Pooling"
  bottom: "conv3_3"
  top: "pool3"
  pooling_param {
    pool: MAX
    kernel_size: 2
    stride: 2
  }
}
layer {
  name: "conv4_1"
  type: "Convolution"
  bottom: "pool3"
  top: "conv4_1"
  param {
    lr_mult: 1
    decay_mult: 1
  }
  param {
    lr_mult: 2
    decay_mult: 0
  }
  convolution_param {
    num_output: 512
    pad: 1
    kernel_size: 3
  }
}
layer {
  name: "relu4_1"
  type: "ReLU"
  bottom: "conv4_1"
  top: "conv4_1"
}
layer {
  name: "conv4_2"
  type: "Convolution"
  bottom: "conv4_1"
  top: "conv4_2"
  param {
    lr_mult: 1
    decay_mult: 1
  }
  param {
    lr_mult: 2
    decay_mult: 0
  }
  convolution_param {
    num_output: 512
    pad: 1
    kernel_size: 3
  }
}
layer {
  name: "relu4_2"
  type: "ReLU"
  bottom: "conv4_2"
  top: "conv4_2"
}
layer {
  name: "conv4_3"
  type: "Convolution"
  bottom: "conv4_2"
  top: "conv4_3"
  param {
    lr_mult: 1
    decay_mult: 1
  }
  param {
    lr_mult: 2
    decay_mult: 0
  }
  convolution_param {
    num_output: 512
    pad: 1
    kernel_size: 3
  }
}
layer {
  name: "relu4_3"
  type: "ReLU"
  bottom: "conv4_3"
  top: "conv4_3"
}
layer {
  name: "pool4"
  type: "Pooling"
  bottom: "conv4_3"
  top: "pool4"
  pooling_param {
    pool: MAX
    kernel_size: 2
    stride: 2
  }
}
layer {
  name: "conv5_1"
  type: "Convolution"
  bottom: "pool4"
  top: "conv5_1"
  param {
    lr_mult: 1
    decay_mult: 1
  }
  param {
    lr_mult: 2
    decay_mult: 0
  }
  convolution_param {
    num_output: 512
    pad: 1
    kernel_size: 3
  }
}
layer {
  name: "relu5_1"
  type: "ReLU"
  bottom: "conv5_1"
  top: "conv5_1"
}
layer {
  name: "conv5_2"
  type: "Convolution"
  bottom: "conv5_1"
  top: "conv5_2"
  param {
    lr_mult: 1
    decay_mult: 1
  }
  param {
    lr_mult: 2
    decay_mult: 0
  }
  convolution_param {
    num_output: 512
    pad: 1
    kernel_size: 3
  }
}
layer {
  name: "relu5_2"
  type: "ReLU"
  bottom: "conv5_2"
  top: "conv5_2"
}
layer {
  name: "conv5_3"
  type: "Convolution"
  bottom: "conv5_2"
  top: "conv5_3"
  param {
    lr_mult: 1
    decay_mult: 1
  }
  param {
    lr_mult: 2
    decay_mult: 0
  }
  convolution_param {
    num_output: 512
    pad: 1
    kernel_size: 3
  }
}
layer {
  name: "relu5_3"
  type: "ReLU"
  bottom: "conv5_3"
  top: "conv5_3"
}
layer {
  name: "pool5"
  type: "Pooling"
  bottom: "conv5_3"
  top: "pool5"
  pooling_param {
    pool: MAX
    kernel_size: 2
    stride: 2
  }
}
layer {
  name: "fc6-conv"
  type: "Convolution"
  bottom: "pool5"
  top: "fc6-conv"
  param {
    lr_mult: 1
    decay_mult: 1
  }
  param {
    lr_mult: 2
    decay_mult: 0
  }
  convolution_param {
    num_output: 4096
    kernel_size: 7
  }
}
layer {
  name: "relu6"
  type: "ReLU"
  bottom: "fc6-conv"
  top: "fc6-conv"
}
layer {
  name: "drop6"
  type: "Dropout"
  bottom: "fc6-conv"
  top: "fc6-conv"
  dropout_param {
    dropout_ratio: 0.5
  }
}
layer {
  name: "fc7-conv"
  type: "Convolution"
  bottom: "fc6-conv"
  top: "fc7-conv"
  param {
    lr_mult: 1
    decay_mult: 1
  }
  param {
    lr_mult: 2
    decay_mult: 0
  }
  convolution_param {
    num_output: 4096
    kernel_size: 1
  }
}
layer {
  name: "relu7"
  type: "ReLU"
  bottom: "fc7-conv"
  top: "fc7-conv"
}
layer {
  name: "hypercolumns"
  type: "HyperColumns"
  bottom: "normal"
  bottom: "conv1_2"
  bottom: "conv2_2"
  bottom: "conv3_3"
  bottom: "conv4_3"
  bottom: "conv5_3"
  bottom: "fc7-conv"
  top: "hypercolumns"
  top: "normal_point"
  hypercolumns_param {
    is_train: true
  }
}
layer {
  name: "fc1"
  type: "InnerProduct"
  bottom: "hypercolumns"
  top: "fc1"
  param {
    lr_mult: 1
    decay_mult: 1
  }
  param {
    lr_mult: 2
    decay_mult: 0
  }
  inner_product_param {
    num_output: 4096
    weight_filler {
      type: "gaussian"
      std: 0.003
    }
    bias_filler {
      type: "constant"
      value: 0
    }
  }
}
layer {
  name: "relu1"
  type: "ReLU"
  bottom: "fc1"
  top: "fc1"
}
layer {
  name: "drop1"
  type: "Dropout"
  bottom: "fc1"
  top: "fc1"
  dropout_param {
    dropout_ratio: 0.5
  }
}
layer {
  name: "fc2"
  type: "InnerProduct"
  bottom: "fc1"
  top: "fc2"
  param {
    lr_mult: 1
    decay_mult: 1
  }
  param {
    lr_mult: 2
    decay_mult: 0
  }
  inner_product_param {
    num_output: 4096
    weight_filler {
      type: "gaussian"
      std: 0.002
    }
    bias_filler {
      type: "constant"
      value: 0
    }
  }
}
layer {
  name: "relu2"
  type: "ReLU"
  bottom: "fc2"
  top: "fc2"
}
layer {
  name: "drop2"
  type: "Dropout"
  bottom: "fc2"
  top: "fc2"
  dropout_param {
    dropout_ratio: 0.5
  }
}
layer {
  name: "fc3"
  type: "InnerProduct"
  bottom: "fc2"
  top: "fc3"
  param {
    lr_mult: 1
    decay_mult: 1
  }
  param {
    lr_mult: 2
    decay_mult: 0
  }
  inner_product_param {
    num_output: 3
    weight_filler {
      type: "gaussian"
      std: 0.001
    }
    bias_filler {
      type: "constant"
      value: 0
    }
  }
}
layer {
  name: "loss"
  type: "EuclideanLoss"
  bottom: "fc3"
  bottom: "normal_point"
  top: "loss"
  propagate_down: true
  propagate_down: false
}
I0807 13:34:17.470795 23620 layer_factory.hpp:77] Creating layer data
I0807 13:34:17.470831 23620 net.cpp:91] Creating Layer data
I0807 13:34:17.470840 23620 net.cpp:399] data -> data
I0807 13:34:17.470865 23620 net.cpp:399] data -> normal
I0807 13:34:17.471248 23620 image_normal_data_layer.cpp:43] opeing file /home/qinhong/project/normal_recovery/data/source.txt
I0807 13:34:17.475706 23620 image_normal_data_layer.cpp:54] Shuffing data
I0807 13:34:17.476680 23620 image_normal_data_layer.cpp:59] A total of 4105 images.
I0807 13:34:17.500936 23620 image_normal_data_layer.cpp:79] output data size: 5,3,224,224
I0807 13:34:17.511634 23620 net.cpp:141] Setting up data
I0807 13:34:17.511654 23620 net.cpp:148] Top shape: 5 3 224 224 (752640)
I0807 13:34:17.511662 23620 net.cpp:148] Top shape: 5 3 224 224 (752640)
I0807 13:34:17.511665 23620 net.cpp:156] Memory required for data: 6021120
I0807 13:34:17.511672 23620 layer_factory.hpp:77] Creating layer conv1_1
I0807 13:34:17.511692 23620 net.cpp:91] Creating Layer conv1_1
I0807 13:34:17.511698 23620 net.cpp:425] conv1_1 <- data
I0807 13:34:17.511713 23620 net.cpp:399] conv1_1 -> conv1_1
I0807 13:34:17.736196 23620 net.cpp:141] Setting up conv1_1
I0807 13:34:17.736232 23620 net.cpp:148] Top shape: 5 64 224 224 (16056320)
I0807 13:34:17.736235 23620 net.cpp:156] Memory required for data: 70246400
I0807 13:34:17.736260 23620 layer_factory.hpp:77] Creating layer relu1_1
I0807 13:34:17.736273 23620 net.cpp:91] Creating Layer relu1_1
I0807 13:34:17.736276 23620 net.cpp:425] relu1_1 <- conv1_1
I0807 13:34:17.736282 23620 net.cpp:386] relu1_1 -> conv1_1 (in-place)
I0807 13:34:17.736605 23620 net.cpp:141] Setting up relu1_1
I0807 13:34:17.736620 23620 net.cpp:148] Top shape: 5 64 224 224 (16056320)
I0807 13:34:17.736624 23620 net.cpp:156] Memory required for data: 134471680
I0807 13:34:17.736634 23620 layer_factory.hpp:77] Creating layer conv1_2
I0807 13:34:17.736644 23620 net.cpp:91] Creating Layer conv1_2
I0807 13:34:17.736646 23620 net.cpp:425] conv1_2 <- conv1_1
I0807 13:34:17.736652 23620 net.cpp:399] conv1_2 -> conv1_2
I0807 13:34:17.737723 23620 net.cpp:141] Setting up conv1_2
I0807 13:34:17.737740 23620 net.cpp:148] Top shape: 5 64 224 224 (16056320)
I0807 13:34:17.737742 23620 net.cpp:156] Memory required for data: 198696960
I0807 13:34:17.737769 23620 layer_factory.hpp:77] Creating layer relu1_2
I0807 13:34:17.737777 23620 net.cpp:91] Creating Layer relu1_2
I0807 13:34:17.737782 23620 net.cpp:425] relu1_2 <- conv1_2
I0807 13:34:17.737787 23620 net.cpp:386] relu1_2 -> conv1_2 (in-place)
I0807 13:34:17.738075 23620 net.cpp:141] Setting up relu1_2
I0807 13:34:17.738088 23620 net.cpp:148] Top shape: 5 64 224 224 (16056320)
I0807 13:34:17.738091 23620 net.cpp:156] Memory required for data: 262922240
I0807 13:34:17.738095 23620 layer_factory.hpp:77] Creating layer conv1_2_relu1_2_0_split
I0807 13:34:17.738101 23620 net.cpp:91] Creating Layer conv1_2_relu1_2_0_split
I0807 13:34:17.738104 23620 net.cpp:425] conv1_2_relu1_2_0_split <- conv1_2
I0807 13:34:17.738111 23620 net.cpp:399] conv1_2_relu1_2_0_split -> conv1_2_relu1_2_0_split_0
I0807 13:34:17.738118 23620 net.cpp:399] conv1_2_relu1_2_0_split -> conv1_2_relu1_2_0_split_1
I0807 13:34:17.738160 23620 net.cpp:141] Setting up conv1_2_relu1_2_0_split
I0807 13:34:17.738168 23620 net.cpp:148] Top shape: 5 64 224 224 (16056320)
I0807 13:34:17.738173 23620 net.cpp:148] Top shape: 5 64 224 224 (16056320)
I0807 13:34:17.738175 23620 net.cpp:156] Memory required for data: 391372800
I0807 13:34:17.738198 23620 layer_factory.hpp:77] Creating layer pool1
I0807 13:34:17.738205 23620 net.cpp:91] Creating Layer pool1
I0807 13:34:17.738209 23620 net.cpp:425] pool1 <- conv1_2_relu1_2_0_split_0
I0807 13:34:17.738214 23620 net.cpp:399] pool1 -> pool1
I0807 13:34:17.738276 23620 net.cpp:141] Setting up pool1
I0807 13:34:17.738284 23620 net.cpp:148] Top shape: 5 64 112 112 (4014080)
I0807 13:34:17.738287 23620 net.cpp:156] Memory required for data: 407429120
I0807 13:34:17.738293 23620 layer_factory.hpp:77] Creating layer conv2_1
I0807 13:34:17.738301 23620 net.cpp:91] Creating Layer conv2_1
I0807 13:34:17.738304 23620 net.cpp:425] conv2_1 <- pool1
I0807 13:34:17.738312 23620 net.cpp:399] conv2_1 -> conv2_1
I0807 13:34:17.740592 23620 net.cpp:141] Setting up conv2_1
I0807 13:34:17.740609 23620 net.cpp:148] Top shape: 5 128 112 112 (8028160)
I0807 13:34:17.740619 23620 net.cpp:156] Memory required for data: 439541760
I0807 13:34:17.740628 23620 layer_factory.hpp:77] Creating layer relu2_1
I0807 13:34:17.740636 23620 net.cpp:91] Creating Layer relu2_1
I0807 13:34:17.740639 23620 net.cpp:425] relu2_1 <- conv2_1
I0807 13:34:17.740644 23620 net.cpp:386] relu2_1 -> conv2_1 (in-place)
I0807 13:34:17.740835 23620 net.cpp:141] Setting up relu2_1
I0807 13:34:17.740847 23620 net.cpp:148] Top shape: 5 128 112 112 (8028160)
I0807 13:34:17.740850 23620 net.cpp:156] Memory required for data: 471654400
I0807 13:34:17.740854 23620 layer_factory.hpp:77] Creating layer conv2_2
I0807 13:34:17.740862 23620 net.cpp:91] Creating Layer conv2_2
I0807 13:34:17.740865 23620 net.cpp:425] conv2_2 <- conv2_1
I0807 13:34:17.740870 23620 net.cpp:399] conv2_2 -> conv2_2
I0807 13:34:17.742106 23620 net.cpp:141] Setting up conv2_2
I0807 13:34:17.742122 23620 net.cpp:148] Top shape: 5 128 112 112 (8028160)
I0807 13:34:17.742126 23620 net.cpp:156] Memory required for data: 503767040
I0807 13:34:17.742133 23620 layer_factory.hpp:77] Creating layer relu2_2
I0807 13:34:17.742141 23620 net.cpp:91] Creating Layer relu2_2
I0807 13:34:17.742144 23620 net.cpp:425] relu2_2 <- conv2_2
I0807 13:34:17.742149 23620 net.cpp:386] relu2_2 -> conv2_2 (in-place)
I0807 13:34:17.742461 23620 net.cpp:141] Setting up relu2_2
I0807 13:34:17.742475 23620 net.cpp:148] Top shape: 5 128 112 112 (8028160)
I0807 13:34:17.742477 23620 net.cpp:156] Memory required for data: 535879680
I0807 13:34:17.742481 23620 layer_factory.hpp:77] Creating layer conv2_2_relu2_2_0_split
I0807 13:34:17.742488 23620 net.cpp:91] Creating Layer conv2_2_relu2_2_0_split
I0807 13:34:17.742491 23620 net.cpp:425] conv2_2_relu2_2_0_split <- conv2_2
I0807 13:34:17.742497 23620 net.cpp:399] conv2_2_relu2_2_0_split -> conv2_2_relu2_2_0_split_0
I0807 13:34:17.742506 23620 net.cpp:399] conv2_2_relu2_2_0_split -> conv2_2_relu2_2_0_split_1
I0807 13:34:17.742550 23620 net.cpp:141] Setting up conv2_2_relu2_2_0_split
I0807 13:34:17.742559 23620 net.cpp:148] Top shape: 5 128 112 112 (8028160)
I0807 13:34:17.742563 23620 net.cpp:148] Top shape: 5 128 112 112 (8028160)
I0807 13:34:17.742566 23620 net.cpp:156] Memory required for data: 600104960
I0807 13:34:17.742569 23620 layer_factory.hpp:77] Creating layer pool2
I0807 13:34:17.742574 23620 net.cpp:91] Creating Layer pool2
I0807 13:34:17.742578 23620 net.cpp:425] pool2 <- conv2_2_relu2_2_0_split_0
I0807 13:34:17.742583 23620 net.cpp:399] pool2 -> pool2
I0807 13:34:17.742633 23620 net.cpp:141] Setting up pool2
I0807 13:34:17.742642 23620 net.cpp:148] Top shape: 5 128 56 56 (2007040)
I0807 13:34:17.742645 23620 net.cpp:156] Memory required for data: 608133120
I0807 13:34:17.742647 23620 layer_factory.hpp:77] Creating layer conv3_1
I0807 13:34:17.742657 23620 net.cpp:91] Creating Layer conv3_1
I0807 13:34:17.742661 23620 net.cpp:425] conv3_1 <- pool2
I0807 13:34:17.742672 23620 net.cpp:399] conv3_1 -> conv3_1
I0807 13:34:17.744446 23620 net.cpp:141] Setting up conv3_1
I0807 13:34:17.744460 23620 net.cpp:148] Top shape: 5 256 56 56 (4014080)
I0807 13:34:17.744463 23620 net.cpp:156] Memory required for data: 624189440
I0807 13:34:17.744485 23620 layer_factory.hpp:77] Creating layer relu3_1
I0807 13:34:17.744494 23620 net.cpp:91] Creating Layer relu3_1
I0807 13:34:17.744498 23620 net.cpp:425] relu3_1 <- conv3_1
I0807 13:34:17.744503 23620 net.cpp:386] relu3_1 -> conv3_1 (in-place)
I0807 13:34:17.744817 23620 net.cpp:141] Setting up relu3_1
I0807 13:34:17.744832 23620 net.cpp:148] Top shape: 5 256 56 56 (4014080)
I0807 13:34:17.744834 23620 net.cpp:156] Memory required for data: 640245760
I0807 13:34:17.744837 23620 layer_factory.hpp:77] Creating layer conv3_2
I0807 13:34:17.744848 23620 net.cpp:91] Creating Layer conv3_2
I0807 13:34:17.744850 23620 net.cpp:425] conv3_2 <- conv3_1
I0807 13:34:17.744858 23620 net.cpp:399] conv3_2 -> conv3_2
I0807 13:34:17.747422 23620 net.cpp:141] Setting up conv3_2
I0807 13:34:17.747438 23620 net.cpp:148] Top shape: 5 256 56 56 (4014080)
I0807 13:34:17.747442 23620 net.cpp:156] Memory required for data: 656302080
I0807 13:34:17.747453 23620 layer_factory.hpp:77] Creating layer relu3_2
I0807 13:34:17.747463 23620 net.cpp:91] Creating Layer relu3_2
I0807 13:34:17.747468 23620 net.cpp:425] relu3_2 <- conv3_2
I0807 13:34:17.747475 23620 net.cpp:386] relu3_2 -> conv3_2 (in-place)
I0807 13:34:17.747670 23620 net.cpp:141] Setting up relu3_2
I0807 13:34:17.747681 23620 net.cpp:148] Top shape: 5 256 56 56 (4014080)
I0807 13:34:17.747684 23620 net.cpp:156] Memory required for data: 672358400
I0807 13:34:17.747687 23620 layer_factory.hpp:77] Creating layer conv3_3
I0807 13:34:17.747699 23620 net.cpp:91] Creating Layer conv3_3
I0807 13:34:17.747701 23620 net.cpp:425] conv3_3 <- conv3_2
I0807 13:34:17.747709 23620 net.cpp:399] conv3_3 -> conv3_3
I0807 13:34:17.750377 23620 net.cpp:141] Setting up conv3_3
I0807 13:34:17.750396 23620 net.cpp:148] Top shape: 5 256 56 56 (4014080)
I0807 13:34:17.750398 23620 net.cpp:156] Memory required for data: 688414720
I0807 13:34:17.750408 23620 layer_factory.hpp:77] Creating layer relu3_3
I0807 13:34:17.750414 23620 net.cpp:91] Creating Layer relu3_3
I0807 13:34:17.750417 23620 net.cpp:425] relu3_3 <- conv3_3
I0807 13:34:17.750422 23620 net.cpp:386] relu3_3 -> conv3_3 (in-place)
I0807 13:34:17.750764 23620 net.cpp:141] Setting up relu3_3
I0807 13:34:17.750778 23620 net.cpp:148] Top shape: 5 256 56 56 (4014080)
I0807 13:34:17.750782 23620 net.cpp:156] Memory required for data: 704471040
I0807 13:34:17.750789 23620 layer_factory.hpp:77] Creating layer conv3_3_relu3_3_0_split
I0807 13:34:17.750795 23620 net.cpp:91] Creating Layer conv3_3_relu3_3_0_split
I0807 13:34:17.750798 23620 net.cpp:425] conv3_3_relu3_3_0_split <- conv3_3
I0807 13:34:17.750807 23620 net.cpp:399] conv3_3_relu3_3_0_split -> conv3_3_relu3_3_0_split_0
I0807 13:34:17.750814 23620 net.cpp:399] conv3_3_relu3_3_0_split -> conv3_3_relu3_3_0_split_1
I0807 13:34:17.750866 23620 net.cpp:141] Setting up conv3_3_relu3_3_0_split
I0807 13:34:17.750874 23620 net.cpp:148] Top shape: 5 256 56 56 (4014080)
I0807 13:34:17.750880 23620 net.cpp:148] Top shape: 5 256 56 56 (4014080)
I0807 13:34:17.750881 23620 net.cpp:156] Memory required for data: 736583680
I0807 13:34:17.750885 23620 layer_factory.hpp:77] Creating layer pool3
I0807 13:34:17.750890 23620 net.cpp:91] Creating Layer pool3
I0807 13:34:17.750895 23620 net.cpp:425] pool3 <- conv3_3_relu3_3_0_split_0
I0807 13:34:17.750901 23620 net.cpp:399] pool3 -> pool3
I0807 13:34:17.750948 23620 net.cpp:141] Setting up pool3
I0807 13:34:17.750955 23620 net.cpp:148] Top shape: 5 256 28 28 (1003520)
I0807 13:34:17.750958 23620 net.cpp:156] Memory required for data: 740597760
I0807 13:34:17.750962 23620 layer_factory.hpp:77] Creating layer conv4_1
I0807 13:34:17.750970 23620 net.cpp:91] Creating Layer conv4_1
I0807 13:34:17.750973 23620 net.cpp:425] conv4_1 <- pool3
I0807 13:34:17.750979 23620 net.cpp:399] conv4_1 -> conv4_1
I0807 13:34:17.755311 23620 net.cpp:141] Setting up conv4_1
I0807 13:34:17.755331 23620 net.cpp:148] Top shape: 5 512 28 28 (2007040)
I0807 13:34:17.755340 23620 net.cpp:156] Memory required for data: 748625920
I0807 13:34:17.755347 23620 layer_factory.hpp:77] Creating layer relu4_1
I0807 13:34:17.755367 23620 net.cpp:91] Creating Layer relu4_1
I0807 13:34:17.755372 23620 net.cpp:425] relu4_1 <- conv4_1
I0807 13:34:17.755376 23620 net.cpp:386] relu4_1 -> conv4_1 (in-place)
I0807 13:34:17.755703 23620 net.cpp:141] Setting up relu4_1
I0807 13:34:17.755722 23620 net.cpp:148] Top shape: 5 512 28 28 (2007040)
I0807 13:34:17.755725 23620 net.cpp:156] Memory required for data: 756654080
I0807 13:34:17.755729 23620 layer_factory.hpp:77] Creating layer conv4_2
I0807 13:34:17.755746 23620 net.cpp:91] Creating Layer conv4_2
I0807 13:34:17.755749 23620 net.cpp:425] conv4_2 <- conv4_1
I0807 13:34:17.755758 23620 net.cpp:399] conv4_2 -> conv4_2
I0807 13:34:17.762244 23620 net.cpp:141] Setting up conv4_2
I0807 13:34:17.762262 23620 net.cpp:148] Top shape: 5 512 28 28 (2007040)
I0807 13:34:17.762265 23620 net.cpp:156] Memory required for data: 764682240
I0807 13:34:17.762282 23620 layer_factory.hpp:77] Creating layer relu4_2
I0807 13:34:17.762290 23620 net.cpp:91] Creating Layer relu4_2
I0807 13:34:17.762292 23620 net.cpp:425] relu4_2 <- conv4_2
I0807 13:34:17.762300 23620 net.cpp:386] relu4_2 -> conv4_2 (in-place)
I0807 13:34:17.762498 23620 net.cpp:141] Setting up relu4_2
I0807 13:34:17.762509 23620 net.cpp:148] Top shape: 5 512 28 28 (2007040)
I0807 13:34:17.762512 23620 net.cpp:156] Memory required for data: 772710400
I0807 13:34:17.762516 23620 layer_factory.hpp:77] Creating layer conv4_3
I0807 13:34:17.762524 23620 net.cpp:91] Creating Layer conv4_3
I0807 13:34:17.762528 23620 net.cpp:425] conv4_3 <- conv4_2
I0807 13:34:17.762536 23620 net.cpp:399] conv4_3 -> conv4_3
I0807 13:34:17.768985 23620 net.cpp:141] Setting up conv4_3
I0807 13:34:17.769006 23620 net.cpp:148] Top shape: 5 512 28 28 (2007040)
I0807 13:34:17.769016 23620 net.cpp:156] Memory required for data: 780738560
I0807 13:34:17.769023 23620 layer_factory.hpp:77] Creating layer relu4_3
I0807 13:34:17.769029 23620 net.cpp:91] Creating Layer relu4_3
I0807 13:34:17.769033 23620 net.cpp:425] relu4_3 <- conv4_3
I0807 13:34:17.769038 23620 net.cpp:386] relu4_3 -> conv4_3 (in-place)
I0807 13:34:17.769371 23620 net.cpp:141] Setting up relu4_3
I0807 13:34:17.769385 23620 net.cpp:148] Top shape: 5 512 28 28 (2007040)
I0807 13:34:17.769388 23620 net.cpp:156] Memory required for data: 788766720
I0807 13:34:17.769398 23620 layer_factory.hpp:77] Creating layer conv4_3_relu4_3_0_split
I0807 13:34:17.769404 23620 net.cpp:91] Creating Layer conv4_3_relu4_3_0_split
I0807 13:34:17.769407 23620 net.cpp:425] conv4_3_relu4_3_0_split <- conv4_3
I0807 13:34:17.769415 23620 net.cpp:399] conv4_3_relu4_3_0_split -> conv4_3_relu4_3_0_split_0
I0807 13:34:17.769423 23620 net.cpp:399] conv4_3_relu4_3_0_split -> conv4_3_relu4_3_0_split_1
I0807 13:34:17.769472 23620 net.cpp:141] Setting up conv4_3_relu4_3_0_split
I0807 13:34:17.769479 23620 net.cpp:148] Top shape: 5 512 28 28 (2007040)
I0807 13:34:17.769484 23620 net.cpp:148] Top shape: 5 512 28 28 (2007040)
I0807 13:34:17.769486 23620 net.cpp:156] Memory required for data: 804823040
I0807 13:34:17.769490 23620 layer_factory.hpp:77] Creating layer pool4
I0807 13:34:17.769497 23620 net.cpp:91] Creating Layer pool4
I0807 13:34:17.769500 23620 net.cpp:425] pool4 <- conv4_3_relu4_3_0_split_0
I0807 13:34:17.769507 23620 net.cpp:399] pool4 -> pool4
I0807 13:34:17.769558 23620 net.cpp:141] Setting up pool4
I0807 13:34:17.769567 23620 net.cpp:148] Top shape: 5 512 14 14 (501760)
I0807 13:34:17.769569 23620 net.cpp:156] Memory required for data: 806830080
I0807 13:34:17.769572 23620 layer_factory.hpp:77] Creating layer conv5_1
I0807 13:34:17.769587 23620 net.cpp:91] Creating Layer conv5_1
I0807 13:34:17.769592 23620 net.cpp:425] conv5_1 <- pool4
I0807 13:34:17.769599 23620 net.cpp:399] conv5_1 -> conv5_1
I0807 13:34:17.776602 23620 net.cpp:141] Setting up conv5_1
I0807 13:34:17.776633 23620 net.cpp:148] Top shape: 5 512 14 14 (501760)
I0807 13:34:17.776636 23620 net.cpp:156] Memory required for data: 808837120
I0807 13:34:17.776646 23620 layer_factory.hpp:77] Creating layer relu5_1
I0807 13:34:17.776656 23620 net.cpp:91] Creating Layer relu5_1
I0807 13:34:17.776685 23620 net.cpp:425] relu5_1 <- conv5_1
I0807 13:34:17.776692 23620 net.cpp:386] relu5_1 -> conv5_1 (in-place)
I0807 13:34:17.777016 23620 net.cpp:141] Setting up relu5_1
I0807 13:34:17.777030 23620 net.cpp:148] Top shape: 5 512 14 14 (501760)
I0807 13:34:17.777034 23620 net.cpp:156] Memory required for data: 810844160
I0807 13:34:17.777036 23620 layer_factory.hpp:77] Creating layer conv5_2
I0807 13:34:17.777048 23620 net.cpp:91] Creating Layer conv5_2
I0807 13:34:17.777052 23620 net.cpp:425] conv5_2 <- conv5_1
I0807 13:34:17.777060 23620 net.cpp:399] conv5_2 -> conv5_2
I0807 13:34:17.783087 23620 net.cpp:141] Setting up conv5_2
I0807 13:34:17.783105 23620 net.cpp:148] Top shape: 5 512 14 14 (501760)
I0807 13:34:17.783108 23620 net.cpp:156] Memory required for data: 812851200
I0807 13:34:17.783119 23620 layer_factory.hpp:77] Creating layer relu5_2
I0807 13:34:17.783134 23620 net.cpp:91] Creating Layer relu5_2
I0807 13:34:17.783139 23620 net.cpp:425] relu5_2 <- conv5_2
I0807 13:34:17.783144 23620 net.cpp:386] relu5_2 -> conv5_2 (in-place)
I0807 13:34:17.783351 23620 net.cpp:141] Setting up relu5_2
I0807 13:34:17.783363 23620 net.cpp:148] Top shape: 5 512 14 14 (501760)
I0807 13:34:17.783366 23620 net.cpp:156] Memory required for data: 814858240
I0807 13:34:17.783370 23620 layer_factory.hpp:77] Creating layer conv5_3
I0807 13:34:17.783380 23620 net.cpp:91] Creating Layer conv5_3
I0807 13:34:17.783382 23620 net.cpp:425] conv5_3 <- conv5_2
I0807 13:34:17.783390 23620 net.cpp:399] conv5_3 -> conv5_3
I0807 13:34:17.789971 23620 net.cpp:141] Setting up conv5_3
I0807 13:34:17.789988 23620 net.cpp:148] Top shape: 5 512 14 14 (501760)
I0807 13:34:17.789991 23620 net.cpp:156] Memory required for data: 816865280
I0807 13:34:17.789999 23620 layer_factory.hpp:77] Creating layer relu5_3
I0807 13:34:17.790005 23620 net.cpp:91] Creating Layer relu5_3
I0807 13:34:17.790009 23620 net.cpp:425] relu5_3 <- conv5_3
I0807 13:34:17.790015 23620 net.cpp:386] relu5_3 -> conv5_3 (in-place)
I0807 13:34:17.790344 23620 net.cpp:141] Setting up relu5_3
I0807 13:34:17.790365 23620 net.cpp:148] Top shape: 5 512 14 14 (501760)
I0807 13:34:17.790369 23620 net.cpp:156] Memory required for data: 818872320
I0807 13:34:17.790371 23620 layer_factory.hpp:77] Creating layer conv5_3_relu5_3_0_split
I0807 13:34:17.790385 23620 net.cpp:91] Creating Layer conv5_3_relu5_3_0_split
I0807 13:34:17.790387 23620 net.cpp:425] conv5_3_relu5_3_0_split <- conv5_3
I0807 13:34:17.790395 23620 net.cpp:399] conv5_3_relu5_3_0_split -> conv5_3_relu5_3_0_split_0
I0807 13:34:17.790405 23620 net.cpp:399] conv5_3_relu5_3_0_split -> conv5_3_relu5_3_0_split_1
I0807 13:34:17.790464 23620 net.cpp:141] Setting up conv5_3_relu5_3_0_split
I0807 13:34:17.790472 23620 net.cpp:148] Top shape: 5 512 14 14 (501760)
I0807 13:34:17.790477 23620 net.cpp:148] Top shape: 5 512 14 14 (501760)
I0807 13:34:17.790478 23620 net.cpp:156] Memory required for data: 822886400
I0807 13:34:17.790482 23620 layer_factory.hpp:77] Creating layer pool5
I0807 13:34:17.790489 23620 net.cpp:91] Creating Layer pool5
I0807 13:34:17.790493 23620 net.cpp:425] pool5 <- conv5_3_relu5_3_0_split_0
I0807 13:34:17.790499 23620 net.cpp:399] pool5 -> pool5
I0807 13:34:17.790554 23620 net.cpp:141] Setting up pool5
I0807 13:34:17.790566 23620 net.cpp:148] Top shape: 5 512 7 7 (125440)
I0807 13:34:17.790570 23620 net.cpp:156] Memory required for data: 823388160
I0807 13:34:17.790572 23620 layer_factory.hpp:77] Creating layer fc6-conv
I0807 13:34:17.790580 23620 net.cpp:91] Creating Layer fc6-conv
I0807 13:34:17.790583 23620 net.cpp:425] fc6-conv <- pool5
I0807 13:34:17.790591 23620 net.cpp:399] fc6-conv -> fc6-conv
I0807 13:34:18.064194 23620 net.cpp:141] Setting up fc6-conv
I0807 13:34:18.064234 23620 net.cpp:148] Top shape: 5 4096 1 1 (20480)
I0807 13:34:18.064239 23620 net.cpp:156] Memory required for data: 823470080
I0807 13:34:18.064249 23620 layer_factory.hpp:77] Creating layer relu6
I0807 13:34:18.064260 23620 net.cpp:91] Creating Layer relu6
I0807 13:34:18.064265 23620 net.cpp:425] relu6 <- fc6-conv
I0807 13:34:18.064297 23620 net.cpp:386] relu6 -> fc6-conv (in-place)
I0807 13:34:18.064630 23620 net.cpp:141] Setting up relu6
I0807 13:34:18.064643 23620 net.cpp:148] Top shape: 5 4096 1 1 (20480)
I0807 13:34:18.064646 23620 net.cpp:156] Memory required for data: 823552000
I0807 13:34:18.064651 23620 layer_factory.hpp:77] Creating layer drop6
I0807 13:34:18.064661 23620 net.cpp:91] Creating Layer drop6
I0807 13:34:18.064663 23620 net.cpp:425] drop6 <- fc6-conv
I0807 13:34:18.064671 23620 net.cpp:386] drop6 -> fc6-conv (in-place)
I0807 13:34:18.064709 23620 net.cpp:141] Setting up drop6
I0807 13:34:18.064718 23620 net.cpp:148] Top shape: 5 4096 1 1 (20480)
I0807 13:34:18.064720 23620 net.cpp:156] Memory required for data: 823633920
I0807 13:34:18.064723 23620 layer_factory.hpp:77] Creating layer fc7-conv
I0807 13:34:18.064735 23620 net.cpp:91] Creating Layer fc7-conv
I0807 13:34:18.064741 23620 net.cpp:425] fc7-conv <- fc6-conv
I0807 13:34:18.064749 23620 net.cpp:399] fc7-conv -> fc7-conv
I0807 13:34:18.111054 23620 net.cpp:141] Setting up fc7-conv
I0807 13:34:18.111093 23620 net.cpp:148] Top shape: 5 4096 1 1 (20480)
I0807 13:34:18.111096 23620 net.cpp:156] Memory required for data: 823715840
I0807 13:34:18.111106 23620 layer_factory.hpp:77] Creating layer relu7
I0807 13:34:18.111116 23620 net.cpp:91] Creating Layer relu7
I0807 13:34:18.111122 23620 net.cpp:425] relu7 <- fc7-conv
I0807 13:34:18.111129 23620 net.cpp:386] relu7 -> fc7-conv (in-place)
I0807 13:34:18.111352 23620 net.cpp:141] Setting up relu7
I0807 13:34:18.111364 23620 net.cpp:148] Top shape: 5 4096 1 1 (20480)
I0807 13:34:18.111367 23620 net.cpp:156] Memory required for data: 823797760
I0807 13:34:18.111371 23620 layer_factory.hpp:77] Creating layer hypercolumns
I0807 13:34:18.111379 23620 net.cpp:91] Creating Layer hypercolumns
I0807 13:34:18.111385 23620 net.cpp:425] hypercolumns <- normal
I0807 13:34:18.111392 23620 net.cpp:425] hypercolumns <- conv1_2_relu1_2_0_split_1
I0807 13:34:18.111398 23620 net.cpp:425] hypercolumns <- conv2_2_relu2_2_0_split_1
I0807 13:34:18.111403 23620 net.cpp:425] hypercolumns <- conv3_3_relu3_3_0_split_1
I0807 13:34:18.111407 23620 net.cpp:425] hypercolumns <- conv4_3_relu4_3_0_split_1
I0807 13:34:18.111410 23620 net.cpp:425] hypercolumns <- conv5_3_relu5_3_0_split_1
I0807 13:34:18.111414 23620 net.cpp:425] hypercolumns <- fc7-conv
I0807 13:34:18.111423 23620 net.cpp:399] hypercolumns -> hypercolumns
I0807 13:34:18.111450 23620 net.cpp:399] hypercolumns -> normal_point
I0807 13:34:18.111511 23620 net.cpp:141] Setting up hypercolumns
I0807 13:34:18.111521 23620 net.cpp:148] Top shape: 5000 5568 1 1 (27840000)
I0807 13:34:18.111526 23620 net.cpp:148] Top shape: 5000 3 (15000)
I0807 13:34:18.111528 23620 net.cpp:156] Memory required for data: 935217760
I0807 13:34:18.111531 23620 layer_factory.hpp:77] Creating layer fc1
I0807 13:34:18.111547 23620 net.cpp:91] Creating Layer fc1
I0807 13:34:18.111553 23620 net.cpp:425] fc1 <- hypercolumns
I0807 13:34:18.111560 23620 net.cpp:399] fc1 -> fc1
I0807 13:34:18.414085 23620 net.cpp:141] Setting up fc1
I0807 13:34:18.414134 23620 net.cpp:148] Top shape: 5000 4096 (20480000)
I0807 13:34:18.414136 23620 net.cpp:156] Memory required for data: 1017137760
I0807 13:34:18.414165 23620 layer_factory.hpp:77] Creating layer relu1
I0807 13:34:18.414180 23620 net.cpp:91] Creating Layer relu1
I0807 13:34:18.414188 23620 net.cpp:425] relu1 <- fc1
I0807 13:34:18.414196 23620 net.cpp:386] relu1 -> fc1 (in-place)
I0807 13:34:18.415019 23620 net.cpp:141] Setting up relu1
I0807 13:34:18.415031 23620 net.cpp:148] Top shape: 5000 4096 (20480000)
I0807 13:34:18.415045 23620 net.cpp:156] Memory required for data: 1099057760
I0807 13:34:18.415048 23620 layer_factory.hpp:77] Creating layer drop1
I0807 13:34:18.415057 23620 net.cpp:91] Creating Layer drop1
I0807 13:34:18.415061 23620 net.cpp:425] drop1 <- fc1
I0807 13:34:18.415066 23620 net.cpp:386] drop1 -> fc1 (in-place)
I0807 13:34:18.415112 23620 net.cpp:141] Setting up drop1
I0807 13:34:18.415119 23620 net.cpp:148] Top shape: 5000 4096 (20480000)
I0807 13:34:18.415138 23620 net.cpp:156] Memory required for data: 1180977760
I0807 13:34:18.415148 23620 layer_factory.hpp:77] Creating layer fc2
I0807 13:34:18.415160 23620 net.cpp:91] Creating Layer fc2
I0807 13:34:18.415163 23620 net.cpp:425] fc2 <- fc1
I0807 13:34:18.415170 23620 net.cpp:399] fc2 -> fc2
I0807 13:34:18.615026 23620 net.cpp:141] Setting up fc2
I0807 13:34:18.615075 23620 net.cpp:148] Top shape: 5000 4096 (20480000)
I0807 13:34:18.615079 23620 net.cpp:156] Memory required for data: 1262897760
I0807 13:34:18.615103 23620 layer_factory.hpp:77] Creating layer relu2
I0807 13:34:18.615115 23620 net.cpp:91] Creating Layer relu2
I0807 13:34:18.615119 23620 net.cpp:425] relu2 <- fc2
I0807 13:34:18.615126 23620 net.cpp:386] relu2 -> fc2 (in-place)
I0807 13:34:18.615396 23620 net.cpp:141] Setting up relu2
I0807 13:34:18.615406 23620 net.cpp:148] Top shape: 5000 4096 (20480000)
I0807 13:34:18.615408 23620 net.cpp:156] Memory required for data: 1344817760
I0807 13:34:18.615411 23620 layer_factory.hpp:77] Creating layer drop2
I0807 13:34:18.615419 23620 net.cpp:91] Creating Layer drop2
I0807 13:34:18.615422 23620 net.cpp:425] drop2 <- fc2
I0807 13:34:18.615427 23620 net.cpp:386] drop2 -> fc2 (in-place)
I0807 13:34:18.615459 23620 net.cpp:141] Setting up drop2
I0807 13:34:18.615466 23620 net.cpp:148] Top shape: 5000 4096 (20480000)
I0807 13:34:18.615469 23620 net.cpp:156] Memory required for data: 1426737760
I0807 13:34:18.615471 23620 layer_factory.hpp:77] Creating layer fc3
I0807 13:34:18.615481 23620 net.cpp:91] Creating Layer fc3
I0807 13:34:18.615489 23620 net.cpp:425] fc3 <- fc2
I0807 13:34:18.615494 23620 net.cpp:399] fc3 -> fc3
I0807 13:34:18.615768 23620 net.cpp:141] Setting up fc3
I0807 13:34:18.615777 23620 net.cpp:148] Top shape: 5000 3 (15000)
I0807 13:34:18.615779 23620 net.cpp:156] Memory required for data: 1426797760
I0807 13:34:18.615785 23620 layer_factory.hpp:77] Creating layer loss
I0807 13:34:18.615792 23620 net.cpp:91] Creating Layer loss
I0807 13:34:18.615794 23620 net.cpp:425] loss <- fc3
I0807 13:34:18.615799 23620 net.cpp:425] loss <- normal_point
I0807 13:34:18.615810 23620 net.cpp:399] loss -> loss
I0807 13:34:18.615867 23620 net.cpp:141] Setting up loss
…
