…
type: "SGD"
I0807 13:33:06.568697 23554 solver.cpp:91] Creating training net from net file: /home/qinhong/project/normal_recovery/model/t1/train.prototxt
I0807 13:33:06.569617 23554 net.cpp:49] Initializing net from parameters: 
name: "hyper_normal_layers"
state {
  phase: TRAIN
}
layer {
  name: "data"
  type: "ImageNormalData"
  top: "data"
  top: "normal"
  transform_param {
  }
  image_data_param {
    source: "/home/qinhong/project/normal_recovery/data/source.txt"
    batch_size: 5
    shuffle: true
    new_height: 224
    new_width: 224
  }
}
layer {
  name: "conv1_1"
  type: "Convolution"
  bottom: "data"
  top: "conv1_1"
  param {
    lr_mult: 1
    decay_mult: 1
  }
  param {
    lr_mult: 2
    decay_mult: 0
  }
  convolution_param {
    num_output: 64
    pad: 1
    kernel_size: 3
  }
}
layer {
  name: "relu1_1"
  type: "ReLU"
  bottom: "conv1_1"
  top: "conv1_1"
}
layer {
  name: "conv1_2"
  type: "Convolution"
  bottom: "conv1_1"
  top: "conv1_2"
  param {
    lr_mult: 1
    decay_mult: 1
  }
  param {
    lr_mult: 2
    decay_mult: 0
  }
  convolution_param {
    num_output: 64
    pad: 1
    kernel_size: 3
  }
}
layer {
  name: "relu1_2"
  type: "ReLU"
  bottom: "conv1_2"
  top: "conv1_2"
}
layer {
  name: "pool1"
  type: "Pooling"
  bottom: "conv1_2"
  top: "pool1"
  pooling_param {
    pool: MAX
    kernel_size: 2
    stride: 2
  }
}
layer {
  name: "conv2_1"
  type: "Convolution"
  bottom: "pool1"
  top: "conv2_1"
  param {
    lr_mult: 1
    decay_mult: 1
  }
  param {
    lr_mult: 2
    decay_mult: 0
  }
  convolution_param {
    num_output: 128
    pad: 1
    kernel_size: 3
  }
}
layer {
  name: "relu2_1"
  type: "ReLU"
  bottom: "conv2_1"
  top: "conv2_1"
}
layer {
  name: "conv2_2"
  type: "Convolution"
  bottom: "conv2_1"
  top: "conv2_2"
  param {
    lr_mult: 1
    decay_mult: 1
  }
  param {
    lr_mult: 2
    decay_mult: 0
  }
  convolution_param {
    num_output: 128
    pad: 1
    kernel_size: 3
  }
}
layer {
  name: "relu2_2"
  type: "ReLU"
  bottom: "conv2_2"
  top: "conv2_2"
}
layer {
  name: "pool2"
  type: "Pooling"
  bottom: "conv2_2"
  top: "pool2"
  pooling_param {
    pool: MAX
    kernel_size: 2
    stride: 2
  }
}
layer {
  name: "conv3_1"
  type: "Convolution"
  bottom: "pool2"
  top: "conv3_1"
  param {
    lr_mult: 1
    decay_mult: 1
  }
  param {
    lr_mult: 2
    decay_mult: 0
  }
  convolution_param {
    num_output: 256
    pad: 1
    kernel_size: 3
  }
}
layer {
  name: "relu3_1"
  type: "ReLU"
  bottom: "conv3_1"
  top: "conv3_1"
}
layer {
  name: "conv3_2"
  type: "Convolution"
  bottom: "conv3_1"
  top: "conv3_2"
  param {
    lr_mult: 1
    decay_mult: 1
  }
  param {
    lr_mult: 2
    decay_mult: 0
  }
  convolution_param {
    num_output: 256
    pad: 1
    kernel_size: 3
  }
}
layer {
  name: "relu3_2"
  type: "ReLU"
  bottom: "conv3_2"
  top: "conv3_2"
}
layer {
  name: "conv3_3"
  type: "Convolution"
  bottom: "conv3_2"
  top: "conv3_3"
  param {
    lr_mult: 1
    decay_mult: 1
  }
  param {
    lr_mult: 2
    decay_mult: 0
  }
  convolution_param {
    num_output: 256
    pad: 1
    kernel_size: 3
  }
}
layer {
  name: "relu3_3"
  type: "ReLU"
  bottom: "conv3_3"
  top: "conv3_3"
}
layer {
  name: "pool3"
  type: "Pooling"
  bottom: "conv3_3"
  top: "pool3"
  pooling_param {
    pool: MAX
    kernel_size: 2
    stride: 2
  }
}
layer {
  name: "conv4_1"
  type: "Convolution"
  bottom: "pool3"
  top: "conv4_1"
  param {
    lr_mult: 1
    decay_mult: 1
  }
  param {
    lr_mult: 2
    decay_mult: 0
  }
  convolution_param {
    num_output: 512
    pad: 1
    kernel_size: 3
  }
}
layer {
  name: "relu4_1"
  type: "ReLU"
  bottom: "conv4_1"
  top: "conv4_1"
}
layer {
  name: "conv4_2"
  type: "Convolution"
  bottom: "conv4_1"
  top: "conv4_2"
  param {
    lr_mult: 1
    decay_mult: 1
  }
  param {
    lr_mult: 2
    decay_mult: 0
  }
  convolution_param {
    num_output: 512
    pad: 1
    kernel_size: 3
  }
}
layer {
  name: "relu4_2"
  type: "ReLU"
  bottom: "conv4_2"
  top: "conv4_2"
}
layer {
  name: "conv4_3"
  type: "Convolution"
  bottom: "conv4_2"
  top: "conv4_3"
  param {
    lr_mult: 1
    decay_mult: 1
  }
  param {
    lr_mult: 2
    decay_mult: 0
  }
  convolution_param {
    num_output: 512
    pad: 1
    kernel_size: 3
  }
}
layer {
  name: "relu4_3"
  type: "ReLU"
  bottom: "conv4_3"
  top: "conv4_3"
}
layer {
  name: "pool4"
  type: "Pooling"
  bottom: "conv4_3"
  top: "pool4"
  pooling_param {
    pool: MAX
    kernel_size: 2
    stride: 2
  }
}
layer {
  name: "conv5_1"
  type: "Convolution"
  bottom: "pool4"
  top: "conv5_1"
  param {
    lr_mult: 1
    decay_mult: 1
  }
  param {
    lr_mult: 2
    decay_mult: 0
  }
  convolution_param {
    num_output: 512
    pad: 1
    kernel_size: 3
  }
}
layer {
  name: "relu5_1"
  type: "ReLU"
  bottom: "conv5_1"
  top: "conv5_1"
}
layer {
  name: "conv5_2"
  type: "Convolution"
  bottom: "conv5_1"
  top: "conv5_2"
  param {
    lr_mult: 1
    decay_mult: 1
  }
  param {
    lr_mult: 2
    decay_mult: 0
  }
  convolution_param {
    num_output: 512
    pad: 1
    kernel_size: 3
  }
}
layer {
  name: "relu5_2"
  type: "ReLU"
  bottom: "conv5_2"
  top: "conv5_2"
}
layer {
  name: "conv5_3"
  type: "Convolution"
  bottom: "conv5_2"
  top: "conv5_3"
  param {
    lr_mult: 1
    decay_mult: 1
  }
  param {
    lr_mult: 2
    decay_mult: 0
  }
  convolution_param {
    num_output: 512
    pad: 1
    kernel_size: 3
  }
}
layer {
  name: "relu5_3"
  type: "ReLU"
  bottom: "conv5_3"
  top: "conv5_3"
}
layer {
  name: "pool5"
  type: "Pooling"
  bottom: "conv5_3"
  top: "pool5"
  pooling_param {
    pool: MAX
    kernel_size: 2
    stride: 2
  }
}
layer {
  name: "fc6-conv"
  type: "Convolution"
  bottom: "pool5"
  top: "fc6-conv"
  param {
    lr_mult: 1
    decay_mult: 1
  }
  param {
    lr_mult: 2
    decay_mult: 0
  }
  convolution_param {
    num_output: 4096
    kernel_size: 7
  }
}
layer {
  name: "relu6"
  type: "ReLU"
  bottom: "fc6-conv"
  top: "fc6-conv"
}
layer {
  name: "drop6"
  type: "Dropout"
  bottom: "fc6-conv"
  top: "fc6-conv"
  dropout_param {
    dropout_ratio: 0.5
  }
}
layer {
  name: "fc7-conv"
  type: "Convolution"
  bottom: "fc6-conv"
  top: "fc7-conv"
  param {
    lr_mult: 1
    decay_mult: 1
  }
  param {
    lr_mult: 2
    decay_mult: 0
  }
  convolution_param {
    num_output: 4096
    kernel_size: 1
  }
}
layer {
  name: "relu7"
  type: "ReLU"
  bottom: "fc7-conv"
  top: "fc7-conv"
}
layer {
  name: "hypercolumns"
  type: "HyperColumns"
  bottom: "normal"
  bottom: "conv1_2"
  bottom: "conv2_2"
  bottom: "conv3_3"
  bottom: "conv4_3"
  bottom: "conv5_3"
  bottom: "fc7-conv"
  top: "hypercolumns"
  top: "normal_point"
  hypercolumns_param {
    is_train: true
  }
}
layer {
  name: "fc1"
  type: "InnerProduct"
  bottom: "hypercolumns"
  top: "fc1"
  param {
    lr_mult: 1
    decay_mult: 1
  }
  param {
    lr_mult: 2
    decay_mult: 0
  }
  inner_product_param {
    num_output: 4096
    weight_filler {
      type: "gaussian"
      std: 0.003
    }
    bias_filler {
      type: "constant"
      value: 0
    }
  }
}
layer {
  name: "relu1"
  type: "ReLU"
  bottom: "fc1"
  top: "fc1"
}
layer {
  name: "drop1"
  type: "Dropout"
  bottom: "fc1"
  top: "fc1"
  dropout_param {
    dropout_ratio: 0.5
  }
}
layer {
  name: "fc2"
  type: "InnerProduct"
  bottom: "fc1"
  top: "fc2"
  param {
    lr_mult: 1
    decay_mult: 1
  }
  param {
    lr_mult: 2
    decay_mult: 0
  }
  inner_product_param {
    num_output: 4096
    weight_filler {
      type: "gaussian"
      std: 0.002
    }
    bias_filler {
      type: "constant"
      value: 0
    }
  }
}
layer {
  name: "relu2"
  type: "ReLU"
  bottom: "fc2"
  top: "fc2"
}
layer {
  name: "drop2"
  type: "Dropout"
  bottom: "fc2"
  top: "fc2"
  dropout_param {
    dropout_ratio: 0.5
  }
}
layer {
  name: "fc3"
  type: "InnerProduct"
  bottom: "fc2"
  top: "fc3"
  param {
    lr_mult: 1
    decay_mult: 1
  }
  param {
    lr_mult: 2
    decay_mult: 0
  }
  inner_product_param {
    num_output: 3
    weight_filler {
      type: "gaussian"
      std: 0.001
    }
    bias_filler {
      type: "constant"
      value: 0
    }
  }
}
layer {
  name: "loss"
  type: "EuclideanLoss"
  bottom: "fc3"
  bottom: "normal_point"
  top: "loss"
  propagate_down: true
  propagate_down: false
}
I0807 13:33:06.569881 23554 layer_factory.hpp:77] Creating layer data
I0807 13:33:06.569939 23554 net.cpp:91] Creating Layer data
I0807 13:33:06.569948 23554 net.cpp:399] data -> data
I0807 13:33:06.569977 23554 net.cpp:399] data -> normal
I0807 13:33:06.570000 23554 image_normal_data_layer.cpp:43] opeing file /home/qinhong/project/normal_recovery/data/source.txt
I0807 13:33:06.574728 23554 image_normal_data_layer.cpp:54] Shuffing data
I0807 13:33:06.576164 23554 image_normal_data_layer.cpp:59] A total of 4105 images.
I0807 13:33:06.601620 23554 image_normal_data_layer.cpp:79] output data size: 5,3,224,224
I0807 13:33:06.614116 23554 net.cpp:141] Setting up data
I0807 13:33:06.614141 23554 net.cpp:148] Top shape: 5 3 224 224 (752640)
I0807 13:33:06.614147 23554 net.cpp:148] Top shape: 5 3 224 224 (752640)
I0807 13:33:06.614151 23554 net.cpp:156] Memory required for data: 6021120
I0807 13:33:06.614158 23554 layer_factory.hpp:77] Creating layer conv1_1
I0807 13:33:06.614179 23554 net.cpp:91] Creating Layer conv1_1
I0807 13:33:06.614186 23554 net.cpp:425] conv1_1 <- data
I0807 13:33:06.614202 23554 net.cpp:399] conv1_1 -> conv1_1
I0807 13:33:06.908244 23554 net.cpp:141] Setting up conv1_1
I0807 13:33:06.908282 23554 net.cpp:148] Top shape: 5 64 224 224 (16056320)
I0807 13:33:06.908287 23554 net.cpp:156] Memory required for data: 70246400
I0807 13:33:06.908320 23554 layer_factory.hpp:77] Creating layer relu1_1
I0807 13:33:06.908337 23554 net.cpp:91] Creating Layer relu1_1
I0807 13:33:06.908342 23554 net.cpp:425] relu1_1 <- conv1_1
I0807 13:33:06.908349 23554 net.cpp:386] relu1_1 -> conv1_1 (in-place)
I0807 13:33:06.908692 23554 net.cpp:141] Setting up relu1_1
I0807 13:33:06.908710 23554 net.cpp:148] Top shape: 5 64 224 224 (16056320)
I0807 13:33:06.908713 23554 net.cpp:156] Memory required for data: 134471680
I0807 13:33:06.908717 23554 layer_factory.hpp:77] Creating layer conv1_2
I0807 13:33:06.908731 23554 net.cpp:91] Creating Layer conv1_2
I0807 13:33:06.908735 23554 net.cpp:425] conv1_2 <- conv1_1
I0807 13:33:06.908741 23554 net.cpp:399] conv1_2 -> conv1_2
I0807 13:33:06.909914 23554 net.cpp:141] Setting up conv1_2
I0807 13:33:06.909934 23554 net.cpp:148] Top shape: 5 64 224 224 (16056320)
I0807 13:33:06.909939 23554 net.cpp:156] Memory required for data: 198696960
I0807 13:33:06.909950 23554 layer_factory.hpp:77] Creating layer relu1_2
I0807 13:33:06.909957 23554 net.cpp:91] Creating Layer relu1_2
I0807 13:33:06.909960 23554 net.cpp:425] relu1_2 <- conv1_2
I0807 13:33:06.909966 23554 net.cpp:386] relu1_2 -> conv1_2 (in-place)
I0807 13:33:06.910269 23554 net.cpp:141] Setting up relu1_2
I0807 13:33:06.910284 23554 net.cpp:148] Top shape: 5 64 224 224 (16056320)
I0807 13:33:06.910287 23554 net.cpp:156] Memory required for data: 262922240
I0807 13:33:06.910291 23554 layer_factory.hpp:77] Creating layer conv1_2_relu1_2_0_split
I0807 13:33:06.910300 23554 net.cpp:91] Creating Layer conv1_2_relu1_2_0_split
I0807 13:33:06.910302 23554 net.cpp:425] conv1_2_relu1_2_0_split <- conv1_2
I0807 13:33:06.910308 23554 net.cpp:399] conv1_2_relu1_2_0_split -> conv1_2_relu1_2_0_split_0
I0807 13:33:06.910317 23554 net.cpp:399] conv1_2_relu1_2_0_split -> conv1_2_relu1_2_0_split_1
I0807 13:33:06.910364 23554 net.cpp:141] Setting up conv1_2_relu1_2_0_split
I0807 13:33:06.910373 23554 net.cpp:148] Top shape: 5 64 224 224 (16056320)
I0807 13:33:06.910377 23554 net.cpp:148] Top shape: 5 64 224 224 (16056320)
I0807 13:33:06.910380 23554 net.cpp:156] Memory required for data: 391372800
I0807 13:33:06.910384 23554 layer_factory.hpp:77] Creating layer pool1
I0807 13:33:06.910414 23554 net.cpp:91] Creating Layer pool1
I0807 13:33:06.910420 23554 net.cpp:425] pool1 <- conv1_2_relu1_2_0_split_0
I0807 13:33:06.910426 23554 net.cpp:399] pool1 -> pool1
I0807 13:33:06.910487 23554 net.cpp:141] Setting up pool1
I0807 13:33:06.910496 23554 net.cpp:148] Top shape: 5 64 112 112 (4014080)
I0807 13:33:06.910500 23554 net.cpp:156] Memory required for data: 407429120
I0807 13:33:06.910503 23554 layer_factory.hpp:77] Creating layer conv2_1
I0807 13:33:06.910512 23554 net.cpp:91] Creating Layer conv2_1
I0807 13:33:06.910516 23554 net.cpp:425] conv2_1 <- pool1
I0807 13:33:06.910521 23554 net.cpp:399] conv2_1 -> conv2_1
I0807 13:33:06.913027 23554 net.cpp:141] Setting up conv2_1
I0807 13:33:06.913044 23554 net.cpp:148] Top shape: 5 128 112 112 (8028160)
I0807 13:33:06.913048 23554 net.cpp:156] Memory required for data: 439541760
I0807 13:33:06.913058 23554 layer_factory.hpp:77] Creating layer relu2_1
I0807 13:33:06.913066 23554 net.cpp:91] Creating Layer relu2_1
I0807 13:33:06.913070 23554 net.cpp:425] relu2_1 <- conv2_1
I0807 13:33:06.913076 23554 net.cpp:386] relu2_1 -> conv2_1 (in-place)
I0807 13:33:06.913276 23554 net.cpp:141] Setting up relu2_1
I0807 13:33:06.913288 23554 net.cpp:148] Top shape: 5 128 112 112 (8028160)
I0807 13:33:06.913291 23554 net.cpp:156] Memory required for data: 471654400
I0807 13:33:06.913295 23554 layer_factory.hpp:77] Creating layer conv2_2
I0807 13:33:06.913305 23554 net.cpp:91] Creating Layer conv2_2
I0807 13:33:06.913307 23554 net.cpp:425] conv2_2 <- conv2_1
I0807 13:33:06.913314 23554 net.cpp:399] conv2_2 -> conv2_2
I0807 13:33:06.914561 23554 net.cpp:141] Setting up conv2_2
I0807 13:33:06.914578 23554 net.cpp:148] Top shape: 5 128 112 112 (8028160)
I0807 13:33:06.914582 23554 net.cpp:156] Memory required for data: 503767040
I0807 13:33:06.914588 23554 layer_factory.hpp:77] Creating layer relu2_2
I0807 13:33:06.914598 23554 net.cpp:91] Creating Layer relu2_2
I0807 13:33:06.914602 23554 net.cpp:425] relu2_2 <- conv2_2
I0807 13:33:06.914608 23554 net.cpp:386] relu2_2 -> conv2_2 (in-place)
I0807 13:33:06.914937 23554 net.cpp:141] Setting up relu2_2
I0807 13:33:06.914953 23554 net.cpp:148] Top shape: 5 128 112 112 (8028160)
I0807 13:33:06.914957 23554 net.cpp:156] Memory required for data: 535879680
I0807 13:33:06.914960 23554 layer_factory.hpp:77] Creating layer conv2_2_relu2_2_0_split
I0807 13:33:06.914971 23554 net.cpp:91] Creating Layer conv2_2_relu2_2_0_split
I0807 13:33:06.914974 23554 net.cpp:425] conv2_2_relu2_2_0_split <- conv2_2
I0807 13:33:06.914981 23554 net.cpp:399] conv2_2_relu2_2_0_split -> conv2_2_relu2_2_0_split_0
I0807 13:33:06.914991 23554 net.cpp:399] conv2_2_relu2_2_0_split -> conv2_2_relu2_2_0_split_1
I0807 13:33:06.915045 23554 net.cpp:141] Setting up conv2_2_relu2_2_0_split
I0807 13:33:06.915055 23554 net.cpp:148] Top shape: 5 128 112 112 (8028160)
I0807 13:33:06.915058 23554 net.cpp:148] Top shape: 5 128 112 112 (8028160)
I0807 13:33:06.915061 23554 net.cpp:156] Memory required for data: 600104960
I0807 13:33:06.915065 23554 layer_factory.hpp:77] Creating layer pool2
I0807 13:33:06.915073 23554 net.cpp:91] Creating Layer pool2
I0807 13:33:06.915077 23554 net.cpp:425] pool2 <- conv2_2_relu2_2_0_split_0
I0807 13:33:06.915082 23554 net.cpp:399] pool2 -> pool2
I0807 13:33:06.915127 23554 net.cpp:141] Setting up pool2
I0807 13:33:06.915135 23554 net.cpp:148] Top shape: 5 128 56 56 (2007040)
I0807 13:33:06.915138 23554 net.cpp:156] Memory required for data: 608133120
I0807 13:33:06.915141 23554 layer_factory.hpp:77] Creating layer conv3_1
I0807 13:33:06.915153 23554 net.cpp:91] Creating Layer conv3_1
I0807 13:33:06.915155 23554 net.cpp:425] conv3_1 <- pool2
I0807 13:33:06.915163 23554 net.cpp:399] conv3_1 -> conv3_1
I0807 13:33:06.917125 23554 net.cpp:141] Setting up conv3_1
I0807 13:33:06.917142 23554 net.cpp:148] Top shape: 5 256 56 56 (4014080)
I0807 13:33:06.917146 23554 net.cpp:156] Memory required for data: 624189440
I0807 13:33:06.917156 23554 layer_factory.hpp:77] Creating layer relu3_1
I0807 13:33:06.917162 23554 net.cpp:91] Creating Layer relu3_1
I0807 13:33:06.917181 23554 net.cpp:425] relu3_1 <- conv3_1
I0807 13:33:06.917189 23554 net.cpp:386] relu3_1 -> conv3_1 (in-place)
I0807 13:33:06.917529 23554 net.cpp:141] Setting up relu3_1
I0807 13:33:06.917546 23554 net.cpp:148] Top shape: 5 256 56 56 (4014080)
I0807 13:33:06.917548 23554 net.cpp:156] Memory required for data: 640245760
I0807 13:33:06.917552 23554 layer_factory.hpp:77] Creating layer conv3_2
I0807 13:33:06.917563 23554 net.cpp:91] Creating Layer conv3_2
I0807 13:33:06.917567 23554 net.cpp:425] conv3_2 <- conv3_1
I0807 13:33:06.917577 23554 net.cpp:399] conv3_2 -> conv3_2
I0807 13:33:06.920425 23554 net.cpp:141] Setting up conv3_2
I0807 13:33:06.920444 23554 net.cpp:148] Top shape: 5 256 56 56 (4014080)
I0807 13:33:06.920447 23554 net.cpp:156] Memory required for data: 656302080
I0807 13:33:06.920454 23554 layer_factory.hpp:77] Creating layer relu3_2
I0807 13:33:06.920465 23554 net.cpp:91] Creating Layer relu3_2
I0807 13:33:06.920469 23554 net.cpp:425] relu3_2 <- conv3_2
I0807 13:33:06.920475 23554 net.cpp:386] relu3_2 -> conv3_2 (in-place)
I0807 13:33:06.920687 23554 net.cpp:141] Setting up relu3_2
I0807 13:33:06.920699 23554 net.cpp:148] Top shape: 5 256 56 56 (4014080)
I0807 13:33:06.920702 23554 net.cpp:156] Memory required for data: 672358400
I0807 13:33:06.920706 23554 layer_factory.hpp:77] Creating layer conv3_3
I0807 13:33:06.920717 23554 net.cpp:91] Creating Layer conv3_3
I0807 13:33:06.920720 23554 net.cpp:425] conv3_3 <- conv3_2
I0807 13:33:06.920729 23554 net.cpp:399] conv3_3 -> conv3_3
I0807 13:33:06.923643 23554 net.cpp:141] Setting up conv3_3
I0807 13:33:06.923660 23554 net.cpp:148] Top shape: 5 256 56 56 (4014080)
I0807 13:33:06.923663 23554 net.cpp:156] Memory required for data: 688414720
I0807 13:33:06.923671 23554 layer_factory.hpp:77] Creating layer relu3_3
I0807 13:33:06.923679 23554 net.cpp:91] Creating Layer relu3_3
I0807 13:33:06.923683 23554 net.cpp:425] relu3_3 <- conv3_3
I0807 13:33:06.923689 23554 net.cpp:386] relu3_3 -> conv3_3 (in-place)
I0807 13:33:06.924026 23554 net.cpp:141] Setting up relu3_3
I0807 13:33:06.924042 23554 net.cpp:148] Top shape: 5 256 56 56 (4014080)
I0807 13:33:06.924046 23554 net.cpp:156] Memory required for data: 704471040
I0807 13:33:06.924049 23554 layer_factory.hpp:77] Creating layer conv3_3_relu3_3_0_split
I0807 13:33:06.924057 23554 net.cpp:91] Creating Layer conv3_3_relu3_3_0_split
I0807 13:33:06.924059 23554 net.cpp:425] conv3_3_relu3_3_0_split <- conv3_3
I0807 13:33:06.924065 23554 net.cpp:399] conv3_3_relu3_3_0_split -> conv3_3_relu3_3_0_split_0
I0807 13:33:06.924075 23554 net.cpp:399] conv3_3_relu3_3_0_split -> conv3_3_relu3_3_0_split_1
I0807 13:33:06.924130 23554 net.cpp:141] Setting up conv3_3_relu3_3_0_split
I0807 13:33:06.924139 23554 net.cpp:148] Top shape: 5 256 56 56 (4014080)
I0807 13:33:06.924144 23554 net.cpp:148] Top shape: 5 256 56 56 (4014080)
I0807 13:33:06.924146 23554 net.cpp:156] Memory required for data: 736583680
I0807 13:33:06.924150 23554 layer_factory.hpp:77] Creating layer pool3
I0807 13:33:06.924156 23554 net.cpp:91] Creating Layer pool3
I0807 13:33:06.924160 23554 net.cpp:425] pool3 <- conv3_3_relu3_3_0_split_0
I0807 13:33:06.924167 23554 net.cpp:399] pool3 -> pool3
I0807 13:33:06.924209 23554 net.cpp:141] Setting up pool3
I0807 13:33:06.924219 23554 net.cpp:148] Top shape: 5 256 28 28 (1003520)
I0807 13:33:06.924222 23554 net.cpp:156] Memory required for data: 740597760
I0807 13:33:06.924226 23554 layer_factory.hpp:77] Creating layer conv4_1
I0807 13:33:06.924234 23554 net.cpp:91] Creating Layer conv4_1
I0807 13:33:06.924237 23554 net.cpp:425] conv4_1 <- pool3
I0807 13:33:06.924244 23554 net.cpp:399] conv4_1 -> conv4_1
I0807 13:33:06.928956 23554 net.cpp:141] Setting up conv4_1
I0807 13:33:06.928974 23554 net.cpp:148] Top shape: 5 512 28 28 (2007040)
I0807 13:33:06.928978 23554 net.cpp:156] Memory required for data: 748625920
I0807 13:33:06.928985 23554 layer_factory.hpp:77] Creating layer relu4_1
I0807 13:33:06.928992 23554 net.cpp:91] Creating Layer relu4_1
I0807 13:33:06.928995 23554 net.cpp:425] relu4_1 <- conv4_1
I0807 13:33:06.929014 23554 net.cpp:386] relu4_1 -> conv4_1 (in-place)
I0807 13:33:06.929344 23554 net.cpp:141] Setting up relu4_1
I0807 13:33:06.929359 23554 net.cpp:148] Top shape: 5 512 28 28 (2007040)
I0807 13:33:06.929363 23554 net.cpp:156] Memory required for data: 756654080
I0807 13:33:06.929366 23554 layer_factory.hpp:77] Creating layer conv4_2
I0807 13:33:06.929378 23554 net.cpp:91] Creating Layer conv4_2
I0807 13:33:06.929381 23554 net.cpp:425] conv4_2 <- conv4_1
I0807 13:33:06.929386 23554 net.cpp:399] conv4_2 -> conv4_2
I0807 13:33:06.936650 23554 net.cpp:141] Setting up conv4_2
I0807 13:33:06.936671 23554 net.cpp:148] Top shape: 5 512 28 28 (2007040)
I0807 13:33:06.936673 23554 net.cpp:156] Memory required for data: 764682240
I0807 13:33:06.936686 23554 layer_factory.hpp:77] Creating layer relu4_2
I0807 13:33:06.936696 23554 net.cpp:91] Creating Layer relu4_2
I0807 13:33:06.936700 23554 net.cpp:425] relu4_2 <- conv4_2
I0807 13:33:06.936705 23554 net.cpp:386] relu4_2 -> conv4_2 (in-place)
I0807 13:33:06.936911 23554 net.cpp:141] Setting up relu4_2
I0807 13:33:06.936924 23554 net.cpp:148] Top shape: 5 512 28 28 (2007040)
I0807 13:33:06.936928 23554 net.cpp:156] Memory required for data: 772710400
I0807 13:33:06.936930 23554 layer_factory.hpp:77] Creating layer conv4_3
I0807 13:33:06.936941 23554 net.cpp:91] Creating Layer conv4_3
I0807 13:33:06.936945 23554 net.cpp:425] conv4_3 <- conv4_2
I0807 13:33:06.936954 23554 net.cpp:399] conv4_3 -> conv4_3
I0807 13:33:06.944176 23554 net.cpp:141] Setting up conv4_3
I0807 13:33:06.944195 23554 net.cpp:148] Top shape: 5 512 28 28 (2007040)
I0807 13:33:06.944198 23554 net.cpp:156] Memory required for data: 780738560
I0807 13:33:06.944206 23554 layer_factory.hpp:77] Creating layer relu4_3
I0807 13:33:06.944216 23554 net.cpp:91] Creating Layer relu4_3
I0807 13:33:06.944219 23554 net.cpp:425] relu4_3 <- conv4_3
I0807 13:33:06.944226 23554 net.cpp:386] relu4_3 -> conv4_3 (in-place)
I0807 13:33:06.944561 23554 net.cpp:141] Setting up relu4_3
I0807 13:33:06.944576 23554 net.cpp:148] Top shape: 5 512 28 28 (2007040)
I0807 13:33:06.944578 23554 net.cpp:156] Memory required for data: 788766720
I0807 13:33:06.944581 23554 layer_factory.hpp:77] Creating layer conv4_3_relu4_3_0_split
I0807 13:33:06.944591 23554 net.cpp:91] Creating Layer conv4_3_relu4_3_0_split
I0807 13:33:06.944594 23554 net.cpp:425] conv4_3_relu4_3_0_split <- conv4_3
I0807 13:33:06.944602 23554 net.cpp:399] conv4_3_relu4_3_0_split -> conv4_3_relu4_3_0_split_0
I0807 13:33:06.944610 23554 net.cpp:399] conv4_3_relu4_3_0_split -> conv4_3_relu4_3_0_split_1
I0807 13:33:06.944663 23554 net.cpp:141] Setting up conv4_3_relu4_3_0_split
I0807 13:33:06.944672 23554 net.cpp:148] Top shape: 5 512 28 28 (2007040)
I0807 13:33:06.944676 23554 net.cpp:148] Top shape: 5 512 28 28 (2007040)
I0807 13:33:06.944679 23554 net.cpp:156] Memory required for data: 804823040
I0807 13:33:06.944682 23554 layer_factory.hpp:77] Creating layer pool4
I0807 13:33:06.944690 23554 net.cpp:91] Creating Layer pool4
I0807 13:33:06.944694 23554 net.cpp:425] pool4 <- conv4_3_relu4_3_0_split_0
I0807 13:33:06.944700 23554 net.cpp:399] pool4 -> pool4
I0807 13:33:06.944746 23554 net.cpp:141] Setting up pool4
I0807 13:33:06.944754 23554 net.cpp:148] Top shape: 5 512 14 14 (501760)
I0807 13:33:06.944757 23554 net.cpp:156] Memory required for data: 806830080
I0807 13:33:06.944759 23554 layer_factory.hpp:77] Creating layer conv5_1
I0807 13:33:06.944771 23554 net.cpp:91] Creating Layer conv5_1
I0807 13:33:06.944774 23554 net.cpp:425] conv5_1 <- pool4
I0807 13:33:06.944782 23554 net.cpp:399] conv5_1 -> conv5_1
I0807 13:33:06.952051 23554 net.cpp:141] Setting up conv5_1
I0807 13:33:06.952074 23554 net.cpp:148] Top shape: 5 512 14 14 (501760)
I0807 13:33:06.952077 23554 net.cpp:156] Memory required for data: 808837120
I0807 13:33:06.952086 23554 layer_factory.hpp:77] Creating layer relu5_1
I0807 13:33:06.952093 23554 net.cpp:91] Creating Layer relu5_1
I0807 13:33:06.952097 23554 net.cpp:425] relu5_1 <- conv5_1
I0807 13:33:06.952105 23554 net.cpp:386] relu5_1 -> conv5_1 (in-place)
I0807 13:33:06.952450 23554 net.cpp:141] Setting up relu5_1
I0807 13:33:06.952466 23554 net.cpp:148] Top shape: 5 512 14 14 (501760)
I0807 13:33:06.952469 23554 net.cpp:156] Memory required for data: 810844160
I0807 13:33:06.952472 23554 layer_factory.hpp:77] Creating layer conv5_2
I0807 13:33:06.952484 23554 net.cpp:91] Creating Layer conv5_2
I0807 13:33:06.952488 23554 net.cpp:425] conv5_2 <- conv5_1
I0807 13:33:06.952497 23554 net.cpp:399] conv5_2 -> conv5_2
I0807 13:33:06.960177 23554 net.cpp:141] Setting up conv5_2
I0807 13:33:06.960196 23554 net.cpp:148] Top shape: 5 512 14 14 (501760)
I0807 13:33:06.960198 23554 net.cpp:156] Memory required for data: 812851200
I0807 13:33:06.960206 23554 layer_factory.hpp:77] Creating layer relu5_2
I0807 13:33:06.960223 23554 net.cpp:91] Creating Layer relu5_2
I0807 13:33:06.960227 23554 net.cpp:425] relu5_2 <- conv5_2
I0807 13:33:06.960233 23554 net.cpp:386] relu5_2 -> conv5_2 (in-place)
I0807 13:33:06.960438 23554 net.cpp:141] Setting up relu5_2
I0807 13:33:06.960451 23554 net.cpp:148] Top shape: 5 512 14 14 (501760)
I0807 13:33:06.960454 23554 net.cpp:156] Memory required for data: 814858240
I0807 13:33:06.960458 23554 layer_factory.hpp:77] Creating layer conv5_3
I0807 13:33:06.960469 23554 net.cpp:91] Creating Layer conv5_3
I0807 13:33:06.960474 23554 net.cpp:425] conv5_3 <- conv5_2
I0807 13:33:06.960481 23554 net.cpp:399] conv5_3 -> conv5_3
I0807 13:33:06.967767 23554 net.cpp:141] Setting up conv5_3
I0807 13:33:06.967787 23554 net.cpp:148] Top shape: 5 512 14 14 (501760)
I0807 13:33:06.967790 23554 net.cpp:156] Memory required for data: 816865280
I0807 13:33:06.967798 23554 layer_factory.hpp:77] Creating layer relu5_3
I0807 13:33:06.967805 23554 net.cpp:91] Creating Layer relu5_3
I0807 13:33:06.967809 23554 net.cpp:425] relu5_3 <- conv5_3
I0807 13:33:06.967815 23554 net.cpp:386] relu5_3 -> conv5_3 (in-place)
I0807 13:33:06.968149 23554 net.cpp:141] Setting up relu5_3
I0807 13:33:06.968164 23554 net.cpp:148] Top shape: 5 512 14 14 (501760)
I0807 13:33:06.968168 23554 net.cpp:156] Memory required for data: 818872320
I0807 13:33:06.968171 23554 layer_factory.hpp:77] Creating layer conv5_3_relu5_3_0_split
I0807 13:33:06.968179 23554 net.cpp:91] Creating Layer conv5_3_relu5_3_0_split
I0807 13:33:06.968183 23554 net.cpp:425] conv5_3_relu5_3_0_split <- conv5_3
I0807 13:33:06.968191 23554 net.cpp:399] conv5_3_relu5_3_0_split -> conv5_3_relu5_3_0_split_0
I0807 13:33:06.968199 23554 net.cpp:399] conv5_3_relu5_3_0_split -> conv5_3_relu5_3_0_split_1
I0807 13:33:06.968255 23554 net.cpp:141] Setting up conv5_3_relu5_3_0_split
I0807 13:33:06.968263 23554 net.cpp:148] Top shape: 5 512 14 14 (501760)
I0807 13:33:06.968268 23554 net.cpp:148] Top shape: 5 512 14 14 (501760)
I0807 13:33:06.968271 23554 net.cpp:156] Memory required for data: 822886400
I0807 13:33:06.968274 23554 layer_factory.hpp:77] Creating layer pool5
I0807 13:33:06.968286 23554 net.cpp:91] Creating Layer pool5
I0807 13:33:06.968289 23554 net.cpp:425] pool5 <- conv5_3_relu5_3_0_split_0
I0807 13:33:06.968297 23554 net.cpp:399] pool5 -> pool5
I0807 13:33:06.968343 23554 net.cpp:141] Setting up pool5
I0807 13:33:06.968351 23554 net.cpp:148] Top shape: 5 512 7 7 (125440)
I0807 13:33:06.968354 23554 net.cpp:156] Memory required for data: 823388160
I0807 13:33:06.968358 23554 layer_factory.hpp:77] Creating layer fc6-conv
I0807 13:33:06.968369 23554 net.cpp:91] Creating Layer fc6-conv
I0807 13:33:06.968372 23554 net.cpp:425] fc6-conv <- pool5
I0807 13:33:06.968380 23554 net.cpp:399] fc6-conv -> fc6-conv
I0807 13:33:07.299993 23554 net.cpp:141] Setting up fc6-conv
I0807 13:33:07.300043 23554 net.cpp:148] Top shape: 5 4096 1 1 (20480)
I0807 13:33:07.300047 23554 net.cpp:156] Memory required for data: 823470080
I0807 13:33:07.300060 23554 layer_factory.hpp:77] Creating layer relu6
I0807 13:33:07.300074 23554 net.cpp:91] Creating Layer relu6
I0807 13:33:07.300081 23554 net.cpp:425] relu6 <- fc6-conv
I0807 13:33:07.300088 23554 net.cpp:386] relu6 -> fc6-conv (in-place)
I0807 13:33:07.300417 23554 net.cpp:141] Setting up relu6
I0807 13:33:07.300451 23554 net.cpp:148] Top shape: 5 4096 1 1 (20480)
I0807 13:33:07.300456 23554 net.cpp:156] Memory required for data: 823552000
I0807 13:33:07.300459 23554 layer_factory.hpp:77] Creating layer drop6
I0807 13:33:07.300470 23554 net.cpp:91] Creating Layer drop6
I0807 13:33:07.300474 23554 net.cpp:425] drop6 <- fc6-conv
I0807 13:33:07.300482 23554 net.cpp:386] drop6 -> fc6-conv (in-place)
I0807 13:33:07.300529 23554 net.cpp:141] Setting up drop6
I0807 13:33:07.300537 23554 net.cpp:148] Top shape: 5 4096 1 1 (20480)
I0807 13:33:07.300540 23554 net.cpp:156] Memory required for data: 823633920
I0807 13:33:07.300544 23554 layer_factory.hpp:77] Creating layer fc7-conv
I0807 13:33:07.300557 23554 net.cpp:91] Creating Layer fc7-conv
I0807 13:33:07.300561 23554 net.cpp:425] fc7-conv <- fc6-conv
I0807 13:33:07.300568 23554 net.cpp:399] fc7-conv -> fc7-conv
I0807 13:33:07.356402 23554 net.cpp:141] Setting up fc7-conv
I0807 13:33:07.356449 23554 net.cpp:148] Top shape: 5 4096 1 1 (20480)
I0807 13:33:07.356453 23554 net.cpp:156] Memory required for data: 823715840
I0807 13:33:07.356465 23554 layer_factory.hpp:77] Creating layer relu7
I0807 13:33:07.356482 23554 net.cpp:91] Creating Layer relu7
I0807 13:33:07.356487 23554 net.cpp:425] relu7 <- fc7-conv
I0807 13:33:07.356495 23554 net.cpp:386] relu7 -> fc7-conv (in-place)
I0807 13:33:07.356721 23554 net.cpp:141] Setting up relu7
I0807 13:33:07.356734 23554 net.cpp:148] Top shape: 5 4096 1 1 (20480)
I0807 13:33:07.356737 23554 net.cpp:156] Memory required for data: 823797760
I0807 13:33:07.356741 23554 layer_factory.hpp:77] Creating layer hypercolumns
I0807 13:33:07.356752 23554 net.cpp:91] Creating Layer hypercolumns
I0807 13:33:07.356756 23554 net.cpp:425] hypercolumns <- normal
I0807 13:33:07.356762 23554 net.cpp:425] hypercolumns <- conv1_2_relu1_2_0_split_1
I0807 13:33:07.356767 23554 net.cpp:425] hypercolumns <- conv2_2_relu2_2_0_split_1
I0807 13:33:07.356771 23554 net.cpp:425] hypercolumns <- conv3_3_relu3_3_0_split_1
I0807 13:33:07.356775 23554 net.cpp:425] hypercolumns <- conv4_3_relu4_3_0_split_1
I0807 13:33:07.356781 23554 net.cpp:425] hypercolumns <- conv5_3_relu5_3_0_split_1
I0807 13:33:07.356783 23554 net.cpp:425] hypercolumns <- fc7-conv
I0807 13:33:07.356793 23554 net.cpp:399] hypercolumns -> hypercolumns
I0807 13:33:07.356815 23554 net.cpp:399] hypercolumns -> normal_point
I0807 13:33:07.356878 23554 net.cpp:141] Setting up hypercolumns
I0807 13:33:07.356887 23554 net.cpp:148] Top shape: 5000 5568 1 1 (27840000)
I0807 13:33:07.356892 23554 net.cpp:148] Top shape: 5000 3 (15000)
I0807 13:33:07.356894 23554 net.cpp:156] Memory required for data: 935217760
I0807 13:33:07.356899 23554 layer_factory.hpp:77] Creating layer fc1
I0807 13:33:07.356911 23554 net.cpp:91] Creating Layer fc1
I0807 13:33:07.356919 23554 net.cpp:425] fc1 <- hypercolumns
I0807 13:33:07.356926 23554 net.cpp:399] fc1 -> fc1
I0807 13:33:07.676405 23554 net.cpp:141] Setting up fc1
I0807 13:33:07.676460 23554 net.cpp:148] Top shape: 5000 4096 (20480000)
I0807 13:33:07.676462 23554 net.cpp:156] Memory required for data: 1017137760
I0807 13:33:07.676476 23554 layer_factory.hpp:77] Creating layer relu1
I0807 13:33:07.676489 23554 net.cpp:91] Creating Layer relu1
I0807 13:33:07.676494 23554 net.cpp:425] relu1 <- fc1
I0807 13:33:07.676504 23554 net.cpp:386] relu1 -> fc1 (in-place)
I0807 13:33:07.677054 23554 net.cpp:141] Setting up relu1
I0807 13:33:07.677067 23554 net.cpp:148] Top shape: 5000 4096 (20480000)
I0807 13:33:07.677083 23554 net.cpp:156] Memory required for data: 1099057760
I0807 13:33:07.677085 23554 layer_factory.hpp:77] Creating layer drop1
I0807 13:33:07.677094 23554 net.cpp:91] Creating Layer drop1
I0807 13:33:07.677098 23554 net.cpp:425] drop1 <- fc1
I0807 13:33:07.677109 23554 net.cpp:386] drop1 -> fc1 (in-place)
I0807 13:33:07.677155 23554 net.cpp:141] Setting up drop1
I0807 13:33:07.677162 23554 net.cpp:148] Top shape: 5000 4096 (20480000)
I0807 13:33:07.677165 23554 net.cpp:156] Memory required for data: 1180977760
I0807 13:33:07.677167 23554 layer_factory.hpp:77] Creating layer fc2
I0807 13:33:07.677201 23554 net.cpp:91] Creating Layer fc2
I0807 13:33:07.677206 23554 net.cpp:425] fc2 <- fc1
I0807 13:33:07.677214 23554 net.cpp:399] fc2 -> fc2
I0807 13:33:07.867612 23554 net.cpp:141] Setting up fc2
I0807 13:33:07.867648 23554 net.cpp:148] Top shape: 5000 4096 (20480000)
I0807 13:33:07.867651 23554 net.cpp:156] Memory required for data: 1262897760
I0807 13:33:07.867673 23554 layer_factory.hpp:77] Creating layer relu2
I0807 13:33:07.867687 23554 net.cpp:91] Creating Layer relu2
I0807 13:33:07.867691 23554 net.cpp:425] relu2 <- fc2
I0807 13:33:07.867699 23554 net.cpp:386] relu2 -> fc2 (in-place)
I0807 13:33:07.868005 23554 net.cpp:141] Setting up relu2
I0807 13:33:07.868037 23554 net.cpp:148] Top shape: 5000 4096 (20480000)
I0807 13:33:07.868041 23554 net.cpp:156] Memory required for data: 1344817760
I0807 13:33:07.868042 23554 layer_factory.hpp:77] Creating layer drop2
I0807 13:33:07.868063 23554 net.cpp:91] Creating Layer drop2
I0807 13:33:07.868067 23554 net.cpp:425] drop2 <- fc2
I0807 13:33:07.868070 23554 net.cpp:386] drop2 -> fc2 (in-place)
I0807 13:33:07.868115 23554 net.cpp:141] Setting up drop2
I0807 13:33:07.868122 23554 net.cpp:148] Top shape: 5000 4096 (20480000)
I0807 13:33:07.868125 23554 net.cpp:156] Memory required for data: 1426737760
I0807 13:33:07.868129 23554 layer_factory.hpp:77] Creating layer fc3
I0807 13:33:07.868139 23554 net.cpp:91] Creating Layer fc3
I0807 13:33:07.868144 23554 net.cpp:425] fc3 <- fc2
I0807 13:33:07.868149 23554 net.cpp:399] fc3 -> fc3
I0807 13:33:07.868412 23554 net.cpp:141] Setting up fc3
I0807 13:33:07.868419 23554 net.cpp:148] Top shape: 5000 3 (15000)
I0807 13:33:07.868422 23554 net.cpp:156] Memory required for data: 1426797760
I0807 13:33:07.868427 23554 layer_factory.hpp:77] Creating layer loss
I0807 13:33:07.868434 23554 net.cpp:91] Creating Layer loss
I0807 13:33:07.868450 23554 net.cpp:425] loss <- fc3
I0807 13:33:07.868453 23554 net.cpp:425] loss <- normal_point
I0807 13:33:07.868471 23554 net.cpp:399] loss -> loss
I0807 13:33:07.868542 23554 net.cpp:141] Setting up loss
…
