…
I0807 13:34:43.941378 23640 solver.cpp:91] Creating training net from net file: /home/qinhong/project/normal_recovery/model/t4/train.prototxt
I0807 13:34:43.942106 23640 net.cpp:49] Initializing net from parameters: 
name: "hyper_normal_layers"
state {
  phase: TRAIN
}
layer {
  name: "data"
  type: "ImageNormalData"
  top: "data"
  top: "normal"
  transform_param {
    mirror: true
    mean_value: 104
    mean_value: 117
    mean_value: 123
  }
  image_data_param {
    source: "/home/qinhong/project/normal_recovery/data/source.txt"
    batch_size: 7
    shuffle: true
    new_height: 224
    new_width: 224
  }
}
layer {
  name: "conv1_1"
  type: "Convolution"
  bottom: "data"
  top: "conv1_1"
  param {
    lr_mult: 1
    decay_mult: 1
  }
  param {
    lr_mult: 2
    decay_mult: 0
  }
  convolution_param {
    num_output: 64
    pad: 1
    kernel_size: 3
  }
}
layer {
  name: "relu1_1"
  type: "ReLU"
  bottom: "conv1_1"
  top: "conv1_1"
}
layer {
  name: "conv1_2"
  type: "Convolution"
  bottom: "conv1_1"
  top: "conv1_2"
  param {
    lr_mult: 1
    decay_mult: 1
  }
  param {
    lr_mult: 2
    decay_mult: 0
  }
  convolution_param {
    num_output: 64
    pad: 1
    kernel_size: 3
  }
}
layer {
  name: "relu1_2"
  type: "ReLU"
  bottom: "conv1_2"
  top: "conv1_2"
}
layer {
  name: "pool1"
  type: "Pooling"
  bottom: "conv1_2"
  top: "pool1"
  pooling_param {
    pool: MAX
    kernel_size: 2
    stride: 2
  }
}
layer {
  name: "conv2_1"
  type: "Convolution"
  bottom: "pool1"
  top: "conv2_1"
  param {
    lr_mult: 1
    decay_mult: 1
  }
  param {
    lr_mult: 2
    decay_mult: 0
  }
  convolution_param {
    num_output: 128
    pad: 1
    kernel_size: 3
  }
}
layer {
  name: "relu2_1"
  type: "ReLU"
  bottom: "conv2_1"
  top: "conv2_1"
}
layer {
  name: "conv2_2"
  type: "Convolution"
  bottom: "conv2_1"
  top: "conv2_2"
  param {
    lr_mult: 1
    decay_mult: 1
  }
  param {
    lr_mult: 2
    decay_mult: 0
  }
  convolution_param {
    num_output: 128
    pad: 1
    kernel_size: 3
  }
}
layer {
  name: "relu2_2"
  type: "ReLU"
  bottom: "conv2_2"
  top: "conv2_2"
}
layer {
  name: "pool2"
  type: "Pooling"
  bottom: "conv2_2"
  top: "pool2"
  pooling_param {
    pool: MAX
    kernel_size: 2
    stride: 2
  }
}
layer {
  name: "conv3_1"
  type: "Convolution"
  bottom: "pool2"
  top: "conv3_1"
  param {
    lr_mult: 1
    decay_mult: 1
  }
  param {
    lr_mult: 2
    decay_mult: 0
  }
  convolution_param {
    num_output: 256
    pad: 1
    kernel_size: 3
  }
}
layer {
  name: "relu3_1"
  type: "ReLU"
  bottom: "conv3_1"
  top: "conv3_1"
}
layer {
  name: "conv3_2"
  type: "Convolution"
  bottom: "conv3_1"
  top: "conv3_2"
  param {
    lr_mult: 1
    decay_mult: 1
  }
  param {
    lr_mult: 2
    decay_mult: 0
  }
  convolution_param {
    num_output: 256
    pad: 1
    kernel_size: 3
  }
}
layer {
  name: "relu3_2"
  type: "ReLU"
  bottom: "conv3_2"
  top: "conv3_2"
}
layer {
  name: "conv3_3"
  type: "Convolution"
  bottom: "conv3_2"
  top: "conv3_3"
  param {
    lr_mult: 1
    decay_mult: 1
  }
  param {
    lr_mult: 2
    decay_mult: 0
  }
  convolution_param {
    num_output: 256
    pad: 1
    kernel_size: 3
  }
}
layer {
  name: "relu3_3"
  type: "ReLU"
  bottom: "conv3_3"
  top: "conv3_3"
}
layer {
  name: "pool3"
  type: "Pooling"
  bottom: "conv3_3"
  top: "pool3"
  pooling_param {
    pool: MAX
    kernel_size: 2
    stride: 2
  }
}
layer {
  name: "conv4_1"
  type: "Convolution"
  bottom: "pool3"
  top: "conv4_1"
  param {
    lr_mult: 1
    decay_mult: 1
  }
  param {
    lr_mult: 2
    decay_mult: 0
  }
  convolution_param {
    num_output: 512
    pad: 1
    kernel_size: 3
  }
}
layer {
  name: "relu4_1"
  type: "ReLU"
  bottom: "conv4_1"
  top: "conv4_1"
}
layer {
  name: "conv4_2"
  type: "Convolution"
  bottom: "conv4_1"
  top: "conv4_2"
  param {
    lr_mult: 1
    decay_mult: 1
  }
  param {
    lr_mult: 2
    decay_mult: 0
  }
  convolution_param {
    num_output: 512
    pad: 1
    kernel_size: 3
  }
}
layer {
  name: "relu4_2"
  type: "ReLU"
  bottom: "conv4_2"
  top: "conv4_2"
}
layer {
  name: "conv4_3"
  type: "Convolution"
  bottom: "conv4_2"
  top: "conv4_3"
  param {
    lr_mult: 1
    decay_mult: 1
  }
  param {
    lr_mult: 2
    decay_mult: 0
  }
  convolution_param {
    num_output: 512
    pad: 1
    kernel_size: 3
  }
}
layer {
  name: "relu4_3"
  type: "ReLU"
  bottom: "conv4_3"
  top: "conv4_3"
}
layer {
  name: "pool4"
  type: "Pooling"
  bottom: "conv4_3"
  top: "pool4"
  pooling_param {
    pool: MAX
    kernel_size: 2
    stride: 2
  }
}
layer {
  name: "conv5_1"
  type: "Convolution"
  bottom: "pool4"
  top: "conv5_1"
  param {
    lr_mult: 1
    decay_mult: 1
  }
  param {
    lr_mult: 2
    decay_mult: 0
  }
  convolution_param {
    num_output: 512
    pad: 1
    kernel_size: 3
  }
}
layer {
  name: "relu5_1"
  type: "ReLU"
  bottom: "conv5_1"
  top: "conv5_1"
}
layer {
  name: "conv5_2"
  type: "Convolution"
  bottom: "conv5_1"
  top: "conv5_2"
  param {
    lr_mult: 1
    decay_mult: 1
  }
  param {
    lr_mult: 2
    decay_mult: 0
  }
  convolution_param {
    num_output: 512
    pad: 1
    kernel_size: 3
  }
}
layer {
  name: "relu5_2"
  type: "ReLU"
  bottom: "conv5_2"
  top: "conv5_2"
}
layer {
  name: "conv5_3"
  type: "Convolution"
  bottom: "conv5_2"
  top: "conv5_3"
  param {
    lr_mult: 1
    decay_mult: 1
  }
  param {
    lr_mult: 2
    decay_mult: 0
  }
  convolution_param {
    num_output: 512
    pad: 1
    kernel_size: 3
  }
}
layer {
  name: "relu5_3"
  type: "ReLU"
  bottom: "conv5_3"
  top: "conv5_3"
}
layer {
  name: "pool5"
  type: "Pooling"
  bottom: "conv5_3"
  top: "pool5"
  pooling_param {
    pool: MAX
    kernel_size: 2
    stride: 2
  }
}
layer {
  name: "fc6-conv"
  type: "Convolution"
  bottom: "pool5"
  top: "fc6-conv"
  param {
    lr_mult: 1
    decay_mult: 1
  }
  param {
    lr_mult: 2
    decay_mult: 0
  }
  convolution_param {
    num_output: 4096
    kernel_size: 7
  }
}
layer {
  name: "relu6"
  type: "ReLU"
  bottom: "fc6-conv"
  top: "fc6-conv"
}
layer {
  name: "drop6"
  type: "Dropout"
  bottom: "fc6-conv"
  top: "fc6-conv"
  dropout_param {
    dropout_ratio: 0.5
  }
}
layer {
  name: "fc7-conv"
  type: "Convolution"
  bottom: "fc6-conv"
  top: "fc7-conv"
  param {
    lr_mult: 1
    decay_mult: 1
  }
  param {
    lr_mult: 2
    decay_mult: 0
  }
  convolution_param {
    num_output: 4096
    kernel_size: 1
  }
}
layer {
  name: "relu7"
  type: "ReLU"
  bottom: "fc7-conv"
  top: "fc7-conv"
}
layer {
  name: "hypercolumns"
  type: "HyperColumns"
  bottom: "normal"
  bottom: "conv1_2"
  bottom: "conv2_2"
  bottom: "conv3_3"
  bottom: "conv4_3"
  bottom: "conv5_3"
  bottom: "fc7-conv"
  top: "hypercolumns"
  top: "normal_point"
  hypercolumns_param {
    is_train: true
  }
}
layer {
  name: "fc1"
  type: "InnerProduct"
  bottom: "hypercolumns"
  top: "fc1"
  param {
    lr_mult: 1
    decay_mult: 1
  }
  param {
    lr_mult: 2
    decay_mult: 0
  }
  inner_product_param {
    num_output: 4096
    weight_filler {
      type: "gaussian"
      std: 0.003
    }
    bias_filler {
      type: "constant"
      value: 0
    }
  }
}
layer {
  name: "relu1"
  type: "ReLU"
  bottom: "fc1"
  top: "fc1"
}
layer {
  name: "drop1"
  type: "Dropout"
  bottom: "fc1"
  top: "fc1"
  dropout_param {
    dropout_ratio: 0.5
  }
}
layer {
  name: "fc2"
  type: "InnerProduct"
  bottom: "fc1"
  top: "fc2"
  param {
    lr_mult: 1
    decay_mult: 1
  }
  param {
    lr_mult: 2
    decay_mult: 0
  }
  inner_product_param {
    num_output: 4096
    weight_filler {
      type: "gaussian"
      std: 0.002
    }
    bias_filler {
      type: "constant"
      value: 0
    }
  }
}
layer {
  name: "relu2"
  type: "ReLU"
  bottom: "fc2"
  top: "fc2"
}
layer {
  name: "drop2"
  type: "Dropout"
  bottom: "fc2"
  top: "fc2"
  dropout_param {
    dropout_ratio: 0.5
  }
}
layer {
  name: "fc3"
  type: "InnerProduct"
  bottom: "fc2"
  top: "fc3"
  param {
    lr_mult: 1
    decay_mult: 1
  }
  param {
    lr_mult: 2
    decay_mult: 0
  }
  inner_product_param {
    num_output: 3
    weight_filler {
      type: "gaussian"
      std: 0.001
    }
    bias_filler {
      type: "constant"
      value: 0
    }
  }
}
layer {
  name: "loss"
  type: "EuclideanLoss"
  bottom: "fc3"
  bottom: "normal_point"
  top: "loss"
  propagate_down: true
  propagate_down: false
}
I0807 13:34:43.942348 23640 layer_factory.hpp:77] Creating layer data
I0807 13:34:43.942391 23640 net.cpp:91] Creating Layer data
I0807 13:34:43.942404 23640 net.cpp:399] data -> data
I0807 13:34:43.942431 23640 net.cpp:399] data -> normal
I0807 13:34:43.942817 23640 image_normal_data_layer.cpp:43] opeing file /home/qinhong/project/normal_recovery/data/source.txt
I0807 13:34:43.947702 23640 image_normal_data_layer.cpp:54] Shuffing data
I0807 13:34:43.948774 23640 image_normal_data_layer.cpp:59] A total of 4105 images.
I0807 13:34:43.973081 23640 image_normal_data_layer.cpp:79] output data size: 7,3,224,224
I0807 13:34:43.987474 23640 net.cpp:141] Setting up data
I0807 13:34:43.987506 23640 net.cpp:148] Top shape: 7 3 224 224 (1053696)
I0807 13:34:43.987514 23640 net.cpp:148] Top shape: 7 3 224 224 (1053696)
I0807 13:34:43.987516 23640 net.cpp:156] Memory required for data: 8429568
I0807 13:34:43.987524 23640 layer_factory.hpp:77] Creating layer conv1_1
I0807 13:34:43.987547 23640 net.cpp:91] Creating Layer conv1_1
I0807 13:34:43.987553 23640 net.cpp:425] conv1_1 <- data
I0807 13:34:43.987570 23640 net.cpp:399] conv1_1 -> conv1_1
I0807 13:34:44.235231 23640 net.cpp:141] Setting up conv1_1
I0807 13:34:44.235280 23640 net.cpp:148] Top shape: 7 64 224 224 (22478848)
I0807 13:34:44.235286 23640 net.cpp:156] Memory required for data: 98344960
I0807 13:34:44.235326 23640 layer_factory.hpp:77] Creating layer relu1_1
I0807 13:34:44.235344 23640 net.cpp:91] Creating Layer relu1_1
I0807 13:34:44.235355 23640 net.cpp:425] relu1_1 <- conv1_1
I0807 13:34:44.235365 23640 net.cpp:386] relu1_1 -> conv1_1 (in-place)
I0807 13:34:44.235826 23640 net.cpp:141] Setting up relu1_1
I0807 13:34:44.235846 23640 net.cpp:148] Top shape: 7 64 224 224 (22478848)
I0807 13:34:44.235852 23640 net.cpp:156] Memory required for data: 188260352
I0807 13:34:44.235858 23640 layer_factory.hpp:77] Creating layer conv1_2
I0807 13:34:44.235874 23640 net.cpp:91] Creating Layer conv1_2
I0807 13:34:44.235879 23640 net.cpp:425] conv1_2 <- conv1_1
I0807 13:34:44.235888 23640 net.cpp:399] conv1_2 -> conv1_2
I0807 13:34:44.237449 23640 net.cpp:141] Setting up conv1_2
I0807 13:34:44.237473 23640 net.cpp:148] Top shape: 7 64 224 224 (22478848)
I0807 13:34:44.237478 23640 net.cpp:156] Memory required for data: 278175744
I0807 13:34:44.237493 23640 layer_factory.hpp:77] Creating layer relu1_2
I0807 13:34:44.237504 23640 net.cpp:91] Creating Layer relu1_2
I0807 13:34:44.237509 23640 net.cpp:425] relu1_2 <- conv1_2
I0807 13:34:44.237516 23640 net.cpp:386] relu1_2 -> conv1_2 (in-place)
I0807 13:34:44.237938 23640 net.cpp:141] Setting up relu1_2
I0807 13:34:44.237959 23640 net.cpp:148] Top shape: 7 64 224 224 (22478848)
I0807 13:34:44.237964 23640 net.cpp:156] Memory required for data: 368091136
I0807 13:34:44.237970 23640 layer_factory.hpp:77] Creating layer conv1_2_relu1_2_0_split
I0807 13:34:44.237980 23640 net.cpp:91] Creating Layer conv1_2_relu1_2_0_split
I0807 13:34:44.237987 23640 net.cpp:425] conv1_2_relu1_2_0_split <- conv1_2
I0807 13:34:44.237994 23640 net.cpp:399] conv1_2_relu1_2_0_split -> conv1_2_relu1_2_0_split_0
I0807 13:34:44.238008 23640 net.cpp:399] conv1_2_relu1_2_0_split -> conv1_2_relu1_2_0_split_1
I0807 13:34:44.238075 23640 net.cpp:141] Setting up conv1_2_relu1_2_0_split
I0807 13:34:44.238086 23640 net.cpp:148] Top shape: 7 64 224 224 (22478848)
I0807 13:34:44.238093 23640 net.cpp:148] Top shape: 7 64 224 224 (22478848)
I0807 13:34:44.238097 23640 net.cpp:156] Memory required for data: 547921920
I0807 13:34:44.238133 23640 layer_factory.hpp:77] Creating layer pool1
I0807 13:34:44.238145 23640 net.cpp:91] Creating Layer pool1
I0807 13:34:44.238152 23640 net.cpp:425] pool1 <- conv1_2_relu1_2_0_split_0
I0807 13:34:44.238160 23640 net.cpp:399] pool1 -> pool1
I0807 13:34:44.238236 23640 net.cpp:141] Setting up pool1
I0807 13:34:44.238248 23640 net.cpp:148] Top shape: 7 64 112 112 (5619712)
I0807 13:34:44.238253 23640 net.cpp:156] Memory required for data: 570400768
I0807 13:34:44.238258 23640 layer_factory.hpp:77] Creating layer conv2_1
I0807 13:34:44.238270 23640 net.cpp:91] Creating Layer conv2_1
I0807 13:34:44.238276 23640 net.cpp:425] conv2_1 <- pool1
I0807 13:34:44.238286 23640 net.cpp:399] conv2_1 -> conv2_1
I0807 13:34:44.241441 23640 net.cpp:141] Setting up conv2_1
I0807 13:34:44.241466 23640 net.cpp:148] Top shape: 7 128 112 112 (11239424)
I0807 13:34:44.241472 23640 net.cpp:156] Memory required for data: 615358464
I0807 13:34:44.241487 23640 layer_factory.hpp:77] Creating layer relu2_1
I0807 13:34:44.241502 23640 net.cpp:91] Creating Layer relu2_1
I0807 13:34:44.241509 23640 net.cpp:425] relu2_1 <- conv2_1
I0807 13:34:44.241518 23640 net.cpp:386] relu2_1 -> conv2_1 (in-place)
I0807 13:34:44.241818 23640 net.cpp:141] Setting up relu2_1
I0807 13:34:44.241834 23640 net.cpp:148] Top shape: 7 128 112 112 (11239424)
I0807 13:34:44.241840 23640 net.cpp:156] Memory required for data: 660316160
I0807 13:34:44.241845 23640 layer_factory.hpp:77] Creating layer conv2_2
I0807 13:34:44.241858 23640 net.cpp:91] Creating Layer conv2_2
I0807 13:34:44.241863 23640 net.cpp:425] conv2_2 <- conv2_1
I0807 13:34:44.241870 23640 net.cpp:399] conv2_2 -> conv2_2
I0807 13:34:44.243492 23640 net.cpp:141] Setting up conv2_2
I0807 13:34:44.243515 23640 net.cpp:148] Top shape: 7 128 112 112 (11239424)
I0807 13:34:44.243520 23640 net.cpp:156] Memory required for data: 705273856
I0807 13:34:44.243530 23640 layer_factory.hpp:77] Creating layer relu2_2
I0807 13:34:44.243537 23640 net.cpp:91] Creating Layer relu2_2
I0807 13:34:44.243542 23640 net.cpp:425] relu2_2 <- conv2_2
I0807 13:34:44.243551 23640 net.cpp:386] relu2_2 -> conv2_2 (in-place)
I0807 13:34:44.243949 23640 net.cpp:141] Setting up relu2_2
I0807 13:34:44.243968 23640 net.cpp:148] Top shape: 7 128 112 112 (11239424)
I0807 13:34:44.243973 23640 net.cpp:156] Memory required for data: 750231552
I0807 13:34:44.243978 23640 layer_factory.hpp:77] Creating layer conv2_2_relu2_2_0_split
I0807 13:34:44.243986 23640 net.cpp:91] Creating Layer conv2_2_relu2_2_0_split
I0807 13:34:44.243991 23640 net.cpp:425] conv2_2_relu2_2_0_split <- conv2_2
I0807 13:34:44.243999 23640 net.cpp:399] conv2_2_relu2_2_0_split -> conv2_2_relu2_2_0_split_0
I0807 13:34:44.244009 23640 net.cpp:399] conv2_2_relu2_2_0_split -> conv2_2_relu2_2_0_split_1
I0807 13:34:44.244072 23640 net.cpp:141] Setting up conv2_2_relu2_2_0_split
I0807 13:34:44.244082 23640 net.cpp:148] Top shape: 7 128 112 112 (11239424)
I0807 13:34:44.244088 23640 net.cpp:148] Top shape: 7 128 112 112 (11239424)
I0807 13:34:44.244092 23640 net.cpp:156] Memory required for data: 840146944
I0807 13:34:44.244096 23640 layer_factory.hpp:77] Creating layer pool2
I0807 13:34:44.244105 23640 net.cpp:91] Creating Layer pool2
I0807 13:34:44.244110 23640 net.cpp:425] pool2 <- conv2_2_relu2_2_0_split_0
I0807 13:34:44.244117 23640 net.cpp:399] pool2 -> pool2
I0807 13:34:44.244170 23640 net.cpp:141] Setting up pool2
I0807 13:34:44.244179 23640 net.cpp:148] Top shape: 7 128 56 56 (2809856)
I0807 13:34:44.244184 23640 net.cpp:156] Memory required for data: 851386368
I0807 13:34:44.244189 23640 layer_factory.hpp:77] Creating layer conv3_1
I0807 13:34:44.244199 23640 net.cpp:91] Creating Layer conv3_1
I0807 13:34:44.244205 23640 net.cpp:425] conv3_1 <- pool2
I0807 13:34:44.244213 23640 net.cpp:399] conv3_1 -> conv3_1
I0807 13:34:44.246570 23640 net.cpp:141] Setting up conv3_1
I0807 13:34:44.246593 23640 net.cpp:148] Top shape: 7 256 56 56 (5619712)
I0807 13:34:44.246598 23640 net.cpp:156] Memory required for data: 873865216
I0807 13:34:44.246613 23640 layer_factory.hpp:77] Creating layer relu3_1
I0807 13:34:44.246639 23640 net.cpp:91] Creating Layer relu3_1
I0807 13:34:44.246645 23640 net.cpp:425] relu3_1 <- conv3_1
I0807 13:34:44.246654 23640 net.cpp:386] relu3_1 -> conv3_1 (in-place)
I0807 13:34:44.247061 23640 net.cpp:141] Setting up relu3_1
I0807 13:34:44.247081 23640 net.cpp:148] Top shape: 7 256 56 56 (5619712)
I0807 13:34:44.247086 23640 net.cpp:156] Memory required for data: 896344064
I0807 13:34:44.247090 23640 layer_factory.hpp:77] Creating layer conv3_2
I0807 13:34:44.247102 23640 net.cpp:91] Creating Layer conv3_2
I0807 13:34:44.247107 23640 net.cpp:425] conv3_2 <- conv3_1
I0807 13:34:44.247115 23640 net.cpp:399] conv3_2 -> conv3_2
I0807 13:34:44.250493 23640 net.cpp:141] Setting up conv3_2
I0807 13:34:44.250515 23640 net.cpp:148] Top shape: 7 256 56 56 (5619712)
I0807 13:34:44.250521 23640 net.cpp:156] Memory required for data: 918822912
I0807 13:34:44.250531 23640 layer_factory.hpp:77] Creating layer relu3_2
I0807 13:34:44.250543 23640 net.cpp:91] Creating Layer relu3_2
I0807 13:34:44.250548 23640 net.cpp:425] relu3_2 <- conv3_2
I0807 13:34:44.250556 23640 net.cpp:386] relu3_2 -> conv3_2 (in-place)
I0807 13:34:44.250821 23640 net.cpp:141] Setting up relu3_2
I0807 13:34:44.250836 23640 net.cpp:148] Top shape: 7 256 56 56 (5619712)
I0807 13:34:44.250841 23640 net.cpp:156] Memory required for data: 941301760
I0807 13:34:44.250845 23640 layer_factory.hpp:77] Creating layer conv3_3
I0807 13:34:44.250857 23640 net.cpp:91] Creating Layer conv3_3
I0807 13:34:44.250862 23640 net.cpp:425] conv3_3 <- conv3_2
I0807 13:34:44.250870 23640 net.cpp:399] conv3_3 -> conv3_3
I0807 13:34:44.254375 23640 net.cpp:141] Setting up conv3_3
I0807 13:34:44.254397 23640 net.cpp:148] Top shape: 7 256 56 56 (5619712)
I0807 13:34:44.254402 23640 net.cpp:156] Memory required for data: 963780608
I0807 13:34:44.254411 23640 layer_factory.hpp:77] Creating layer relu3_3
I0807 13:34:44.254420 23640 net.cpp:91] Creating Layer relu3_3
I0807 13:34:44.254425 23640 net.cpp:425] relu3_3 <- conv3_3
I0807 13:34:44.254431 23640 net.cpp:386] relu3_3 -> conv3_3 (in-place)
I0807 13:34:44.254839 23640 net.cpp:141] Setting up relu3_3
I0807 13:34:44.254858 23640 net.cpp:148] Top shape: 7 256 56 56 (5619712)
I0807 13:34:44.254861 23640 net.cpp:156] Memory required for data: 986259456
I0807 13:34:44.254866 23640 layer_factory.hpp:77] Creating layer conv3_3_relu3_3_0_split
I0807 13:34:44.254875 23640 net.cpp:91] Creating Layer conv3_3_relu3_3_0_split
I0807 13:34:44.254879 23640 net.cpp:425] conv3_3_relu3_3_0_split <- conv3_3
I0807 13:34:44.254887 23640 net.cpp:399] conv3_3_relu3_3_0_split -> conv3_3_relu3_3_0_split_0
I0807 13:34:44.254897 23640 net.cpp:399] conv3_3_relu3_3_0_split -> conv3_3_relu3_3_0_split_1
I0807 13:34:44.254963 23640 net.cpp:141] Setting up conv3_3_relu3_3_0_split
I0807 13:34:44.254974 23640 net.cpp:148] Top shape: 7 256 56 56 (5619712)
I0807 13:34:44.254981 23640 net.cpp:148] Top shape: 7 256 56 56 (5619712)
I0807 13:34:44.254984 23640 net.cpp:156] Memory required for data: 1031217152
I0807 13:34:44.254988 23640 layer_factory.hpp:77] Creating layer pool3
I0807 13:34:44.254997 23640 net.cpp:91] Creating Layer pool3
I0807 13:34:44.255004 23640 net.cpp:425] pool3 <- conv3_3_relu3_3_0_split_0
I0807 13:34:44.255012 23640 net.cpp:399] pool3 -> pool3
I0807 13:34:44.255064 23640 net.cpp:141] Setting up pool3
I0807 13:34:44.255072 23640 net.cpp:148] Top shape: 7 256 28 28 (1404928)
I0807 13:34:44.255076 23640 net.cpp:156] Memory required for data: 1036836864
I0807 13:34:44.255080 23640 layer_factory.hpp:77] Creating layer conv4_1
I0807 13:34:44.255090 23640 net.cpp:91] Creating Layer conv4_1
I0807 13:34:44.255097 23640 net.cpp:425] conv4_1 <- pool3
I0807 13:34:44.255105 23640 net.cpp:399] conv4_1 -> conv4_1
I0807 13:34:44.260454 23640 net.cpp:141] Setting up conv4_1
I0807 13:34:44.260475 23640 net.cpp:148] Top shape: 7 512 28 28 (2809856)
I0807 13:34:44.260481 23640 net.cpp:156] Memory required for data: 1048076288
I0807 13:34:44.260490 23640 layer_factory.hpp:77] Creating layer relu4_1
I0807 13:34:44.260515 23640 net.cpp:91] Creating Layer relu4_1
I0807 13:34:44.260521 23640 net.cpp:425] relu4_1 <- conv4_1
I0807 13:34:44.260529 23640 net.cpp:386] relu4_1 -> conv4_1 (in-place)
I0807 13:34:44.260926 23640 net.cpp:141] Setting up relu4_1
I0807 13:34:44.260942 23640 net.cpp:148] Top shape: 7 512 28 28 (2809856)
I0807 13:34:44.260947 23640 net.cpp:156] Memory required for data: 1059315712
I0807 13:34:44.260952 23640 layer_factory.hpp:77] Creating layer conv4_2
I0807 13:34:44.260963 23640 net.cpp:91] Creating Layer conv4_2
I0807 13:34:44.260968 23640 net.cpp:425] conv4_2 <- conv4_1
I0807 13:34:44.260977 23640 net.cpp:399] conv4_2 -> conv4_2
I0807 13:34:44.269007 23640 net.cpp:141] Setting up conv4_2
I0807 13:34:44.269029 23640 net.cpp:148] Top shape: 7 512 28 28 (2809856)
I0807 13:34:44.269033 23640 net.cpp:156] Memory required for data: 1070555136
I0807 13:34:44.269048 23640 layer_factory.hpp:77] Creating layer relu4_2
I0807 13:34:44.269057 23640 net.cpp:91] Creating Layer relu4_2
I0807 13:34:44.269062 23640 net.cpp:425] relu4_2 <- conv4_2
I0807 13:34:44.269070 23640 net.cpp:386] relu4_2 -> conv4_2 (in-place)
I0807 13:34:44.269311 23640 net.cpp:141] Setting up relu4_2
I0807 13:34:44.269325 23640 net.cpp:148] Top shape: 7 512 28 28 (2809856)
I0807 13:34:44.269328 23640 net.cpp:156] Memory required for data: 1081794560
I0807 13:34:44.269333 23640 layer_factory.hpp:77] Creating layer conv4_3
I0807 13:34:44.269345 23640 net.cpp:91] Creating Layer conv4_3
I0807 13:34:44.269351 23640 net.cpp:425] conv4_3 <- conv4_2
I0807 13:34:44.269359 23640 net.cpp:399] conv4_3 -> conv4_3
I0807 13:34:44.277240 23640 net.cpp:141] Setting up conv4_3
I0807 13:34:44.277268 23640 net.cpp:148] Top shape: 7 512 28 28 (2809856)
I0807 13:34:44.277273 23640 net.cpp:156] Memory required for data: 1093033984
I0807 13:34:44.277283 23640 layer_factory.hpp:77] Creating layer relu4_3
I0807 13:34:44.277292 23640 net.cpp:91] Creating Layer relu4_3
I0807 13:34:44.277297 23640 net.cpp:425] relu4_3 <- conv4_3
I0807 13:34:44.277307 23640 net.cpp:386] relu4_3 -> conv4_3 (in-place)
I0807 13:34:44.278034 23640 net.cpp:141] Setting up relu4_3
I0807 13:34:44.278084 23640 net.cpp:148] Top shape: 7 512 28 28 (2809856)
I0807 13:34:44.278092 23640 net.cpp:156] Memory required for data: 1104273408
I0807 13:34:44.278102 23640 layer_factory.hpp:77] Creating layer conv4_3_relu4_3_0_split
I0807 13:34:44.278120 23640 net.cpp:91] Creating Layer conv4_3_relu4_3_0_split
I0807 13:34:44.278131 23640 net.cpp:425] conv4_3_relu4_3_0_split <- conv4_3
I0807 13:34:44.278146 23640 net.cpp:399] conv4_3_relu4_3_0_split -> conv4_3_relu4_3_0_split_0
I0807 13:34:44.278167 23640 net.cpp:399] conv4_3_relu4_3_0_split -> conv4_3_relu4_3_0_split_1
I0807 13:34:44.278277 23640 net.cpp:141] Setting up conv4_3_relu4_3_0_split
I0807 13:34:44.278291 23640 net.cpp:148] Top shape: 7 512 28 28 (2809856)
I0807 13:34:44.278301 23640 net.cpp:148] Top shape: 7 512 28 28 (2809856)
I0807 13:34:44.278307 23640 net.cpp:156] Memory required for data: 1126752256
I0807 13:34:44.278314 23640 layer_factory.hpp:77] Creating layer pool4
I0807 13:34:44.278327 23640 net.cpp:91] Creating Layer pool4
I0807 13:34:44.278337 23640 net.cpp:425] pool4 <- conv4_3_relu4_3_0_split_0
I0807 13:34:44.278347 23640 net.cpp:399] pool4 -> pool4
I0807 13:34:44.278430 23640 net.cpp:141] Setting up pool4
I0807 13:34:44.278444 23640 net.cpp:148] Top shape: 7 512 14 14 (702464)
I0807 13:34:44.278450 23640 net.cpp:156] Memory required for data: 1129562112
I0807 13:34:44.278455 23640 layer_factory.hpp:77] Creating layer conv5_1
I0807 13:34:44.278472 23640 net.cpp:91] Creating Layer conv5_1
I0807 13:34:44.278481 23640 net.cpp:425] conv5_1 <- pool4
I0807 13:34:44.278493 23640 net.cpp:399] conv5_1 -> conv5_1
I0807 13:34:44.289633 23640 net.cpp:141] Setting up conv5_1
I0807 13:34:44.289664 23640 net.cpp:148] Top shape: 7 512 14 14 (702464)
I0807 13:34:44.289671 23640 net.cpp:156] Memory required for data: 1132371968
I0807 13:34:44.289686 23640 layer_factory.hpp:77] Creating layer relu5_1
I0807 13:34:44.289700 23640 net.cpp:91] Creating Layer relu5_1
I0807 13:34:44.289741 23640 net.cpp:425] relu5_1 <- conv5_1
I0807 13:34:44.289773 23640 net.cpp:386] relu5_1 -> conv5_1 (in-place)
I0807 13:34:44.290318 23640 net.cpp:141] Setting up relu5_1
I0807 13:34:44.290343 23640 net.cpp:148] Top shape: 7 512 14 14 (702464)
I0807 13:34:44.290356 23640 net.cpp:156] Memory required for data: 1135181824
I0807 13:34:44.290362 23640 layer_factory.hpp:77] Creating layer conv5_2
I0807 13:34:44.290385 23640 net.cpp:91] Creating Layer conv5_2
I0807 13:34:44.290393 23640 net.cpp:425] conv5_2 <- conv5_1
I0807 13:34:44.290408 23640 net.cpp:399] conv5_2 -> conv5_2
I0807 13:34:44.300747 23640 net.cpp:141] Setting up conv5_2
I0807 13:34:44.300782 23640 net.cpp:148] Top shape: 7 512 14 14 (702464)
I0807 13:34:44.300789 23640 net.cpp:156] Memory required for data: 1137991680
I0807 13:34:44.300801 23640 layer_factory.hpp:77] Creating layer relu5_2
I0807 13:34:44.300834 23640 net.cpp:91] Creating Layer relu5_2
I0807 13:34:44.300848 23640 net.cpp:425] relu5_2 <- conv5_2
I0807 13:34:44.300858 23640 net.cpp:386] relu5_2 -> conv5_2 (in-place)
I0807 13:34:44.301216 23640 net.cpp:141] Setting up relu5_2
I0807 13:34:44.301234 23640 net.cpp:148] Top shape: 7 512 14 14 (702464)
I0807 13:34:44.301240 23640 net.cpp:156] Memory required for data: 1140801536
I0807 13:34:44.301249 23640 layer_factory.hpp:77] Creating layer conv5_3
I0807 13:34:44.301266 23640 net.cpp:91] Creating Layer conv5_3
I0807 13:34:44.301277 23640 net.cpp:425] conv5_3 <- conv5_2
I0807 13:34:44.301292 23640 net.cpp:399] conv5_3 -> conv5_3
I0807 13:34:44.311085 23640 net.cpp:141] Setting up conv5_3
I0807 13:34:44.311120 23640 net.cpp:148] Top shape: 7 512 14 14 (702464)
I0807 13:34:44.311125 23640 net.cpp:156] Memory required for data: 1143611392
I0807 13:34:44.311137 23640 layer_factory.hpp:77] Creating layer relu5_3
I0807 13:34:44.311151 23640 net.cpp:91] Creating Layer relu5_3
I0807 13:34:44.311159 23640 net.cpp:425] relu5_3 <- conv5_3
I0807 13:34:44.311170 23640 net.cpp:386] relu5_3 -> conv5_3 (in-place)
I0807 13:34:44.311664 23640 net.cpp:141] Setting up relu5_3
I0807 13:34:44.311686 23640 net.cpp:148] Top shape: 7 512 14 14 (702464)
I0807 13:34:44.311694 23640 net.cpp:156] Memory required for data: 1146421248
I0807 13:34:44.311699 23640 layer_factory.hpp:77] Creating layer conv5_3_relu5_3_0_split
I0807 13:34:44.311712 23640 net.cpp:91] Creating Layer conv5_3_relu5_3_0_split
I0807 13:34:44.311719 23640 net.cpp:425] conv5_3_relu5_3_0_split <- conv5_3
I0807 13:34:44.311731 23640 net.cpp:399] conv5_3_relu5_3_0_split -> conv5_3_relu5_3_0_split_0
I0807 13:34:44.311748 23640 net.cpp:399] conv5_3_relu5_3_0_split -> conv5_3_relu5_3_0_split_1
I0807 13:34:44.311833 23640 net.cpp:141] Setting up conv5_3_relu5_3_0_split
I0807 13:34:44.311846 23640 net.cpp:148] Top shape: 7 512 14 14 (702464)
I0807 13:34:44.311856 23640 net.cpp:148] Top shape: 7 512 14 14 (702464)
I0807 13:34:44.311862 23640 net.cpp:156] Memory required for data: 1152040960
I0807 13:34:44.311869 23640 layer_factory.hpp:77] Creating layer pool5
I0807 13:34:44.311884 23640 net.cpp:91] Creating Layer pool5
I0807 13:34:44.311892 23640 net.cpp:425] pool5 <- conv5_3_relu5_3_0_split_0
I0807 13:34:44.311903 23640 net.cpp:399] pool5 -> pool5
I0807 13:34:44.311977 23640 net.cpp:141] Setting up pool5
I0807 13:34:44.311990 23640 net.cpp:148] Top shape: 7 512 7 7 (175616)
I0807 13:34:44.311996 23640 net.cpp:156] Memory required for data: 1152743424
I0807 13:34:44.312003 23640 layer_factory.hpp:77] Creating layer fc6-conv
I0807 13:34:44.312018 23640 net.cpp:91] Creating Layer fc6-conv
I0807 13:34:44.312026 23640 net.cpp:425] fc6-conv <- pool5
I0807 13:34:44.312041 23640 net.cpp:399] fc6-conv -> fc6-conv
I0807 13:34:44.598458 23640 net.cpp:141] Setting up fc6-conv
I0807 13:34:44.598500 23640 net.cpp:148] Top shape: 7 4096 1 1 (28672)
I0807 13:34:44.598503 23640 net.cpp:156] Memory required for data: 1152858112
I0807 13:34:44.598513 23640 layer_factory.hpp:77] Creating layer relu6
I0807 13:34:44.598526 23640 net.cpp:91] Creating Layer relu6
I0807 13:34:44.598534 23640 net.cpp:425] relu6 <- fc6-conv
I0807 13:34:44.598561 23640 net.cpp:386] relu6 -> fc6-conv (in-place)
I0807 13:34:44.598872 23640 net.cpp:141] Setting up relu6
I0807 13:34:44.598886 23640 net.cpp:148] Top shape: 7 4096 1 1 (28672)
I0807 13:34:44.598891 23640 net.cpp:156] Memory required for data: 1152972800
I0807 13:34:44.598896 23640 layer_factory.hpp:77] Creating layer drop6
I0807 13:34:44.598906 23640 net.cpp:91] Creating Layer drop6
I0807 13:34:44.598912 23640 net.cpp:425] drop6 <- fc6-conv
I0807 13:34:44.598919 23640 net.cpp:386] drop6 -> fc6-conv (in-place)
I0807 13:34:44.598959 23640 net.cpp:141] Setting up drop6
I0807 13:34:44.598968 23640 net.cpp:148] Top shape: 7 4096 1 1 (28672)
I0807 13:34:44.598971 23640 net.cpp:156] Memory required for data: 1153087488
I0807 13:34:44.598975 23640 layer_factory.hpp:77] Creating layer fc7-conv
I0807 13:34:44.598987 23640 net.cpp:91] Creating Layer fc7-conv
I0807 13:34:44.598992 23640 net.cpp:425] fc7-conv <- fc6-conv
I0807 13:34:44.598999 23640 net.cpp:399] fc7-conv -> fc7-conv
I0807 13:34:44.645182 23640 net.cpp:141] Setting up fc7-conv
I0807 13:34:44.645222 23640 net.cpp:148] Top shape: 7 4096 1 1 (28672)
I0807 13:34:44.645226 23640 net.cpp:156] Memory required for data: 1153202176
I0807 13:34:44.645236 23640 layer_factory.hpp:77] Creating layer relu7
I0807 13:34:44.645247 23640 net.cpp:91] Creating Layer relu7
I0807 13:34:44.645256 23640 net.cpp:425] relu7 <- fc7-conv
I0807 13:34:44.645268 23640 net.cpp:386] relu7 -> fc7-conv (in-place)
I0807 13:34:44.645479 23640 net.cpp:141] Setting up relu7
I0807 13:34:44.645490 23640 net.cpp:148] Top shape: 7 4096 1 1 (28672)
I0807 13:34:44.645495 23640 net.cpp:156] Memory required for data: 1153316864
I0807 13:34:44.645499 23640 layer_factory.hpp:77] Creating layer hypercolumns
I0807 13:34:44.645510 23640 net.cpp:91] Creating Layer hypercolumns
I0807 13:34:44.645515 23640 net.cpp:425] hypercolumns <- normal
I0807 13:34:44.645521 23640 net.cpp:425] hypercolumns <- conv1_2_relu1_2_0_split_1
I0807 13:34:44.645527 23640 net.cpp:425] hypercolumns <- conv2_2_relu2_2_0_split_1
I0807 13:34:44.645532 23640 net.cpp:425] hypercolumns <- conv3_3_relu3_3_0_split_1
I0807 13:34:44.645537 23640 net.cpp:425] hypercolumns <- conv4_3_relu4_3_0_split_1
I0807 13:34:44.645545 23640 net.cpp:425] hypercolumns <- conv5_3_relu5_3_0_split_1
I0807 13:34:44.645547 23640 net.cpp:425] hypercolumns <- fc7-conv
I0807 13:34:44.645555 23640 net.cpp:399] hypercolumns -> hypercolumns
I0807 13:34:44.645577 23640 net.cpp:399] hypercolumns -> normal_point
I0807 13:34:44.645634 23640 net.cpp:141] Setting up hypercolumns
I0807 13:34:44.645643 23640 net.cpp:148] Top shape: 7000 5568 1 1 (38976000)
I0807 13:34:44.645648 23640 net.cpp:148] Top shape: 7000 3 (21000)
I0807 13:34:44.645651 23640 net.cpp:156] Memory required for data: 1309304864
I0807 13:34:44.645655 23640 layer_factory.hpp:77] Creating layer fc1
I0807 13:34:44.645665 23640 net.cpp:91] Creating Layer fc1
I0807 13:34:44.645670 23640 net.cpp:425] fc1 <- hypercolumns
I0807 13:34:44.645676 23640 net.cpp:399] fc1 -> fc1
I0807 13:34:44.994666 23640 net.cpp:141] Setting up fc1
I0807 13:34:44.994737 23640 net.cpp:148] Top shape: 7000 4096 (28672000)
I0807 13:34:44.994742 23640 net.cpp:156] Memory required for data: 1423992864
I0807 13:34:44.994766 23640 layer_factory.hpp:77] Creating layer relu1
I0807 13:34:44.994801 23640 net.cpp:91] Creating Layer relu1
I0807 13:34:44.994808 23640 net.cpp:425] relu1 <- fc1
I0807 13:34:44.994817 23640 net.cpp:386] relu1 -> fc1 (in-place)
I0807 13:34:44.995892 23640 net.cpp:141] Setting up relu1
I0807 13:34:44.995906 23640 net.cpp:148] Top shape: 7000 4096 (28672000)
I0807 13:34:44.995910 23640 net.cpp:156] Memory required for data: 1538680864
I0807 13:34:44.995913 23640 layer_factory.hpp:77] Creating layer drop1
I0807 13:34:44.995926 23640 net.cpp:91] Creating Layer drop1
I0807 13:34:44.995929 23640 net.cpp:425] drop1 <- fc1
I0807 13:34:44.995937 23640 net.cpp:386] drop1 -> fc1 (in-place)
I0807 13:34:44.995975 23640 net.cpp:141] Setting up drop1
I0807 13:34:44.995983 23640 net.cpp:148] Top shape: 7000 4096 (28672000)
I0807 13:34:44.996006 23640 net.cpp:156] Memory required for data: 1653368864
I0807 13:34:44.996013 23640 layer_factory.hpp:77] Creating layer fc2
I0807 13:34:44.996037 23640 net.cpp:91] Creating Layer fc2
I0807 13:34:44.996042 23640 net.cpp:425] fc2 <- fc1
I0807 13:34:44.996050 23640 net.cpp:399] fc2 -> fc2
I0807 13:34:45.223062 23640 net.cpp:141] Setting up fc2
I0807 13:34:45.223104 23640 net.cpp:148] Top shape: 7000 4096 (28672000)
I0807 13:34:45.223109 23640 net.cpp:156] Memory required for data: 1768056864
I0807 13:34:45.223145 23640 layer_factory.hpp:77] Creating layer relu2
I0807 13:34:45.223165 23640 net.cpp:91] Creating Layer relu2
I0807 13:34:45.223170 23640 net.cpp:425] relu2 <- fc2
I0807 13:34:45.223181 23640 net.cpp:386] relu2 -> fc2 (in-place)
I0807 13:34:45.223480 23640 net.cpp:141] Setting up relu2
I0807 13:34:45.223492 23640 net.cpp:148] Top shape: 7000 4096 (28672000)
I0807 13:34:45.223495 23640 net.cpp:156] Memory required for data: 1882744864
I0807 13:34:45.223498 23640 layer_factory.hpp:77] Creating layer drop2
I0807 13:34:45.223506 23640 net.cpp:91] Creating Layer drop2
I0807 13:34:45.223510 23640 net.cpp:425] drop2 <- fc2
I0807 13:34:45.223516 23640 net.cpp:386] drop2 -> fc2 (in-place)
I0807 13:34:45.223564 23640 net.cpp:141] Setting up drop2
I0807 13:34:45.223572 23640 net.cpp:148] Top shape: 7000 4096 (28672000)
I0807 13:34:45.223577 23640 net.cpp:156] Memory required for data: 1997432864
I0807 13:34:45.223579 23640 layer_factory.hpp:77] Creating layer fc3
I0807 13:34:45.223590 23640 net.cpp:91] Creating Layer fc3
I0807 13:34:45.223595 23640 net.cpp:425] fc3 <- fc2
I0807 13:34:45.223603 23640 net.cpp:399] fc3 -> fc3
I0807 13:34:45.223898 23640 net.cpp:141] Setting up fc3
I0807 13:34:45.223908 23640 net.cpp:148] Top shape: 7000 3 (21000)
I0807 13:34:45.223912 23640 net.cpp:156] Memory required for data: 1997516864
I0807 13:34:45.223918 23640 layer_factory.hpp:77] Creating layer loss
I0807 13:34:45.223925 23640 net.cpp:91] Creating Layer loss
I0807 13:34:45.223929 23640 net.cpp:425] loss <- fc3
I0807 13:34:45.223933 23640 net.cpp:425] loss <- normal_point
I0807 13:34:45.223938 23640 net.cpp:399] loss -> loss
I0807 13:34:45.224000 23640 net.cpp:141] Setting up loss
…
