…
type: "SGD"
I0807 13:33:35.653971 23592 solver.cpp:91] Creating training net from net file: /home/qinhong/project/normal_recovery/model/t2/train.prototxt
I0807 13:33:35.654714 23592 net.cpp:49] Initializing net from parameters: 
name: "hyper_normal_layers"
state {
  phase: TRAIN
}
layer {
  name: "data"
  type: "ImageNormalData"
  top: "data"
  top: "normal"
  transform_param {
  }
  image_data_param {
    source: "/home/qinhong/project/normal_recovery/data/source.txt"
    batch_size: 7
    shuffle: true
    new_height: 224
    new_width: 224
  }
}
layer {
  name: "conv1_1"
  type: "Convolution"
  bottom: "data"
  top: "conv1_1"
  param {
    lr_mult: 1
    decay_mult: 1
  }
  param {
    lr_mult: 2
    decay_mult: 0
  }
  convolution_param {
    num_output: 64
    pad: 1
    kernel_size: 3
  }
}
layer {
  name: "relu1_1"
  type: "ReLU"
  bottom: "conv1_1"
  top: "conv1_1"
}
layer {
  name: "conv1_2"
  type: "Convolution"
  bottom: "conv1_1"
  top: "conv1_2"
  param {
    lr_mult: 1
    decay_mult: 1
  }
  param {
    lr_mult: 2
    decay_mult: 0
  }
  convolution_param {
    num_output: 64
    pad: 1
    kernel_size: 3
  }
}
layer {
  name: "relu1_2"
  type: "ReLU"
  bottom: "conv1_2"
  top: "conv1_2"
}
layer {
  name: "pool1"
  type: "Pooling"
  bottom: "conv1_2"
  top: "pool1"
  pooling_param {
    pool: MAX
    kernel_size: 2
    stride: 2
  }
}
layer {
  name: "conv2_1"
  type: "Convolution"
  bottom: "pool1"
  top: "conv2_1"
  param {
    lr_mult: 1
    decay_mult: 1
  }
  param {
    lr_mult: 2
    decay_mult: 0
  }
  convolution_param {
    num_output: 128
    pad: 1
    kernel_size: 3
  }
}
layer {
  name: "relu2_1"
  type: "ReLU"
  bottom: "conv2_1"
  top: "conv2_1"
}
layer {
  name: "conv2_2"
  type: "Convolution"
  bottom: "conv2_1"
  top: "conv2_2"
  param {
    lr_mult: 1
    decay_mult: 1
  }
  param {
    lr_mult: 2
    decay_mult: 0
  }
  convolution_param {
    num_output: 128
    pad: 1
    kernel_size: 3
  }
}
layer {
  name: "relu2_2"
  type: "ReLU"
  bottom: "conv2_2"
  top: "conv2_2"
}
layer {
  name: "pool2"
  type: "Pooling"
  bottom: "conv2_2"
  top: "pool2"
  pooling_param {
    pool: MAX
    kernel_size: 2
    stride: 2
  }
}
layer {
  name: "conv3_1"
  type: "Convolution"
  bottom: "pool2"
  top: "conv3_1"
  param {
    lr_mult: 1
    decay_mult: 1
  }
  param {
    lr_mult: 2
    decay_mult: 0
  }
  convolution_param {
    num_output: 256
    pad: 1
    kernel_size: 3
  }
}
layer {
  name: "relu3_1"
  type: "ReLU"
  bottom: "conv3_1"
  top: "conv3_1"
}
layer {
  name: "conv3_2"
  type: "Convolution"
  bottom: "conv3_1"
  top: "conv3_2"
  param {
    lr_mult: 1
    decay_mult: 1
  }
  param {
    lr_mult: 2
    decay_mult: 0
  }
  convolution_param {
    num_output: 256
    pad: 1
    kernel_size: 3
  }
}
layer {
  name: "relu3_2"
  type: "ReLU"
  bottom: "conv3_2"
  top: "conv3_2"
}
layer {
  name: "conv3_3"
  type: "Convolution"
  bottom: "conv3_2"
  top: "conv3_3"
  param {
    lr_mult: 1
    decay_mult: 1
  }
  param {
    lr_mult: 2
    decay_mult: 0
  }
  convolution_param {
    num_output: 256
    pad: 1
    kernel_size: 3
  }
}
layer {
  name: "relu3_3"
  type: "ReLU"
  bottom: "conv3_3"
  top: "conv3_3"
}
layer {
  name: "pool3"
  type: "Pooling"
  bottom: "conv3_3"
  top: "pool3"
  pooling_param {
    pool: MAX
    kernel_size: 2
    stride: 2
  }
}
layer {
  name: "conv4_1"
  type: "Convolution"
  bottom: "pool3"
  top: "conv4_1"
  param {
    lr_mult: 1
    decay_mult: 1
  }
  param {
    lr_mult: 2
    decay_mult: 0
  }
  convolution_param {
    num_output: 512
    pad: 1
    kernel_size: 3
  }
}
layer {
  name: "relu4_1"
  type: "ReLU"
  bottom: "conv4_1"
  top: "conv4_1"
}
layer {
  name: "conv4_2"
  type: "Convolution"
  bottom: "conv4_1"
  top: "conv4_2"
  param {
    lr_mult: 1
    decay_mult: 1
  }
  param {
    lr_mult: 2
    decay_mult: 0
  }
  convolution_param {
    num_output: 512
    pad: 1
    kernel_size: 3
  }
}
layer {
  name: "relu4_2"
  type: "ReLU"
  bottom: "conv4_2"
  top: "conv4_2"
}
layer {
  name: "conv4_3"
  type: "Convolution"
  bottom: "conv4_2"
  top: "conv4_3"
  param {
    lr_mult: 1
    decay_mult: 1
  }
  param {
    lr_mult: 2
    decay_mult: 0
  }
  convolution_param {
    num_output: 512
    pad: 1
    kernel_size: 3
  }
}
layer {
  name: "relu4_3"
  type: "ReLU"
  bottom: "conv4_3"
  top: "conv4_3"
}
layer {
  name: "pool4"
  type: "Pooling"
  bottom: "conv4_3"
  top: "pool4"
  pooling_param {
    pool: MAX
    kernel_size: 2
    stride: 2
  }
}
layer {
  name: "conv5_1"
  type: "Convolution"
  bottom: "pool4"
  top: "conv5_1"
  param {
    lr_mult: 1
    decay_mult: 1
  }
  param {
    lr_mult: 2
    decay_mult: 0
  }
  convolution_param {
    num_output: 512
    pad: 1
    kernel_size: 3
  }
}
layer {
  name: "relu5_1"
  type: "ReLU"
  bottom: "conv5_1"
  top: "conv5_1"
}
layer {
  name: "conv5_2"
  type: "Convolution"
  bottom: "conv5_1"
  top: "conv5_2"
  param {
    lr_mult: 1
    decay_mult: 1
  }
  param {
    lr_mult: 2
    decay_mult: 0
  }
  convolution_param {
    num_output: 512
    pad: 1
    kernel_size: 3
  }
}
layer {
  name: "relu5_2"
  type: "ReLU"
  bottom: "conv5_2"
  top: "conv5_2"
}
layer {
  name: "conv5_3"
  type: "Convolution"
  bottom: "conv5_2"
  top: "conv5_3"
  param {
    lr_mult: 1
    decay_mult: 1
  }
  param {
    lr_mult: 2
    decay_mult: 0
  }
  convolution_param {
    num_output: 512
    pad: 1
    kernel_size: 3
  }
}
layer {
  name: "relu5_3"
  type: "ReLU"
  bottom: "conv5_3"
  top: "conv5_3"
}
layer {
  name: "pool5"
  type: "Pooling"
  bottom: "conv5_3"
  top: "pool5"
  pooling_param {
    pool: MAX
    kernel_size: 2
    stride: 2
  }
}
layer {
  name: "fc6-conv"
  type: "Convolution"
  bottom: "pool5"
  top: "fc6-conv"
  param {
    lr_mult: 1
    decay_mult: 1
  }
  param {
    lr_mult: 2
    decay_mult: 0
  }
  convolution_param {
    num_output: 4096
    kernel_size: 7
  }
}
layer {
  name: "relu6"
  type: "ReLU"
  bottom: "fc6-conv"
  top: "fc6-conv"
}
layer {
  name: "drop6"
  type: "Dropout"
  bottom: "fc6-conv"
  top: "fc6-conv"
  dropout_param {
    dropout_ratio: 0.5
  }
}
layer {
  name: "fc7-conv"
  type: "Convolution"
  bottom: "fc6-conv"
  top: "fc7-conv"
  param {
    lr_mult: 1
    decay_mult: 1
  }
  param {
    lr_mult: 2
    decay_mult: 0
  }
  convolution_param {
    num_output: 4096
    kernel_size: 1
  }
}
layer {
  name: "relu7"
  type: "ReLU"
  bottom: "fc7-conv"
  top: "fc7-conv"
}
layer {
  name: "hypercolumns"
  type: "HyperColumns"
  bottom: "normal"
  bottom: "conv1_2"
  bottom: "conv2_2"
  bottom: "conv3_3"
  bottom: "conv4_3"
  bottom: "conv5_3"
  bottom: "fc7-conv"
  top: "hypercolumns"
  top: "normal_point"
  hypercolumns_param {
    is_train: true
  }
}
layer {
  name: "fc1"
  type: "InnerProduct"
  bottom: "hypercolumns"
  top: "fc1"
  param {
    lr_mult: 1
    decay_mult: 1
  }
  param {
    lr_mult: 2
    decay_mult: 0
  }
  inner_product_param {
    num_output: 4096
    weight_filler {
      type: "gaussian"
      std: 0.003
    }
    bias_filler {
      type: "constant"
      value: 0
    }
  }
}
layer {
  name: "relu1"
  type: "ReLU"
  bottom: "fc1"
  top: "fc1"
}
layer {
  name: "drop1"
  type: "Dropout"
  bottom: "fc1"
  top: "fc1"
  dropout_param {
    dropout_ratio: 0.5
  }
}
layer {
  name: "fc2"
  type: "InnerProduct"
  bottom: "fc1"
  top: "fc2"
  param {
    lr_mult: 1
    decay_mult: 1
  }
  param {
    lr_mult: 2
    decay_mult: 0
  }
  inner_product_param {
    num_output: 4096
    weight_filler {
      type: "gaussian"
      std: 0.002
    }
    bias_filler {
      type: "constant"
      value: 0
    }
  }
}
layer {
  name: "relu2"
  type: "ReLU"
  bottom: "fc2"
  top: "fc2"
}
layer {
  name: "drop2"
  type: "Dropout"
  bottom: "fc2"
  top: "fc2"
  dropout_param {
    dropout_ratio: 0.5
  }
}
layer {
  name: "fc3"
  type: "InnerProduct"
  bottom: "fc2"
  top: "fc3"
  param {
    lr_mult: 1
    decay_mult: 1
  }
  param {
    lr_mult: 2
    decay_mult: 0
  }
  inner_product_param {
    num_output: 3
    weight_filler {
      type: "gaussian"
      std: 0.001
    }
    bias_filler {
      type: "constant"
      value: 0
    }
  }
}
layer {
  name: "loss"
  type: "EuclideanLoss"
  bottom: "fc3"
  bottom: "normal_point"
  top: "loss"
  propagate_down: true
  propagate_down: false
}
I0807 13:33:35.654955 23592 layer_factory.hpp:77] Creating layer data
I0807 13:33:35.654992 23592 net.cpp:91] Creating Layer data
I0807 13:33:35.655001 23592 net.cpp:399] data -> data
I0807 13:33:35.655031 23592 net.cpp:399] data -> normal
I0807 13:33:35.655050 23592 image_normal_data_layer.cpp:43] opeing file /home/qinhong/project/normal_recovery/data/source.txt
I0807 13:33:35.659675 23592 image_normal_data_layer.cpp:54] Shuffing data
I0807 13:33:35.661029 23592 image_normal_data_layer.cpp:59] A total of 4105 images.
I0807 13:33:35.686419 23592 image_normal_data_layer.cpp:79] output data size: 7,3,224,224
I0807 13:33:35.702234 23592 net.cpp:141] Setting up data
I0807 13:33:35.702263 23592 net.cpp:148] Top shape: 7 3 224 224 (1053696)
I0807 13:33:35.702270 23592 net.cpp:148] Top shape: 7 3 224 224 (1053696)
I0807 13:33:35.702273 23592 net.cpp:156] Memory required for data: 8429568
I0807 13:33:35.702281 23592 layer_factory.hpp:77] Creating layer conv1_1
I0807 13:33:35.702306 23592 net.cpp:91] Creating Layer conv1_1
I0807 13:33:35.702319 23592 net.cpp:425] conv1_1 <- data
I0807 13:33:35.702334 23592 net.cpp:399] conv1_1 -> conv1_1
I0807 13:33:35.942173 23592 net.cpp:141] Setting up conv1_1
I0807 13:33:35.942205 23592 net.cpp:148] Top shape: 7 64 224 224 (22478848)
I0807 13:33:35.942210 23592 net.cpp:156] Memory required for data: 98344960
I0807 13:33:35.942239 23592 layer_factory.hpp:77] Creating layer relu1_1
I0807 13:33:35.942251 23592 net.cpp:91] Creating Layer relu1_1
I0807 13:33:35.942256 23592 net.cpp:425] relu1_1 <- conv1_1
I0807 13:33:35.942263 23592 net.cpp:386] relu1_1 -> conv1_1 (in-place)
I0807 13:33:35.942576 23592 net.cpp:141] Setting up relu1_1
I0807 13:33:35.942591 23592 net.cpp:148] Top shape: 7 64 224 224 (22478848)
I0807 13:33:35.942595 23592 net.cpp:156] Memory required for data: 188260352
I0807 13:33:35.942600 23592 layer_factory.hpp:77] Creating layer conv1_2
I0807 13:33:35.942610 23592 net.cpp:91] Creating Layer conv1_2
I0807 13:33:35.942615 23592 net.cpp:425] conv1_2 <- conv1_1
I0807 13:33:35.942622 23592 net.cpp:399] conv1_2 -> conv1_2
I0807 13:33:35.943666 23592 net.cpp:141] Setting up conv1_2
I0807 13:33:35.943683 23592 net.cpp:148] Top shape: 7 64 224 224 (22478848)
I0807 13:33:35.943686 23592 net.cpp:156] Memory required for data: 278175744
I0807 13:33:35.943696 23592 layer_factory.hpp:77] Creating layer relu1_2
I0807 13:33:35.943704 23592 net.cpp:91] Creating Layer relu1_2
I0807 13:33:35.943709 23592 net.cpp:425] relu1_2 <- conv1_2
I0807 13:33:35.943714 23592 net.cpp:386] relu1_2 -> conv1_2 (in-place)
I0807 13:33:35.943991 23592 net.cpp:141] Setting up relu1_2
I0807 13:33:35.944005 23592 net.cpp:148] Top shape: 7 64 224 224 (22478848)
I0807 13:33:35.944010 23592 net.cpp:156] Memory required for data: 368091136
I0807 13:33:35.944012 23592 layer_factory.hpp:77] Creating layer conv1_2_relu1_2_0_split
I0807 13:33:35.944020 23592 net.cpp:91] Creating Layer conv1_2_relu1_2_0_split
I0807 13:33:35.944023 23592 net.cpp:425] conv1_2_relu1_2_0_split <- conv1_2
I0807 13:33:35.944030 23592 net.cpp:399] conv1_2_relu1_2_0_split -> conv1_2_relu1_2_0_split_0
I0807 13:33:35.944038 23592 net.cpp:399] conv1_2_relu1_2_0_split -> conv1_2_relu1_2_0_split_1
I0807 13:33:35.944082 23592 net.cpp:141] Setting up conv1_2_relu1_2_0_split
I0807 13:33:35.944090 23592 net.cpp:148] Top shape: 7 64 224 224 (22478848)
I0807 13:33:35.944095 23592 net.cpp:148] Top shape: 7 64 224 224 (22478848)
I0807 13:33:35.944098 23592 net.cpp:156] Memory required for data: 547921920
I0807 13:33:35.944102 23592 layer_factory.hpp:77] Creating layer pool1
I0807 13:33:35.944139 23592 net.cpp:91] Creating Layer pool1
I0807 13:33:35.944149 23592 net.cpp:425] pool1 <- conv1_2_relu1_2_0_split_0
I0807 13:33:35.944157 23592 net.cpp:399] pool1 -> pool1
I0807 13:33:35.944222 23592 net.cpp:141] Setting up pool1
I0807 13:33:35.944233 23592 net.cpp:148] Top shape: 7 64 112 112 (5619712)
I0807 13:33:35.944236 23592 net.cpp:156] Memory required for data: 570400768
I0807 13:33:35.944241 23592 layer_factory.hpp:77] Creating layer conv2_1
I0807 13:33:35.944248 23592 net.cpp:91] Creating Layer conv2_1
I0807 13:33:35.944252 23592 net.cpp:425] conv2_1 <- pool1
I0807 13:33:35.944258 23592 net.cpp:399] conv2_1 -> conv2_1
I0807 13:33:35.946574 23592 net.cpp:141] Setting up conv2_1
I0807 13:33:35.946591 23592 net.cpp:148] Top shape: 7 128 112 112 (11239424)
I0807 13:33:35.946595 23592 net.cpp:156] Memory required for data: 615358464
I0807 13:33:35.946606 23592 layer_factory.hpp:77] Creating layer relu2_1
I0807 13:33:35.946614 23592 net.cpp:91] Creating Layer relu2_1
I0807 13:33:35.946619 23592 net.cpp:425] relu2_1 <- conv2_1
I0807 13:33:35.946624 23592 net.cpp:386] relu2_1 -> conv2_1 (in-place)
I0807 13:33:35.946808 23592 net.cpp:141] Setting up relu2_1
I0807 13:33:35.946820 23592 net.cpp:148] Top shape: 7 128 112 112 (11239424)
I0807 13:33:35.946823 23592 net.cpp:156] Memory required for data: 660316160
I0807 13:33:35.946827 23592 layer_factory.hpp:77] Creating layer conv2_2
I0807 13:33:35.946835 23592 net.cpp:91] Creating Layer conv2_2
I0807 13:33:35.946840 23592 net.cpp:425] conv2_2 <- conv2_1
I0807 13:33:35.946844 23592 net.cpp:399] conv2_2 -> conv2_2
I0807 13:33:35.947939 23592 net.cpp:141] Setting up conv2_2
I0807 13:33:35.947955 23592 net.cpp:148] Top shape: 7 128 112 112 (11239424)
I0807 13:33:35.947959 23592 net.cpp:156] Memory required for data: 705273856
I0807 13:33:35.947967 23592 layer_factory.hpp:77] Creating layer relu2_2
I0807 13:33:35.947973 23592 net.cpp:91] Creating Layer relu2_2
I0807 13:33:35.947976 23592 net.cpp:425] relu2_2 <- conv2_2
I0807 13:33:35.947981 23592 net.cpp:386] relu2_2 -> conv2_2 (in-place)
I0807 13:33:35.948266 23592 net.cpp:141] Setting up relu2_2
I0807 13:33:35.948279 23592 net.cpp:148] Top shape: 7 128 112 112 (11239424)
I0807 13:33:35.948283 23592 net.cpp:156] Memory required for data: 750231552
I0807 13:33:35.948287 23592 layer_factory.hpp:77] Creating layer conv2_2_relu2_2_0_split
I0807 13:33:35.948293 23592 net.cpp:91] Creating Layer conv2_2_relu2_2_0_split
I0807 13:33:35.948297 23592 net.cpp:425] conv2_2_relu2_2_0_split <- conv2_2
I0807 13:33:35.948302 23592 net.cpp:399] conv2_2_relu2_2_0_split -> conv2_2_relu2_2_0_split_0
I0807 13:33:35.948310 23592 net.cpp:399] conv2_2_relu2_2_0_split -> conv2_2_relu2_2_0_split_1
I0807 13:33:35.948354 23592 net.cpp:141] Setting up conv2_2_relu2_2_0_split
I0807 13:33:35.948362 23592 net.cpp:148] Top shape: 7 128 112 112 (11239424)
I0807 13:33:35.948366 23592 net.cpp:148] Top shape: 7 128 112 112 (11239424)
I0807 13:33:35.948369 23592 net.cpp:156] Memory required for data: 840146944
I0807 13:33:35.948372 23592 layer_factory.hpp:77] Creating layer pool2
I0807 13:33:35.948379 23592 net.cpp:91] Creating Layer pool2
I0807 13:33:35.948381 23592 net.cpp:425] pool2 <- conv2_2_relu2_2_0_split_0
I0807 13:33:35.948386 23592 net.cpp:399] pool2 -> pool2
I0807 13:33:35.948424 23592 net.cpp:141] Setting up pool2
I0807 13:33:35.948431 23592 net.cpp:148] Top shape: 7 128 56 56 (2809856)
I0807 13:33:35.948434 23592 net.cpp:156] Memory required for data: 851386368
I0807 13:33:35.948437 23592 layer_factory.hpp:77] Creating layer conv3_1
I0807 13:33:35.948446 23592 net.cpp:91] Creating Layer conv3_1
I0807 13:33:35.948449 23592 net.cpp:425] conv3_1 <- pool2
I0807 13:33:35.948454 23592 net.cpp:399] conv3_1 -> conv3_1
I0807 13:33:35.950202 23592 net.cpp:141] Setting up conv3_1
I0807 13:33:35.950219 23592 net.cpp:148] Top shape: 7 256 56 56 (5619712)
I0807 13:33:35.950223 23592 net.cpp:156] Memory required for data: 873865216
I0807 13:33:35.950234 23592 layer_factory.hpp:77] Creating layer relu3_1
I0807 13:33:35.950240 23592 net.cpp:91] Creating Layer relu3_1
I0807 13:33:36.015403 23592 net.cpp:425] relu3_1 <- conv3_1
I0807 13:33:36.015419 23592 net.cpp:386] relu3_1 -> conv3_1 (in-place)
I0807 13:33:36.015775 23592 net.cpp:141] Setting up relu3_1
I0807 13:33:36.015792 23592 net.cpp:148] Top shape: 7 256 56 56 (5619712)
I0807 13:33:36.015796 23592 net.cpp:156] Memory required for data: 896344064
I0807 13:33:36.015799 23592 layer_factory.hpp:77] Creating layer conv3_2
I0807 13:33:36.015810 23592 net.cpp:91] Creating Layer conv3_2
I0807 13:33:36.015815 23592 net.cpp:425] conv3_2 <- conv3_1
I0807 13:33:36.015821 23592 net.cpp:399] conv3_2 -> conv3_2
I0807 13:33:36.018721 23592 net.cpp:141] Setting up conv3_2
I0807 13:33:36.018751 23592 net.cpp:148] Top shape: 7 256 56 56 (5619712)
I0807 13:33:36.018759 23592 net.cpp:156] Memory required for data: 918822912
I0807 13:33:36.018774 23592 layer_factory.hpp:77] Creating layer relu3_2
I0807 13:33:36.018791 23592 net.cpp:91] Creating Layer relu3_2
I0807 13:33:36.018798 23592 net.cpp:425] relu3_2 <- conv3_2
I0807 13:33:36.018815 23592 net.cpp:386] relu3_2 -> conv3_2 (in-place)
I0807 13:33:36.019165 23592 net.cpp:141] Setting up relu3_2
I0807 13:33:36.019184 23592 net.cpp:148] Top shape: 7 256 56 56 (5619712)
I0807 13:33:36.019191 23592 net.cpp:156] Memory required for data: 941301760
I0807 13:33:36.019197 23592 layer_factory.hpp:77] Creating layer conv3_3
I0807 13:33:36.019212 23592 net.cpp:91] Creating Layer conv3_3
I0807 13:33:36.019219 23592 net.cpp:425] conv3_3 <- conv3_2
I0807 13:33:36.019232 23592 net.cpp:399] conv3_3 -> conv3_3
I0807 13:33:36.023814 23592 net.cpp:141] Setting up conv3_3
I0807 13:33:36.023845 23592 net.cpp:148] Top shape: 7 256 56 56 (5619712)
I0807 13:33:36.023854 23592 net.cpp:156] Memory required for data: 963780608
I0807 13:33:36.023866 23592 layer_factory.hpp:77] Creating layer relu3_3
I0807 13:33:36.023879 23592 net.cpp:91] Creating Layer relu3_3
I0807 13:33:36.023885 23592 net.cpp:425] relu3_3 <- conv3_3
I0807 13:33:36.023896 23592 net.cpp:386] relu3_3 -> conv3_3 (in-place)
I0807 13:33:36.024454 23592 net.cpp:141] Setting up relu3_3
I0807 13:33:36.024480 23592 net.cpp:148] Top shape: 7 256 56 56 (5619712)
I0807 13:33:36.024487 23592 net.cpp:156] Memory required for data: 986259456
I0807 13:33:36.024494 23592 layer_factory.hpp:77] Creating layer conv3_3_relu3_3_0_split
I0807 13:33:36.024507 23592 net.cpp:91] Creating Layer conv3_3_relu3_3_0_split
I0807 13:33:36.024513 23592 net.cpp:425] conv3_3_relu3_3_0_split <- conv3_3
I0807 13:33:36.024525 23592 net.cpp:399] conv3_3_relu3_3_0_split -> conv3_3_relu3_3_0_split_0
I0807 13:33:36.024540 23592 net.cpp:399] conv3_3_relu3_3_0_split -> conv3_3_relu3_3_0_split_1
I0807 13:33:36.024634 23592 net.cpp:141] Setting up conv3_3_relu3_3_0_split
I0807 13:33:36.024649 23592 net.cpp:148] Top shape: 7 256 56 56 (5619712)
I0807 13:33:36.024659 23592 net.cpp:148] Top shape: 7 256 56 56 (5619712)
I0807 13:33:36.024667 23592 net.cpp:156] Memory required for data: 1031217152
I0807 13:33:36.024673 23592 layer_factory.hpp:77] Creating layer pool3
I0807 13:33:36.024685 23592 net.cpp:91] Creating Layer pool3
I0807 13:33:36.024694 23592 net.cpp:425] pool3 <- conv3_3_relu3_3_0_split_0
I0807 13:33:36.024705 23592 net.cpp:399] pool3 -> pool3
I0807 13:33:36.024781 23592 net.cpp:141] Setting up pool3
I0807 13:33:36.024796 23592 net.cpp:148] Top shape: 7 256 28 28 (1404928)
I0807 13:33:36.024802 23592 net.cpp:156] Memory required for data: 1036836864
I0807 13:33:36.024808 23592 layer_factory.hpp:77] Creating layer conv4_1
I0807 13:33:36.024822 23592 net.cpp:91] Creating Layer conv4_1
I0807 13:33:36.024832 23592 net.cpp:425] conv4_1 <- pool3
I0807 13:33:36.024843 23592 net.cpp:399] conv4_1 -> conv4_1
I0807 13:33:36.032001 23592 net.cpp:141] Setting up conv4_1
I0807 13:33:36.032030 23592 net.cpp:148] Top shape: 7 512 28 28 (2809856)
I0807 13:33:36.032037 23592 net.cpp:156] Memory required for data: 1048076288
I0807 13:33:36.032049 23592 layer_factory.hpp:77] Creating layer relu4_1
I0807 13:33:36.032061 23592 net.cpp:91] Creating Layer relu4_1
I0807 13:33:36.032068 23592 net.cpp:425] relu4_1 <- conv4_1
I0807 13:33:36.032104 23592 net.cpp:386] relu4_1 -> conv4_1 (in-place)
I0807 13:33:36.032620 23592 net.cpp:141] Setting up relu4_1
I0807 13:33:36.032645 23592 net.cpp:148] Top shape: 7 512 28 28 (2809856)
I0807 13:33:36.032650 23592 net.cpp:156] Memory required for data: 1059315712
I0807 13:33:36.032657 23592 layer_factory.hpp:77] Creating layer conv4_2
I0807 13:33:36.032673 23592 net.cpp:91] Creating Layer conv4_2
I0807 13:33:36.032680 23592 net.cpp:425] conv4_2 <- conv4_1
I0807 13:33:36.032691 23592 net.cpp:399] conv4_2 -> conv4_2
I0807 13:33:36.043097 23592 net.cpp:141] Setting up conv4_2
I0807 13:33:36.043126 23592 net.cpp:148] Top shape: 7 512 28 28 (2809856)
I0807 13:33:36.043133 23592 net.cpp:156] Memory required for data: 1070555136
I0807 13:33:36.043153 23592 layer_factory.hpp:77] Creating layer relu4_2
I0807 13:33:36.043164 23592 net.cpp:91] Creating Layer relu4_2
I0807 13:33:36.043170 23592 net.cpp:425] relu4_2 <- conv4_2
I0807 13:33:36.043182 23592 net.cpp:386] relu4_2 -> conv4_2 (in-place)
I0807 13:33:36.043486 23592 net.cpp:141] Setting up relu4_2
I0807 13:33:36.043503 23592 net.cpp:148] Top shape: 7 512 28 28 (2809856)
I0807 13:33:36.043509 23592 net.cpp:156] Memory required for data: 1081794560
I0807 13:33:36.043514 23592 layer_factory.hpp:77] Creating layer conv4_3
I0807 13:33:36.043527 23592 net.cpp:91] Creating Layer conv4_3
I0807 13:33:36.043534 23592 net.cpp:425] conv4_3 <- conv4_2
I0807 13:33:36.043545 23592 net.cpp:399] conv4_3 -> conv4_3
I0807 13:33:36.053442 23592 net.cpp:141] Setting up conv4_3
I0807 13:33:36.053468 23592 net.cpp:148] Top shape: 7 512 28 28 (2809856)
I0807 13:33:36.053475 23592 net.cpp:156] Memory required for data: 1093033984
I0807 13:33:36.053486 23592 layer_factory.hpp:77] Creating layer relu4_3
I0807 13:33:36.053498 23592 net.cpp:91] Creating Layer relu4_3
I0807 13:33:36.053504 23592 net.cpp:425] relu4_3 <- conv4_3
I0807 13:33:36.053514 23592 net.cpp:386] relu4_3 -> conv4_3 (in-place)
I0807 13:33:36.054002 23592 net.cpp:141] Setting up relu4_3
I0807 13:33:36.054023 23592 net.cpp:148] Top shape: 7 512 28 28 (2809856)
I0807 13:33:36.054029 23592 net.cpp:156] Memory required for data: 1104273408
I0807 13:33:36.054035 23592 layer_factory.hpp:77] Creating layer conv4_3_relu4_3_0_split
I0807 13:33:36.054045 23592 net.cpp:91] Creating Layer conv4_3_relu4_3_0_split
I0807 13:33:36.054051 23592 net.cpp:425] conv4_3_relu4_3_0_split <- conv4_3
I0807 13:33:36.054061 23592 net.cpp:399] conv4_3_relu4_3_0_split -> conv4_3_relu4_3_0_split_0
I0807 13:33:36.054075 23592 net.cpp:399] conv4_3_relu4_3_0_split -> conv4_3_relu4_3_0_split_1
I0807 13:33:36.054149 23592 net.cpp:141] Setting up conv4_3_relu4_3_0_split
I0807 13:33:36.054162 23592 net.cpp:148] Top shape: 7 512 28 28 (2809856)
I0807 13:33:36.054168 23592 net.cpp:148] Top shape: 7 512 28 28 (2809856)
I0807 13:33:36.054173 23592 net.cpp:156] Memory required for data: 1126752256
I0807 13:33:36.054178 23592 layer_factory.hpp:77] Creating layer pool4
I0807 13:33:36.054188 23592 net.cpp:91] Creating Layer pool4
I0807 13:33:36.054195 23592 net.cpp:425] pool4 <- conv4_3_relu4_3_0_split_0
I0807 13:33:36.054205 23592 net.cpp:399] pool4 -> pool4
I0807 13:33:36.054270 23592 net.cpp:141] Setting up pool4
I0807 13:33:36.054280 23592 net.cpp:148] Top shape: 7 512 14 14 (702464)
I0807 13:33:36.054286 23592 net.cpp:156] Memory required for data: 1129562112
I0807 13:33:36.054291 23592 layer_factory.hpp:77] Creating layer conv5_1
I0807 13:33:36.054302 23592 net.cpp:91] Creating Layer conv5_1
I0807 13:33:36.054316 23592 net.cpp:425] conv5_1 <- pool4
I0807 13:33:36.054324 23592 net.cpp:399] conv5_1 -> conv5_1
I0807 13:33:36.063781 23592 net.cpp:141] Setting up conv5_1
I0807 13:33:36.063808 23592 net.cpp:148] Top shape: 7 512 14 14 (702464)
I0807 13:33:36.063814 23592 net.cpp:156] Memory required for data: 1132371968
I0807 13:33:36.063827 23592 layer_factory.hpp:77] Creating layer relu5_1
I0807 13:33:36.063838 23592 net.cpp:91] Creating Layer relu5_1
I0807 13:33:36.063844 23592 net.cpp:425] relu5_1 <- conv5_1
I0807 13:33:36.063880 23592 net.cpp:386] relu5_1 -> conv5_1 (in-place)
I0807 13:33:36.064318 23592 net.cpp:141] Setting up relu5_1
I0807 13:33:36.064338 23592 net.cpp:148] Top shape: 7 512 14 14 (702464)
I0807 13:33:36.064343 23592 net.cpp:156] Memory required for data: 1135181824
I0807 13:33:36.064349 23592 layer_factory.hpp:77] Creating layer conv5_2
I0807 13:33:36.064363 23592 net.cpp:91] Creating Layer conv5_2
I0807 13:33:36.064370 23592 net.cpp:425] conv5_2 <- conv5_1
I0807 13:33:36.064380 23592 net.cpp:399] conv5_2 -> conv5_2
I0807 13:33:36.073369 23592 net.cpp:141] Setting up conv5_2
I0807 13:33:36.073396 23592 net.cpp:148] Top shape: 7 512 14 14 (702464)
I0807 13:33:36.073401 23592 net.cpp:156] Memory required for data: 1137991680
I0807 13:33:36.073413 23592 layer_factory.hpp:77] Creating layer relu5_2
I0807 13:33:36.073431 23592 net.cpp:91] Creating Layer relu5_2
I0807 13:33:36.073437 23592 net.cpp:425] relu5_2 <- conv5_2
I0807 13:33:36.073446 23592 net.cpp:386] relu5_2 -> conv5_2 (in-place)
I0807 13:33:36.073719 23592 net.cpp:141] Setting up relu5_2
I0807 13:33:36.073734 23592 net.cpp:148] Top shape: 7 512 14 14 (702464)
I0807 13:33:36.073739 23592 net.cpp:156] Memory required for data: 1140801536
I0807 13:33:36.073743 23592 layer_factory.hpp:77] Creating layer conv5_3
I0807 13:33:36.073763 23592 net.cpp:91] Creating Layer conv5_3
I0807 13:33:36.073770 23592 net.cpp:425] conv5_3 <- conv5_2
I0807 13:33:36.073779 23592 net.cpp:399] conv5_3 -> conv5_3
I0807 13:33:36.082476 23592 net.cpp:141] Setting up conv5_3
I0807 13:33:36.082500 23592 net.cpp:148] Top shape: 7 512 14 14 (702464)
I0807 13:33:36.082505 23592 net.cpp:156] Memory required for data: 1143611392
I0807 13:33:36.082516 23592 layer_factory.hpp:77] Creating layer relu5_3
I0807 13:33:36.082525 23592 net.cpp:91] Creating Layer relu5_3
I0807 13:33:36.082531 23592 net.cpp:425] relu5_3 <- conv5_3
I0807 13:33:36.082540 23592 net.cpp:386] relu5_3 -> conv5_3 (in-place)
I0807 13:33:36.082952 23592 net.cpp:141] Setting up relu5_3
I0807 13:33:36.082973 23592 net.cpp:148] Top shape: 7 512 14 14 (702464)
I0807 13:33:36.082978 23592 net.cpp:156] Memory required for data: 1146421248
I0807 13:33:36.082983 23592 layer_factory.hpp:77] Creating layer conv5_3_relu5_3_0_split
I0807 13:33:36.082991 23592 net.cpp:91] Creating Layer conv5_3_relu5_3_0_split
I0807 13:33:36.082998 23592 net.cpp:425] conv5_3_relu5_3_0_split <- conv5_3
I0807 13:33:36.083006 23592 net.cpp:399] conv5_3_relu5_3_0_split -> conv5_3_relu5_3_0_split_0
I0807 13:33:36.083017 23592 net.cpp:399] conv5_3_relu5_3_0_split -> conv5_3_relu5_3_0_split_1
I0807 13:33:36.083086 23592 net.cpp:141] Setting up conv5_3_relu5_3_0_split
I0807 13:33:36.083096 23592 net.cpp:148] Top shape: 7 512 14 14 (702464)
I0807 13:33:36.083103 23592 net.cpp:148] Top shape: 7 512 14 14 (702464)
I0807 13:33:36.083107 23592 net.cpp:156] Memory required for data: 1152040960
I0807 13:33:36.083112 23592 layer_factory.hpp:77] Creating layer pool5
I0807 13:33:36.083122 23592 net.cpp:91] Creating Layer pool5
I0807 13:33:36.083129 23592 net.cpp:425] pool5 <- conv5_3_relu5_3_0_split_0
I0807 13:33:36.083138 23592 net.cpp:399] pool5 -> pool5
I0807 13:33:36.083196 23592 net.cpp:141] Setting up pool5
I0807 13:33:36.083206 23592 net.cpp:148] Top shape: 7 512 7 7 (175616)
I0807 13:33:36.083210 23592 net.cpp:156] Memory required for data: 1152743424
I0807 13:33:36.083215 23592 layer_factory.hpp:77] Creating layer fc6-conv
I0807 13:33:36.083227 23592 net.cpp:91] Creating Layer fc6-conv
I0807 13:33:36.083233 23592 net.cpp:425] fc6-conv <- pool5
I0807 13:33:36.083242 23592 net.cpp:399] fc6-conv -> fc6-conv
I0807 13:33:36.388914 23592 net.cpp:141] Setting up fc6-conv
I0807 13:33:36.388962 23592 net.cpp:148] Top shape: 7 4096 1 1 (28672)
I0807 13:33:36.388967 23592 net.cpp:156] Memory required for data: 1152858112
I0807 13:33:36.388991 23592 layer_factory.hpp:77] Creating layer relu6
I0807 13:33:36.389005 23592 net.cpp:91] Creating Layer relu6
I0807 13:33:36.389011 23592 net.cpp:425] relu6 <- fc6-conv
I0807 13:33:36.389020 23592 net.cpp:386] relu6 -> fc6-conv (in-place)
I0807 13:33:36.389369 23592 net.cpp:141] Setting up relu6
I0807 13:33:36.389384 23592 net.cpp:148] Top shape: 7 4096 1 1 (28672)
I0807 13:33:36.389389 23592 net.cpp:156] Memory required for data: 1152972800
I0807 13:33:36.389397 23592 layer_factory.hpp:77] Creating layer drop6
I0807 13:33:36.389407 23592 net.cpp:91] Creating Layer drop6
I0807 13:33:36.389411 23592 net.cpp:425] drop6 <- fc6-conv
I0807 13:33:36.389423 23592 net.cpp:386] drop6 -> fc6-conv (in-place)
I0807 13:33:36.389467 23592 net.cpp:141] Setting up drop6
I0807 13:33:36.389477 23592 net.cpp:148] Top shape: 7 4096 1 1 (28672)
I0807 13:33:36.389480 23592 net.cpp:156] Memory required for data: 1153087488
I0807 13:33:36.389483 23592 layer_factory.hpp:77] Creating layer fc7-conv
I0807 13:33:36.389492 23592 net.cpp:91] Creating Layer fc7-conv
I0807 13:33:36.389497 23592 net.cpp:425] fc7-conv <- fc6-conv
I0807 13:33:36.389504 23592 net.cpp:399] fc7-conv -> fc7-conv
I0807 13:33:36.439327 23592 net.cpp:141] Setting up fc7-conv
I0807 13:33:36.439366 23592 net.cpp:148] Top shape: 7 4096 1 1 (28672)
I0807 13:33:36.439370 23592 net.cpp:156] Memory required for data: 1153202176
I0807 13:33:36.439383 23592 layer_factory.hpp:77] Creating layer relu7
I0807 13:33:36.439395 23592 net.cpp:91] Creating Layer relu7
I0807 13:33:36.439401 23592 net.cpp:425] relu7 <- fc7-conv
I0807 13:33:36.439410 23592 net.cpp:386] relu7 -> fc7-conv (in-place)
I0807 13:33:36.439627 23592 net.cpp:141] Setting up relu7
I0807 13:33:36.439640 23592 net.cpp:148] Top shape: 7 4096 1 1 (28672)
I0807 13:33:36.439643 23592 net.cpp:156] Memory required for data: 1153316864
I0807 13:33:36.439646 23592 layer_factory.hpp:77] Creating layer hypercolumns
I0807 13:33:36.439656 23592 net.cpp:91] Creating Layer hypercolumns
I0807 13:33:36.439663 23592 net.cpp:425] hypercolumns <- normal
I0807 13:33:36.439668 23592 net.cpp:425] hypercolumns <- conv1_2_relu1_2_0_split_1
I0807 13:33:36.439674 23592 net.cpp:425] hypercolumns <- conv2_2_relu2_2_0_split_1
I0807 13:33:36.439682 23592 net.cpp:425] hypercolumns <- conv3_3_relu3_3_0_split_1
I0807 13:33:36.439685 23592 net.cpp:425] hypercolumns <- conv4_3_relu4_3_0_split_1
I0807 13:33:36.439689 23592 net.cpp:425] hypercolumns <- conv5_3_relu5_3_0_split_1
I0807 13:33:36.439693 23592 net.cpp:425] hypercolumns <- fc7-conv
I0807 13:33:36.439700 23592 net.cpp:399] hypercolumns -> hypercolumns
I0807 13:33:36.439726 23592 net.cpp:399] hypercolumns -> normal_point
I0807 13:33:36.439795 23592 net.cpp:141] Setting up hypercolumns
I0807 13:33:36.439807 23592 net.cpp:148] Top shape: 7000 5568 1 1 (38976000)
I0807 13:33:36.439811 23592 net.cpp:148] Top shape: 7000 3 (21000)
I0807 13:33:36.439815 23592 net.cpp:156] Memory required for data: 1309304864
I0807 13:33:36.439823 23592 layer_factory.hpp:77] Creating layer fc1
I0807 13:33:36.439837 23592 net.cpp:91] Creating Layer fc1
I0807 13:33:36.439842 23592 net.cpp:425] fc1 <- hypercolumns
I0807 13:33:36.439851 23592 net.cpp:399] fc1 -> fc1
I0807 13:33:36.753264 23592 net.cpp:141] Setting up fc1
I0807 13:33:36.753306 23592 net.cpp:148] Top shape: 7000 4096 (28672000)
I0807 13:33:36.753311 23592 net.cpp:156] Memory required for data: 1423992864
I0807 13:33:36.753324 23592 layer_factory.hpp:77] Creating layer relu1
I0807 13:33:36.753339 23592 net.cpp:91] Creating Layer relu1
I0807 13:33:36.753345 23592 net.cpp:425] relu1 <- fc1
I0807 13:33:36.753352 23592 net.cpp:386] relu1 -> fc1 (in-place)
I0807 13:33:36.753855 23592 net.cpp:141] Setting up relu1
I0807 13:33:36.753871 23592 net.cpp:148] Top shape: 7000 4096 (28672000)
I0807 13:33:36.753875 23592 net.cpp:156] Memory required for data: 1538680864
I0807 13:33:36.753878 23592 layer_factory.hpp:77] Creating layer drop1
I0807 13:33:36.753890 23592 net.cpp:91] Creating Layer drop1
I0807 13:33:36.753892 23592 net.cpp:425] drop1 <- fc1
I0807 13:33:36.753898 23592 net.cpp:386] drop1 -> fc1 (in-place)
I0807 13:33:36.753937 23592 net.cpp:141] Setting up drop1
I0807 13:33:36.753947 23592 net.cpp:148] Top shape: 7000 4096 (28672000)
I0807 13:33:36.753949 23592 net.cpp:156] Memory required for data: 1653368864
I0807 13:33:36.753974 23592 layer_factory.hpp:77] Creating layer fc2
I0807 13:33:36.753994 23592 net.cpp:91] Creating Layer fc2
I0807 13:33:36.753999 23592 net.cpp:425] fc2 <- fc1
I0807 13:33:36.754005 23592 net.cpp:399] fc2 -> fc2
I0807 13:33:36.982244 23592 net.cpp:141] Setting up fc2
I0807 13:33:36.982281 23592 net.cpp:148] Top shape: 7000 4096 (28672000)
I0807 13:33:36.982285 23592 net.cpp:156] Memory required for data: 1768056864
I0807 13:33:36.982308 23592 layer_factory.hpp:77] Creating layer relu2
I0807 13:33:36.982319 23592 net.cpp:91] Creating Layer relu2
I0807 13:33:36.982323 23592 net.cpp:425] relu2 <- fc2
I0807 13:33:36.982342 23592 net.cpp:386] relu2 -> fc2 (in-place)
I0807 13:33:36.982625 23592 net.cpp:141] Setting up relu2
I0807 13:33:36.982647 23592 net.cpp:148] Top shape: 7000 4096 (28672000)
I0807 13:33:36.982650 23592 net.cpp:156] Memory required for data: 1882744864
I0807 13:33:36.982666 23592 layer_factory.hpp:77] Creating layer drop2
I0807 13:33:36.982682 23592 net.cpp:91] Creating Layer drop2
I0807 13:33:36.982687 23592 net.cpp:425] drop2 <- fc2
I0807 13:33:36.982693 23592 net.cpp:386] drop2 -> fc2 (in-place)
I0807 13:33:36.982738 23592 net.cpp:141] Setting up drop2
I0807 13:33:36.982746 23592 net.cpp:148] Top shape: 7000 4096 (28672000)
I0807 13:33:36.982749 23592 net.cpp:156] Memory required for data: 1997432864
I0807 13:33:36.982753 23592 layer_factory.hpp:77] Creating layer fc3
I0807 13:33:36.982759 23592 net.cpp:91] Creating Layer fc3
I0807 13:33:36.982763 23592 net.cpp:425] fc3 <- fc2
I0807 13:33:36.982769 23592 net.cpp:399] fc3 -> fc3
I0807 13:33:36.983072 23592 net.cpp:141] Setting up fc3
I0807 13:33:36.983096 23592 net.cpp:148] Top shape: 7000 3 (21000)
I0807 13:33:36.983110 23592 net.cpp:156] Memory required for data: 1997516864
I0807 13:33:36.983115 23592 layer_factory.hpp:77] Creating layer loss
I0807 13:33:36.983124 23592 net.cpp:91] Creating Layer loss
I0807 13:33:36.983126 23592 net.cpp:425] loss <- fc3
I0807 13:33:36.983130 23592 net.cpp:425] loss <- normal_point
I0807 13:33:36.983135 23592 net.cpp:399] loss -> loss
I0807 13:33:36.983214 23592 net.cpp:141] Setting up loss
…
