…
net: "/home/qinhong/project/cmu_project/model/t2/train.prototxt"
type: "SGD"
I0808 18:37:53.198232 23687 solver.cpp:91] Creating training net from net file: /home/qinhong/project/cmu_project/model/t2/train.prototxt
I0808 18:37:53.201375 23687 net.cpp:49] Initializing net from parameters: 
name: "hyper_normal_layers"
state {
  phase: TRAIN
}
layer {
  name: "data"
  type: "ImageNormalData"
  top: "data"
  top: "normal"
  transform_param {
  }
  image_data_param {
    source: "/home/qinhong/project/cmu_project/data/source.txt"
    batch_size: 7
    shuffle: true
    new_height: 224
    new_width: 224
  }
}
layer {
  name: "conv1_1"
  type: "Convolution"
  bottom: "data"
  top: "conv1_1"
  param {
    lr_mult: 1
    decay_mult: 1
  }
  param {
    lr_mult: 2
    decay_mult: 0
  }
  convolution_param {
    num_output: 64
    pad: 1
    kernel_size: 3
  }
}
layer {
  name: "relu1_1"
  type: "ReLU"
  bottom: "conv1_1"
  top: "conv1_1"
}
layer {
  name: "conv1_2"
  type: "Convolution"
  bottom: "conv1_1"
  top: "conv1_2"
  param {
    lr_mult: 1
    decay_mult: 1
  }
  param {
    lr_mult: 2
    decay_mult: 0
  }
  convolution_param {
    num_output: 64
    pad: 1
    kernel_size: 3
  }
}
layer {
  name: "relu1_2"
  type: "ReLU"
  bottom: "conv1_2"
  top: "conv1_2"
}
layer {
  name: "pool1"
  type: "Pooling"
  bottom: "conv1_2"
  top: "pool1"
  pooling_param {
    pool: MAX
    kernel_size: 2
    stride: 2
  }
}
layer {
  name: "conv2_1"
  type: "Convolution"
  bottom: "pool1"
  top: "conv2_1"
  param {
    lr_mult: 1
    decay_mult: 1
  }
  param {
    lr_mult: 2
    decay_mult: 0
  }
  convolution_param {
    num_output: 128
    pad: 1
    kernel_size: 3
  }
}
layer {
  name: "relu2_1"
  type: "ReLU"
  bottom: "conv2_1"
  top: "conv2_1"
}
layer {
  name: "conv2_2"
  type: "Convolution"
  bottom: "conv2_1"
  top: "conv2_2"
  param {
    lr_mult: 1
    decay_mult: 1
  }
  param {
    lr_mult: 2
    decay_mult: 0
  }
  convolution_param {
    num_output: 128
    pad: 1
    kernel_size: 3
  }
}
layer {
  name: "relu2_2"
  type: "ReLU"
  bottom: "conv2_2"
  top: "conv2_2"
}
layer {
  name: "pool2"
  type: "Pooling"
  bottom: "conv2_2"
  top: "pool2"
  pooling_param {
    pool: MAX
    kernel_size: 2
    stride: 2
  }
}
layer {
  name: "conv3_1"
  type: "Convolution"
  bottom: "pool2"
  top: "conv3_1"
  param {
    lr_mult: 1
    decay_mult: 1
  }
  param {
    lr_mult: 2
    decay_mult: 0
  }
  convolution_param {
    num_output: 256
    pad: 1
    kernel_size: 3
  }
}
layer {
  name: "relu3_1"
  type: "ReLU"
  bottom: "conv3_1"
  top: "conv3_1"
}
layer {
  name: "conv3_2"
  type: "Convolution"
  bottom: "conv3_1"
  top: "conv3_2"
  param {
    lr_mult: 1
    decay_mult: 1
  }
  param {
    lr_mult: 2
    decay_mult: 0
  }
  convolution_param {
    num_output: 256
    pad: 1
    kernel_size: 3
  }
}
layer {
  name: "relu3_2"
  type: "ReLU"
  bottom: "conv3_2"
  top: "conv3_2"
}
layer {
  name: "conv3_3"
  type: "Convolution"
  bottom: "conv3_2"
  top: "conv3_3"
  param {
    lr_mult: 1
    decay_mult: 1
  }
  param {
    lr_mult: 2
    decay_mult: 0
  }
  convolution_param {
    num_output: 256
    pad: 1
    kernel_size: 3
  }
}
layer {
  name: "relu3_3"
  type: "ReLU"
  bottom: "conv3_3"
  top: "conv3_3"
}
layer {
  name: "pool3"
  type: "Pooling"
  bottom: "conv3_3"
  top: "pool3"
  pooling_param {
    pool: MAX
    kernel_size: 2
    stride: 2
  }
}
layer {
  name: "conv4_1"
  type: "Convolution"
  bottom: "pool3"
  top: "conv4_1"
  param {
    lr_mult: 1
    decay_mult: 1
  }
  param {
    lr_mult: 2
    decay_mult: 0
  }
  convolution_param {
    num_output: 512
    pad: 1
    kernel_size: 3
  }
}
layer {
  name: "relu4_1"
  type: "ReLU"
  bottom: "conv4_1"
  top: "conv4_1"
}
layer {
  name: "conv4_2"
  type: "Convolution"
  bottom: "conv4_1"
  top: "conv4_2"
  param {
    lr_mult: 1
    decay_mult: 1
  }
  param {
    lr_mult: 2
    decay_mult: 0
  }
  convolution_param {
    num_output: 512
    pad: 1
    kernel_size: 3
  }
}
layer {
  name: "relu4_2"
  type: "ReLU"
  bottom: "conv4_2"
  top: "conv4_2"
}
layer {
  name: "conv4_3"
  type: "Convolution"
  bottom: "conv4_2"
  top: "conv4_3"
  param {
    lr_mult: 1
    decay_mult: 1
  }
  param {
    lr_mult: 2
    decay_mult: 0
  }
  convolution_param {
    num_output: 512
    pad: 1
    kernel_size: 3
  }
}
layer {
  name: "relu4_3"
  type: "ReLU"
  bottom: "conv4_3"
  top: "conv4_3"
}
layer {
  name: "pool4"
  type: "Pooling"
  bottom: "conv4_3"
  top: "pool4"
  pooling_param {
    pool: MAX
    kernel_size: 2
    stride: 2
  }
}
layer {
  name: "conv5_1"
  type: "Convolution"
  bottom: "pool4"
  top: "conv5_1"
  param {
    lr_mult: 1
    decay_mult: 1
  }
  param {
    lr_mult: 2
    decay_mult: 0
  }
  convolution_param {
    num_output: 512
    pad: 1
    kernel_size: 3
  }
}
layer {
  name: "relu5_1"
  type: "ReLU"
  bottom: "conv5_1"
  top: "conv5_1"
}
layer {
  name: "conv5_2"
  type: "Convolution"
  bottom: "conv5_1"
  top: "conv5_2"
  param {
    lr_mult: 1
    decay_mult: 1
  }
  param {
    lr_mult: 2
    decay_mult: 0
  }
  convolution_param {
    num_output: 512
    pad: 1
    kernel_size: 3
  }
}
layer {
  name: "relu5_2"
  type: "ReLU"
  bottom: "conv5_2"
  top: "conv5_2"
}
layer {
  name: "conv5_3"
  type: "Convolution"
  bottom: "conv5_2"
  top: "conv5_3"
  param {
    lr_mult: 1
    decay_mult: 1
  }
  param {
    lr_mult: 2
    decay_mult: 0
  }
  convolution_param {
    num_output: 512
    pad: 1
    kernel_size: 3
  }
}
layer {
  name: "relu5_3"
  type: "ReLU"
  bottom: "conv5_3"
  top: "conv5_3"
}
layer {
  name: "pool5"
  type: "Pooling"
  bottom: "conv5_3"
  top: "pool5"
  pooling_param {
    pool: MAX
    kernel_size: 2
    stride: 2
  }
}
layer {
  name: "fc6-conv"
  type: "Convolution"
  bottom: "pool5"
  top: "fc6-conv"
  param {
    lr_mult: 1
    decay_mult: 1
  }
  param {
    lr_mult: 2
    decay_mult: 0
  }
  convolution_param {
    num_output: 4096
    kernel_size: 7
  }
}
layer {
  name: "relu6"
  type: "ReLU"
  bottom: "fc6-conv"
  top: "fc6-conv"
}
layer {
  name: "drop6"
  type: "Dropout"
  bottom: "fc6-conv"
  top: "fc6-conv"
  dropout_param {
    dropout_ratio: 0.5
  }
}
layer {
  name: "fc7-conv"
  type: "Convolution"
  bottom: "fc6-conv"
  top: "fc7-conv"
  param {
    lr_mult: 1
    decay_mult: 1
  }
  param {
    lr_mult: 2
    decay_mult: 0
  }
  convolution_param {
    num_output: 4096
    kernel_size: 1
  }
}
layer {
  name: "relu7"
  type: "ReLU"
  bottom: "fc7-conv"
  top: "fc7-conv"
}
layer {
  name: "hypercolumns"
  type: "HyperColumns"
  bottom: "normal"
  bottom: "conv1_2"
  bottom: "conv2_2"
  bottom: "conv3_3"
  bottom: "conv4_3"
  bottom: "conv5_3"
  bottom: "fc7-conv"
  top: "hypercolumns"
  top: "normal_point"
  hypercolumns_param {
    is_train: true
  }
}
layer {
  name: "fc1"
  type: "InnerProduct"
  bottom: "hypercolumns"
  top: "fc1"
  param {
    lr_mult: 1
    decay_mult: 1
  }
  param {
    lr_mult: 2
    decay_mult: 0
  }
  inner_product_param {
    num_output: 4096
    weight_filler {
      type: "gaussian"
      std: 0.02
    }
    bias_filler {
      type: "constant"
      value: 0
    }
  }
}
layer {
  name: "relu1"
  type: "ReLU"
  bottom: "fc1"
  top: "fc1"
}
layer {
  name: "drop1"
  type: "Dropout"
  bottom: "fc1"
  top: "fc1"
  dropout_param {
    dropout_ratio: 0.5
  }
}
layer {
  name: "fc2"
  type: "InnerProduct"
  bottom: "fc1"
  top: "fc2"
  param {
    lr_mult: 1
    decay_mult: 1
  }
  param {
    lr_mult: 2
    decay_mult: 0
  }
  inner_product_param {
    num_output: 4096
    weight_filler {
      type: "gaussian"
      std: 0.01
    }
    bias_filler {
      type: "constant"
      value: 0
    }
  }
}
layer {
  name: "relu2"
  type: "ReLU"
  bottom: "fc2"
  top: "fc2"
}
layer {
  name: "drop2"
  type: "Dropout"
  bottom: "fc2"
  top: "fc2"
  dropout_param {
    dropout_ratio: 0.5
  }
}
layer {
  name: "fc3"
  type: "InnerProduct"
  bottom: "fc2"
  top: "fc3"
  param {
    lr_mult: 1
    decay_mult: 1
  }
  param {
    lr_mult: 2
    decay_mult: 0
  }
  inner_product_param {
    num_output: 3
    weight_filler {
      type: "gaussian"
      std: 0.01
    }
    bias_filler {
      type: "constant"
      value: 0
    }
  }
}
layer {
  name: "loss"
  type: "EuclideanLoss"
  bottom: "fc3"
  bottom: "normal_point"
  top: "loss"
  propagate_down: true
  propagate_down: false
}
I0808 18:37:53.201859 23687 layer_factory.hpp:77] Creating layer data
I0808 18:37:53.201943 23687 net.cpp:91] Creating Layer data
I0808 18:37:53.201961 23687 net.cpp:399] data -> data
I0808 18:37:53.201998 23687 net.cpp:399] data -> normal
I0808 18:37:53.202024 23687 image_normal_data_layer.cpp:43] opeing file /home/qinhong/project/cmu_project/data/source.txt
I0808 18:37:53.205628 23687 image_normal_data_layer.cpp:54] Shuffing data
I0808 18:37:53.207231 23687 image_normal_data_layer.cpp:59] A total of 4105 images.
I0808 18:37:53.245024 23687 image_normal_data_layer.cpp:79] output data size: 7,3,224,224
I0808 18:37:53.269680 23687 net.cpp:141] Setting up data
I0808 18:37:53.269717 23687 net.cpp:148] Top shape: 7 3 224 224 (1053696)
I0808 18:37:53.269729 23687 net.cpp:148] Top shape: 7 3 224 224 (1053696)
I0808 18:37:53.269737 23687 net.cpp:156] Memory required for data: 8429568
I0808 18:37:53.269748 23687 layer_factory.hpp:77] Creating layer conv1_1
I0808 18:37:53.269790 23687 net.cpp:91] Creating Layer conv1_1
I0808 18:37:53.269801 23687 net.cpp:425] conv1_1 <- data
I0808 18:37:53.269821 23687 net.cpp:399] conv1_1 -> conv1_1
I0808 18:37:53.536269 23687 net.cpp:141] Setting up conv1_1
I0808 18:37:53.536315 23687 net.cpp:148] Top shape: 7 64 224 224 (22478848)
I0808 18:37:53.536324 23687 net.cpp:156] Memory required for data: 98344960
I0808 18:37:53.536361 23687 layer_factory.hpp:77] Creating layer relu1_1
I0808 18:37:53.536380 23687 net.cpp:91] Creating Layer relu1_1
I0808 18:37:53.536389 23687 net.cpp:425] relu1_1 <- conv1_1
I0808 18:37:53.536401 23687 net.cpp:386] relu1_1 -> conv1_1 (in-place)
I0808 18:37:53.536689 23687 net.cpp:141] Setting up relu1_1
I0808 18:37:53.536716 23687 net.cpp:148] Top shape: 7 64 224 224 (22478848)
I0808 18:37:53.536736 23687 net.cpp:156] Memory required for data: 188260352
I0808 18:37:53.536754 23687 layer_factory.hpp:77] Creating layer conv1_2
I0808 18:37:53.536795 23687 net.cpp:91] Creating Layer conv1_2
I0808 18:37:53.536803 23687 net.cpp:425] conv1_2 <- conv1_1
I0808 18:37:53.536815 23687 net.cpp:399] conv1_2 -> conv1_2
I0808 18:37:53.538255 23687 net.cpp:141] Setting up conv1_2
I0808 18:37:53.538286 23687 net.cpp:148] Top shape: 7 64 224 224 (22478848)
I0808 18:37:53.538295 23687 net.cpp:156] Memory required for data: 278175744
I0808 18:37:53.538311 23687 layer_factory.hpp:77] Creating layer relu1_2
I0808 18:37:53.538334 23687 net.cpp:91] Creating Layer relu1_2
I0808 18:37:53.538342 23687 net.cpp:425] relu1_2 <- conv1_2
I0808 18:37:53.538353 23687 net.cpp:386] relu1_2 -> conv1_2 (in-place)
I0808 18:37:53.538856 23687 net.cpp:141] Setting up relu1_2
I0808 18:37:53.538873 23687 net.cpp:148] Top shape: 7 64 224 224 (22478848)
I0808 18:37:53.538893 23687 net.cpp:156] Memory required for data: 368091136
I0808 18:37:53.538902 23687 layer_factory.hpp:77] Creating layer conv1_2_relu1_2_0_split
I0808 18:37:53.538926 23687 net.cpp:91] Creating Layer conv1_2_relu1_2_0_split
I0808 18:37:53.538935 23687 net.cpp:425] conv1_2_relu1_2_0_split <- conv1_2
I0808 18:37:53.538946 23687 net.cpp:399] conv1_2_relu1_2_0_split -> conv1_2_relu1_2_0_split_0
I0808 18:37:53.538961 23687 net.cpp:399] conv1_2_relu1_2_0_split -> conv1_2_relu1_2_0_split_1
I0808 18:37:53.539023 23687 net.cpp:141] Setting up conv1_2_relu1_2_0_split
I0808 18:37:53.539037 23687 net.cpp:148] Top shape: 7 64 224 224 (22478848)
I0808 18:37:53.539047 23687 net.cpp:148] Top shape: 7 64 224 224 (22478848)
I0808 18:37:53.539055 23687 net.cpp:156] Memory required for data: 547921920
I0808 18:37:53.539063 23687 layer_factory.hpp:77] Creating layer pool1
I0808 18:37:53.539098 23687 net.cpp:91] Creating Layer pool1
I0808 18:37:53.539108 23687 net.cpp:425] pool1 <- conv1_2_relu1_2_0_split_0
I0808 18:37:53.539119 23687 net.cpp:399] pool1 -> pool1
I0808 18:37:53.539189 23687 net.cpp:141] Setting up pool1
I0808 18:37:53.539202 23687 net.cpp:148] Top shape: 7 64 112 112 (5619712)
I0808 18:37:53.539211 23687 net.cpp:156] Memory required for data: 570400768
I0808 18:37:53.539218 23687 layer_factory.hpp:77] Creating layer conv2_1
I0808 18:37:53.539232 23687 net.cpp:91] Creating Layer conv2_1
I0808 18:37:53.539240 23687 net.cpp:425] conv2_1 <- pool1
I0808 18:37:53.539252 23687 net.cpp:399] conv2_1 -> conv2_1
I0808 18:37:53.542286 23687 net.cpp:141] Setting up conv2_1
I0808 18:37:53.542317 23687 net.cpp:148] Top shape: 7 128 112 112 (11239424)
I0808 18:37:53.542326 23687 net.cpp:156] Memory required for data: 615358464
I0808 18:37:53.542343 23687 layer_factory.hpp:77] Creating layer relu2_1
I0808 18:37:53.542367 23687 net.cpp:91] Creating Layer relu2_1
I0808 18:37:53.542376 23687 net.cpp:425] relu2_1 <- conv2_1
I0808 18:37:53.542387 23687 net.cpp:386] relu2_1 -> conv2_1 (in-place)
I0808 18:37:53.542668 23687 net.cpp:141] Setting up relu2_1
I0808 18:37:53.542685 23687 net.cpp:148] Top shape: 7 128 112 112 (11239424)
I0808 18:37:53.542692 23687 net.cpp:156] Memory required for data: 660316160
I0808 18:37:53.542701 23687 layer_factory.hpp:77] Creating layer conv2_2
I0808 18:37:53.542716 23687 net.cpp:91] Creating Layer conv2_2
I0808 18:37:53.542724 23687 net.cpp:425] conv2_2 <- conv2_1
I0808 18:37:53.542735 23687 net.cpp:399] conv2_2 -> conv2_2
I0808 18:37:53.544200 23687 net.cpp:141] Setting up conv2_2
I0808 18:37:53.544230 23687 net.cpp:148] Top shape: 7 128 112 112 (11239424)
I0808 18:37:53.544239 23687 net.cpp:156] Memory required for data: 705273856
I0808 18:37:53.544251 23687 layer_factory.hpp:77] Creating layer relu2_2
I0808 18:37:53.544272 23687 net.cpp:91] Creating Layer relu2_2
I0808 18:37:53.544281 23687 net.cpp:425] relu2_2 <- conv2_2
I0808 18:37:53.544292 23687 net.cpp:386] relu2_2 -> conv2_2 (in-place)
I0808 18:37:53.544560 23687 net.cpp:141] Setting up relu2_2
I0808 18:37:53.544575 23687 net.cpp:148] Top shape: 7 128 112 112 (11239424)
I0808 18:37:53.544584 23687 net.cpp:156] Memory required for data: 750231552
I0808 18:37:53.544591 23687 layer_factory.hpp:77] Creating layer conv2_2_relu2_2_0_split
I0808 18:37:53.544603 23687 net.cpp:91] Creating Layer conv2_2_relu2_2_0_split
I0808 18:37:53.544611 23687 net.cpp:425] conv2_2_relu2_2_0_split <- conv2_2
I0808 18:37:53.544623 23687 net.cpp:399] conv2_2_relu2_2_0_split -> conv2_2_relu2_2_0_split_0
I0808 18:37:53.544636 23687 net.cpp:399] conv2_2_relu2_2_0_split -> conv2_2_relu2_2_0_split_1
I0808 18:37:53.544694 23687 net.cpp:141] Setting up conv2_2_relu2_2_0_split
I0808 18:37:53.544706 23687 net.cpp:148] Top shape: 7 128 112 112 (11239424)
I0808 18:37:53.544716 23687 net.cpp:148] Top shape: 7 128 112 112 (11239424)
I0808 18:37:53.544724 23687 net.cpp:156] Memory required for data: 840146944
I0808 18:37:53.544733 23687 layer_factory.hpp:77] Creating layer pool2
I0808 18:37:53.544742 23687 net.cpp:91] Creating Layer pool2
I0808 18:37:53.544749 23687 net.cpp:425] pool2 <- conv2_2_relu2_2_0_split_0
I0808 18:37:53.544761 23687 net.cpp:399] pool2 -> pool2
I0808 18:37:53.544831 23687 net.cpp:141] Setting up pool2
I0808 18:37:53.544844 23687 net.cpp:148] Top shape: 7 128 56 56 (2809856)
I0808 18:37:53.544853 23687 net.cpp:156] Memory required for data: 851386368
I0808 18:37:53.544862 23687 layer_factory.hpp:77] Creating layer conv3_1
I0808 18:37:53.544875 23687 net.cpp:91] Creating Layer conv3_1
I0808 18:37:53.544883 23687 net.cpp:425] conv3_1 <- pool2
I0808 18:37:53.544894 23687 net.cpp:399] conv3_1 -> conv3_1
I0808 18:37:53.547502 23687 net.cpp:141] Setting up conv3_1
I0808 18:37:53.547534 23687 net.cpp:148] Top shape: 7 256 56 56 (5619712)
I0808 18:37:53.547544 23687 net.cpp:156] Memory required for data: 873865216
I0808 18:37:53.547559 23687 layer_factory.hpp:77] Creating layer relu3_1
I0808 18:37:53.547581 23687 net.cpp:91] Creating Layer relu3_1
I0808 18:37:53.547605 23687 net.cpp:425] relu3_1 <- conv3_1
I0808 18:37:53.547616 23687 net.cpp:386] relu3_1 -> conv3_1 (in-place)
I0808 18:37:53.548084 23687 net.cpp:141] Setting up relu3_1
I0808 18:37:53.548102 23687 net.cpp:148] Top shape: 7 256 56 56 (5619712)
I0808 18:37:53.548121 23687 net.cpp:156] Memory required for data: 896344064
I0808 18:37:53.548130 23687 layer_factory.hpp:77] Creating layer conv3_2
I0808 18:37:53.548157 23687 net.cpp:91] Creating Layer conv3_2
I0808 18:37:53.548166 23687 net.cpp:425] conv3_2 <- conv3_1
I0808 18:37:53.548177 23687 net.cpp:399] conv3_2 -> conv3_2
I0808 18:37:53.551358 23687 net.cpp:141] Setting up conv3_2
I0808 18:37:53.551389 23687 net.cpp:148] Top shape: 7 256 56 56 (5619712)
I0808 18:37:53.551398 23687 net.cpp:156] Memory required for data: 918822912
I0808 18:37:53.551410 23687 layer_factory.hpp:77] Creating layer relu3_2
I0808 18:37:53.551437 23687 net.cpp:91] Creating Layer relu3_2
I0808 18:37:53.551445 23687 net.cpp:425] relu3_2 <- conv3_2
I0808 18:37:53.551456 23687 net.cpp:386] relu3_2 -> conv3_2 (in-place)
I0808 18:37:53.551750 23687 net.cpp:141] Setting up relu3_2
I0808 18:37:53.551776 23687 net.cpp:148] Top shape: 7 256 56 56 (5619712)
I0808 18:37:53.551784 23687 net.cpp:156] Memory required for data: 941301760
I0808 18:37:53.551792 23687 layer_factory.hpp:77] Creating layer conv3_3
I0808 18:37:53.551807 23687 net.cpp:91] Creating Layer conv3_3
I0808 18:37:53.551816 23687 net.cpp:425] conv3_3 <- conv3_2
I0808 18:37:53.551841 23687 net.cpp:399] conv3_3 -> conv3_3
I0808 18:37:53.555209 23687 net.cpp:141] Setting up conv3_3
I0808 18:37:53.555229 23687 net.cpp:148] Top shape: 7 256 56 56 (5619712)
I0808 18:37:53.555249 23687 net.cpp:156] Memory required for data: 963780608
I0808 18:37:53.555263 23687 layer_factory.hpp:77] Creating layer relu3_3
I0808 18:37:53.555285 23687 net.cpp:91] Creating Layer relu3_3
I0808 18:37:53.555294 23687 net.cpp:425] relu3_3 <- conv3_3
I0808 18:37:53.555308 23687 net.cpp:386] relu3_3 -> conv3_3 (in-place)
I0808 18:37:53.555588 23687 net.cpp:141] Setting up relu3_3
I0808 18:37:53.555603 23687 net.cpp:148] Top shape: 7 256 56 56 (5619712)
I0808 18:37:53.555629 23687 net.cpp:156] Memory required for data: 986259456
I0808 18:37:53.555636 23687 layer_factory.hpp:77] Creating layer conv3_3_relu3_3_0_split
I0808 18:37:53.555649 23687 net.cpp:91] Creating Layer conv3_3_relu3_3_0_split
I0808 18:37:53.555657 23687 net.cpp:425] conv3_3_relu3_3_0_split <- conv3_3
I0808 18:37:53.555680 23687 net.cpp:399] conv3_3_relu3_3_0_split -> conv3_3_relu3_3_0_split_0
I0808 18:37:53.555693 23687 net.cpp:399] conv3_3_relu3_3_0_split -> conv3_3_relu3_3_0_split_1
I0808 18:37:53.555763 23687 net.cpp:141] Setting up conv3_3_relu3_3_0_split
I0808 18:37:53.555776 23687 net.cpp:148] Top shape: 7 256 56 56 (5619712)
I0808 18:37:53.555789 23687 net.cpp:148] Top shape: 7 256 56 56 (5619712)
I0808 18:37:53.555796 23687 net.cpp:156] Memory required for data: 1031217152
I0808 18:37:53.555805 23687 layer_factory.hpp:77] Creating layer pool3
I0808 18:37:53.555817 23687 net.cpp:91] Creating Layer pool3
I0808 18:37:53.555825 23687 net.cpp:425] pool3 <- conv3_3_relu3_3_0_split_0
I0808 18:37:53.555836 23687 net.cpp:399] pool3 -> pool3
I0808 18:37:53.555897 23687 net.cpp:141] Setting up pool3
I0808 18:37:53.555909 23687 net.cpp:148] Top shape: 7 256 28 28 (1404928)
I0808 18:37:53.555917 23687 net.cpp:156] Memory required for data: 1036836864
I0808 18:37:53.555924 23687 layer_factory.hpp:77] Creating layer conv4_1
I0808 18:37:53.555940 23687 net.cpp:91] Creating Layer conv4_1
I0808 18:37:53.555948 23687 net.cpp:425] conv4_1 <- pool3
I0808 18:37:53.555960 23687 net.cpp:399] conv4_1 -> conv4_1
I0808 18:37:53.561596 23687 net.cpp:141] Setting up conv4_1
I0808 18:37:53.561626 23687 net.cpp:148] Top shape: 7 512 28 28 (2809856)
I0808 18:37:53.561635 23687 net.cpp:156] Memory required for data: 1048076288
I0808 18:37:53.561647 23687 layer_factory.hpp:77] Creating layer relu4_1
I0808 18:37:53.561669 23687 net.cpp:91] Creating Layer relu4_1
I0808 18:37:53.561677 23687 net.cpp:425] relu4_1 <- conv4_1
I0808 18:37:53.561703 23687 net.cpp:386] relu4_1 -> conv4_1 (in-place)
I0808 18:37:53.562167 23687 net.cpp:141] Setting up relu4_1
I0808 18:37:53.562185 23687 net.cpp:148] Top shape: 7 512 28 28 (2809856)
I0808 18:37:53.562203 23687 net.cpp:156] Memory required for data: 1059315712
I0808 18:37:53.562211 23687 layer_factory.hpp:77] Creating layer conv4_2
I0808 18:37:53.562238 23687 net.cpp:91] Creating Layer conv4_2
I0808 18:37:53.562258 23687 net.cpp:425] conv4_2 <- conv4_1
I0808 18:37:53.562271 23687 net.cpp:399] conv4_2 -> conv4_2
I0808 18:37:53.570092 23687 net.cpp:141] Setting up conv4_2
I0808 18:37:53.570123 23687 net.cpp:148] Top shape: 7 512 28 28 (2809856)
I0808 18:37:53.570132 23687 net.cpp:156] Memory required for data: 1070555136
I0808 18:37:53.570163 23687 layer_factory.hpp:77] Creating layer relu4_2
I0808 18:37:53.570173 23687 net.cpp:91] Creating Layer relu4_2
I0808 18:37:53.570181 23687 net.cpp:425] relu4_2 <- conv4_2
I0808 18:37:53.570193 23687 net.cpp:386] relu4_2 -> conv4_2 (in-place)
I0808 18:37:53.570498 23687 net.cpp:141] Setting up relu4_2
I0808 18:37:53.570538 23687 net.cpp:148] Top shape: 7 512 28 28 (2809856)
I0808 18:37:53.570555 23687 net.cpp:156] Memory required for data: 1081794560
I0808 18:37:53.570564 23687 layer_factory.hpp:77] Creating layer conv4_3
I0808 18:37:53.570580 23687 net.cpp:91] Creating Layer conv4_3
I0808 18:37:53.570598 23687 net.cpp:425] conv4_3 <- conv4_2
I0808 18:37:53.570611 23687 net.cpp:399] conv4_3 -> conv4_3
I0808 18:37:53.578245 23687 net.cpp:141] Setting up conv4_3
I0808 18:37:53.578275 23687 net.cpp:148] Top shape: 7 512 28 28 (2809856)
I0808 18:37:53.578284 23687 net.cpp:156] Memory required for data: 1093033984
I0808 18:37:53.578295 23687 layer_factory.hpp:77] Creating layer relu4_3
I0808 18:37:53.578318 23687 net.cpp:91] Creating Layer relu4_3
I0808 18:37:53.578327 23687 net.cpp:425] relu4_3 <- conv4_3
I0808 18:37:53.578339 23687 net.cpp:386] relu4_3 -> conv4_3 (in-place)
I0808 18:37:53.578630 23687 net.cpp:141] Setting up relu4_3
I0808 18:37:53.578645 23687 net.cpp:148] Top shape: 7 512 28 28 (2809856)
I0808 18:37:53.578670 23687 net.cpp:156] Memory required for data: 1104273408
I0808 18:37:53.578677 23687 layer_factory.hpp:77] Creating layer conv4_3_relu4_3_0_split
I0808 18:37:53.578691 23687 net.cpp:91] Creating Layer conv4_3_relu4_3_0_split
I0808 18:37:53.578699 23687 net.cpp:425] conv4_3_relu4_3_0_split <- conv4_3
I0808 18:37:53.578722 23687 net.cpp:399] conv4_3_relu4_3_0_split -> conv4_3_relu4_3_0_split_0
I0808 18:37:53.578734 23687 net.cpp:399] conv4_3_relu4_3_0_split -> conv4_3_relu4_3_0_split_1
I0808 18:37:53.578801 23687 net.cpp:141] Setting up conv4_3_relu4_3_0_split
I0808 18:37:53.578814 23687 net.cpp:148] Top shape: 7 512 28 28 (2809856)
I0808 18:37:53.578824 23687 net.cpp:148] Top shape: 7 512 28 28 (2809856)
I0808 18:37:53.578832 23687 net.cpp:156] Memory required for data: 1126752256
I0808 18:37:53.578840 23687 layer_factory.hpp:77] Creating layer pool4
I0808 18:37:53.578851 23687 net.cpp:91] Creating Layer pool4
I0808 18:37:53.578860 23687 net.cpp:425] pool4 <- conv4_3_relu4_3_0_split_0
I0808 18:37:53.578873 23687 net.cpp:399] pool4 -> pool4
I0808 18:37:53.578934 23687 net.cpp:141] Setting up pool4
I0808 18:37:53.578946 23687 net.cpp:148] Top shape: 7 512 14 14 (702464)
I0808 18:37:53.578954 23687 net.cpp:156] Memory required for data: 1129562112
I0808 18:37:53.578961 23687 layer_factory.hpp:77] Creating layer conv5_1
I0808 18:37:53.578979 23687 net.cpp:91] Creating Layer conv5_1
I0808 18:37:53.578987 23687 net.cpp:425] conv5_1 <- pool4
I0808 18:37:53.578999 23687 net.cpp:399] conv5_1 -> conv5_1
I0808 18:37:53.587414 23687 net.cpp:141] Setting up conv5_1
I0808 18:37:53.587435 23687 net.cpp:148] Top shape: 7 512 14 14 (702464)
I0808 18:37:53.587455 23687 net.cpp:156] Memory required for data: 1132371968
I0808 18:37:53.587467 23687 layer_factory.hpp:77] Creating layer relu5_1
I0808 18:37:53.587489 23687 net.cpp:91] Creating Layer relu5_1
I0808 18:37:53.587498 23687 net.cpp:425] relu5_1 <- conv5_1
I0808 18:37:53.587509 23687 net.cpp:386] relu5_1 -> conv5_1 (in-place)
I0808 18:37:53.587980 23687 net.cpp:141] Setting up relu5_1
I0808 18:37:53.587996 23687 net.cpp:148] Top shape: 7 512 14 14 (702464)
I0808 18:37:53.588016 23687 net.cpp:156] Memory required for data: 1135181824
I0808 18:37:53.588024 23687 layer_factory.hpp:77] Creating layer conv5_2
I0808 18:37:53.588052 23687 net.cpp:91] Creating Layer conv5_2
I0808 18:37:53.588062 23687 net.cpp:425] conv5_2 <- conv5_1
I0808 18:37:53.588075 23687 net.cpp:399] conv5_2 -> conv5_2
I0808 18:37:53.595739 23687 net.cpp:141] Setting up conv5_2
I0808 18:37:53.595769 23687 net.cpp:148] Top shape: 7 512 14 14 (702464)
I0808 18:37:53.595777 23687 net.cpp:156] Memory required for data: 1137991680
I0808 18:37:53.595789 23687 layer_factory.hpp:77] Creating layer relu5_2
I0808 18:37:53.595818 23687 net.cpp:91] Creating Layer relu5_2
I0808 18:37:53.595827 23687 net.cpp:425] relu5_2 <- conv5_2
I0808 18:37:53.595839 23687 net.cpp:386] relu5_2 -> conv5_2 (in-place)
I0808 18:37:53.596130 23687 net.cpp:141] Setting up relu5_2
I0808 18:37:53.596145 23687 net.cpp:148] Top shape: 7 512 14 14 (702464)
I0808 18:37:53.596166 23687 net.cpp:156] Memory required for data: 1140801536
I0808 18:37:53.596174 23687 layer_factory.hpp:77] Creating layer conv5_3
I0808 18:37:53.596189 23687 net.cpp:91] Creating Layer conv5_3
I0808 18:37:53.596197 23687 net.cpp:425] conv5_3 <- conv5_2
I0808 18:37:53.596223 23687 net.cpp:399] conv5_3 -> conv5_3
I0808 18:37:53.604552 23687 net.cpp:141] Setting up conv5_3
I0808 18:37:53.604583 23687 net.cpp:148] Top shape: 7 512 14 14 (702464)
I0808 18:37:53.604593 23687 net.cpp:156] Memory required for data: 1143611392
I0808 18:37:53.604606 23687 layer_factory.hpp:77] Creating layer relu5_3
I0808 18:37:53.604629 23687 net.cpp:91] Creating Layer relu5_3
I0808 18:37:53.604637 23687 net.cpp:425] relu5_3 <- conv5_3
I0808 18:37:53.604650 23687 net.cpp:386] relu5_3 -> conv5_3 (in-place)
I0808 18:37:53.604964 23687 net.cpp:141] Setting up relu5_3
I0808 18:37:53.605003 23687 net.cpp:148] Top shape: 7 512 14 14 (702464)
I0808 18:37:53.605010 23687 net.cpp:156] Memory required for data: 1146421248
I0808 18:37:53.605018 23687 layer_factory.hpp:77] Creating layer conv5_3_relu5_3_0_split
I0808 18:37:53.605029 23687 net.cpp:91] Creating Layer conv5_3_relu5_3_0_split
I0808 18:37:53.605051 23687 net.cpp:425] conv5_3_relu5_3_0_split <- conv5_3
I0808 18:37:53.605062 23687 net.cpp:399] conv5_3_relu5_3_0_split -> conv5_3_relu5_3_0_split_0
I0808 18:37:53.605074 23687 net.cpp:399] conv5_3_relu5_3_0_split -> conv5_3_relu5_3_0_split_1
I0808 18:37:53.605146 23687 net.cpp:141] Setting up conv5_3_relu5_3_0_split
I0808 18:37:53.605160 23687 net.cpp:148] Top shape: 7 512 14 14 (702464)
I0808 18:37:53.605170 23687 net.cpp:148] Top shape: 7 512 14 14 (702464)
I0808 18:37:53.605178 23687 net.cpp:156] Memory required for data: 1152040960
I0808 18:37:53.605185 23687 layer_factory.hpp:77] Creating layer pool5
I0808 18:37:53.605197 23687 net.cpp:91] Creating Layer pool5
I0808 18:37:53.605206 23687 net.cpp:425] pool5 <- conv5_3_relu5_3_0_split_0
I0808 18:37:53.605218 23687 net.cpp:399] pool5 -> pool5
I0808 18:37:53.605283 23687 net.cpp:141] Setting up pool5
I0808 18:37:53.605296 23687 net.cpp:148] Top shape: 7 512 7 7 (175616)
I0808 18:37:53.605304 23687 net.cpp:156] Memory required for data: 1152743424
I0808 18:37:53.605311 23687 layer_factory.hpp:77] Creating layer fc6-conv
I0808 18:37:53.605326 23687 net.cpp:91] Creating Layer fc6-conv
I0808 18:37:53.605334 23687 net.cpp:425] fc6-conv <- pool5
I0808 18:37:53.605345 23687 net.cpp:399] fc6-conv -> fc6-conv
I0808 18:37:53.976775 23687 net.cpp:141] Setting up fc6-conv
I0808 18:37:53.976868 23687 net.cpp:148] Top shape: 7 4096 1 1 (28672)
I0808 18:37:53.976887 23687 net.cpp:156] Memory required for data: 1152858112
I0808 18:37:53.976929 23687 layer_factory.hpp:77] Creating layer relu6
I0808 18:37:53.976974 23687 net.cpp:91] Creating Layer relu6
I0808 18:37:53.977005 23687 net.cpp:425] relu6 <- fc6-conv
I0808 18:37:53.977037 23687 net.cpp:386] relu6 -> fc6-conv (in-place)
I0808 18:37:53.977819 23687 net.cpp:141] Setting up relu6
I0808 18:37:53.977887 23687 net.cpp:148] Top shape: 7 4096 1 1 (28672)
I0808 18:37:53.977901 23687 net.cpp:156] Memory required for data: 1152972800
I0808 18:37:53.977916 23687 layer_factory.hpp:77] Creating layer drop6
I0808 18:37:53.977984 23687 net.cpp:91] Creating Layer drop6
I0808 18:37:53.978013 23687 net.cpp:425] drop6 <- fc6-conv
I0808 18:37:53.978034 23687 net.cpp:386] drop6 -> fc6-conv (in-place)
I0808 18:37:53.978143 23687 net.cpp:141] Setting up drop6
I0808 18:37:53.978178 23687 net.cpp:148] Top shape: 7 4096 1 1 (28672)
I0808 18:37:53.978190 23687 net.cpp:156] Memory required for data: 1153087488
I0808 18:37:53.978209 23687 layer_factory.hpp:77] Creating layer fc7-conv
I0808 18:37:53.978250 23687 net.cpp:91] Creating Layer fc7-conv
I0808 18:37:53.978268 23687 net.cpp:425] fc7-conv <- fc6-conv
I0808 18:37:53.978302 23687 net.cpp:399] fc7-conv -> fc7-conv
I0808 18:37:54.041554 23687 net.cpp:141] Setting up fc7-conv
I0808 18:37:54.041648 23687 net.cpp:148] Top shape: 7 4096 1 1 (28672)
I0808 18:37:54.041671 23687 net.cpp:156] Memory required for data: 1153202176
I0808 18:37:54.041714 23687 layer_factory.hpp:77] Creating layer relu7
I0808 18:37:54.041752 23687 net.cpp:91] Creating Layer relu7
I0808 18:37:54.041779 23687 net.cpp:425] relu7 <- fc7-conv
I0808 18:37:54.041815 23687 net.cpp:386] relu7 -> fc7-conv (in-place)
I0808 18:37:54.042347 23687 net.cpp:141] Setting up relu7
I0808 18:37:54.042376 23687 net.cpp:148] Top shape: 7 4096 1 1 (28672)
I0808 18:37:54.042410 23687 net.cpp:156] Memory required for data: 1153316864
I0808 18:37:54.042428 23687 layer_factory.hpp:77] Creating layer hypercolumns
I0808 18:37:54.042474 23687 net.cpp:91] Creating Layer hypercolumns
I0808 18:37:54.042500 23687 net.cpp:425] hypercolumns <- normal
I0808 18:37:54.042532 23687 net.cpp:425] hypercolumns <- conv1_2_relu1_2_0_split_1
I0808 18:37:54.042557 23687 net.cpp:425] hypercolumns <- conv2_2_relu2_2_0_split_1
I0808 18:37:54.042578 23687 net.cpp:425] hypercolumns <- conv3_3_relu3_3_0_split_1
I0808 18:37:54.042592 23687 net.cpp:425] hypercolumns <- conv4_3_relu4_3_0_split_1
I0808 18:37:54.042616 23687 net.cpp:425] hypercolumns <- conv5_3_relu5_3_0_split_1
I0808 18:37:54.042630 23687 net.cpp:425] hypercolumns <- fc7-conv
I0808 18:37:54.042665 23687 net.cpp:399] hypercolumns -> hypercolumns
I0808 18:37:54.042721 23687 net.cpp:399] hypercolumns -> normal_point
I0808 18:37:54.042908 23687 net.cpp:141] Setting up hypercolumns
I0808 18:37:54.042943 23687 net.cpp:148] Top shape: 7000 5568 1 1 (38976000)
I0808 18:37:54.042968 23687 net.cpp:148] Top shape: 7000 3 (21000)
I0808 18:37:54.042994 23687 net.cpp:156] Memory required for data: 1309304864
I0808 18:37:54.043014 23687 layer_factory.hpp:77] Creating layer fc1
I0808 18:37:54.043052 23687 net.cpp:91] Creating Layer fc1
I0808 18:37:54.043076 23687 net.cpp:425] fc1 <- hypercolumns
I0808 18:37:54.043110 23687 net.cpp:399] fc1 -> fc1
I0808 18:37:55.503284 23687 net.cpp:141] Setting up fc1
I0808 18:37:55.503352 23687 net.cpp:148] Top shape: 7000 4096 (28672000)
I0808 18:37:55.503362 23687 net.cpp:156] Memory required for data: 1423992864
I0808 18:37:55.503407 23687 layer_factory.hpp:77] Creating layer relu1
I0808 18:37:55.503429 23687 net.cpp:91] Creating Layer relu1
I0808 18:37:55.503468 23687 net.cpp:425] relu1 <- fc1
I0808 18:37:55.503484 23687 net.cpp:386] relu1 -> fc1 (in-place)
I0808 18:37:55.504943 23687 net.cpp:141] Setting up relu1
I0808 18:37:55.504983 23687 net.cpp:148] Top shape: 7000 4096 (28672000)
I0808 18:37:55.504992 23687 net.cpp:156] Memory required for data: 1538680864
I0808 18:37:55.505002 23687 layer_factory.hpp:77] Creating layer drop1
I0808 18:37:55.505036 23687 net.cpp:91] Creating Layer drop1
I0808 18:37:55.505046 23687 net.cpp:425] drop1 <- fc1
I0808 18:37:55.505059 23687 net.cpp:386] drop1 -> fc1 (in-place)
I0808 18:37:55.505177 23687 net.cpp:141] Setting up drop1
I0808 18:37:55.505195 23687 net.cpp:148] Top shape: 7000 4096 (28672000)
I0808 18:37:55.505204 23687 net.cpp:156] Memory required for data: 1653368864
I0808 18:37:55.505213 23687 layer_factory.hpp:77] Creating layer fc2
I0808 18:37:55.505275 23687 net.cpp:91] Creating Layer fc2
I0808 18:37:55.505290 23687 net.cpp:425] fc2 <- fc1
I0808 18:37:55.505303 23687 net.cpp:399] fc2 -> fc2
I0808 18:37:56.404680 23687 net.cpp:141] Setting up fc2
I0808 18:37:56.404712 23687 net.cpp:148] Top shape: 7000 4096 (28672000)
I0808 18:37:56.404721 23687 net.cpp:156] Memory required for data: 1768056864
I0808 18:37:56.404808 23687 layer_factory.hpp:77] Creating layer relu2
I0808 18:37:56.404825 23687 net.cpp:91] Creating Layer relu2
I0808 18:37:56.404842 23687 net.cpp:425] relu2 <- fc2
I0808 18:37:56.404853 23687 net.cpp:386] relu2 -> fc2 (in-place)
I0808 18:37:56.405294 23687 net.cpp:141] Setting up relu2
I0808 18:37:56.405310 23687 net.cpp:148] Top shape: 7000 4096 (28672000)
I0808 18:37:56.405330 23687 net.cpp:156] Memory required for data: 1882744864
I0808 18:37:56.405339 23687 layer_factory.hpp:77] Creating layer drop2
I0808 18:37:56.405385 23687 net.cpp:91] Creating Layer drop2
I0808 18:37:56.405393 23687 net.cpp:425] drop2 <- fc2
I0808 18:37:56.405412 23687 net.cpp:386] drop2 -> fc2 (in-place)
I0808 18:37:56.405469 23687 net.cpp:141] Setting up drop2
I0808 18:37:56.405493 23687 net.cpp:148] Top shape: 7000 4096 (28672000)
I0808 18:37:56.405503 23687 net.cpp:156] Memory required for data: 1997432864
I0808 18:37:56.405510 23687 layer_factory.hpp:77] Creating layer fc3
I0808 18:37:56.405527 23687 net.cpp:91] Creating Layer fc3
I0808 18:37:56.405545 23687 net.cpp:425] fc3 <- fc2
I0808 18:37:56.405557 23687 net.cpp:399] fc3 -> fc3
I0808 18:37:56.406463 23687 net.cpp:141] Setting up fc3
I0808 18:37:56.406477 23687 net.cpp:148] Top shape: 7000 3 (21000)
I0808 18:37:56.406484 23687 net.cpp:156] Memory required for data: 1997516864
I0808 18:37:56.406496 23687 layer_factory.hpp:77] Creating layer loss
I0808 18:37:56.406507 23687 net.cpp:91] Creating Layer loss
I0808 18:37:56.406527 23687 net.cpp:425] loss <- fc3
I0808 18:37:56.406540 23687 net.cpp:425] loss <- normal_point
I0808 18:37:56.406553 23687 net.cpp:399] loss -> loss
I0808 18:37:56.406636 23687 net.cpp:141] Setting up loss
…
