…
type: "SGD"
I0809 10:51:53.912565 35116 solver.cpp:91] Creating training net from net file: /home/qinhong/project/normal_recovery/model/t3/train.prototxt
I0809 10:51:53.913277 35116 net.cpp:49] Initializing net from parameters: 
name: "hyper_normal_layers"
state {
  phase: TRAIN
}
layer {
  name: "data"
  type: "ImageNormalData"
  top: "data"
  top: "normal"
  transform_param {
  }
  image_data_param {
    source: "/home/qinhong/project/normal_recovery/data/source.txt"
    batch_size: 7
    shuffle: true
    new_height: 224
    new_width: 224
  }
}
layer {
  name: "conv1_1"
  type: "Convolution"
  bottom: "data"
  top: "conv1_1"
  param {
    lr_mult: 1
    decay_mult: 1
  }
  param {
    lr_mult: 2
    decay_mult: 0
  }
  convolution_param {
    num_output: 64
    pad: 1
    kernel_size: 3
  }
}
layer {
  name: "relu1_1"
  type: "ReLU"
  bottom: "conv1_1"
  top: "conv1_1"
}
layer {
  name: "conv1_2"
  type: "Convolution"
  bottom: "conv1_1"
  top: "conv1_2"
  param {
    lr_mult: 1
    decay_mult: 1
  }
  param {
    lr_mult: 2
    decay_mult: 0
  }
  convolution_param {
    num_output: 64
    pad: 1
    kernel_size: 3
  }
}
layer {
  name: "relu1_2"
  type: "ReLU"
  bottom: "conv1_2"
  top: "conv1_2"
}
layer {
  name: "pool1"
  type: "Pooling"
  bottom: "conv1_2"
  top: "pool1"
  pooling_param {
    pool: MAX
    kernel_size: 2
    stride: 2
  }
}
layer {
  name: "conv2_1"
  type: "Convolution"
  bottom: "pool1"
  top: "conv2_1"
  param {
    lr_mult: 1
    decay_mult: 1
  }
  param {
    lr_mult: 2
    decay_mult: 0
  }
  convolution_param {
    num_output: 128
    pad: 1
    kernel_size: 3
  }
}
layer {
  name: "relu2_1"
  type: "ReLU"
  bottom: "conv2_1"
  top: "conv2_1"
}
layer {
  name: "conv2_2"
  type: "Convolution"
  bottom: "conv2_1"
  top: "conv2_2"
  param {
    lr_mult: 1
    decay_mult: 1
  }
  param {
    lr_mult: 2
    decay_mult: 0
  }
  convolution_param {
    num_output: 128
    pad: 1
    kernel_size: 3
  }
}
layer {
  name: "relu2_2"
  type: "ReLU"
  bottom: "conv2_2"
  top: "conv2_2"
}
layer {
  name: "pool2"
  type: "Pooling"
  bottom: "conv2_2"
  top: "pool2"
  pooling_param {
    pool: MAX
    kernel_size: 2
    stride: 2
  }
}
layer {
  name: "conv3_1"
  type: "Convolution"
  bottom: "pool2"
  top: "conv3_1"
  param {
    lr_mult: 1
    decay_mult: 1
  }
  param {
    lr_mult: 2
    decay_mult: 0
  }
  convolution_param {
    num_output: 256
    pad: 1
    kernel_size: 3
  }
}
layer {
  name: "relu3_1"
  type: "ReLU"
  bottom: "conv3_1"
  top: "conv3_1"
}
layer {
  name: "conv3_2"
  type: "Convolution"
  bottom: "conv3_1"
  top: "conv3_2"
  param {
    lr_mult: 1
    decay_mult: 1
  }
  param {
    lr_mult: 2
    decay_mult: 0
  }
  convolution_param {
    num_output: 256
    pad: 1
    kernel_size: 3
  }
}
layer {
  name: "relu3_2"
  type: "ReLU"
  bottom: "conv3_2"
  top: "conv3_2"
}
layer {
  name: "conv3_3"
  type: "Convolution"
  bottom: "conv3_2"
  top: "conv3_3"
  param {
    lr_mult: 1
    decay_mult: 1
  }
  param {
    lr_mult: 2
    decay_mult: 0
  }
  convolution_param {
    num_output: 256
    pad: 1
    kernel_size: 3
  }
}
layer {
  name: "relu3_3"
  type: "ReLU"
  bottom: "conv3_3"
  top: "conv3_3"
}
layer {
  name: "pool3"
  type: "Pooling"
  bottom: "conv3_3"
  top: "pool3"
  pooling_param {
    pool: MAX
    kernel_size: 2
    stride: 2
  }
}
layer {
  name: "conv4_1"
  type: "Convolution"
  bottom: "pool3"
  top: "conv4_1"
  param {
    lr_mult: 1
    decay_mult: 1
  }
  param {
    lr_mult: 2
    decay_mult: 0
  }
  convolution_param {
    num_output: 512
    pad: 1
    kernel_size: 3
  }
}
layer {
  name: "relu4_1"
  type: "ReLU"
  bottom: "conv4_1"
  top: "conv4_1"
}
layer {
  name: "conv4_2"
  type: "Convolution"
  bottom: "conv4_1"
  top: "conv4_2"
  param {
    lr_mult: 1
    decay_mult: 1
  }
  param {
    lr_mult: 2
    decay_mult: 0
  }
  convolution_param {
    num_output: 512
    pad: 1
    kernel_size: 3
  }
}
layer {
  name: "relu4_2"
  type: "ReLU"
  bottom: "conv4_2"
  top: "conv4_2"
}
layer {
  name: "conv4_3"
  type: "Convolution"
  bottom: "conv4_2"
  top: "conv4_3"
  param {
    lr_mult: 1
    decay_mult: 1
  }
  param {
    lr_mult: 2
    decay_mult: 0
  }
  convolution_param {
    num_output: 512
    pad: 1
    kernel_size: 3
  }
}
layer {
  name: "relu4_3"
  type: "ReLU"
  bottom: "conv4_3"
  top: "conv4_3"
}
layer {
  name: "pool4"
  type: "Pooling"
  bottom: "conv4_3"
  top: "pool4"
  pooling_param {
    pool: MAX
    kernel_size: 2
    stride: 2
  }
}
layer {
  name: "conv5_1"
  type: "Convolution"
  bottom: "pool4"
  top: "conv5_1"
  param {
    lr_mult: 1
    decay_mult: 1
  }
  param {
    lr_mult: 2
    decay_mult: 0
  }
  convolution_param {
    num_output: 512
    pad: 1
    kernel_size: 3
  }
}
layer {
  name: "relu5_1"
  type: "ReLU"
  bottom: "conv5_1"
  top: "conv5_1"
}
layer {
  name: "conv5_2"
  type: "Convolution"
  bottom: "conv5_1"
  top: "conv5_2"
  param {
    lr_mult: 1
    decay_mult: 1
  }
  param {
    lr_mult: 2
    decay_mult: 0
  }
  convolution_param {
    num_output: 512
    pad: 1
    kernel_size: 3
  }
}
layer {
  name: "relu5_2"
  type: "ReLU"
  bottom: "conv5_2"
  top: "conv5_2"
}
layer {
  name: "conv5_3"
  type: "Convolution"
  bottom: "conv5_2"
  top: "conv5_3"
  param {
    lr_mult: 1
    decay_mult: 1
  }
  param {
    lr_mult: 2
    decay_mult: 0
  }
  convolution_param {
    num_output: 512
    pad: 1
    kernel_size: 3
  }
}
layer {
  name: "relu5_3"
  type: "ReLU"
  bottom: "conv5_3"
  top: "conv5_3"
}
layer {
  name: "pool5"
  type: "Pooling"
  bottom: "conv5_3"
  top: "pool5"
  pooling_param {
    pool: MAX
    kernel_size: 2
    stride: 2
  }
}
layer {
  name: "fc6-conv"
  type: "Convolution"
  bottom: "pool5"
  top: "fc6-conv"
  param {
    lr_mult: 1
    decay_mult: 1
  }
  param {
    lr_mult: 2
    decay_mult: 0
  }
  convolution_param {
    num_output: 4096
    kernel_size: 7
  }
}
layer {
  name: "relu6"
  type: "ReLU"
  bottom: "fc6-conv"
  top: "fc6-conv"
}
layer {
  name: "drop6"
  type: "Dropout"
  bottom: "fc6-conv"
  top: "fc6-conv"
  dropout_param {
    dropout_ratio: 0.5
  }
}
layer {
  name: "fc7-conv"
  type: "Convolution"
  bottom: "fc6-conv"
  top: "fc7-conv"
  param {
    lr_mult: 1
    decay_mult: 1
  }
  param {
    lr_mult: 2
    decay_mult: 0
  }
  convolution_param {
    num_output: 4096
    kernel_size: 1
  }
}
layer {
  name: "relu7"
  type: "ReLU"
  bottom: "fc7-conv"
  top: "fc7-conv"
}
layer {
  name: "hypercolumns"
  type: "HyperColumns"
  bottom: "normal"
  bottom: "conv1_2"
  bottom: "conv2_2"
  bottom: "conv3_3"
  bottom: "conv4_3"
  bottom: "conv5_3"
  bottom: "fc7-conv"
  top: "hypercolumns"
  top: "normal_point"
  hypercolumns_param {
    is_train: true
  }
}
layer {
  name: "fc1"
  type: "InnerProduct"
  bottom: "hypercolumns"
  top: "fc1"
  param {
    lr_mult: 1
    decay_mult: 1
  }
  param {
    lr_mult: 2
    decay_mult: 0
  }
  inner_product_param {
    num_output: 4096
    weight_filler {
      type: "gaussian"
      std: 0.003
    }
    bias_filler {
      type: "constant"
      value: 0
    }
  }
}
layer {
  name: "relu1"
  type: "ReLU"
  bottom: "fc1"
  top: "fc1"
}
layer {
  name: "drop1"
  type: "Dropout"
  bottom: "fc1"
  top: "fc1"
  dropout_param {
    dropout_ratio: 0.5
  }
}
layer {
  name: "fc2"
  type: "InnerProduct"
  bottom: "fc1"
  top: "fc2"
  param {
    lr_mult: 1
    decay_mult: 1
  }
  param {
    lr_mult: 2
    decay_mult: 0
  }
  inner_product_param {
    num_output: 4096
    weight_filler {
      type: "gaussian"
      std: 0.002
    }
    bias_filler {
      type: "constant"
      value: 0
    }
  }
}
layer {
  name: "relu2"
  type: "ReLU"
  bottom: "fc2"
  top: "fc2"
}
layer {
  name: "drop2"
  type: "Dropout"
  bottom: "fc2"
  top: "fc2"
  dropout_param {
    dropout_ratio: 0.5
  }
}
layer {
  name: "fc3"
  type: "InnerProduct"
  bottom: "fc2"
  top: "fc3"
  param {
    lr_mult: 1
    decay_mult: 1
  }
  param {
    lr_mult: 2
    decay_mult: 0
  }
  inner_product_param {
    num_output: 3
    weight_filler {
      type: "gaussian"
      std: 0.001
    }
    bias_filler {
      type: "constant"
      value: 0
    }
  }
}
layer {
  name: "loss"
  type: "EuclideanLoss"
  bottom: "fc3"
  bottom: "normal_point"
  top: "loss"
  propagate_down: true
  propagate_down: false
}
I0809 10:51:53.913506 35116 layer_factory.hpp:77] Creating layer data
I0809 10:51:53.913549 35116 net.cpp:91] Creating Layer data
I0809 10:51:53.913559 35116 net.cpp:399] data -> data
I0809 10:51:53.913589 35116 net.cpp:399] data -> normal
I0809 10:51:53.913611 35116 image_normal_data_layer.cpp:43] opeing file /home/qinhong/project/normal_recovery/data/source.txt
I0809 10:51:53.918114 35116 image_normal_data_layer.cpp:54] Shuffing data
I0809 10:51:53.919474 35116 image_normal_data_layer.cpp:59] A total of 4105 images.
I0809 10:51:53.943871 35116 image_normal_data_layer.cpp:79] output data size: 7,3,224,224
I0809 10:51:53.958480 35116 net.cpp:141] Setting up data
I0809 10:51:53.958513 35116 net.cpp:148] Top shape: 7 3 224 224 (1053696)
I0809 10:51:53.958519 35116 net.cpp:148] Top shape: 7 3 224 224 (1053696)
I0809 10:51:53.958523 35116 net.cpp:156] Memory required for data: 8429568
I0809 10:51:53.958531 35116 layer_factory.hpp:77] Creating layer conv1_1
I0809 10:51:53.958561 35116 net.cpp:91] Creating Layer conv1_1
I0809 10:51:53.958567 35116 net.cpp:425] conv1_1 <- data
I0809 10:51:53.958590 35116 net.cpp:399] conv1_1 -> conv1_1
I0809 10:51:54.182988 35116 net.cpp:141] Setting up conv1_1
I0809 10:51:54.183017 35116 net.cpp:148] Top shape: 7 64 224 224 (22478848)
I0809 10:51:54.183022 35116 net.cpp:156] Memory required for data: 98344960
I0809 10:51:54.183049 35116 layer_factory.hpp:77] Creating layer relu1_1
I0809 10:51:54.183073 35116 net.cpp:91] Creating Layer relu1_1
I0809 10:51:54.183078 35116 net.cpp:425] relu1_1 <- conv1_1
I0809 10:51:54.183084 35116 net.cpp:386] relu1_1 -> conv1_1 (in-place)
I0809 10:51:54.183418 35116 net.cpp:141] Setting up relu1_1
I0809 10:51:54.183434 35116 net.cpp:148] Top shape: 7 64 224 224 (22478848)
I0809 10:51:54.183437 35116 net.cpp:156] Memory required for data: 188260352
I0809 10:51:54.183440 35116 layer_factory.hpp:77] Creating layer conv1_2
I0809 10:51:54.183452 35116 net.cpp:91] Creating Layer conv1_2
I0809 10:51:54.183455 35116 net.cpp:425] conv1_2 <- conv1_1
I0809 10:51:54.183464 35116 net.cpp:399] conv1_2 -> conv1_2
I0809 10:51:54.184569 35116 net.cpp:141] Setting up conv1_2
I0809 10:51:54.184584 35116 net.cpp:148] Top shape: 7 64 224 224 (22478848)
I0809 10:51:54.184588 35116 net.cpp:156] Memory required for data: 278175744
I0809 10:51:54.184599 35116 layer_factory.hpp:77] Creating layer relu1_2
I0809 10:51:54.184607 35116 net.cpp:91] Creating Layer relu1_2
I0809 10:51:54.184609 35116 net.cpp:425] relu1_2 <- conv1_2
I0809 10:51:54.184617 35116 net.cpp:386] relu1_2 -> conv1_2 (in-place)
I0809 10:51:54.184913 35116 net.cpp:141] Setting up relu1_2
I0809 10:51:54.184928 35116 net.cpp:148] Top shape: 7 64 224 224 (22478848)
I0809 10:51:54.184931 35116 net.cpp:156] Memory required for data: 368091136
I0809 10:51:54.184936 35116 layer_factory.hpp:77] Creating layer conv1_2_relu1_2_0_split
I0809 10:51:54.184942 35116 net.cpp:91] Creating Layer conv1_2_relu1_2_0_split
I0809 10:51:54.184945 35116 net.cpp:425] conv1_2_relu1_2_0_split <- conv1_2
I0809 10:51:54.184952 35116 net.cpp:399] conv1_2_relu1_2_0_split -> conv1_2_relu1_2_0_split_0
I0809 10:51:54.184962 35116 net.cpp:399] conv1_2_relu1_2_0_split -> conv1_2_relu1_2_0_split_1
I0809 10:51:54.185006 35116 net.cpp:141] Setting up conv1_2_relu1_2_0_split
I0809 10:51:54.185016 35116 net.cpp:148] Top shape: 7 64 224 224 (22478848)
I0809 10:51:54.185020 35116 net.cpp:148] Top shape: 7 64 224 224 (22478848)
I0809 10:51:54.185024 35116 net.cpp:156] Memory required for data: 547921920
I0809 10:51:54.185026 35116 layer_factory.hpp:77] Creating layer pool1
I0809 10:51:54.185067 35116 net.cpp:91] Creating Layer pool1
I0809 10:51:54.185072 35116 net.cpp:425] pool1 <- conv1_2_relu1_2_0_split_0
I0809 10:51:54.185080 35116 net.cpp:399] pool1 -> pool1
I0809 10:51:54.185134 35116 net.cpp:141] Setting up pool1
I0809 10:51:54.185142 35116 net.cpp:148] Top shape: 7 64 112 112 (5619712)
I0809 10:51:54.185147 35116 net.cpp:156] Memory required for data: 570400768
I0809 10:51:54.185149 35116 layer_factory.hpp:77] Creating layer conv2_1
I0809 10:51:54.185159 35116 net.cpp:91] Creating Layer conv2_1
I0809 10:51:54.185163 35116 net.cpp:425] conv2_1 <- pool1
I0809 10:51:54.185173 35116 net.cpp:399] conv2_1 -> conv2_1
I0809 10:51:54.187492 35116 net.cpp:141] Setting up conv2_1
I0809 10:51:54.187508 35116 net.cpp:148] Top shape: 7 128 112 112 (11239424)
I0809 10:51:54.187511 35116 net.cpp:156] Memory required for data: 615358464
I0809 10:51:54.187523 35116 layer_factory.hpp:77] Creating layer relu2_1
I0809 10:51:54.187531 35116 net.cpp:91] Creating Layer relu2_1
I0809 10:51:54.187535 35116 net.cpp:425] relu2_1 <- conv2_1
I0809 10:51:54.187541 35116 net.cpp:386] relu2_1 -> conv2_1 (in-place)
I0809 10:51:54.187739 35116 net.cpp:141] Setting up relu2_1
I0809 10:51:54.187750 35116 net.cpp:148] Top shape: 7 128 112 112 (11239424)
I0809 10:51:54.187753 35116 net.cpp:156] Memory required for data: 660316160
I0809 10:51:54.187757 35116 layer_factory.hpp:77] Creating layer conv2_2
I0809 10:51:54.187767 35116 net.cpp:91] Creating Layer conv2_2
I0809 10:51:54.187772 35116 net.cpp:425] conv2_2 <- conv2_1
I0809 10:51:54.187779 35116 net.cpp:399] conv2_2 -> conv2_2
I0809 10:51:54.188964 35116 net.cpp:141] Setting up conv2_2
I0809 10:51:54.188980 35116 net.cpp:148] Top shape: 7 128 112 112 (11239424)
I0809 10:51:54.188984 35116 net.cpp:156] Memory required for data: 705273856
I0809 10:51:54.188992 35116 layer_factory.hpp:77] Creating layer relu2_2
I0809 10:51:54.188997 35116 net.cpp:91] Creating Layer relu2_2
I0809 10:51:54.189000 35116 net.cpp:425] relu2_2 <- conv2_2
I0809 10:51:54.189005 35116 net.cpp:386] relu2_2 -> conv2_2 (in-place)
I0809 10:51:54.189311 35116 net.cpp:141] Setting up relu2_2
I0809 10:51:54.189323 35116 net.cpp:148] Top shape: 7 128 112 112 (11239424)
I0809 10:51:54.189327 35116 net.cpp:156] Memory required for data: 750231552
I0809 10:51:54.189330 35116 layer_factory.hpp:77] Creating layer conv2_2_relu2_2_0_split
I0809 10:51:54.189338 35116 net.cpp:91] Creating Layer conv2_2_relu2_2_0_split
I0809 10:51:54.189342 35116 net.cpp:425] conv2_2_relu2_2_0_split <- conv2_2
I0809 10:51:54.189348 35116 net.cpp:399] conv2_2_relu2_2_0_split -> conv2_2_relu2_2_0_split_0
I0809 10:51:54.189357 35116 net.cpp:399] conv2_2_relu2_2_0_split -> conv2_2_relu2_2_0_split_1
I0809 10:51:54.189402 35116 net.cpp:141] Setting up conv2_2_relu2_2_0_split
I0809 10:51:54.189411 35116 net.cpp:148] Top shape: 7 128 112 112 (11239424)
I0809 10:51:54.189415 35116 net.cpp:148] Top shape: 7 128 112 112 (11239424)
I0809 10:51:54.189419 35116 net.cpp:156] Memory required for data: 840146944
I0809 10:51:54.189422 35116 layer_factory.hpp:77] Creating layer pool2
I0809 10:51:54.189429 35116 net.cpp:91] Creating Layer pool2
I0809 10:51:54.189431 35116 net.cpp:425] pool2 <- conv2_2_relu2_2_0_split_0
I0809 10:51:54.189436 35116 net.cpp:399] pool2 -> pool2
I0809 10:51:54.189476 35116 net.cpp:141] Setting up pool2
I0809 10:51:54.189483 35116 net.cpp:148] Top shape: 7 128 56 56 (2809856)
I0809 10:51:54.189487 35116 net.cpp:156] Memory required for data: 851386368
I0809 10:51:54.189489 35116 layer_factory.hpp:77] Creating layer conv3_1
I0809 10:51:54.189498 35116 net.cpp:91] Creating Layer conv3_1
I0809 10:51:54.189502 35116 net.cpp:425] conv3_1 <- pool2
I0809 10:51:54.189509 35116 net.cpp:399] conv3_1 -> conv3_1
I0809 10:51:54.191273 35116 net.cpp:141] Setting up conv3_1
I0809 10:51:54.191292 35116 net.cpp:148] Top shape: 7 256 56 56 (5619712)
I0809 10:51:54.191295 35116 net.cpp:156] Memory required for data: 873865216
I0809 10:51:54.191304 35116 layer_factory.hpp:77] Creating layer relu3_1
I0809 10:51:54.191313 35116 net.cpp:91] Creating Layer relu3_1
I0809 10:51:54.191329 35116 net.cpp:425] relu3_1 <- conv3_1
I0809 10:51:54.191335 35116 net.cpp:386] relu3_1 -> conv3_1 (in-place)
I0809 10:51:54.191646 35116 net.cpp:141] Setting up relu3_1
I0809 10:51:54.191660 35116 net.cpp:148] Top shape: 7 256 56 56 (5619712)
I0809 10:51:54.191663 35116 net.cpp:156] Memory required for data: 896344064
I0809 10:51:54.191668 35116 layer_factory.hpp:77] Creating layer conv3_2
I0809 10:51:54.191679 35116 net.cpp:91] Creating Layer conv3_2
I0809 10:51:54.191684 35116 net.cpp:425] conv3_2 <- conv3_1
I0809 10:51:54.191690 35116 net.cpp:399] conv3_2 -> conv3_2
I0809 10:51:54.194233 35116 net.cpp:141] Setting up conv3_2
I0809 10:51:54.194250 35116 net.cpp:148] Top shape: 7 256 56 56 (5619712)
I0809 10:51:54.194253 35116 net.cpp:156] Memory required for data: 918822912
I0809 10:51:54.194260 35116 layer_factory.hpp:77] Creating layer relu3_2
I0809 10:51:54.194272 35116 net.cpp:91] Creating Layer relu3_2
I0809 10:51:54.194278 35116 net.cpp:425] relu3_2 <- conv3_2
I0809 10:51:54.194283 35116 net.cpp:386] relu3_2 -> conv3_2 (in-place)
I0809 10:51:54.194473 35116 net.cpp:141] Setting up relu3_2
I0809 10:51:54.194483 35116 net.cpp:148] Top shape: 7 256 56 56 (5619712)
I0809 10:51:54.194486 35116 net.cpp:156] Memory required for data: 941301760
I0809 10:51:54.194489 35116 layer_factory.hpp:77] Creating layer conv3_3
I0809 10:51:54.194499 35116 net.cpp:91] Creating Layer conv3_3
I0809 10:51:54.194504 35116 net.cpp:425] conv3_3 <- conv3_2
I0809 10:51:54.194510 35116 net.cpp:399] conv3_3 -> conv3_3
I0809 10:51:54.197136 35116 net.cpp:141] Setting up conv3_3
I0809 10:51:54.197154 35116 net.cpp:148] Top shape: 7 256 56 56 (5619712)
I0809 10:51:54.197157 35116 net.cpp:156] Memory required for data: 963780608
I0809 10:51:54.197165 35116 layer_factory.hpp:77] Creating layer relu3_3
I0809 10:51:54.197170 35116 net.cpp:91] Creating Layer relu3_3
I0809 10:51:54.197175 35116 net.cpp:425] relu3_3 <- conv3_3
I0809 10:51:54.197180 35116 net.cpp:386] relu3_3 -> conv3_3 (in-place)
I0809 10:51:54.197504 35116 net.cpp:141] Setting up relu3_3
I0809 10:51:54.197516 35116 net.cpp:148] Top shape: 7 256 56 56 (5619712)
I0809 10:51:54.197520 35116 net.cpp:156] Memory required for data: 986259456
I0809 10:51:54.197522 35116 layer_factory.hpp:77] Creating layer conv3_3_relu3_3_0_split
I0809 10:51:54.197530 35116 net.cpp:91] Creating Layer conv3_3_relu3_3_0_split
I0809 10:51:54.197532 35116 net.cpp:425] conv3_3_relu3_3_0_split <- conv3_3
I0809 10:51:54.197540 35116 net.cpp:399] conv3_3_relu3_3_0_split -> conv3_3_relu3_3_0_split_0
I0809 10:51:54.197548 35116 net.cpp:399] conv3_3_relu3_3_0_split -> conv3_3_relu3_3_0_split_1
I0809 10:51:54.197600 35116 net.cpp:141] Setting up conv3_3_relu3_3_0_split
I0809 10:51:54.197608 35116 net.cpp:148] Top shape: 7 256 56 56 (5619712)
I0809 10:51:54.197613 35116 net.cpp:148] Top shape: 7 256 56 56 (5619712)
I0809 10:51:54.197615 35116 net.cpp:156] Memory required for data: 1031217152
I0809 10:51:54.197619 35116 layer_factory.hpp:77] Creating layer pool3
I0809 10:51:54.197626 35116 net.cpp:91] Creating Layer pool3
I0809 10:51:54.197629 35116 net.cpp:425] pool3 <- conv3_3_relu3_3_0_split_0
I0809 10:51:54.197634 35116 net.cpp:399] pool3 -> pool3
I0809 10:51:54.197675 35116 net.cpp:141] Setting up pool3
I0809 10:51:54.197684 35116 net.cpp:148] Top shape: 7 256 28 28 (1404928)
I0809 10:51:54.197686 35116 net.cpp:156] Memory required for data: 1036836864
I0809 10:51:54.197690 35116 layer_factory.hpp:77] Creating layer conv4_1
I0809 10:51:54.197698 35116 net.cpp:91] Creating Layer conv4_1
I0809 10:51:54.197702 35116 net.cpp:425] conv4_1 <- pool3
I0809 10:51:54.197707 35116 net.cpp:399] conv4_1 -> conv4_1
I0809 10:51:54.201936 35116 net.cpp:141] Setting up conv4_1
I0809 10:51:54.201951 35116 net.cpp:148] Top shape: 7 512 28 28 (2809856)
I0809 10:51:54.201954 35116 net.cpp:156] Memory required for data: 1048076288
I0809 10:51:54.201961 35116 layer_factory.hpp:77] Creating layer relu4_1
I0809 10:51:54.201967 35116 net.cpp:91] Creating Layer relu4_1
I0809 10:51:54.201972 35116 net.cpp:425] relu4_1 <- conv4_1
I0809 10:51:54.201990 35116 net.cpp:386] relu4_1 -> conv4_1 (in-place)
I0809 10:51:54.202304 35116 net.cpp:141] Setting up relu4_1
I0809 10:51:54.202317 35116 net.cpp:148] Top shape: 7 512 28 28 (2809856)
I0809 10:51:54.202321 35116 net.cpp:156] Memory required for data: 1059315712
I0809 10:51:54.202324 35116 layer_factory.hpp:77] Creating layer conv4_2
I0809 10:51:54.202334 35116 net.cpp:91] Creating Layer conv4_2
I0809 10:51:54.202337 35116 net.cpp:425] conv4_2 <- conv4_1
I0809 10:51:54.202344 35116 net.cpp:399] conv4_2 -> conv4_2
I0809 10:51:54.208765 35116 net.cpp:141] Setting up conv4_2
I0809 10:51:54.208784 35116 net.cpp:148] Top shape: 7 512 28 28 (2809856)
I0809 10:51:54.208788 35116 net.cpp:156] Memory required for data: 1070555136
I0809 10:51:54.208802 35116 layer_factory.hpp:77] Creating layer relu4_2
I0809 10:51:54.208809 35116 net.cpp:91] Creating Layer relu4_2
I0809 10:51:54.208813 35116 net.cpp:425] relu4_2 <- conv4_2
I0809 10:51:54.208820 35116 net.cpp:386] relu4_2 -> conv4_2 (in-place)
I0809 10:51:54.209012 35116 net.cpp:141] Setting up relu4_2
I0809 10:51:54.209022 35116 net.cpp:148] Top shape: 7 512 28 28 (2809856)
I0809 10:51:54.209025 35116 net.cpp:156] Memory required for data: 1081794560
I0809 10:51:54.209029 35116 layer_factory.hpp:77] Creating layer conv4_3
I0809 10:51:54.209038 35116 net.cpp:91] Creating Layer conv4_3
I0809 10:51:54.209041 35116 net.cpp:425] conv4_3 <- conv4_2
I0809 10:51:54.209048 35116 net.cpp:399] conv4_3 -> conv4_3
I0809 10:51:54.215575 35116 net.cpp:141] Setting up conv4_3
I0809 10:51:54.215597 35116 net.cpp:148] Top shape: 7 512 28 28 (2809856)
I0809 10:51:54.215600 35116 net.cpp:156] Memory required for data: 1093033984
I0809 10:51:54.215608 35116 layer_factory.hpp:77] Creating layer relu4_3
I0809 10:51:54.215615 35116 net.cpp:91] Creating Layer relu4_3
I0809 10:51:54.215620 35116 net.cpp:425] relu4_3 <- conv4_3
I0809 10:51:54.215626 35116 net.cpp:386] relu4_3 -> conv4_3 (in-place)
I0809 10:51:54.215944 35116 net.cpp:141] Setting up relu4_3
I0809 10:51:54.215957 35116 net.cpp:148] Top shape: 7 512 28 28 (2809856)
I0809 10:51:54.215960 35116 net.cpp:156] Memory required for data: 1104273408
I0809 10:51:54.215963 35116 layer_factory.hpp:77] Creating layer conv4_3_relu4_3_0_split
I0809 10:51:54.215970 35116 net.cpp:91] Creating Layer conv4_3_relu4_3_0_split
I0809 10:51:54.215975 35116 net.cpp:425] conv4_3_relu4_3_0_split <- conv4_3
I0809 10:51:54.215982 35116 net.cpp:399] conv4_3_relu4_3_0_split -> conv4_3_relu4_3_0_split_0
I0809 10:51:54.215989 35116 net.cpp:399] conv4_3_relu4_3_0_split -> conv4_3_relu4_3_0_split_1
I0809 10:51:54.216039 35116 net.cpp:141] Setting up conv4_3_relu4_3_0_split
I0809 10:51:54.216048 35116 net.cpp:148] Top shape: 7 512 28 28 (2809856)
I0809 10:51:54.216051 35116 net.cpp:148] Top shape: 7 512 28 28 (2809856)
I0809 10:51:54.216053 35116 net.cpp:156] Memory required for data: 1126752256
I0809 10:51:54.216058 35116 layer_factory.hpp:77] Creating layer pool4
I0809 10:51:54.216063 35116 net.cpp:91] Creating Layer pool4
I0809 10:51:54.216068 35116 net.cpp:425] pool4 <- conv4_3_relu4_3_0_split_0
I0809 10:51:54.216073 35116 net.cpp:399] pool4 -> pool4
I0809 10:51:54.216116 35116 net.cpp:141] Setting up pool4
I0809 10:51:54.216123 35116 net.cpp:148] Top shape: 7 512 14 14 (702464)
I0809 10:51:54.216126 35116 net.cpp:156] Memory required for data: 1129562112
I0809 10:51:54.216130 35116 layer_factory.hpp:77] Creating layer conv5_1
I0809 10:51:54.216140 35116 net.cpp:91] Creating Layer conv5_1
I0809 10:51:54.216143 35116 net.cpp:425] conv5_1 <- pool4
I0809 10:51:54.216150 35116 net.cpp:399] conv5_1 -> conv5_1
I0809 10:51:54.222662 35116 net.cpp:141] Setting up conv5_1
I0809 10:51:54.222681 35116 net.cpp:148] Top shape: 7 512 14 14 (702464)
I0809 10:51:54.222684 35116 net.cpp:156] Memory required for data: 1132371968
I0809 10:51:54.222692 35116 layer_factory.hpp:77] Creating layer relu5_1
I0809 10:51:54.222699 35116 net.cpp:91] Creating Layer relu5_1
I0809 10:51:54.222703 35116 net.cpp:425] relu5_1 <- conv5_1
I0809 10:51:54.222726 35116 net.cpp:386] relu5_1 -> conv5_1 (in-place)
I0809 10:51:54.223037 35116 net.cpp:141] Setting up relu5_1
I0809 10:51:54.223049 35116 net.cpp:148] Top shape: 7 512 14 14 (702464)
I0809 10:51:54.223052 35116 net.cpp:156] Memory required for data: 1135181824
I0809 10:51:54.223057 35116 layer_factory.hpp:77] Creating layer conv5_2
I0809 10:51:54.223067 35116 net.cpp:91] Creating Layer conv5_2
I0809 10:51:54.223069 35116 net.cpp:425] conv5_2 <- conv5_1
I0809 10:51:54.223076 35116 net.cpp:399] conv5_2 -> conv5_2
I0809 10:51:54.229521 35116 net.cpp:141] Setting up conv5_2
I0809 10:51:54.229539 35116 net.cpp:148] Top shape: 7 512 14 14 (702464)
I0809 10:51:54.229542 35116 net.cpp:156] Memory required for data: 1137991680
I0809 10:51:54.229549 35116 layer_factory.hpp:77] Creating layer relu5_2
I0809 10:51:54.229565 35116 net.cpp:91] Creating Layer relu5_2
I0809 10:51:54.229569 35116 net.cpp:425] relu5_2 <- conv5_2
I0809 10:51:54.229574 35116 net.cpp:386] relu5_2 -> conv5_2 (in-place)
I0809 10:51:54.229776 35116 net.cpp:141] Setting up relu5_2
I0809 10:51:54.229790 35116 net.cpp:148] Top shape: 7 512 14 14 (702464)
I0809 10:51:54.229794 35116 net.cpp:156] Memory required for data: 1140801536
I0809 10:51:54.229796 35116 layer_factory.hpp:77] Creating layer conv5_3
I0809 10:51:54.229805 35116 net.cpp:91] Creating Layer conv5_3
I0809 10:51:54.229809 35116 net.cpp:425] conv5_3 <- conv5_2
I0809 10:51:54.229815 35116 net.cpp:399] conv5_3 -> conv5_3
I0809 10:51:54.236238 35116 net.cpp:141] Setting up conv5_3
I0809 10:51:54.236253 35116 net.cpp:148] Top shape: 7 512 14 14 (702464)
I0809 10:51:54.236258 35116 net.cpp:156] Memory required for data: 1143611392
I0809 10:51:54.236264 35116 layer_factory.hpp:77] Creating layer relu5_3
I0809 10:51:54.236270 35116 net.cpp:91] Creating Layer relu5_3
I0809 10:51:54.236274 35116 net.cpp:425] relu5_3 <- conv5_3
I0809 10:51:54.236281 35116 net.cpp:386] relu5_3 -> conv5_3 (in-place)
I0809 10:51:54.236598 35116 net.cpp:141] Setting up relu5_3
I0809 10:51:54.236610 35116 net.cpp:148] Top shape: 7 512 14 14 (702464)
I0809 10:51:54.236613 35116 net.cpp:156] Memory required for data: 1146421248
I0809 10:51:54.236618 35116 layer_factory.hpp:77] Creating layer conv5_3_relu5_3_0_split
I0809 10:51:54.236624 35116 net.cpp:91] Creating Layer conv5_3_relu5_3_0_split
I0809 10:51:54.236629 35116 net.cpp:425] conv5_3_relu5_3_0_split <- conv5_3
I0809 10:51:54.236635 35116 net.cpp:399] conv5_3_relu5_3_0_split -> conv5_3_relu5_3_0_split_0
I0809 10:51:54.236644 35116 net.cpp:399] conv5_3_relu5_3_0_split -> conv5_3_relu5_3_0_split_1
I0809 10:51:54.236697 35116 net.cpp:141] Setting up conv5_3_relu5_3_0_split
I0809 10:51:54.236706 35116 net.cpp:148] Top shape: 7 512 14 14 (702464)
I0809 10:51:54.236709 35116 net.cpp:148] Top shape: 7 512 14 14 (702464)
I0809 10:51:54.236712 35116 net.cpp:156] Memory required for data: 1152040960
I0809 10:51:54.236716 35116 layer_factory.hpp:77] Creating layer pool5
I0809 10:51:54.236723 35116 net.cpp:91] Creating Layer pool5
I0809 10:51:54.236726 35116 net.cpp:425] pool5 <- conv5_3_relu5_3_0_split_0
I0809 10:51:54.236733 35116 net.cpp:399] pool5 -> pool5
I0809 10:51:54.236776 35116 net.cpp:141] Setting up pool5
I0809 10:51:54.236784 35116 net.cpp:148] Top shape: 7 512 7 7 (175616)
I0809 10:51:54.236788 35116 net.cpp:156] Memory required for data: 1152743424
I0809 10:51:54.236790 35116 layer_factory.hpp:77] Creating layer fc6-conv
I0809 10:51:54.236798 35116 net.cpp:91] Creating Layer fc6-conv
I0809 10:51:54.236801 35116 net.cpp:425] fc6-conv <- pool5
I0809 10:51:54.236807 35116 net.cpp:399] fc6-conv -> fc6-conv
I0809 10:51:54.539953 35116 net.cpp:141] Setting up fc6-conv
I0809 10:51:54.540004 35116 net.cpp:148] Top shape: 7 4096 1 1 (28672)
I0809 10:51:54.540009 35116 net.cpp:156] Memory required for data: 1152858112
I0809 10:51:54.540021 35116 layer_factory.hpp:77] Creating layer relu6
I0809 10:51:54.540035 35116 net.cpp:91] Creating Layer relu6
I0809 10:51:54.540041 35116 net.cpp:425] relu6 <- fc6-conv
I0809 10:51:54.540050 35116 net.cpp:386] relu6 -> fc6-conv (in-place)
I0809 10:51:54.540412 35116 net.cpp:141] Setting up relu6
I0809 10:51:54.540428 35116 net.cpp:148] Top shape: 7 4096 1 1 (28672)
I0809 10:51:54.540432 35116 net.cpp:156] Memory required for data: 1152972800
I0809 10:51:54.540436 35116 layer_factory.hpp:77] Creating layer drop6
I0809 10:51:54.540444 35116 net.cpp:91] Creating Layer drop6
I0809 10:51:54.540448 35116 net.cpp:425] drop6 <- fc6-conv
I0809 10:51:54.540457 35116 net.cpp:386] drop6 -> fc6-conv (in-place)
I0809 10:51:54.540498 35116 net.cpp:141] Setting up drop6
I0809 10:51:54.540508 35116 net.cpp:148] Top shape: 7 4096 1 1 (28672)
I0809 10:51:54.540513 35116 net.cpp:156] Memory required for data: 1153087488
I0809 10:51:54.540519 35116 layer_factory.hpp:77] Creating layer fc7-conv
I0809 10:51:54.540534 35116 net.cpp:91] Creating Layer fc7-conv
I0809 10:51:54.540540 35116 net.cpp:425] fc7-conv <- fc6-conv
I0809 10:51:54.540549 35116 net.cpp:399] fc7-conv -> fc7-conv
I0809 10:51:54.586944 35116 net.cpp:141] Setting up fc7-conv
I0809 10:51:54.586993 35116 net.cpp:148] Top shape: 7 4096 1 1 (28672)
I0809 10:51:54.586998 35116 net.cpp:156] Memory required for data: 1153202176
I0809 10:51:54.587009 35116 layer_factory.hpp:77] Creating layer relu7
I0809 10:51:54.587020 35116 net.cpp:91] Creating Layer relu7
I0809 10:51:54.587028 35116 net.cpp:425] relu7 <- fc7-conv
I0809 10:51:54.587034 35116 net.cpp:386] relu7 -> fc7-conv (in-place)
I0809 10:51:54.587261 35116 net.cpp:141] Setting up relu7
I0809 10:51:54.587275 35116 net.cpp:148] Top shape: 7 4096 1 1 (28672)
I0809 10:51:54.587278 35116 net.cpp:156] Memory required for data: 1153316864
I0809 10:51:54.587281 35116 layer_factory.hpp:77] Creating layer hypercolumns
I0809 10:51:54.587296 35116 net.cpp:91] Creating Layer hypercolumns
I0809 10:51:54.587302 35116 net.cpp:425] hypercolumns <- normal
I0809 10:51:54.587308 35116 net.cpp:425] hypercolumns <- conv1_2_relu1_2_0_split_1
I0809 10:51:54.587313 35116 net.cpp:425] hypercolumns <- conv2_2_relu2_2_0_split_1
I0809 10:51:54.587318 35116 net.cpp:425] hypercolumns <- conv3_3_relu3_3_0_split_1
I0809 10:51:54.587323 35116 net.cpp:425] hypercolumns <- conv4_3_relu4_3_0_split_1
I0809 10:51:54.587328 35116 net.cpp:425] hypercolumns <- conv5_3_relu5_3_0_split_1
I0809 10:51:54.587332 35116 net.cpp:425] hypercolumns <- fc7-conv
I0809 10:51:54.587345 35116 net.cpp:399] hypercolumns -> hypercolumns
I0809 10:51:54.587373 35116 net.cpp:399] hypercolumns -> normal_point
I0809 10:51:54.587433 35116 net.cpp:141] Setting up hypercolumns
I0809 10:51:54.587443 35116 net.cpp:148] Top shape: 7000 5568 1 1 (38976000)
I0809 10:51:54.587447 35116 net.cpp:148] Top shape: 7000 3 (21000)
I0809 10:51:54.587450 35116 net.cpp:156] Memory required for data: 1309304864
I0809 10:51:54.587455 35116 layer_factory.hpp:77] Creating layer fc1
I0809 10:51:54.587471 35116 net.cpp:91] Creating Layer fc1
I0809 10:51:54.587476 35116 net.cpp:425] fc1 <- hypercolumns
I0809 10:51:54.587486 35116 net.cpp:399] fc1 -> fc1
I0809 10:51:54.899837 35116 net.cpp:141] Setting up fc1
I0809 10:51:54.899906 35116 net.cpp:148] Top shape: 7000 4096 (28672000)
I0809 10:51:54.899911 35116 net.cpp:156] Memory required for data: 1423992864
I0809 10:51:54.899945 35116 layer_factory.hpp:77] Creating layer relu1
I0809 10:51:54.899979 35116 net.cpp:91] Creating Layer relu1
I0809 10:51:54.900002 35116 net.cpp:425] relu1 <- fc1
I0809 10:51:54.900014 35116 net.cpp:386] relu1 -> fc1 (in-place)
I0809 10:51:54.901024 35116 net.cpp:141] Setting up relu1
I0809 10:51:54.901039 35116 net.cpp:148] Top shape: 7000 4096 (28672000)
I0809 10:51:54.901043 35116 net.cpp:156] Memory required for data: 1538680864
I0809 10:51:54.901051 35116 layer_factory.hpp:77] Creating layer drop1
I0809 10:51:54.901064 35116 net.cpp:91] Creating Layer drop1
I0809 10:51:54.901070 35116 net.cpp:425] drop1 <- fc1
I0809 10:51:54.901075 35116 net.cpp:386] drop1 -> fc1 (in-place)
I0809 10:51:54.901119 35116 net.cpp:141] Setting up drop1
I0809 10:51:54.901129 35116 net.cpp:148] Top shape: 7000 4096 (28672000)
I0809 10:51:54.901132 35116 net.cpp:156] Memory required for data: 1653368864
I0809 10:51:54.901163 35116 layer_factory.hpp:77] Creating layer fc2
I0809 10:51:54.901187 35116 net.cpp:91] Creating Layer fc2
I0809 10:51:54.901191 35116 net.cpp:425] fc2 <- fc1
I0809 10:51:54.901198 35116 net.cpp:399] fc2 -> fc2
I0809 10:51:55.128782 35116 net.cpp:141] Setting up fc2
I0809 10:51:55.128846 35116 net.cpp:148] Top shape: 7000 4096 (28672000)
I0809 10:51:55.128850 35116 net.cpp:156] Memory required for data: 1768056864
I0809 10:51:55.128886 35116 layer_factory.hpp:77] Creating layer relu2
I0809 10:51:55.128903 35116 net.cpp:91] Creating Layer relu2
I0809 10:51:55.128908 35116 net.cpp:425] relu2 <- fc2
I0809 10:51:55.128916 35116 net.cpp:386] relu2 -> fc2 (in-place)
I0809 10:51:55.129243 35116 net.cpp:141] Setting up relu2
I0809 10:51:55.129257 35116 net.cpp:148] Top shape: 7000 4096 (28672000)
I0809 10:51:55.129261 35116 net.cpp:156] Memory required for data: 1882744864
I0809 10:51:55.129264 35116 layer_factory.hpp:77] Creating layer drop2
I0809 10:51:55.129273 35116 net.cpp:91] Creating Layer drop2
I0809 10:51:55.129277 35116 net.cpp:425] drop2 <- fc2
I0809 10:51:55.129284 35116 net.cpp:386] drop2 -> fc2 (in-place)
I0809 10:51:55.129325 35116 net.cpp:141] Setting up drop2
I0809 10:51:55.129334 35116 net.cpp:148] Top shape: 7000 4096 (28672000)
I0809 10:51:55.129338 35116 net.cpp:156] Memory required for data: 1997432864
I0809 10:51:55.129341 35116 layer_factory.hpp:77] Creating layer fc3
I0809 10:51:55.129353 35116 net.cpp:91] Creating Layer fc3
I0809 10:51:55.129361 35116 net.cpp:425] fc3 <- fc2
I0809 10:51:55.129371 35116 net.cpp:399] fc3 -> fc3
I0809 10:51:55.129700 35116 net.cpp:141] Setting up fc3
I0809 10:51:55.129711 35116 net.cpp:148] Top shape: 7000 3 (21000)
I0809 10:51:55.129714 35116 net.cpp:156] Memory required for data: 1997516864
I0809 10:51:55.129721 35116 layer_factory.hpp:77] Creating layer loss
I0809 10:51:55.129729 35116 net.cpp:91] Creating Layer loss
I0809 10:51:55.129736 35116 net.cpp:425] loss <- fc3
I0809 10:51:55.129751 35116 net.cpp:425] loss <- normal_point
I0809 10:51:55.129765 35116 net.cpp:399] loss -> loss
I0809 10:51:55.129851 35116 net.cpp:141] Setting up loss
…
