…
type: "SGD"
I0808 08:07:07.408318 26239 solver.cpp:91] Creating training net from net file: /home/qinhong/project/normal_recovery/model/t1/train.prototxt
I0808 08:07:07.409106 26239 net.cpp:49] Initializing net from parameters: 
name: "hyper_normal_layers"
state {
  phase: TRAIN
}
layer {
  name: "data"
  type: "ImageNormalData"
  top: "data"
  top: "normal"
  transform_param {
  }
  image_data_param {
    source: "/home/qinhong/project/normal_recovery/data/source.txt"
    batch_size: 5
    shuffle: true
    new_height: 224
    new_width: 224
  }
}
layer {
  name: "conv1_1"
  type: "Convolution"
  bottom: "data"
  top: "conv1_1"
  param {
    lr_mult: 1
    decay_mult: 1
  }
  param {
    lr_mult: 2
    decay_mult: 0
  }
  convolution_param {
    num_output: 64
    pad: 1
    kernel_size: 3
  }
}
layer {
  name: "relu1_1"
  type: "ReLU"
  bottom: "conv1_1"
  top: "conv1_1"
}
layer {
  name: "conv1_2"
  type: "Convolution"
  bottom: "conv1_1"
  top: "conv1_2"
  param {
    lr_mult: 1
    decay_mult: 1
  }
  param {
    lr_mult: 2
    decay_mult: 0
  }
  convolution_param {
    num_output: 64
    pad: 1
    kernel_size: 3
  }
}
layer {
  name: "relu1_2"
  type: "ReLU"
  bottom: "conv1_2"
  top: "conv1_2"
}
layer {
  name: "pool1"
  type: "Pooling"
  bottom: "conv1_2"
  top: "pool1"
  pooling_param {
    pool: MAX
    kernel_size: 2
    stride: 2
  }
}
layer {
  name: "conv2_1"
  type: "Convolution"
  bottom: "pool1"
  top: "conv2_1"
  param {
    lr_mult: 1
    decay_mult: 1
  }
  param {
    lr_mult: 2
    decay_mult: 0
  }
  convolution_param {
    num_output: 128
    pad: 1
    kernel_size: 3
  }
}
layer {
  name: "relu2_1"
  type: "ReLU"
  bottom: "conv2_1"
  top: "conv2_1"
}
layer {
  name: "conv2_2"
  type: "Convolution"
  bottom: "conv2_1"
  top: "conv2_2"
  param {
    lr_mult: 1
    decay_mult: 1
  }
  param {
    lr_mult: 2
    decay_mult: 0
  }
  convolution_param {
    num_output: 128
    pad: 1
    kernel_size: 3
  }
}
layer {
  name: "relu2_2"
  type: "ReLU"
  bottom: "conv2_2"
  top: "conv2_2"
}
layer {
  name: "pool2"
  type: "Pooling"
  bottom: "conv2_2"
  top: "pool2"
  pooling_param {
    pool: MAX
    kernel_size: 2
    stride: 2
  }
}
layer {
  name: "conv3_1"
  type: "Convolution"
  bottom: "pool2"
  top: "conv3_1"
  param {
    lr_mult: 1
    decay_mult: 1
  }
  param {
    lr_mult: 2
    decay_mult: 0
  }
  convolution_param {
    num_output: 256
    pad: 1
    kernel_size: 3
  }
}
layer {
  name: "relu3_1"
  type: "ReLU"
  bottom: "conv3_1"
  top: "conv3_1"
}
layer {
  name: "conv3_2"
  type: "Convolution"
  bottom: "conv3_1"
  top: "conv3_2"
  param {
    lr_mult: 1
    decay_mult: 1
  }
  param {
    lr_mult: 2
    decay_mult: 0
  }
  convolution_param {
    num_output: 256
    pad: 1
    kernel_size: 3
  }
}
layer {
  name: "relu3_2"
  type: "ReLU"
  bottom: "conv3_2"
  top: "conv3_2"
}
layer {
  name: "conv3_3"
  type: "Convolution"
  bottom: "conv3_2"
  top: "conv3_3"
  param {
    lr_mult: 1
    decay_mult: 1
  }
  param {
    lr_mult: 2
    decay_mult: 0
  }
  convolution_param {
    num_output: 256
    pad: 1
    kernel_size: 3
  }
}
layer {
  name: "relu3_3"
  type: "ReLU"
  bottom: "conv3_3"
  top: "conv3_3"
}
layer {
  name: "pool3"
  type: "Pooling"
  bottom: "conv3_3"
  top: "pool3"
  pooling_param {
    pool: MAX
    kernel_size: 2
    stride: 2
  }
}
layer {
  name: "conv4_1"
  type: "Convolution"
  bottom: "pool3"
  top: "conv4_1"
  param {
    lr_mult: 1
    decay_mult: 1
  }
  param {
    lr_mult: 2
    decay_mult: 0
  }
  convolution_param {
    num_output: 512
    pad: 1
    kernel_size: 3
  }
}
layer {
  name: "relu4_1"
  type: "ReLU"
  bottom: "conv4_1"
  top: "conv4_1"
}
layer {
  name: "conv4_2"
  type: "Convolution"
  bottom: "conv4_1"
  top: "conv4_2"
  param {
    lr_mult: 1
    decay_mult: 1
  }
  param {
    lr_mult: 2
    decay_mult: 0
  }
  convolution_param {
    num_output: 512
    pad: 1
    kernel_size: 3
  }
}
layer {
  name: "relu4_2"
  type: "ReLU"
  bottom: "conv4_2"
  top: "conv4_2"
}
layer {
  name: "conv4_3"
  type: "Convolution"
  bottom: "conv4_2"
  top: "conv4_3"
  param {
    lr_mult: 1
    decay_mult: 1
  }
  param {
    lr_mult: 2
    decay_mult: 0
  }
  convolution_param {
    num_output: 512
    pad: 1
    kernel_size: 3
  }
}
layer {
  name: "relu4_3"
  type: "ReLU"
  bottom: "conv4_3"
  top: "conv4_3"
}
layer {
  name: "pool4"
  type: "Pooling"
  bottom: "conv4_3"
  top: "pool4"
  pooling_param {
    pool: MAX
    kernel_size: 2
    stride: 2
  }
}
layer {
  name: "conv5_1"
  type: "Convolution"
  bottom: "pool4"
  top: "conv5_1"
  param {
    lr_mult: 1
    decay_mult: 1
  }
  param {
    lr_mult: 2
    decay_mult: 0
  }
  convolution_param {
    num_output: 512
    pad: 1
    kernel_size: 3
  }
}
layer {
  name: "relu5_1"
  type: "ReLU"
  bottom: "conv5_1"
  top: "conv5_1"
}
layer {
  name: "conv5_2"
  type: "Convolution"
  bottom: "conv5_1"
  top: "conv5_2"
  param {
    lr_mult: 1
    decay_mult: 1
  }
  param {
    lr_mult: 2
    decay_mult: 0
  }
  convolution_param {
    num_output: 512
    pad: 1
    kernel_size: 3
  }
}
layer {
  name: "relu5_2"
  type: "ReLU"
  bottom: "conv5_2"
  top: "conv5_2"
}
layer {
  name: "conv5_3"
  type: "Convolution"
  bottom: "conv5_2"
  top: "conv5_3"
  param {
    lr_mult: 1
    decay_mult: 1
  }
  param {
    lr_mult: 2
    decay_mult: 0
  }
  convolution_param {
    num_output: 512
    pad: 1
    kernel_size: 3
  }
}
layer {
  name: "relu5_3"
  type: "ReLU"
  bottom: "conv5_3"
  top: "conv5_3"
}
layer {
  name: "pool5"
  type: "Pooling"
  bottom: "conv5_3"
  top: "pool5"
  pooling_param {
    pool: MAX
    kernel_size: 2
    stride: 2
  }
}
layer {
  name: "fc6-conv"
  type: "Convolution"
  bottom: "pool5"
  top: "fc6-conv"
  param {
    lr_mult: 1
    decay_mult: 1
  }
  param {
    lr_mult: 2
    decay_mult: 0
  }
  convolution_param {
    num_output: 4096
    kernel_size: 7
  }
}
layer {
  name: "relu6"
  type: "ReLU"
  bottom: "fc6-conv"
  top: "fc6-conv"
}
layer {
  name: "drop6"
  type: "Dropout"
  bottom: "fc6-conv"
  top: "fc6-conv"
  dropout_param {
    dropout_ratio: 0.5
  }
}
layer {
  name: "fc7-conv"
  type: "Convolution"
  bottom: "fc6-conv"
  top: "fc7-conv"
  param {
    lr_mult: 1
    decay_mult: 1
  }
  param {
    lr_mult: 2
    decay_mult: 0
  }
  convolution_param {
    num_output: 4096
    kernel_size: 1
  }
}
layer {
  name: "relu7"
  type: "ReLU"
  bottom: "fc7-conv"
  top: "fc7-conv"
}
layer {
  name: "hypercolumns"
  type: "HyperColumns"
  bottom: "normal"
  bottom: "conv1_2"
  bottom: "conv2_2"
  bottom: "conv3_3"
  bottom: "conv4_3"
  bottom: "conv5_3"
  bottom: "fc7-conv"
  top: "hypercolumns"
  top: "normal_point"
  hypercolumns_param {
    is_train: true
  }
}
layer {
  name: "fc1"
  type: "InnerProduct"
  bottom: "hypercolumns"
  top: "fc1"
  param {
    lr_mult: 1
    decay_mult: 1
  }
  param {
    lr_mult: 2
    decay_mult: 0
  }
  inner_product_param {
    num_output: 4096
    weight_filler {
      type: "gaussian"
      std: 0.003
    }
    bias_filler {
      type: "constant"
      value: 0
    }
  }
}
layer {
  name: "relu1"
  type: "ReLU"
  bottom: "fc1"
  top: "fc1"
}
layer {
  name: "drop1"
  type: "Dropout"
  bottom: "fc1"
  top: "fc1"
  dropout_param {
    dropout_ratio: 0.5
  }
}
layer {
  name: "fc2"
  type: "InnerProduct"
  bottom: "fc1"
  top: "fc2"
  param {
    lr_mult: 1
    decay_mult: 1
  }
  param {
    lr_mult: 2
    decay_mult: 0
  }
  inner_product_param {
    num_output: 4096
    weight_filler {
      type: "gaussian"
      std: 0.002
    }
    bias_filler {
      type: "constant"
      value: 0
    }
  }
}
layer {
  name: "relu2"
  type: "ReLU"
  bottom: "fc2"
  top: "fc2"
}
layer {
  name: "drop2"
  type: "Dropout"
  bottom: "fc2"
  top: "fc2"
  dropout_param {
    dropout_ratio: 0.5
  }
}
layer {
  name: "fc3"
  type: "InnerProduct"
  bottom: "fc2"
  top: "fc3"
  param {
    lr_mult: 1
    decay_mult: 1
  }
  param {
    lr_mult: 2
    decay_mult: 0
  }
  inner_product_param {
    num_output: 3
    weight_filler {
      type: "gaussian"
      std: 0.001
    }
    bias_filler {
      type: "constant"
      value: 0
    }
  }
}
layer {
  name: "loss"
  type: "EuclideanLoss"
  bottom: "fc3"
  bottom: "normal_point"
  top: "loss"
  propagate_down: true
  propagate_down: false
}
I0808 08:07:07.409350 26239 layer_factory.hpp:77] Creating layer data
I0808 08:07:07.409399 26239 net.cpp:91] Creating Layer data
I0808 08:07:07.409409 26239 net.cpp:399] data -> data
I0808 08:07:07.409441 26239 net.cpp:399] data -> normal
I0808 08:07:07.409468 26239 image_normal_data_layer.cpp:43] opeing file /home/qinhong/project/normal_recovery/data/source.txt
I0808 08:07:07.414135 26239 image_normal_data_layer.cpp:54] Shuffing data
I0808 08:07:07.415513 26239 image_normal_data_layer.cpp:59] A total of 4105 images.
I0808 08:07:07.442292 26239 image_normal_data_layer.cpp:79] output data size: 5,3,224,224
I0808 08:07:07.454478 26239 net.cpp:141] Setting up data
I0808 08:07:07.454502 26239 net.cpp:148] Top shape: 5 3 224 224 (752640)
I0808 08:07:07.454509 26239 net.cpp:148] Top shape: 5 3 224 224 (752640)
I0808 08:07:07.454512 26239 net.cpp:156] Memory required for data: 6021120
I0808 08:07:07.454521 26239 layer_factory.hpp:77] Creating layer conv1_1
I0808 08:07:07.454545 26239 net.cpp:91] Creating Layer conv1_1
I0808 08:07:07.454552 26239 net.cpp:425] conv1_1 <- data
I0808 08:07:07.454569 26239 net.cpp:399] conv1_1 -> conv1_1
I0808 08:07:07.702735 26239 net.cpp:141] Setting up conv1_1
I0808 08:07:07.702776 26239 net.cpp:148] Top shape: 5 64 224 224 (16056320)
I0808 08:07:07.702781 26239 net.cpp:156] Memory required for data: 70246400
I0808 08:07:07.702811 26239 layer_factory.hpp:77] Creating layer relu1_1
I0808 08:07:07.702826 26239 net.cpp:91] Creating Layer relu1_1
I0808 08:07:07.702831 26239 net.cpp:425] relu1_1 <- conv1_1
I0808 08:07:07.702837 26239 net.cpp:386] relu1_1 -> conv1_1 (in-place)
I0808 08:07:07.703163 26239 net.cpp:141] Setting up relu1_1
I0808 08:07:07.703179 26239 net.cpp:148] Top shape: 5 64 224 224 (16056320)
I0808 08:07:07.703182 26239 net.cpp:156] Memory required for data: 134471680
I0808 08:07:07.703186 26239 layer_factory.hpp:77] Creating layer conv1_2
I0808 08:07:07.703199 26239 net.cpp:91] Creating Layer conv1_2
I0808 08:07:07.703203 26239 net.cpp:425] conv1_2 <- conv1_1
I0808 08:07:07.703210 26239 net.cpp:399] conv1_2 -> conv1_2
I0808 08:07:07.704294 26239 net.cpp:141] Setting up conv1_2
I0808 08:07:07.704311 26239 net.cpp:148] Top shape: 5 64 224 224 (16056320)
I0808 08:07:07.704315 26239 net.cpp:156] Memory required for data: 198696960
I0808 08:07:07.704325 26239 layer_factory.hpp:77] Creating layer relu1_2
I0808 08:07:07.704334 26239 net.cpp:91] Creating Layer relu1_2
I0808 08:07:07.704337 26239 net.cpp:425] relu1_2 <- conv1_2
I0808 08:07:07.704342 26239 net.cpp:386] relu1_2 -> conv1_2 (in-place)
I0808 08:07:07.704644 26239 net.cpp:141] Setting up relu1_2
I0808 08:07:07.704659 26239 net.cpp:148] Top shape: 5 64 224 224 (16056320)
I0808 08:07:07.704663 26239 net.cpp:156] Memory required for data: 262922240
I0808 08:07:07.704666 26239 layer_factory.hpp:77] Creating layer conv1_2_relu1_2_0_split
I0808 08:07:07.704674 26239 net.cpp:91] Creating Layer conv1_2_relu1_2_0_split
I0808 08:07:07.704679 26239 net.cpp:425] conv1_2_relu1_2_0_split <- conv1_2
I0808 08:07:07.704684 26239 net.cpp:399] conv1_2_relu1_2_0_split -> conv1_2_relu1_2_0_split_0
I0808 08:07:07.704694 26239 net.cpp:399] conv1_2_relu1_2_0_split -> conv1_2_relu1_2_0_split_1
I0808 08:07:07.704737 26239 net.cpp:141] Setting up conv1_2_relu1_2_0_split
I0808 08:07:07.704746 26239 net.cpp:148] Top shape: 5 64 224 224 (16056320)
I0808 08:07:07.704751 26239 net.cpp:148] Top shape: 5 64 224 224 (16056320)
I0808 08:07:07.704754 26239 net.cpp:156] Memory required for data: 391372800
I0808 08:07:07.704757 26239 layer_factory.hpp:77] Creating layer pool1
I0808 08:07:07.704800 26239 net.cpp:91] Creating Layer pool1
I0808 08:07:07.704805 26239 net.cpp:425] pool1 <- conv1_2_relu1_2_0_split_0
I0808 08:07:07.704810 26239 net.cpp:399] pool1 -> pool1
I0808 08:07:07.704865 26239 net.cpp:141] Setting up pool1
I0808 08:07:07.704874 26239 net.cpp:148] Top shape: 5 64 112 112 (4014080)
I0808 08:07:07.704877 26239 net.cpp:156] Memory required for data: 407429120
I0808 08:07:07.704880 26239 layer_factory.hpp:77] Creating layer conv2_1
I0808 08:07:07.704890 26239 net.cpp:91] Creating Layer conv2_1
I0808 08:07:07.704893 26239 net.cpp:425] conv2_1 <- pool1
I0808 08:07:07.704898 26239 net.cpp:399] conv2_1 -> conv2_1
I0808 08:07:07.707496 26239 net.cpp:141] Setting up conv2_1
I0808 08:07:07.707518 26239 net.cpp:148] Top shape: 5 128 112 112 (8028160)
I0808 08:07:07.707522 26239 net.cpp:156] Memory required for data: 439541760
I0808 08:07:07.707532 26239 layer_factory.hpp:77] Creating layer relu2_1
I0808 08:07:07.707543 26239 net.cpp:91] Creating Layer relu2_1
I0808 08:07:07.707547 26239 net.cpp:425] relu2_1 <- conv2_1
I0808 08:07:07.707553 26239 net.cpp:386] relu2_1 -> conv2_1 (in-place)
I0808 08:07:07.707762 26239 net.cpp:141] Setting up relu2_1
I0808 08:07:07.707777 26239 net.cpp:148] Top shape: 5 128 112 112 (8028160)
I0808 08:07:07.707779 26239 net.cpp:156] Memory required for data: 471654400
I0808 08:07:07.707783 26239 layer_factory.hpp:77] Creating layer conv2_2
I0808 08:07:07.707794 26239 net.cpp:91] Creating Layer conv2_2
I0808 08:07:07.707799 26239 net.cpp:425] conv2_2 <- conv2_1
I0808 08:07:07.707805 26239 net.cpp:399] conv2_2 -> conv2_2
I0808 08:07:07.709054 26239 net.cpp:141] Setting up conv2_2
I0808 08:07:07.709072 26239 net.cpp:148] Top shape: 5 128 112 112 (8028160)
I0808 08:07:07.709075 26239 net.cpp:156] Memory required for data: 503767040
I0808 08:07:07.709082 26239 layer_factory.hpp:77] Creating layer relu2_2
I0808 08:07:07.709089 26239 net.cpp:91] Creating Layer relu2_2
I0808 08:07:07.709092 26239 net.cpp:425] relu2_2 <- conv2_2
I0808 08:07:07.709100 26239 net.cpp:386] relu2_2 -> conv2_2 (in-place)
I0808 08:07:07.709427 26239 net.cpp:141] Setting up relu2_2
I0808 08:07:07.709444 26239 net.cpp:148] Top shape: 5 128 112 112 (8028160)
I0808 08:07:07.709446 26239 net.cpp:156] Memory required for data: 535879680
I0808 08:07:07.709450 26239 layer_factory.hpp:77] Creating layer conv2_2_relu2_2_0_split
I0808 08:07:07.709458 26239 net.cpp:91] Creating Layer conv2_2_relu2_2_0_split
I0808 08:07:07.709461 26239 net.cpp:425] conv2_2_relu2_2_0_split <- conv2_2
I0808 08:07:07.709470 26239 net.cpp:399] conv2_2_relu2_2_0_split -> conv2_2_relu2_2_0_split_0
I0808 08:07:07.709476 26239 net.cpp:399] conv2_2_relu2_2_0_split -> conv2_2_relu2_2_0_split_1
I0808 08:07:07.709528 26239 net.cpp:141] Setting up conv2_2_relu2_2_0_split
I0808 08:07:07.709538 26239 net.cpp:148] Top shape: 5 128 112 112 (8028160)
I0808 08:07:07.709542 26239 net.cpp:148] Top shape: 5 128 112 112 (8028160)
I0808 08:07:07.709544 26239 net.cpp:156] Memory required for data: 600104960
I0808 08:07:07.709548 26239 layer_factory.hpp:77] Creating layer pool2
I0808 08:07:07.709554 26239 net.cpp:91] Creating Layer pool2
I0808 08:07:07.709558 26239 net.cpp:425] pool2 <- conv2_2_relu2_2_0_split_0
I0808 08:07:07.709565 26239 net.cpp:399] pool2 -> pool2
I0808 08:07:07.709605 26239 net.cpp:141] Setting up pool2
I0808 08:07:07.709615 26239 net.cpp:148] Top shape: 5 128 56 56 (2007040)
I0808 08:07:07.709619 26239 net.cpp:156] Memory required for data: 608133120
I0808 08:07:07.709621 26239 layer_factory.hpp:77] Creating layer conv3_1
I0808 08:07:07.709630 26239 net.cpp:91] Creating Layer conv3_1
I0808 08:07:07.709633 26239 net.cpp:425] conv3_1 <- pool2
I0808 08:07:07.709640 26239 net.cpp:399] conv3_1 -> conv3_1
I0808 08:07:07.711573 26239 net.cpp:141] Setting up conv3_1
I0808 08:07:07.711593 26239 net.cpp:148] Top shape: 5 256 56 56 (4014080)
I0808 08:07:07.711597 26239 net.cpp:156] Memory required for data: 624189440
I0808 08:07:07.711607 26239 layer_factory.hpp:77] Creating layer relu3_1
I0808 08:07:07.711614 26239 net.cpp:91] Creating Layer relu3_1
I0808 08:07:07.711632 26239 net.cpp:425] relu3_1 <- conv3_1
I0808 08:07:07.711640 26239 net.cpp:386] relu3_1 -> conv3_1 (in-place)
I0808 08:07:07.711971 26239 net.cpp:141] Setting up relu3_1
I0808 08:07:07.711987 26239 net.cpp:148] Top shape: 5 256 56 56 (4014080)
I0808 08:07:07.711990 26239 net.cpp:156] Memory required for data: 640245760
I0808 08:07:07.711993 26239 layer_factory.hpp:77] Creating layer conv3_2
I0808 08:07:07.712008 26239 net.cpp:91] Creating Layer conv3_2
I0808 08:07:07.712013 26239 net.cpp:425] conv3_2 <- conv3_1
I0808 08:07:07.712023 26239 net.cpp:399] conv3_2 -> conv3_2
I0808 08:07:07.714864 26239 net.cpp:141] Setting up conv3_2
I0808 08:07:07.714881 26239 net.cpp:148] Top shape: 5 256 56 56 (4014080)
I0808 08:07:07.714885 26239 net.cpp:156] Memory required for data: 656302080
I0808 08:07:07.714892 26239 layer_factory.hpp:77] Creating layer relu3_2
I0808 08:07:07.714903 26239 net.cpp:91] Creating Layer relu3_2
I0808 08:07:07.714908 26239 net.cpp:425] relu3_2 <- conv3_2
I0808 08:07:07.714913 26239 net.cpp:386] relu3_2 -> conv3_2 (in-place)
I0808 08:07:07.715121 26239 net.cpp:141] Setting up relu3_2
I0808 08:07:07.715133 26239 net.cpp:148] Top shape: 5 256 56 56 (4014080)
I0808 08:07:07.715137 26239 net.cpp:156] Memory required for data: 672358400
I0808 08:07:07.715140 26239 layer_factory.hpp:77] Creating layer conv3_3
I0808 08:07:07.715150 26239 net.cpp:91] Creating Layer conv3_3
I0808 08:07:07.715154 26239 net.cpp:425] conv3_3 <- conv3_2
I0808 08:07:07.715162 26239 net.cpp:399] conv3_3 -> conv3_3
I0808 08:07:07.718083 26239 net.cpp:141] Setting up conv3_3
I0808 08:07:07.718102 26239 net.cpp:148] Top shape: 5 256 56 56 (4014080)
I0808 08:07:07.718106 26239 net.cpp:156] Memory required for data: 688414720
I0808 08:07:07.718112 26239 layer_factory.hpp:77] Creating layer relu3_3
I0808 08:07:07.718119 26239 net.cpp:91] Creating Layer relu3_3
I0808 08:07:07.718122 26239 net.cpp:425] relu3_3 <- conv3_3
I0808 08:07:07.718130 26239 net.cpp:386] relu3_3 -> conv3_3 (in-place)
I0808 08:07:07.718479 26239 net.cpp:141] Setting up relu3_3
I0808 08:07:07.718495 26239 net.cpp:148] Top shape: 5 256 56 56 (4014080)
I0808 08:07:07.718498 26239 net.cpp:156] Memory required for data: 704471040
I0808 08:07:07.718502 26239 layer_factory.hpp:77] Creating layer conv3_3_relu3_3_0_split
I0808 08:07:07.718513 26239 net.cpp:91] Creating Layer conv3_3_relu3_3_0_split
I0808 08:07:07.718516 26239 net.cpp:425] conv3_3_relu3_3_0_split <- conv3_3
I0808 08:07:07.718523 26239 net.cpp:399] conv3_3_relu3_3_0_split -> conv3_3_relu3_3_0_split_0
I0808 08:07:07.718529 26239 net.cpp:399] conv3_3_relu3_3_0_split -> conv3_3_relu3_3_0_split_1
I0808 08:07:07.718586 26239 net.cpp:141] Setting up conv3_3_relu3_3_0_split
I0808 08:07:07.718595 26239 net.cpp:148] Top shape: 5 256 56 56 (4014080)
I0808 08:07:07.718600 26239 net.cpp:148] Top shape: 5 256 56 56 (4014080)
I0808 08:07:07.718602 26239 net.cpp:156] Memory required for data: 736583680
I0808 08:07:07.718605 26239 layer_factory.hpp:77] Creating layer pool3
I0808 08:07:07.718614 26239 net.cpp:91] Creating Layer pool3
I0808 08:07:07.718617 26239 net.cpp:425] pool3 <- conv3_3_relu3_3_0_split_0
I0808 08:07:07.718624 26239 net.cpp:399] pool3 -> pool3
I0808 08:07:07.718667 26239 net.cpp:141] Setting up pool3
I0808 08:07:07.718675 26239 net.cpp:148] Top shape: 5 256 28 28 (1003520)
I0808 08:07:07.718677 26239 net.cpp:156] Memory required for data: 740597760
I0808 08:07:07.718680 26239 layer_factory.hpp:77] Creating layer conv4_1
I0808 08:07:07.718690 26239 net.cpp:91] Creating Layer conv4_1
I0808 08:07:07.718694 26239 net.cpp:425] conv4_1 <- pool3
I0808 08:07:07.718701 26239 net.cpp:399] conv4_1 -> conv4_1
I0808 08:07:07.723506 26239 net.cpp:141] Setting up conv4_1
I0808 08:07:07.723527 26239 net.cpp:148] Top shape: 5 512 28 28 (2007040)
I0808 08:07:07.723531 26239 net.cpp:156] Memory required for data: 748625920
I0808 08:07:07.723538 26239 layer_factory.hpp:77] Creating layer relu4_1
I0808 08:07:07.723547 26239 net.cpp:91] Creating Layer relu4_1
I0808 08:07:07.723551 26239 net.cpp:425] relu4_1 <- conv4_1
I0808 08:07:07.723572 26239 net.cpp:386] relu4_1 -> conv4_1 (in-place)
I0808 08:07:07.723912 26239 net.cpp:141] Setting up relu4_1
I0808 08:07:07.723928 26239 net.cpp:148] Top shape: 5 512 28 28 (2007040)
I0808 08:07:07.723932 26239 net.cpp:156] Memory required for data: 756654080
I0808 08:07:07.723935 26239 layer_factory.hpp:77] Creating layer conv4_2
I0808 08:07:07.723944 26239 net.cpp:91] Creating Layer conv4_2
I0808 08:07:07.723948 26239 net.cpp:425] conv4_2 <- conv4_1
I0808 08:07:07.723955 26239 net.cpp:399] conv4_2 -> conv4_2
I0808 08:07:07.731462 26239 net.cpp:141] Setting up conv4_2
I0808 08:07:07.731483 26239 net.cpp:148] Top shape: 5 512 28 28 (2007040)
I0808 08:07:07.731487 26239 net.cpp:156] Memory required for data: 764682240
I0808 08:07:07.731499 26239 layer_factory.hpp:77] Creating layer relu4_2
I0808 08:07:07.731508 26239 net.cpp:91] Creating Layer relu4_2
I0808 08:07:07.731513 26239 net.cpp:425] relu4_2 <- conv4_2
I0808 08:07:07.731518 26239 net.cpp:386] relu4_2 -> conv4_2 (in-place)
I0808 08:07:07.731722 26239 net.cpp:141] Setting up relu4_2
I0808 08:07:07.731735 26239 net.cpp:148] Top shape: 5 512 28 28 (2007040)
I0808 08:07:07.731739 26239 net.cpp:156] Memory required for data: 772710400
I0808 08:07:07.731742 26239 layer_factory.hpp:77] Creating layer conv4_3
I0808 08:07:07.731756 26239 net.cpp:91] Creating Layer conv4_3
I0808 08:07:07.731762 26239 net.cpp:425] conv4_3 <- conv4_2
I0808 08:07:07.731768 26239 net.cpp:399] conv4_3 -> conv4_3
I0808 08:07:07.739054 26239 net.cpp:141] Setting up conv4_3
I0808 08:07:07.739074 26239 net.cpp:148] Top shape: 5 512 28 28 (2007040)
I0808 08:07:07.739078 26239 net.cpp:156] Memory required for data: 780738560
I0808 08:07:07.739085 26239 layer_factory.hpp:77] Creating layer relu4_3
I0808 08:07:07.739092 26239 net.cpp:91] Creating Layer relu4_3
I0808 08:07:07.739095 26239 net.cpp:425] relu4_3 <- conv4_3
I0808 08:07:07.739104 26239 net.cpp:386] relu4_3 -> conv4_3 (in-place)
I0808 08:07:07.739439 26239 net.cpp:141] Setting up relu4_3
I0808 08:07:07.739455 26239 net.cpp:148] Top shape: 5 512 28 28 (2007040)
I0808 08:07:07.739459 26239 net.cpp:156] Memory required for data: 788766720
I0808 08:07:07.739462 26239 layer_factory.hpp:77] Creating layer conv4_3_relu4_3_0_split
I0808 08:07:07.739471 26239 net.cpp:91] Creating Layer conv4_3_relu4_3_0_split
I0808 08:07:07.739475 26239 net.cpp:425] conv4_3_relu4_3_0_split <- conv4_3
I0808 08:07:07.739481 26239 net.cpp:399] conv4_3_relu4_3_0_split -> conv4_3_relu4_3_0_split_0
I0808 08:07:07.739490 26239 net.cpp:399] conv4_3_relu4_3_0_split -> conv4_3_relu4_3_0_split_1
I0808 08:07:07.739542 26239 net.cpp:141] Setting up conv4_3_relu4_3_0_split
I0808 08:07:07.739550 26239 net.cpp:148] Top shape: 5 512 28 28 (2007040)
I0808 08:07:07.739554 26239 net.cpp:148] Top shape: 5 512 28 28 (2007040)
I0808 08:07:07.739557 26239 net.cpp:156] Memory required for data: 804823040
I0808 08:07:07.739560 26239 layer_factory.hpp:77] Creating layer pool4
I0808 08:07:07.739570 26239 net.cpp:91] Creating Layer pool4
I0808 08:07:07.739573 26239 net.cpp:425] pool4 <- conv4_3_relu4_3_0_split_0
I0808 08:07:07.739579 26239 net.cpp:399] pool4 -> pool4
I0808 08:07:07.739624 26239 net.cpp:141] Setting up pool4
I0808 08:07:07.739631 26239 net.cpp:148] Top shape: 5 512 14 14 (501760)
I0808 08:07:07.739634 26239 net.cpp:156] Memory required for data: 806830080
I0808 08:07:07.739637 26239 layer_factory.hpp:77] Creating layer conv5_1
I0808 08:07:07.739647 26239 net.cpp:91] Creating Layer conv5_1
I0808 08:07:07.739653 26239 net.cpp:425] conv5_1 <- pool4
I0808 08:07:07.739665 26239 net.cpp:399] conv5_1 -> conv5_1
I0808 08:07:07.747153 26239 net.cpp:141] Setting up conv5_1
I0808 08:07:07.747174 26239 net.cpp:148] Top shape: 5 512 14 14 (501760)
I0808 08:07:07.747177 26239 net.cpp:156] Memory required for data: 808837120
I0808 08:07:07.747185 26239 layer_factory.hpp:77] Creating layer relu5_1
I0808 08:07:07.747192 26239 net.cpp:91] Creating Layer relu5_1
I0808 08:07:07.747197 26239 net.cpp:425] relu5_1 <- conv5_1
I0808 08:07:07.747205 26239 net.cpp:386] relu5_1 -> conv5_1 (in-place)
I0808 08:07:07.747552 26239 net.cpp:141] Setting up relu5_1
I0808 08:07:07.747568 26239 net.cpp:148] Top shape: 5 512 14 14 (501760)
I0808 08:07:07.747571 26239 net.cpp:156] Memory required for data: 810844160
I0808 08:07:07.747575 26239 layer_factory.hpp:77] Creating layer conv5_2
I0808 08:07:07.747586 26239 net.cpp:91] Creating Layer conv5_2
I0808 08:07:07.747591 26239 net.cpp:425] conv5_2 <- conv5_1
I0808 08:07:07.747596 26239 net.cpp:399] conv5_2 -> conv5_2
I0808 08:07:07.754694 26239 net.cpp:141] Setting up conv5_2
I0808 08:07:07.754714 26239 net.cpp:148] Top shape: 5 512 14 14 (501760)
I0808 08:07:07.754719 26239 net.cpp:156] Memory required for data: 812851200
I0808 08:07:07.754725 26239 layer_factory.hpp:77] Creating layer relu5_2
I0808 08:07:07.754741 26239 net.cpp:91] Creating Layer relu5_2
I0808 08:07:07.754746 26239 net.cpp:425] relu5_2 <- conv5_2
I0808 08:07:07.754751 26239 net.cpp:386] relu5_2 -> conv5_2 (in-place)
I0808 08:07:07.754952 26239 net.cpp:141] Setting up relu5_2
I0808 08:07:07.754966 26239 net.cpp:148] Top shape: 5 512 14 14 (501760)
I0808 08:07:07.754969 26239 net.cpp:156] Memory required for data: 814858240
I0808 08:07:07.754973 26239 layer_factory.hpp:77] Creating layer conv5_3
I0808 08:07:07.754983 26239 net.cpp:91] Creating Layer conv5_3
I0808 08:07:07.754987 26239 net.cpp:425] conv5_3 <- conv5_2
I0808 08:07:07.754995 26239 net.cpp:399] conv5_3 -> conv5_3
I0808 08:07:07.762197 26239 net.cpp:141] Setting up conv5_3
I0808 08:07:07.762223 26239 net.cpp:148] Top shape: 5 512 14 14 (501760)
I0808 08:07:07.762226 26239 net.cpp:156] Memory required for data: 816865280
I0808 08:07:07.762234 26239 layer_factory.hpp:77] Creating layer relu5_3
I0808 08:07:07.762241 26239 net.cpp:91] Creating Layer relu5_3
I0808 08:07:07.762244 26239 net.cpp:425] relu5_3 <- conv5_3
I0808 08:07:07.762250 26239 net.cpp:386] relu5_3 -> conv5_3 (in-place)
I0808 08:07:07.762590 26239 net.cpp:141] Setting up relu5_3
I0808 08:07:07.762609 26239 net.cpp:148] Top shape: 5 512 14 14 (501760)
I0808 08:07:07.762611 26239 net.cpp:156] Memory required for data: 818872320
I0808 08:07:07.762615 26239 layer_factory.hpp:77] Creating layer conv5_3_relu5_3_0_split
I0808 08:07:07.762624 26239 net.cpp:91] Creating Layer conv5_3_relu5_3_0_split
I0808 08:07:07.762626 26239 net.cpp:425] conv5_3_relu5_3_0_split <- conv5_3
I0808 08:07:07.762632 26239 net.cpp:399] conv5_3_relu5_3_0_split -> conv5_3_relu5_3_0_split_0
I0808 08:07:07.762642 26239 net.cpp:399] conv5_3_relu5_3_0_split -> conv5_3_relu5_3_0_split_1
I0808 08:07:07.762698 26239 net.cpp:141] Setting up conv5_3_relu5_3_0_split
I0808 08:07:07.762707 26239 net.cpp:148] Top shape: 5 512 14 14 (501760)
I0808 08:07:07.762712 26239 net.cpp:148] Top shape: 5 512 14 14 (501760)
I0808 08:07:07.762714 26239 net.cpp:156] Memory required for data: 822886400
I0808 08:07:07.762717 26239 layer_factory.hpp:77] Creating layer pool5
I0808 08:07:07.762727 26239 net.cpp:91] Creating Layer pool5
I0808 08:07:07.762730 26239 net.cpp:425] pool5 <- conv5_3_relu5_3_0_split_0
I0808 08:07:07.762735 26239 net.cpp:399] pool5 -> pool5
I0808 08:07:07.762784 26239 net.cpp:141] Setting up pool5
I0808 08:07:07.762791 26239 net.cpp:148] Top shape: 5 512 7 7 (125440)
I0808 08:07:07.762794 26239 net.cpp:156] Memory required for data: 823388160
I0808 08:07:07.762797 26239 layer_factory.hpp:77] Creating layer fc6-conv
I0808 08:07:07.762807 26239 net.cpp:91] Creating Layer fc6-conv
I0808 08:07:07.762811 26239 net.cpp:425] fc6-conv <- pool5
I0808 08:07:07.762819 26239 net.cpp:399] fc6-conv -> fc6-conv
I0808 08:07:08.092826 26239 net.cpp:141] Setting up fc6-conv
I0808 08:07:08.092888 26239 net.cpp:148] Top shape: 5 4096 1 1 (20480)
I0808 08:07:08.092893 26239 net.cpp:156] Memory required for data: 823470080
I0808 08:07:08.092905 26239 layer_factory.hpp:77] Creating layer relu6
I0808 08:07:08.092921 26239 net.cpp:91] Creating Layer relu6
I0808 08:07:08.092927 26239 net.cpp:425] relu6 <- fc6-conv
I0808 08:07:08.092936 26239 net.cpp:386] relu6 -> fc6-conv (in-place)
I0808 08:07:08.093273 26239 net.cpp:141] Setting up relu6
I0808 08:07:08.093309 26239 net.cpp:148] Top shape: 5 4096 1 1 (20480)
I0808 08:07:08.093314 26239 net.cpp:156] Memory required for data: 823552000
I0808 08:07:08.093317 26239 layer_factory.hpp:77] Creating layer drop6
I0808 08:07:08.093329 26239 net.cpp:91] Creating Layer drop6
I0808 08:07:08.093333 26239 net.cpp:425] drop6 <- fc6-conv
I0808 08:07:08.093338 26239 net.cpp:386] drop6 -> fc6-conv (in-place)
I0808 08:07:08.093384 26239 net.cpp:141] Setting up drop6
I0808 08:07:08.093394 26239 net.cpp:148] Top shape: 5 4096 1 1 (20480)
I0808 08:07:08.093396 26239 net.cpp:156] Memory required for data: 823633920
I0808 08:07:08.093400 26239 layer_factory.hpp:77] Creating layer fc7-conv
I0808 08:07:08.093413 26239 net.cpp:91] Creating Layer fc7-conv
I0808 08:07:08.093416 26239 net.cpp:425] fc7-conv <- fc6-conv
I0808 08:07:08.093425 26239 net.cpp:399] fc7-conv -> fc7-conv
I0808 08:07:08.149155 26239 net.cpp:141] Setting up fc7-conv
I0808 08:07:08.149216 26239 net.cpp:148] Top shape: 5 4096 1 1 (20480)
I0808 08:07:08.149221 26239 net.cpp:156] Memory required for data: 823715840
I0808 08:07:08.149233 26239 layer_factory.hpp:77] Creating layer relu7
I0808 08:07:08.149246 26239 net.cpp:91] Creating Layer relu7
I0808 08:07:08.149252 26239 net.cpp:425] relu7 <- fc7-conv
I0808 08:07:08.149262 26239 net.cpp:386] relu7 -> fc7-conv (in-place)
I0808 08:07:08.149483 26239 net.cpp:141] Setting up relu7
I0808 08:07:08.149497 26239 net.cpp:148] Top shape: 5 4096 1 1 (20480)
I0808 08:07:08.149500 26239 net.cpp:156] Memory required for data: 823797760
I0808 08:07:08.149504 26239 layer_factory.hpp:77] Creating layer hypercolumns
I0808 08:07:08.149518 26239 net.cpp:91] Creating Layer hypercolumns
I0808 08:07:08.149523 26239 net.cpp:425] hypercolumns <- normal
I0808 08:07:08.149530 26239 net.cpp:425] hypercolumns <- conv1_2_relu1_2_0_split_1
I0808 08:07:08.149535 26239 net.cpp:425] hypercolumns <- conv2_2_relu2_2_0_split_1
I0808 08:07:08.149539 26239 net.cpp:425] hypercolumns <- conv3_3_relu3_3_0_split_1
I0808 08:07:08.149544 26239 net.cpp:425] hypercolumns <- conv4_3_relu4_3_0_split_1
I0808 08:07:08.149549 26239 net.cpp:425] hypercolumns <- conv5_3_relu5_3_0_split_1
I0808 08:07:08.149551 26239 net.cpp:425] hypercolumns <- fc7-conv
I0808 08:07:08.149561 26239 net.cpp:399] hypercolumns -> hypercolumns
I0808 08:07:08.149585 26239 net.cpp:399] hypercolumns -> normal_point
I0808 08:07:08.149644 26239 net.cpp:141] Setting up hypercolumns
I0808 08:07:08.149655 26239 net.cpp:148] Top shape: 5000 5568 1 1 (27840000)
I0808 08:07:08.149659 26239 net.cpp:148] Top shape: 5000 3 (15000)
I0808 08:07:08.149662 26239 net.cpp:156] Memory required for data: 935217760
I0808 08:07:08.149665 26239 layer_factory.hpp:77] Creating layer fc1
I0808 08:07:08.149678 26239 net.cpp:91] Creating Layer fc1
I0808 08:07:08.149682 26239 net.cpp:425] fc1 <- hypercolumns
I0808 08:07:08.149688 26239 net.cpp:399] fc1 -> fc1
I0808 08:07:08.446733 26239 net.cpp:141] Setting up fc1
I0808 08:07:08.446799 26239 net.cpp:148] Top shape: 5000 4096 (20480000)
I0808 08:07:08.446804 26239 net.cpp:156] Memory required for data: 1017137760
I0808 08:07:08.446815 26239 layer_factory.hpp:77] Creating layer relu1
I0808 08:07:08.446830 26239 net.cpp:91] Creating Layer relu1
I0808 08:07:08.446835 26239 net.cpp:425] relu1 <- fc1
I0808 08:07:08.446843 26239 net.cpp:386] relu1 -> fc1 (in-place)
I0808 08:07:08.447376 26239 net.cpp:141] Setting up relu1
I0808 08:07:08.447389 26239 net.cpp:148] Top shape: 5000 4096 (20480000)
I0808 08:07:08.447403 26239 net.cpp:156] Memory required for data: 1099057760
I0808 08:07:08.447407 26239 layer_factory.hpp:77] Creating layer drop1
I0808 08:07:08.447417 26239 net.cpp:91] Creating Layer drop1
I0808 08:07:08.447419 26239 net.cpp:425] drop1 <- fc1
I0808 08:07:08.447427 26239 net.cpp:386] drop1 -> fc1 (in-place)
I0808 08:07:08.447458 26239 net.cpp:141] Setting up drop1
I0808 08:07:08.447464 26239 net.cpp:148] Top shape: 5000 4096 (20480000)
I0808 08:07:08.447468 26239 net.cpp:156] Memory required for data: 1180977760
I0808 08:07:08.447470 26239 layer_factory.hpp:77] Creating layer fc2
I0808 08:07:08.447504 26239 net.cpp:91] Creating Layer fc2
I0808 08:07:08.447510 26239 net.cpp:425] fc2 <- fc1
I0808 08:07:08.447516 26239 net.cpp:399] fc2 -> fc2
I0808 08:07:08.650991 26239 net.cpp:141] Setting up fc2
I0808 08:07:08.651057 26239 net.cpp:148] Top shape: 5000 4096 (20480000)
I0808 08:07:08.651060 26239 net.cpp:156] Memory required for data: 1262897760
I0808 08:07:08.651082 26239 layer_factory.hpp:77] Creating layer relu2
I0808 08:07:08.651095 26239 net.cpp:91] Creating Layer relu2
I0808 08:07:08.651101 26239 net.cpp:425] relu2 <- fc2
I0808 08:07:08.651108 26239 net.cpp:386] relu2 -> fc2 (in-place)
I0808 08:07:08.651407 26239 net.cpp:141] Setting up relu2
I0808 08:07:08.651429 26239 net.cpp:148] Top shape: 5000 4096 (20480000)
I0808 08:07:08.651443 26239 net.cpp:156] Memory required for data: 1344817760
I0808 08:07:08.651446 26239 layer_factory.hpp:77] Creating layer drop2
I0808 08:07:08.651455 26239 net.cpp:91] Creating Layer drop2
I0808 08:07:08.651458 26239 net.cpp:425] drop2 <- fc2
I0808 08:07:08.651468 26239 net.cpp:386] drop2 -> fc2 (in-place)
I0808 08:07:08.651500 26239 net.cpp:141] Setting up drop2
I0808 08:07:08.651507 26239 net.cpp:148] Top shape: 5000 4096 (20480000)
I0808 08:07:08.651510 26239 net.cpp:156] Memory required for data: 1426737760
I0808 08:07:08.651513 26239 layer_factory.hpp:77] Creating layer fc3
I0808 08:07:08.651521 26239 net.cpp:91] Creating Layer fc3
I0808 08:07:08.651525 26239 net.cpp:425] fc3 <- fc2
I0808 08:07:08.651531 26239 net.cpp:399] fc3 -> fc3
I0808 08:07:08.651790 26239 net.cpp:141] Setting up fc3
I0808 08:07:08.651798 26239 net.cpp:148] Top shape: 5000 3 (15000)
I0808 08:07:08.651800 26239 net.cpp:156] Memory required for data: 1426797760
I0808 08:07:08.651806 26239 layer_factory.hpp:77] Creating layer loss
I0808 08:07:08.651814 26239 net.cpp:91] Creating Layer loss
I0808 08:07:08.651818 26239 net.cpp:425] loss <- fc3
I0808 08:07:08.651821 26239 net.cpp:425] loss <- normal_point
I0808 08:07:08.651826 26239 net.cpp:399] loss -> loss
I0808 08:07:08.651873 26239 net.cpp:141] Setting up loss
…
