…
type: "SGD"
I0808 08:14:33.481194 26354 solver.cpp:91] Creating training net from net file: /home/qinhong/project/normal_recovery/model/t2/train.prototxt
I0808 08:14:33.481921 26354 net.cpp:49] Initializing net from parameters: 
name: "hyper_normal_layers"
state {
  phase: TRAIN
}
layer {
  name: "data"
  type: "ImageNormalData"
  top: "data"
  top: "normal"
  transform_param {
  }
  image_data_param {
    source: "/home/qinhong/project/normal_recovery/data/source.txt"
    batch_size: 7
    shuffle: true
    new_height: 224
    new_width: 224
  }
}
layer {
  name: "conv1_1"
  type: "Convolution"
  bottom: "data"
  top: "conv1_1"
  param {
    lr_mult: 1
    decay_mult: 1
  }
  param {
    lr_mult: 2
    decay_mult: 0
  }
  convolution_param {
    num_output: 64
    pad: 1
    kernel_size: 3
  }
}
layer {
  name: "relu1_1"
  type: "ReLU"
  bottom: "conv1_1"
  top: "conv1_1"
}
layer {
  name: "conv1_2"
  type: "Convolution"
  bottom: "conv1_1"
  top: "conv1_2"
  param {
    lr_mult: 1
    decay_mult: 1
  }
  param {
    lr_mult: 2
    decay_mult: 0
  }
  convolution_param {
    num_output: 64
    pad: 1
    kernel_size: 3
  }
}
layer {
  name: "relu1_2"
  type: "ReLU"
  bottom: "conv1_2"
  top: "conv1_2"
}
layer {
  name: "pool1"
  type: "Pooling"
  bottom: "conv1_2"
  top: "pool1"
  pooling_param {
    pool: MAX
    kernel_size: 2
    stride: 2
  }
}
layer {
  name: "conv2_1"
  type: "Convolution"
  bottom: "pool1"
  top: "conv2_1"
  param {
    lr_mult: 1
    decay_mult: 1
  }
  param {
    lr_mult: 2
    decay_mult: 0
  }
  convolution_param {
    num_output: 128
    pad: 1
    kernel_size: 3
  }
}
layer {
  name: "relu2_1"
  type: "ReLU"
  bottom: "conv2_1"
  top: "conv2_1"
}
layer {
  name: "conv2_2"
  type: "Convolution"
  bottom: "conv2_1"
  top: "conv2_2"
  param {
    lr_mult: 1
    decay_mult: 1
  }
  param {
    lr_mult: 2
    decay_mult: 0
  }
  convolution_param {
    num_output: 128
    pad: 1
    kernel_size: 3
  }
}
layer {
  name: "relu2_2"
  type: "ReLU"
  bottom: "conv2_2"
  top: "conv2_2"
}
layer {
  name: "pool2"
  type: "Pooling"
  bottom: "conv2_2"
  top: "pool2"
  pooling_param {
    pool: MAX
    kernel_size: 2
    stride: 2
  }
}
layer {
  name: "conv3_1"
  type: "Convolution"
  bottom: "pool2"
  top: "conv3_1"
  param {
    lr_mult: 1
    decay_mult: 1
  }
  param {
    lr_mult: 2
    decay_mult: 0
  }
  convolution_param {
    num_output: 256
    pad: 1
    kernel_size: 3
  }
}
layer {
  name: "relu3_1"
  type: "ReLU"
  bottom: "conv3_1"
  top: "conv3_1"
}
layer {
  name: "conv3_2"
  type: "Convolution"
  bottom: "conv3_1"
  top: "conv3_2"
  param {
    lr_mult: 1
    decay_mult: 1
  }
  param {
    lr_mult: 2
    decay_mult: 0
  }
  convolution_param {
    num_output: 256
    pad: 1
    kernel_size: 3
  }
}
layer {
  name: "relu3_2"
  type: "ReLU"
  bottom: "conv3_2"
  top: "conv3_2"
}
layer {
  name: "conv3_3"
  type: "Convolution"
  bottom: "conv3_2"
  top: "conv3_3"
  param {
    lr_mult: 1
    decay_mult: 1
  }
  param {
    lr_mult: 2
    decay_mult: 0
  }
  convolution_param {
    num_output: 256
    pad: 1
    kernel_size: 3
  }
}
layer {
  name: "relu3_3"
  type: "ReLU"
  bottom: "conv3_3"
  top: "conv3_3"
}
layer {
  name: "pool3"
  type: "Pooling"
  bottom: "conv3_3"
  top: "pool3"
  pooling_param {
    pool: MAX
    kernel_size: 2
    stride: 2
  }
}
layer {
  name: "conv4_1"
  type: "Convolution"
  bottom: "pool3"
  top: "conv4_1"
  param {
    lr_mult: 1
    decay_mult: 1
  }
  param {
    lr_mult: 2
    decay_mult: 0
  }
  convolution_param {
    num_output: 512
    pad: 1
    kernel_size: 3
  }
}
layer {
  name: "relu4_1"
  type: "ReLU"
  bottom: "conv4_1"
  top: "conv4_1"
}
layer {
  name: "conv4_2"
  type: "Convolution"
  bottom: "conv4_1"
  top: "conv4_2"
  param {
    lr_mult: 1
    decay_mult: 1
  }
  param {
    lr_mult: 2
    decay_mult: 0
  }
  convolution_param {
    num_output: 512
    pad: 1
    kernel_size: 3
  }
}
layer {
  name: "relu4_2"
  type: "ReLU"
  bottom: "conv4_2"
  top: "conv4_2"
}
layer {
  name: "conv4_3"
  type: "Convolution"
  bottom: "conv4_2"
  top: "conv4_3"
  param {
    lr_mult: 1
    decay_mult: 1
  }
  param {
    lr_mult: 2
    decay_mult: 0
  }
  convolution_param {
    num_output: 512
    pad: 1
    kernel_size: 3
  }
}
layer {
  name: "relu4_3"
  type: "ReLU"
  bottom: "conv4_3"
  top: "conv4_3"
}
layer {
  name: "pool4"
  type: "Pooling"
  bottom: "conv4_3"
  top: "pool4"
  pooling_param {
    pool: MAX
    kernel_size: 2
    stride: 2
  }
}
layer {
  name: "conv5_1"
  type: "Convolution"
  bottom: "pool4"
  top: "conv5_1"
  param {
    lr_mult: 1
    decay_mult: 1
  }
  param {
    lr_mult: 2
    decay_mult: 0
  }
  convolution_param {
    num_output: 512
    pad: 1
    kernel_size: 3
  }
}
layer {
  name: "relu5_1"
  type: "ReLU"
  bottom: "conv5_1"
  top: "conv5_1"
}
layer {
  name: "conv5_2"
  type: "Convolution"
  bottom: "conv5_1"
  top: "conv5_2"
  param {
    lr_mult: 1
    decay_mult: 1
  }
  param {
    lr_mult: 2
    decay_mult: 0
  }
  convolution_param {
    num_output: 512
    pad: 1
    kernel_size: 3
  }
}
layer {
  name: "relu5_2"
  type: "ReLU"
  bottom: "conv5_2"
  top: "conv5_2"
}
layer {
  name: "conv5_3"
  type: "Convolution"
  bottom: "conv5_2"
  top: "conv5_3"
  param {
    lr_mult: 1
    decay_mult: 1
  }
  param {
    lr_mult: 2
    decay_mult: 0
  }
  convolution_param {
    num_output: 512
    pad: 1
    kernel_size: 3
  }
}
layer {
  name: "relu5_3"
  type: "ReLU"
  bottom: "conv5_3"
  top: "conv5_3"
}
layer {
  name: "pool5"
  type: "Pooling"
  bottom: "conv5_3"
  top: "pool5"
  pooling_param {
    pool: MAX
    kernel_size: 2
    stride: 2
  }
}
layer {
  name: "fc6-conv"
  type: "Convolution"
  bottom: "pool5"
  top: "fc6-conv"
  param {
    lr_mult: 1
    decay_mult: 1
  }
  param {
    lr_mult: 2
    decay_mult: 0
  }
  convolution_param {
    num_output: 4096
    kernel_size: 7
  }
}
layer {
  name: "relu6"
  type: "ReLU"
  bottom: "fc6-conv"
  top: "fc6-conv"
}
layer {
  name: "drop6"
  type: "Dropout"
  bottom: "fc6-conv"
  top: "fc6-conv"
  dropout_param {
    dropout_ratio: 0.5
  }
}
layer {
  name: "fc7-conv"
  type: "Convolution"
  bottom: "fc6-conv"
  top: "fc7-conv"
  param {
    lr_mult: 1
    decay_mult: 1
  }
  param {
    lr_mult: 2
    decay_mult: 0
  }
  convolution_param {
    num_output: 4096
    kernel_size: 1
  }
}
layer {
  name: "relu7"
  type: "ReLU"
  bottom: "fc7-conv"
  top: "fc7-conv"
}
layer {
  name: "hypercolumns"
  type: "HyperColumns"
  bottom: "normal"
  bottom: "conv1_2"
  bottom: "conv2_2"
  bottom: "conv3_3"
  bottom: "conv4_3"
  bottom: "conv5_3"
  bottom: "fc7-conv"
  top: "hypercolumns"
  top: "normal_point"
  hypercolumns_param {
    is_train: true
  }
}
layer {
  name: "fc1"
  type: "InnerProduct"
  bottom: "hypercolumns"
  top: "fc1"
  param {
    lr_mult: 1
    decay_mult: 1
  }
  param {
    lr_mult: 2
    decay_mult: 0
  }
  inner_product_param {
    num_output: 4096
    weight_filler {
      type: "gaussian"
      std: 0.003
    }
    bias_filler {
      type: "constant"
      value: 0
    }
  }
}
layer {
  name: "relu1"
  type: "ReLU"
  bottom: "fc1"
  top: "fc1"
}
layer {
  name: "drop1"
  type: "Dropout"
  bottom: "fc1"
  top: "fc1"
  dropout_param {
    dropout_ratio: 0.5
  }
}
layer {
  name: "fc2"
  type: "InnerProduct"
  bottom: "fc1"
  top: "fc2"
  param {
    lr_mult: 1
    decay_mult: 1
  }
  param {
    lr_mult: 2
    decay_mult: 0
  }
  inner_product_param {
    num_output: 4096
    weight_filler {
      type: "gaussian"
      std: 0.002
    }
    bias_filler {
      type: "constant"
      value: 0
    }
  }
}
layer {
  name: "relu2"
  type: "ReLU"
  bottom: "fc2"
  top: "fc2"
}
layer {
  name: "drop2"
  type: "Dropout"
  bottom: "fc2"
  top: "fc2"
  dropout_param {
    dropout_ratio: 0.5
  }
}
layer {
  name: "fc3"
  type: "InnerProduct"
  bottom: "fc2"
  top: "fc3"
  param {
    lr_mult: 1
    decay_mult: 1
  }
  param {
    lr_mult: 2
    decay_mult: 0
  }
  inner_product_param {
    num_output: 3
    weight_filler {
      type: "gaussian"
      std: 0.001
    }
    bias_filler {
      type: "constant"
      value: 0
    }
  }
}
layer {
  name: "loss"
  type: "EuclideanLoss"
  bottom: "fc3"
  bottom: "normal_point"
  top: "loss"
  propagate_down: true
  propagate_down: false
}
I0808 08:14:33.482167 26354 layer_factory.hpp:77] Creating layer data
I0808 08:14:33.482205 26354 net.cpp:91] Creating Layer data
I0808 08:14:33.482220 26354 net.cpp:399] data -> data
I0808 08:14:33.482249 26354 net.cpp:399] data -> normal
I0808 08:14:33.482270 26354 image_normal_data_layer.cpp:43] opeing file /home/qinhong/project/normal_recovery/data/source.txt
I0808 08:14:33.486848 26354 image_normal_data_layer.cpp:54] Shuffing data
I0808 08:14:33.488222 26354 image_normal_data_layer.cpp:59] A total of 4105 images.
I0808 08:14:33.513564 26354 image_normal_data_layer.cpp:79] output data size: 7,3,224,224
I0808 08:14:33.528895 26354 net.cpp:141] Setting up data
I0808 08:14:33.528923 26354 net.cpp:148] Top shape: 7 3 224 224 (1053696)
I0808 08:14:33.528928 26354 net.cpp:148] Top shape: 7 3 224 224 (1053696)
I0808 08:14:33.528931 26354 net.cpp:156] Memory required for data: 8429568
I0808 08:14:33.528940 26354 layer_factory.hpp:77] Creating layer conv1_1
I0808 08:14:33.528964 26354 net.cpp:91] Creating Layer conv1_1
I0808 08:14:33.528971 26354 net.cpp:425] conv1_1 <- data
I0808 08:14:33.528987 26354 net.cpp:399] conv1_1 -> conv1_1
I0808 08:14:33.728310 26354 net.cpp:141] Setting up conv1_1
I0808 08:14:33.728349 26354 net.cpp:148] Top shape: 7 64 224 224 (22478848)
I0808 08:14:33.728353 26354 net.cpp:156] Memory required for data: 98344960
I0808 08:14:33.728382 26354 layer_factory.hpp:77] Creating layer relu1_1
I0808 08:14:33.728397 26354 net.cpp:91] Creating Layer relu1_1
I0808 08:14:33.728401 26354 net.cpp:425] relu1_1 <- conv1_1
I0808 08:14:33.728407 26354 net.cpp:386] relu1_1 -> conv1_1 (in-place)
I0808 08:14:33.728724 26354 net.cpp:141] Setting up relu1_1
I0808 08:14:33.728739 26354 net.cpp:148] Top shape: 7 64 224 224 (22478848)
I0808 08:14:33.728744 26354 net.cpp:156] Memory required for data: 188260352
I0808 08:14:33.728746 26354 layer_factory.hpp:77] Creating layer conv1_2
I0808 08:14:33.728759 26354 net.cpp:91] Creating Layer conv1_2
I0808 08:14:33.728762 26354 net.cpp:425] conv1_2 <- conv1_1
I0808 08:14:33.728770 26354 net.cpp:399] conv1_2 -> conv1_2
I0808 08:14:33.729845 26354 net.cpp:141] Setting up conv1_2
I0808 08:14:33.729861 26354 net.cpp:148] Top shape: 7 64 224 224 (22478848)
I0808 08:14:33.729866 26354 net.cpp:156] Memory required for data: 278175744
I0808 08:14:33.729876 26354 layer_factory.hpp:77] Creating layer relu1_2
I0808 08:14:33.729883 26354 net.cpp:91] Creating Layer relu1_2
I0808 08:14:33.729887 26354 net.cpp:425] relu1_2 <- conv1_2
I0808 08:14:33.729892 26354 net.cpp:386] relu1_2 -> conv1_2 (in-place)
I0808 08:14:33.730180 26354 net.cpp:141] Setting up relu1_2
I0808 08:14:33.730195 26354 net.cpp:148] Top shape: 7 64 224 224 (22478848)
I0808 08:14:33.730197 26354 net.cpp:156] Memory required for data: 368091136
I0808 08:14:33.730201 26354 layer_factory.hpp:77] Creating layer conv1_2_relu1_2_0_split
I0808 08:14:33.730207 26354 net.cpp:91] Creating Layer conv1_2_relu1_2_0_split
I0808 08:14:33.730211 26354 net.cpp:425] conv1_2_relu1_2_0_split <- conv1_2
I0808 08:14:33.730216 26354 net.cpp:399] conv1_2_relu1_2_0_split -> conv1_2_relu1_2_0_split_0
I0808 08:14:33.730226 26354 net.cpp:399] conv1_2_relu1_2_0_split -> conv1_2_relu1_2_0_split_1
I0808 08:14:33.730271 26354 net.cpp:141] Setting up conv1_2_relu1_2_0_split
I0808 08:14:33.730279 26354 net.cpp:148] Top shape: 7 64 224 224 (22478848)
I0808 08:14:33.730284 26354 net.cpp:148] Top shape: 7 64 224 224 (22478848)
I0808 08:14:33.730288 26354 net.cpp:156] Memory required for data: 547921920
I0808 08:14:33.730290 26354 layer_factory.hpp:77] Creating layer pool1
I0808 08:14:33.730316 26354 net.cpp:91] Creating Layer pool1
I0808 08:14:33.730321 26354 net.cpp:425] pool1 <- conv1_2_relu1_2_0_split_0
I0808 08:14:33.730327 26354 net.cpp:399] pool1 -> pool1
I0808 08:14:33.730381 26354 net.cpp:141] Setting up pool1
I0808 08:14:33.730389 26354 net.cpp:148] Top shape: 7 64 112 112 (5619712)
I0808 08:14:33.730392 26354 net.cpp:156] Memory required for data: 570400768
I0808 08:14:33.730396 26354 layer_factory.hpp:77] Creating layer conv2_1
I0808 08:14:33.730403 26354 net.cpp:91] Creating Layer conv2_1
I0808 08:14:33.730406 26354 net.cpp:425] conv2_1 <- pool1
I0808 08:14:33.730412 26354 net.cpp:399] conv2_1 -> conv2_1
I0808 08:14:33.732832 26354 net.cpp:141] Setting up conv2_1
I0808 08:14:33.732851 26354 net.cpp:148] Top shape: 7 128 112 112 (11239424)
I0808 08:14:33.732853 26354 net.cpp:156] Memory required for data: 615358464
I0808 08:14:33.732866 26354 layer_factory.hpp:77] Creating layer relu2_1
I0808 08:14:33.732873 26354 net.cpp:91] Creating Layer relu2_1
I0808 08:14:33.732877 26354 net.cpp:425] relu2_1 <- conv2_1
I0808 08:14:33.732882 26354 net.cpp:386] relu2_1 -> conv2_1 (in-place)
I0808 08:14:33.733086 26354 net.cpp:141] Setting up relu2_1
I0808 08:14:33.733098 26354 net.cpp:148] Top shape: 7 128 112 112 (11239424)
I0808 08:14:33.733101 26354 net.cpp:156] Memory required for data: 660316160
I0808 08:14:33.733105 26354 layer_factory.hpp:77] Creating layer conv2_2
I0808 08:14:33.733114 26354 net.cpp:91] Creating Layer conv2_2
I0808 08:14:33.733119 26354 net.cpp:425] conv2_2 <- conv2_1
I0808 08:14:33.733125 26354 net.cpp:399] conv2_2 -> conv2_2
I0808 08:14:33.734355 26354 net.cpp:141] Setting up conv2_2
I0808 08:14:33.734372 26354 net.cpp:148] Top shape: 7 128 112 112 (11239424)
I0808 08:14:33.734375 26354 net.cpp:156] Memory required for data: 705273856
I0808 08:14:33.734382 26354 layer_factory.hpp:77] Creating layer relu2_2
I0808 08:14:33.734390 26354 net.cpp:91] Creating Layer relu2_2
I0808 08:14:33.734393 26354 net.cpp:425] relu2_2 <- conv2_2
I0808 08:14:33.734398 26354 net.cpp:386] relu2_2 -> conv2_2 (in-place)
I0808 08:14:33.734711 26354 net.cpp:141] Setting up relu2_2
I0808 08:14:33.734726 26354 net.cpp:148] Top shape: 7 128 112 112 (11239424)
I0808 08:14:33.734730 26354 net.cpp:156] Memory required for data: 750231552
I0808 08:14:33.734732 26354 layer_factory.hpp:77] Creating layer conv2_2_relu2_2_0_split
I0808 08:14:33.734740 26354 net.cpp:91] Creating Layer conv2_2_relu2_2_0_split
I0808 08:14:33.734743 26354 net.cpp:425] conv2_2_relu2_2_0_split <- conv2_2
I0808 08:14:33.734750 26354 net.cpp:399] conv2_2_relu2_2_0_split -> conv2_2_relu2_2_0_split_0
I0808 08:14:33.734760 26354 net.cpp:399] conv2_2_relu2_2_0_split -> conv2_2_relu2_2_0_split_1
I0808 08:14:33.734807 26354 net.cpp:141] Setting up conv2_2_relu2_2_0_split
I0808 08:14:33.734817 26354 net.cpp:148] Top shape: 7 128 112 112 (11239424)
I0808 08:14:33.734820 26354 net.cpp:148] Top shape: 7 128 112 112 (11239424)
I0808 08:14:33.734823 26354 net.cpp:156] Memory required for data: 840146944
I0808 08:14:33.734827 26354 layer_factory.hpp:77] Creating layer pool2
I0808 08:14:33.734833 26354 net.cpp:91] Creating Layer pool2
I0808 08:14:33.734835 26354 net.cpp:425] pool2 <- conv2_2_relu2_2_0_split_0
I0808 08:14:33.734840 26354 net.cpp:399] pool2 -> pool2
I0808 08:14:33.734881 26354 net.cpp:141] Setting up pool2
I0808 08:14:33.734889 26354 net.cpp:148] Top shape: 7 128 56 56 (2809856)
I0808 08:14:33.734892 26354 net.cpp:156] Memory required for data: 851386368
I0808 08:14:33.734894 26354 layer_factory.hpp:77] Creating layer conv3_1
I0808 08:14:33.734904 26354 net.cpp:91] Creating Layer conv3_1
I0808 08:14:33.734906 26354 net.cpp:425] conv3_1 <- pool2
I0808 08:14:33.734913 26354 net.cpp:399] conv3_1 -> conv3_1
I0808 08:14:33.736888 26354 net.cpp:141] Setting up conv3_1
I0808 08:14:33.736904 26354 net.cpp:148] Top shape: 7 256 56 56 (5619712)
I0808 08:14:33.736908 26354 net.cpp:156] Memory required for data: 873865216
I0808 08:14:33.736918 26354 layer_factory.hpp:77] Creating layer relu3_1
I0808 08:14:33.736927 26354 net.cpp:91] Creating Layer relu3_1
I0808 08:14:33.736946 26354 net.cpp:425] relu3_1 <- conv3_1
I0808 08:14:33.736953 26354 net.cpp:386] relu3_1 -> conv3_1 (in-place)
I0808 08:14:33.737267 26354 net.cpp:141] Setting up relu3_1
I0808 08:14:33.737282 26354 net.cpp:148] Top shape: 7 256 56 56 (5619712)
I0808 08:14:33.737285 26354 net.cpp:156] Memory required for data: 896344064
I0808 08:14:33.737288 26354 layer_factory.hpp:77] Creating layer conv3_2
I0808 08:14:33.737298 26354 net.cpp:91] Creating Layer conv3_2
I0808 08:14:33.737303 26354 net.cpp:425] conv3_2 <- conv3_1
I0808 08:14:33.737310 26354 net.cpp:399] conv3_2 -> conv3_2
I0808 08:14:33.739974 26354 net.cpp:141] Setting up conv3_2
I0808 08:14:33.739990 26354 net.cpp:148] Top shape: 7 256 56 56 (5619712)
I0808 08:14:33.739995 26354 net.cpp:156] Memory required for data: 918822912
I0808 08:14:33.740000 26354 layer_factory.hpp:77] Creating layer relu3_2
I0808 08:14:33.740011 26354 net.cpp:91] Creating Layer relu3_2
I0808 08:14:33.740015 26354 net.cpp:425] relu3_2 <- conv3_2
I0808 08:14:33.740022 26354 net.cpp:386] relu3_2 -> conv3_2 (in-place)
I0808 08:14:33.740219 26354 net.cpp:141] Setting up relu3_2
I0808 08:14:33.740231 26354 net.cpp:148] Top shape: 7 256 56 56 (5619712)
I0808 08:14:33.740233 26354 net.cpp:156] Memory required for data: 941301760
I0808 08:14:33.740237 26354 layer_factory.hpp:77] Creating layer conv3_3
I0808 08:14:33.740248 26354 net.cpp:91] Creating Layer conv3_3
I0808 08:14:33.740252 26354 net.cpp:425] conv3_3 <- conv3_2
I0808 08:14:33.740264 26354 net.cpp:399] conv3_3 -> conv3_3
I0808 08:14:33.742995 26354 net.cpp:141] Setting up conv3_3
I0808 08:14:33.743015 26354 net.cpp:148] Top shape: 7 256 56 56 (5619712)
I0808 08:14:33.743018 26354 net.cpp:156] Memory required for data: 963780608
I0808 08:14:33.743024 26354 layer_factory.hpp:77] Creating layer relu3_3
I0808 08:14:33.743031 26354 net.cpp:91] Creating Layer relu3_3
I0808 08:14:33.743034 26354 net.cpp:425] relu3_3 <- conv3_3
I0808 08:14:33.743041 26354 net.cpp:386] relu3_3 -> conv3_3 (in-place)
I0808 08:14:33.743369 26354 net.cpp:141] Setting up relu3_3
I0808 08:14:33.743384 26354 net.cpp:148] Top shape: 7 256 56 56 (5619712)
I0808 08:14:33.743387 26354 net.cpp:156] Memory required for data: 986259456
I0808 08:14:33.743391 26354 layer_factory.hpp:77] Creating layer conv3_3_relu3_3_0_split
I0808 08:14:33.743396 26354 net.cpp:91] Creating Layer conv3_3_relu3_3_0_split
I0808 08:14:33.743401 26354 net.cpp:425] conv3_3_relu3_3_0_split <- conv3_3
I0808 08:14:33.743408 26354 net.cpp:399] conv3_3_relu3_3_0_split -> conv3_3_relu3_3_0_split_0
I0808 08:14:33.743417 26354 net.cpp:399] conv3_3_relu3_3_0_split -> conv3_3_relu3_3_0_split_1
I0808 08:14:33.743470 26354 net.cpp:141] Setting up conv3_3_relu3_3_0_split
I0808 08:14:33.743479 26354 net.cpp:148] Top shape: 7 256 56 56 (5619712)
I0808 08:14:33.743484 26354 net.cpp:148] Top shape: 7 256 56 56 (5619712)
I0808 08:14:33.743486 26354 net.cpp:156] Memory required for data: 1031217152
I0808 08:14:33.743490 26354 layer_factory.hpp:77] Creating layer pool3
I0808 08:14:33.743496 26354 net.cpp:91] Creating Layer pool3
I0808 08:14:33.743505 26354 net.cpp:425] pool3 <- conv3_3_relu3_3_0_split_0
I0808 08:14:33.743510 26354 net.cpp:399] pool3 -> pool3
I0808 08:14:33.743552 26354 net.cpp:141] Setting up pool3
I0808 08:14:33.743561 26354 net.cpp:148] Top shape: 7 256 28 28 (1404928)
I0808 08:14:33.743563 26354 net.cpp:156] Memory required for data: 1036836864
I0808 08:14:33.743566 26354 layer_factory.hpp:77] Creating layer conv4_1
I0808 08:14:33.743574 26354 net.cpp:91] Creating Layer conv4_1
I0808 08:14:33.743577 26354 net.cpp:425] conv4_1 <- pool3
I0808 08:14:33.743583 26354 net.cpp:399] conv4_1 -> conv4_1
I0808 08:14:33.748041 26354 net.cpp:141] Setting up conv4_1
I0808 08:14:33.748057 26354 net.cpp:148] Top shape: 7 512 28 28 (2809856)
I0808 08:14:33.748061 26354 net.cpp:156] Memory required for data: 1048076288
I0808 08:14:33.748069 26354 layer_factory.hpp:77] Creating layer relu4_1
I0808 08:14:33.748075 26354 net.cpp:91] Creating Layer relu4_1
I0808 08:14:33.748078 26354 net.cpp:425] relu4_1 <- conv4_1
I0808 08:14:33.748095 26354 net.cpp:386] relu4_1 -> conv4_1 (in-place)
I0808 08:14:33.748412 26354 net.cpp:141] Setting up relu4_1
I0808 08:14:33.748427 26354 net.cpp:148] Top shape: 7 512 28 28 (2809856)
I0808 08:14:33.748430 26354 net.cpp:156] Memory required for data: 1059315712
I0808 08:14:33.748433 26354 layer_factory.hpp:77] Creating layer conv4_2
I0808 08:14:33.748443 26354 net.cpp:91] Creating Layer conv4_2
I0808 08:14:33.748447 26354 net.cpp:425] conv4_2 <- conv4_1
I0808 08:14:33.748456 26354 net.cpp:399] conv4_2 -> conv4_2
I0808 08:14:33.755316 26354 net.cpp:141] Setting up conv4_2
I0808 08:14:33.755333 26354 net.cpp:148] Top shape: 7 512 28 28 (2809856)
I0808 08:14:33.755336 26354 net.cpp:156] Memory required for data: 1070555136
I0808 08:14:33.755349 26354 layer_factory.hpp:77] Creating layer relu4_2
I0808 08:14:33.755357 26354 net.cpp:91] Creating Layer relu4_2
I0808 08:14:33.755360 26354 net.cpp:425] relu4_2 <- conv4_2
I0808 08:14:33.755367 26354 net.cpp:386] relu4_2 -> conv4_2 (in-place)
I0808 08:14:33.755565 26354 net.cpp:141] Setting up relu4_2
I0808 08:14:33.755576 26354 net.cpp:148] Top shape: 7 512 28 28 (2809856)
I0808 08:14:33.755579 26354 net.cpp:156] Memory required for data: 1081794560
I0808 08:14:33.755583 26354 layer_factory.hpp:77] Creating layer conv4_3
I0808 08:14:33.755592 26354 net.cpp:91] Creating Layer conv4_3
I0808 08:14:33.755595 26354 net.cpp:425] conv4_3 <- conv4_2
I0808 08:14:33.755604 26354 net.cpp:399] conv4_3 -> conv4_3
I0808 08:14:33.762388 26354 net.cpp:141] Setting up conv4_3
I0808 08:14:33.762408 26354 net.cpp:148] Top shape: 7 512 28 28 (2809856)
I0808 08:14:33.762411 26354 net.cpp:156] Memory required for data: 1093033984
I0808 08:14:33.762418 26354 layer_factory.hpp:77] Creating layer relu4_3
I0808 08:14:33.762424 26354 net.cpp:91] Creating Layer relu4_3
I0808 08:14:33.762428 26354 net.cpp:425] relu4_3 <- conv4_3
I0808 08:14:33.762434 26354 net.cpp:386] relu4_3 -> conv4_3 (in-place)
I0808 08:14:33.762755 26354 net.cpp:141] Setting up relu4_3
I0808 08:14:33.762770 26354 net.cpp:148] Top shape: 7 512 28 28 (2809856)
I0808 08:14:33.762773 26354 net.cpp:156] Memory required for data: 1104273408
I0808 08:14:33.762776 26354 layer_factory.hpp:77] Creating layer conv4_3_relu4_3_0_split
I0808 08:14:33.762784 26354 net.cpp:91] Creating Layer conv4_3_relu4_3_0_split
I0808 08:14:33.762786 26354 net.cpp:425] conv4_3_relu4_3_0_split <- conv4_3
I0808 08:14:33.762794 26354 net.cpp:399] conv4_3_relu4_3_0_split -> conv4_3_relu4_3_0_split_0
I0808 08:14:33.762802 26354 net.cpp:399] conv4_3_relu4_3_0_split -> conv4_3_relu4_3_0_split_1
I0808 08:14:33.762853 26354 net.cpp:141] Setting up conv4_3_relu4_3_0_split
I0808 08:14:33.762861 26354 net.cpp:148] Top shape: 7 512 28 28 (2809856)
I0808 08:14:33.762866 26354 net.cpp:148] Top shape: 7 512 28 28 (2809856)
I0808 08:14:33.762867 26354 net.cpp:156] Memory required for data: 1126752256
I0808 08:14:33.762871 26354 layer_factory.hpp:77] Creating layer pool4
I0808 08:14:33.762877 26354 net.cpp:91] Creating Layer pool4
I0808 08:14:33.762881 26354 net.cpp:425] pool4 <- conv4_3_relu4_3_0_split_0
I0808 08:14:33.762888 26354 net.cpp:399] pool4 -> pool4
I0808 08:14:33.762929 26354 net.cpp:141] Setting up pool4
I0808 08:14:33.762936 26354 net.cpp:148] Top shape: 7 512 14 14 (702464)
I0808 08:14:33.762939 26354 net.cpp:156] Memory required for data: 1129562112
I0808 08:14:33.762943 26354 layer_factory.hpp:77] Creating layer conv5_1
I0808 08:14:33.762951 26354 net.cpp:91] Creating Layer conv5_1
I0808 08:14:33.762954 26354 net.cpp:425] conv5_1 <- pool4
I0808 08:14:33.762961 26354 net.cpp:399] conv5_1 -> conv5_1
I0808 08:14:33.769795 26354 net.cpp:141] Setting up conv5_1
I0808 08:14:33.769814 26354 net.cpp:148] Top shape: 7 512 14 14 (702464)
I0808 08:14:33.769819 26354 net.cpp:156] Memory required for data: 1132371968
I0808 08:14:33.769825 26354 layer_factory.hpp:77] Creating layer relu5_1
I0808 08:14:33.769831 26354 net.cpp:91] Creating Layer relu5_1
I0808 08:14:33.769837 26354 net.cpp:425] relu5_1 <- conv5_1
I0808 08:14:33.769858 26354 net.cpp:386] relu5_1 -> conv5_1 (in-place)
I0808 08:14:33.770171 26354 net.cpp:141] Setting up relu5_1
I0808 08:14:33.770186 26354 net.cpp:148] Top shape: 7 512 14 14 (702464)
I0808 08:14:33.770190 26354 net.cpp:156] Memory required for data: 1135181824
I0808 08:14:33.770192 26354 layer_factory.hpp:77] Creating layer conv5_2
I0808 08:14:33.770203 26354 net.cpp:91] Creating Layer conv5_2
I0808 08:14:33.770206 26354 net.cpp:425] conv5_2 <- conv5_1
I0808 08:14:33.770215 26354 net.cpp:399] conv5_2 -> conv5_2
I0808 08:14:33.777020 26354 net.cpp:141] Setting up conv5_2
I0808 08:14:33.777040 26354 net.cpp:148] Top shape: 7 512 14 14 (702464)
I0808 08:14:33.777043 26354 net.cpp:156] Memory required for data: 1137991680
I0808 08:14:33.777050 26354 layer_factory.hpp:77] Creating layer relu5_2
I0808 08:14:33.777065 26354 net.cpp:91] Creating Layer relu5_2
I0808 08:14:33.777070 26354 net.cpp:425] relu5_2 <- conv5_2
I0808 08:14:33.777076 26354 net.cpp:386] relu5_2 -> conv5_2 (in-place)
I0808 08:14:33.777276 26354 net.cpp:141] Setting up relu5_2
I0808 08:14:33.777289 26354 net.cpp:148] Top shape: 7 512 14 14 (702464)
I0808 08:14:33.777292 26354 net.cpp:156] Memory required for data: 1140801536
I0808 08:14:33.777297 26354 layer_factory.hpp:77] Creating layer conv5_3
I0808 08:14:33.777304 26354 net.cpp:91] Creating Layer conv5_3
I0808 08:14:33.777308 26354 net.cpp:425] conv5_3 <- conv5_2
I0808 08:14:33.777315 26354 net.cpp:399] conv5_3 -> conv5_3
I0808 08:14:33.784143 26354 net.cpp:141] Setting up conv5_3
I0808 08:14:33.784160 26354 net.cpp:148] Top shape: 7 512 14 14 (702464)
I0808 08:14:33.784164 26354 net.cpp:156] Memory required for data: 1143611392
I0808 08:14:33.784171 26354 layer_factory.hpp:77] Creating layer relu5_3
I0808 08:14:33.784178 26354 net.cpp:91] Creating Layer relu5_3
I0808 08:14:33.784181 26354 net.cpp:425] relu5_3 <- conv5_3
I0808 08:14:33.784188 26354 net.cpp:386] relu5_3 -> conv5_3 (in-place)
I0808 08:14:33.784508 26354 net.cpp:141] Setting up relu5_3
I0808 08:14:33.784523 26354 net.cpp:148] Top shape: 7 512 14 14 (702464)
I0808 08:14:33.784525 26354 net.cpp:156] Memory required for data: 1146421248
I0808 08:14:33.784529 26354 layer_factory.hpp:77] Creating layer conv5_3_relu5_3_0_split
I0808 08:14:33.784535 26354 net.cpp:91] Creating Layer conv5_3_relu5_3_0_split
I0808 08:14:33.784539 26354 net.cpp:425] conv5_3_relu5_3_0_split <- conv5_3
I0808 08:14:33.784546 26354 net.cpp:399] conv5_3_relu5_3_0_split -> conv5_3_relu5_3_0_split_0
I0808 08:14:33.784554 26354 net.cpp:399] conv5_3_relu5_3_0_split -> conv5_3_relu5_3_0_split_1
I0808 08:14:33.784610 26354 net.cpp:141] Setting up conv5_3_relu5_3_0_split
I0808 08:14:33.784617 26354 net.cpp:148] Top shape: 7 512 14 14 (702464)
I0808 08:14:33.784621 26354 net.cpp:148] Top shape: 7 512 14 14 (702464)
I0808 08:14:33.784624 26354 net.cpp:156] Memory required for data: 1152040960
I0808 08:14:33.784627 26354 layer_factory.hpp:77] Creating layer pool5
I0808 08:14:33.784634 26354 net.cpp:91] Creating Layer pool5
I0808 08:14:33.784637 26354 net.cpp:425] pool5 <- conv5_3_relu5_3_0_split_0
I0808 08:14:33.784644 26354 net.cpp:399] pool5 -> pool5
I0808 08:14:33.784689 26354 net.cpp:141] Setting up pool5
I0808 08:14:33.784698 26354 net.cpp:148] Top shape: 7 512 7 7 (175616)
I0808 08:14:33.784701 26354 net.cpp:156] Memory required for data: 1152743424
I0808 08:14:33.784704 26354 layer_factory.hpp:77] Creating layer fc6-conv
I0808 08:14:33.784711 26354 net.cpp:91] Creating Layer fc6-conv
I0808 08:14:33.784714 26354 net.cpp:425] fc6-conv <- pool5
I0808 08:14:33.784721 26354 net.cpp:399] fc6-conv -> fc6-conv
I0808 08:14:34.082783 26354 net.cpp:141] Setting up fc6-conv
I0808 08:14:34.082828 26354 net.cpp:148] Top shape: 7 4096 1 1 (28672)
I0808 08:14:34.082833 26354 net.cpp:156] Memory required for data: 1152858112
I0808 08:14:34.082844 26354 layer_factory.hpp:77] Creating layer relu6
I0808 08:14:34.082854 26354 net.cpp:91] Creating Layer relu6
I0808 08:14:34.082860 26354 net.cpp:425] relu6 <- fc6-conv
I0808 08:14:34.082870 26354 net.cpp:386] relu6 -> fc6-conv (in-place)
I0808 08:14:34.083217 26354 net.cpp:141] Setting up relu6
I0808 08:14:34.083232 26354 net.cpp:148] Top shape: 7 4096 1 1 (28672)
I0808 08:14:34.083235 26354 net.cpp:156] Memory required for data: 1152972800
I0808 08:14:34.083240 26354 layer_factory.hpp:77] Creating layer drop6
I0808 08:14:34.083248 26354 net.cpp:91] Creating Layer drop6
I0808 08:14:34.083252 26354 net.cpp:425] drop6 <- fc6-conv
I0808 08:14:34.083259 26354 net.cpp:386] drop6 -> fc6-conv (in-place)
I0808 08:14:34.083300 26354 net.cpp:141] Setting up drop6
I0808 08:14:34.083308 26354 net.cpp:148] Top shape: 7 4096 1 1 (28672)
I0808 08:14:34.083312 26354 net.cpp:156] Memory required for data: 1153087488
I0808 08:14:34.083314 26354 layer_factory.hpp:77] Creating layer fc7-conv
I0808 08:14:34.083328 26354 net.cpp:91] Creating Layer fc7-conv
I0808 08:14:34.083333 26354 net.cpp:425] fc7-conv <- fc6-conv
I0808 08:14:34.083340 26354 net.cpp:399] fc7-conv -> fc7-conv
I0808 08:14:34.133570 26354 net.cpp:141] Setting up fc7-conv
I0808 08:14:34.133613 26354 net.cpp:148] Top shape: 7 4096 1 1 (28672)
I0808 08:14:34.133618 26354 net.cpp:156] Memory required for data: 1153202176
I0808 08:14:34.133630 26354 layer_factory.hpp:77] Creating layer relu7
I0808 08:14:34.133642 26354 net.cpp:91] Creating Layer relu7
I0808 08:14:34.133647 26354 net.cpp:425] relu7 <- fc7-conv
I0808 08:14:34.133656 26354 net.cpp:386] relu7 -> fc7-conv (in-place)
I0808 08:14:34.133882 26354 net.cpp:141] Setting up relu7
I0808 08:14:34.133894 26354 net.cpp:148] Top shape: 7 4096 1 1 (28672)
I0808 08:14:34.133898 26354 net.cpp:156] Memory required for data: 1153316864
I0808 08:14:34.133901 26354 layer_factory.hpp:77] Creating layer hypercolumns
I0808 08:14:34.133910 26354 net.cpp:91] Creating Layer hypercolumns
I0808 08:14:34.133916 26354 net.cpp:425] hypercolumns <- normal
I0808 08:14:34.133922 26354 net.cpp:425] hypercolumns <- conv1_2_relu1_2_0_split_1
I0808 08:14:34.133927 26354 net.cpp:425] hypercolumns <- conv2_2_relu2_2_0_split_1
I0808 08:14:34.133932 26354 net.cpp:425] hypercolumns <- conv3_3_relu3_3_0_split_1
I0808 08:14:34.133935 26354 net.cpp:425] hypercolumns <- conv4_3_relu4_3_0_split_1
I0808 08:14:34.133939 26354 net.cpp:425] hypercolumns <- conv5_3_relu5_3_0_split_1
I0808 08:14:34.133944 26354 net.cpp:425] hypercolumns <- fc7-conv
I0808 08:14:34.133952 26354 net.cpp:399] hypercolumns -> hypercolumns
I0808 08:14:34.133973 26354 net.cpp:399] hypercolumns -> normal_point
I0808 08:14:34.134028 26354 net.cpp:141] Setting up hypercolumns
I0808 08:14:34.134037 26354 net.cpp:148] Top shape: 7000 5568 1 1 (38976000)
I0808 08:14:34.134042 26354 net.cpp:148] Top shape: 7000 3 (21000)
I0808 08:14:34.134044 26354 net.cpp:156] Memory required for data: 1309304864
I0808 08:14:34.134047 26354 layer_factory.hpp:77] Creating layer fc1
I0808 08:14:34.134059 26354 net.cpp:91] Creating Layer fc1
I0808 08:14:34.134063 26354 net.cpp:425] fc1 <- hypercolumns
I0808 08:14:34.134070 26354 net.cpp:399] fc1 -> fc1
I0808 08:14:34.425856 26354 net.cpp:141] Setting up fc1
I0808 08:14:34.425909 26354 net.cpp:148] Top shape: 7000 4096 (28672000)
I0808 08:14:34.425912 26354 net.cpp:156] Memory required for data: 1423992864
I0808 08:14:34.425930 26354 layer_factory.hpp:77] Creating layer relu1
I0808 08:14:34.425956 26354 net.cpp:91] Creating Layer relu1
I0808 08:14:34.425961 26354 net.cpp:425] relu1 <- fc1
I0808 08:14:34.425969 26354 net.cpp:386] relu1 -> fc1 (in-place)
I0808 08:14:34.426631 26354 net.cpp:141] Setting up relu1
I0808 08:14:34.426645 26354 net.cpp:148] Top shape: 7000 4096 (28672000)
I0808 08:14:34.426658 26354 net.cpp:156] Memory required for data: 1538680864
I0808 08:14:34.426661 26354 layer_factory.hpp:77] Creating layer drop1
I0808 08:14:34.426676 26354 net.cpp:91] Creating Layer drop1
I0808 08:14:34.426679 26354 net.cpp:425] drop1 <- fc1
I0808 08:14:34.426683 26354 net.cpp:386] drop1 -> fc1 (in-place)
I0808 08:14:34.426717 26354 net.cpp:141] Setting up drop1
I0808 08:14:34.426724 26354 net.cpp:148] Top shape: 7000 4096 (28672000)
I0808 08:14:34.426726 26354 net.cpp:156] Memory required for data: 1653368864
I0808 08:14:34.426748 26354 layer_factory.hpp:77] Creating layer fc2
I0808 08:14:34.426759 26354 net.cpp:91] Creating Layer fc2
I0808 08:14:34.426761 26354 net.cpp:425] fc2 <- fc1
I0808 08:14:34.426769 26354 net.cpp:399] fc2 -> fc2
I0808 08:14:34.619735 26354 net.cpp:141] Setting up fc2
I0808 08:14:34.619783 26354 net.cpp:148] Top shape: 7000 4096 (28672000)
I0808 08:14:34.619786 26354 net.cpp:156] Memory required for data: 1768056864
I0808 08:14:34.619812 26354 layer_factory.hpp:77] Creating layer relu2
I0808 08:14:34.619835 26354 net.cpp:91] Creating Layer relu2
I0808 08:14:34.619839 26354 net.cpp:425] relu2 <- fc2
I0808 08:14:34.619846 26354 net.cpp:386] relu2 -> fc2 (in-place)
I0808 08:14:34.620105 26354 net.cpp:141] Setting up relu2
I0808 08:14:34.620115 26354 net.cpp:148] Top shape: 7000 4096 (28672000)
I0808 08:14:34.620120 26354 net.cpp:156] Memory required for data: 1882744864
I0808 08:14:34.620122 26354 layer_factory.hpp:77] Creating layer drop2
I0808 08:14:34.620131 26354 net.cpp:91] Creating Layer drop2
I0808 08:14:34.620133 26354 net.cpp:425] drop2 <- fc2
I0808 08:14:34.620137 26354 net.cpp:386] drop2 -> fc2 (in-place)
I0808 08:14:34.620169 26354 net.cpp:141] Setting up drop2
I0808 08:14:34.620177 26354 net.cpp:148] Top shape: 7000 4096 (28672000)
I0808 08:14:34.620179 26354 net.cpp:156] Memory required for data: 1997432864
I0808 08:14:34.620182 26354 layer_factory.hpp:77] Creating layer fc3
I0808 08:14:34.620189 26354 net.cpp:91] Creating Layer fc3
I0808 08:14:34.620193 26354 net.cpp:425] fc3 <- fc2
I0808 08:14:34.620198 26354 net.cpp:399] fc3 -> fc3
I0808 08:14:34.620461 26354 net.cpp:141] Setting up fc3
I0808 08:14:34.620479 26354 net.cpp:148] Top shape: 7000 3 (21000)
I0808 08:14:34.620481 26354 net.cpp:156] Memory required for data: 1997516864
I0808 08:14:34.620499 26354 layer_factory.hpp:77] Creating layer loss
I0808 08:14:34.620504 26354 net.cpp:91] Creating Layer loss
I0808 08:14:34.620518 26354 net.cpp:425] loss <- fc3
I0808 08:14:34.620523 26354 net.cpp:425] loss <- normal_point
I0808 08:14:34.620528 26354 net.cpp:399] loss -> loss
I0808 08:14:34.620589 26354 net.cpp:141] Setting up loss
…
