…
type: "SGD"
I0808 13:59:07.842874 29291 solver.cpp:91] Creating training net from net file: /home/qinhong/project/normal_recovery/model/t3/train.prototxt
I0808 13:59:07.843564 29291 net.cpp:49] Initializing net from parameters: 
name: "hyper_normal_layers"
state {
  phase: TRAIN
}
layer {
  name: "data"
  type: "ImageNormalData"
  top: "data"
  top: "normal"
  transform_param {
  }
  image_data_param {
    source: "/home/qinhong/project/normal_recovery/data/source.txt"
    batch_size: 5
    shuffle: true
    new_height: 224
    new_width: 224
  }
}
layer {
  name: "conv1_1"
  type: "Convolution"
  bottom: "data"
  top: "conv1_1"
  param {
    lr_mult: 1
    decay_mult: 1
  }
  param {
    lr_mult: 2
    decay_mult: 0
  }
  convolution_param {
    num_output: 64
    pad: 1
    kernel_size: 3
  }
}
layer {
  name: "relu1_1"
  type: "ReLU"
  bottom: "conv1_1"
  top: "conv1_1"
}
layer {
  name: "conv1_2"
  type: "Convolution"
  bottom: "conv1_1"
  top: "conv1_2"
  param {
    lr_mult: 1
    decay_mult: 1
  }
  param {
    lr_mult: 2
    decay_mult: 0
  }
  convolution_param {
    num_output: 64
    pad: 1
    kernel_size: 3
  }
}
layer {
  name: "relu1_2"
  type: "ReLU"
  bottom: "conv1_2"
  top: "conv1_2"
}
layer {
  name: "pool1"
  type: "Pooling"
  bottom: "conv1_2"
  top: "pool1"
  pooling_param {
    pool: MAX
    kernel_size: 2
    stride: 2
  }
}
layer {
  name: "conv2_1"
  type: "Convolution"
  bottom: "pool1"
  top: "conv2_1"
  param {
    lr_mult: 1
    decay_mult: 1
  }
  param {
    lr_mult: 2
    decay_mult: 0
  }
  convolution_param {
    num_output: 128
    pad: 1
    kernel_size: 3
  }
}
layer {
  name: "relu2_1"
  type: "ReLU"
  bottom: "conv2_1"
  top: "conv2_1"
}
layer {
  name: "conv2_2"
  type: "Convolution"
  bottom: "conv2_1"
  top: "conv2_2"
  param {
    lr_mult: 1
    decay_mult: 1
  }
  param {
    lr_mult: 2
    decay_mult: 0
  }
  convolution_param {
    num_output: 128
    pad: 1
    kernel_size: 3
  }
}
layer {
  name: "relu2_2"
  type: "ReLU"
  bottom: "conv2_2"
  top: "conv2_2"
}
layer {
  name: "pool2"
  type: "Pooling"
  bottom: "conv2_2"
  top: "pool2"
  pooling_param {
    pool: MAX
    kernel_size: 2
    stride: 2
  }
}
layer {
  name: "conv3_1"
  type: "Convolution"
  bottom: "pool2"
  top: "conv3_1"
  param {
    lr_mult: 1
    decay_mult: 1
  }
  param {
    lr_mult: 2
    decay_mult: 0
  }
  convolution_param {
    num_output: 256
    pad: 1
    kernel_size: 3
  }
}
layer {
  name: "relu3_1"
  type: "ReLU"
  bottom: "conv3_1"
  top: "conv3_1"
}
layer {
  name: "conv3_2"
  type: "Convolution"
  bottom: "conv3_1"
  top: "conv3_2"
  param {
    lr_mult: 1
    decay_mult: 1
  }
  param {
    lr_mult: 2
    decay_mult: 0
  }
  convolution_param {
    num_output: 256
    pad: 1
    kernel_size: 3
  }
}
layer {
  name: "relu3_2"
  type: "ReLU"
  bottom: "conv3_2"
  top: "conv3_2"
}
layer {
  name: "conv3_3"
  type: "Convolution"
  bottom: "conv3_2"
  top: "conv3_3"
  param {
    lr_mult: 1
    decay_mult: 1
  }
  param {
    lr_mult: 2
    decay_mult: 0
  }
  convolution_param {
    num_output: 256
    pad: 1
    kernel_size: 3
  }
}
layer {
  name: "relu3_3"
  type: "ReLU"
  bottom: "conv3_3"
  top: "conv3_3"
}
layer {
  name: "pool3"
  type: "Pooling"
  bottom: "conv3_3"
  top: "pool3"
  pooling_param {
    pool: MAX
    kernel_size: 2
    stride: 2
  }
}
layer {
  name: "conv4_1"
  type: "Convolution"
  bottom: "pool3"
  top: "conv4_1"
  param {
    lr_mult: 1
    decay_mult: 1
  }
  param {
    lr_mult: 2
    decay_mult: 0
  }
  convolution_param {
    num_output: 512
    pad: 1
    kernel_size: 3
  }
}
layer {
  name: "relu4_1"
  type: "ReLU"
  bottom: "conv4_1"
  top: "conv4_1"
}
layer {
  name: "conv4_2"
  type: "Convolution"
  bottom: "conv4_1"
  top: "conv4_2"
  param {
    lr_mult: 1
    decay_mult: 1
  }
  param {
    lr_mult: 2
    decay_mult: 0
  }
  convolution_param {
    num_output: 512
    pad: 1
    kernel_size: 3
  }
}
layer {
  name: "relu4_2"
  type: "ReLU"
  bottom: "conv4_2"
  top: "conv4_2"
}
layer {
  name: "conv4_3"
  type: "Convolution"
  bottom: "conv4_2"
  top: "conv4_3"
  param {
    lr_mult: 1
    decay_mult: 1
  }
  param {
    lr_mult: 2
    decay_mult: 0
  }
  convolution_param {
    num_output: 512
    pad: 1
    kernel_size: 3
  }
}
layer {
  name: "relu4_3"
  type: "ReLU"
  bottom: "conv4_3"
  top: "conv4_3"
}
layer {
  name: "pool4"
  type: "Pooling"
  bottom: "conv4_3"
  top: "pool4"
  pooling_param {
    pool: MAX
    kernel_size: 2
    stride: 2
  }
}
layer {
  name: "conv5_1"
  type: "Convolution"
  bottom: "pool4"
  top: "conv5_1"
  param {
    lr_mult: 1
    decay_mult: 1
  }
  param {
    lr_mult: 2
    decay_mult: 0
  }
  convolution_param {
    num_output: 512
    pad: 1
    kernel_size: 3
  }
}
layer {
  name: "relu5_1"
  type: "ReLU"
  bottom: "conv5_1"
  top: "conv5_1"
}
layer {
  name: "conv5_2"
  type: "Convolution"
  bottom: "conv5_1"
  top: "conv5_2"
  param {
    lr_mult: 1
    decay_mult: 1
  }
  param {
    lr_mult: 2
    decay_mult: 0
  }
  convolution_param {
    num_output: 512
    pad: 1
    kernel_size: 3
  }
}
layer {
  name: "relu5_2"
  type: "ReLU"
  bottom: "conv5_2"
  top: "conv5_2"
}
layer {
  name: "conv5_3"
  type: "Convolution"
  bottom: "conv5_2"
  top: "conv5_3"
  param {
    lr_mult: 1
    decay_mult: 1
  }
  param {
    lr_mult: 2
    decay_mult: 0
  }
  convolution_param {
    num_output: 512
    pad: 1
    kernel_size: 3
  }
}
layer {
  name: "relu5_3"
  type: "ReLU"
  bottom: "conv5_3"
  top: "conv5_3"
}
layer {
  name: "pool5"
  type: "Pooling"
  bottom: "conv5_3"
  top: "pool5"
  pooling_param {
    pool: MAX
    kernel_size: 2
    stride: 2
  }
}
layer {
  name: "fc6-conv"
  type: "Convolution"
  bottom: "pool5"
  top: "fc6-conv"
  param {
    lr_mult: 1
    decay_mult: 1
  }
  param {
    lr_mult: 2
    decay_mult: 0
  }
  convolution_param {
    num_output: 4096
    kernel_size: 7
  }
}
layer {
  name: "relu6"
  type: "ReLU"
  bottom: "fc6-conv"
  top: "fc6-conv"
}
layer {
  name: "drop6"
  type: "Dropout"
  bottom: "fc6-conv"
  top: "fc6-conv"
  dropout_param {
    dropout_ratio: 0.5
  }
}
layer {
  name: "fc7-conv"
  type: "Convolution"
  bottom: "fc6-conv"
  top: "fc7-conv"
  param {
    lr_mult: 1
    decay_mult: 1
  }
  param {
    lr_mult: 2
    decay_mult: 0
  }
  convolution_param {
    num_output: 4096
    kernel_size: 1
  }
}
layer {
  name: "relu7"
  type: "ReLU"
  bottom: "fc7-conv"
  top: "fc7-conv"
}
layer {
  name: "hypercolumns"
  type: "HyperColumns"
  bottom: "normal"
  bottom: "conv1_2"
  bottom: "conv2_2"
  bottom: "conv3_3"
  bottom: "conv4_3"
  bottom: "conv5_3"
  bottom: "fc7-conv"
  top: "hypercolumns"
  top: "normal_point"
  hypercolumns_param {
    is_train: true
  }
}
layer {
  name: "fc1"
  type: "InnerProduct"
  bottom: "hypercolumns"
  top: "fc1"
  param {
    lr_mult: 1
    decay_mult: 1
  }
  param {
    lr_mult: 2
    decay_mult: 0
  }
  inner_product_param {
    num_output: 4096
    weight_filler {
      type: "gaussian"
      std: 0.003
    }
    bias_filler {
      type: "constant"
      value: 0
    }
  }
}
layer {
  name: "relu1"
  type: "ReLU"
  bottom: "fc1"
  top: "fc1"
}
layer {
  name: "drop1"
  type: "Dropout"
  bottom: "fc1"
  top: "fc1"
  dropout_param {
    dropout_ratio: 0.5
  }
}
layer {
  name: "fc2"
  type: "InnerProduct"
  bottom: "fc1"
  top: "fc2"
  param {
    lr_mult: 1
    decay_mult: 1
  }
  param {
    lr_mult: 2
    decay_mult: 0
  }
  inner_product_param {
    num_output: 4096
    weight_filler {
      type: "gaussian"
      std: 0.002
    }
    bias_filler {
      type: "constant"
      value: 0
    }
  }
}
layer {
  name: "relu2"
  type: "ReLU"
  bottom: "fc2"
  top: "fc2"
}
layer {
  name: "drop2"
  type: "Dropout"
  bottom: "fc2"
  top: "fc2"
  dropout_param {
    dropout_ratio: 0.5
  }
}
layer {
  name: "fc3"
  type: "InnerProduct"
  bottom: "fc2"
  top: "fc3"
  param {
    lr_mult: 1
    decay_mult: 1
  }
  param {
    lr_mult: 2
    decay_mult: 0
  }
  inner_product_param {
    num_output: 3
    weight_filler {
      type: "gaussian"
      std: 0.001
    }
    bias_filler {
      type: "constant"
      value: 0
    }
  }
}
layer {
  name: "loss"
  type: "EuclideanLoss"
  bottom: "fc3"
  bottom: "normal_point"
  top: "loss"
  propagate_down: true
  propagate_down: false
}
I0808 13:59:07.843806 29291 layer_factory.hpp:77] Creating layer data
I0808 13:59:07.843842 29291 net.cpp:91] Creating Layer data
I0808 13:59:07.843850 29291 net.cpp:399] data -> data
I0808 13:59:07.843878 29291 net.cpp:399] data -> normal
I0808 13:59:07.843899 29291 image_normal_data_layer.cpp:43] opeing file /home/qinhong/project/normal_recovery/data/source.txt
I0808 13:59:07.848356 29291 image_normal_data_layer.cpp:54] Shuffing data
I0808 13:59:07.849683 29291 image_normal_data_layer.cpp:59] A total of 4105 images.
I0808 13:59:07.873944 29291 image_normal_data_layer.cpp:79] output data size: 5,3,224,224
I0808 13:59:07.884599 29291 net.cpp:141] Setting up data
I0808 13:59:07.884626 29291 net.cpp:148] Top shape: 5 3 224 224 (752640)
I0808 13:59:07.884634 29291 net.cpp:148] Top shape: 5 3 224 224 (752640)
I0808 13:59:07.884636 29291 net.cpp:156] Memory required for data: 6021120
I0808 13:59:07.884644 29291 layer_factory.hpp:77] Creating layer conv1_1
I0808 13:59:07.884666 29291 net.cpp:91] Creating Layer conv1_1
I0808 13:59:07.884673 29291 net.cpp:425] conv1_1 <- data
I0808 13:59:07.884688 29291 net.cpp:399] conv1_1 -> conv1_1
I0808 13:59:08.125895 29291 net.cpp:141] Setting up conv1_1
I0808 13:59:08.125937 29291 net.cpp:148] Top shape: 5 64 224 224 (16056320)
I0808 13:59:08.125944 29291 net.cpp:156] Memory required for data: 70246400
I0808 13:59:08.125980 29291 layer_factory.hpp:77] Creating layer relu1_1
I0808 13:59:08.126000 29291 net.cpp:91] Creating Layer relu1_1
I0808 13:59:08.126009 29291 net.cpp:425] relu1_1 <- conv1_1
I0808 13:59:08.126019 29291 net.cpp:386] relu1_1 -> conv1_1 (in-place)
I0808 13:59:08.126518 29291 net.cpp:141] Setting up relu1_1
I0808 13:59:08.126540 29291 net.cpp:148] Top shape: 5 64 224 224 (16056320)
I0808 13:59:08.126545 29291 net.cpp:156] Memory required for data: 134471680
I0808 13:59:08.126552 29291 layer_factory.hpp:77] Creating layer conv1_2
I0808 13:59:08.126569 29291 net.cpp:91] Creating Layer conv1_2
I0808 13:59:08.126575 29291 net.cpp:425] conv1_2 <- conv1_1
I0808 13:59:08.126585 29291 net.cpp:399] conv1_2 -> conv1_2
I0808 13:59:08.128357 29291 net.cpp:141] Setting up conv1_2
I0808 13:59:08.128382 29291 net.cpp:148] Top shape: 5 64 224 224 (16056320)
I0808 13:59:08.128387 29291 net.cpp:156] Memory required for data: 198696960
I0808 13:59:08.128403 29291 layer_factory.hpp:77] Creating layer relu1_2
I0808 13:59:08.128417 29291 net.cpp:91] Creating Layer relu1_2
I0808 13:59:08.128422 29291 net.cpp:425] relu1_2 <- conv1_2
I0808 13:59:08.128433 29291 net.cpp:386] relu1_2 -> conv1_2 (in-place)
I0808 13:59:08.128893 29291 net.cpp:141] Setting up relu1_2
I0808 13:59:08.128914 29291 net.cpp:148] Top shape: 5 64 224 224 (16056320)
I0808 13:59:08.128919 29291 net.cpp:156] Memory required for data: 262922240
I0808 13:59:08.128924 29291 layer_factory.hpp:77] Creating layer conv1_2_relu1_2_0_split
I0808 13:59:08.128936 29291 net.cpp:91] Creating Layer conv1_2_relu1_2_0_split
I0808 13:59:08.128942 29291 net.cpp:425] conv1_2_relu1_2_0_split <- conv1_2
I0808 13:59:08.128953 29291 net.cpp:399] conv1_2_relu1_2_0_split -> conv1_2_relu1_2_0_split_0
I0808 13:59:08.128968 29291 net.cpp:399] conv1_2_relu1_2_0_split -> conv1_2_relu1_2_0_split_1
I0808 13:59:08.129050 29291 net.cpp:141] Setting up conv1_2_relu1_2_0_split
I0808 13:59:08.129061 29291 net.cpp:148] Top shape: 5 64 224 224 (16056320)
I0808 13:59:08.129068 29291 net.cpp:148] Top shape: 5 64 224 224 (16056320)
I0808 13:59:08.129073 29291 net.cpp:156] Memory required for data: 391372800
I0808 13:59:08.129078 29291 layer_factory.hpp:77] Creating layer pool1
I0808 13:59:08.129120 29291 net.cpp:91] Creating Layer pool1
I0808 13:59:08.129127 29291 net.cpp:425] pool1 <- conv1_2_relu1_2_0_split_0
I0808 13:59:08.129137 29291 net.cpp:399] pool1 -> pool1
I0808 13:59:08.129220 29291 net.cpp:141] Setting up pool1
I0808 13:59:08.129233 29291 net.cpp:148] Top shape: 5 64 112 112 (4014080)
I0808 13:59:08.129238 29291 net.cpp:156] Memory required for data: 407429120
I0808 13:59:08.129243 29291 layer_factory.hpp:77] Creating layer conv2_1
I0808 13:59:08.129261 29291 net.cpp:91] Creating Layer conv2_1
I0808 13:59:08.129267 29291 net.cpp:425] conv2_1 <- pool1
I0808 13:59:08.129276 29291 net.cpp:399] conv2_1 -> conv2_1
I0808 13:59:08.132565 29291 net.cpp:141] Setting up conv2_1
I0808 13:59:08.132591 29291 net.cpp:148] Top shape: 5 128 112 112 (8028160)
I0808 13:59:08.132596 29291 net.cpp:156] Memory required for data: 439541760
I0808 13:59:08.132612 29291 layer_factory.hpp:77] Creating layer relu2_1
I0808 13:59:08.132627 29291 net.cpp:91] Creating Layer relu2_1
I0808 13:59:08.132632 29291 net.cpp:425] relu2_1 <- conv2_1
I0808 13:59:08.132642 29291 net.cpp:386] relu2_1 -> conv2_1 (in-place)
I0808 13:59:08.132946 29291 net.cpp:141] Setting up relu2_1
I0808 13:59:08.132961 29291 net.cpp:148] Top shape: 5 128 112 112 (8028160)
I0808 13:59:08.132966 29291 net.cpp:156] Memory required for data: 471654400
I0808 13:59:08.132971 29291 layer_factory.hpp:77] Creating layer conv2_2
I0808 13:59:08.132984 29291 net.cpp:91] Creating Layer conv2_2
I0808 13:59:08.132989 29291 net.cpp:425] conv2_2 <- conv2_1
I0808 13:59:08.133000 29291 net.cpp:399] conv2_2 -> conv2_2
I0808 13:59:08.134799 29291 net.cpp:141] Setting up conv2_2
I0808 13:59:08.134826 29291 net.cpp:148] Top shape: 5 128 112 112 (8028160)
I0808 13:59:08.134831 29291 net.cpp:156] Memory required for data: 503767040
I0808 13:59:08.134841 29291 layer_factory.hpp:77] Creating layer relu2_2
I0808 13:59:08.134850 29291 net.cpp:91] Creating Layer relu2_2
I0808 13:59:08.134856 29291 net.cpp:425] relu2_2 <- conv2_2
I0808 13:59:08.134866 29291 net.cpp:386] relu2_2 -> conv2_2 (in-place)
I0808 13:59:08.135316 29291 net.cpp:141] Setting up relu2_2
I0808 13:59:08.135337 29291 net.cpp:148] Top shape: 5 128 112 112 (8028160)
I0808 13:59:08.135344 29291 net.cpp:156] Memory required for data: 535879680
I0808 13:59:08.135350 29291 layer_factory.hpp:77] Creating layer conv2_2_relu2_2_0_split
I0808 13:59:08.135360 29291 net.cpp:91] Creating Layer conv2_2_relu2_2_0_split
I0808 13:59:08.135365 29291 net.cpp:425] conv2_2_relu2_2_0_split <- conv2_2
I0808 13:59:08.135375 29291 net.cpp:399] conv2_2_relu2_2_0_split -> conv2_2_relu2_2_0_split_0
I0808 13:59:08.135386 29291 net.cpp:399] conv2_2_relu2_2_0_split -> conv2_2_relu2_2_0_split_1
I0808 13:59:08.135457 29291 net.cpp:141] Setting up conv2_2_relu2_2_0_split
I0808 13:59:08.135468 29291 net.cpp:148] Top shape: 5 128 112 112 (8028160)
I0808 13:59:08.135474 29291 net.cpp:148] Top shape: 5 128 112 112 (8028160)
I0808 13:59:08.135479 29291 net.cpp:156] Memory required for data: 600104960
I0808 13:59:08.135483 29291 layer_factory.hpp:77] Creating layer pool2
I0808 13:59:08.135493 29291 net.cpp:91] Creating Layer pool2
I0808 13:59:08.135499 29291 net.cpp:425] pool2 <- conv2_2_relu2_2_0_split_0
I0808 13:59:08.135510 29291 net.cpp:399] pool2 -> pool2
I0808 13:59:08.135573 29291 net.cpp:141] Setting up pool2
I0808 13:59:08.135586 29291 net.cpp:148] Top shape: 5 128 56 56 (2007040)
I0808 13:59:08.135589 29291 net.cpp:156] Memory required for data: 608133120
I0808 13:59:08.135593 29291 layer_factory.hpp:77] Creating layer conv3_1
I0808 13:59:08.135604 29291 net.cpp:91] Creating Layer conv3_1
I0808 13:59:08.135609 29291 net.cpp:425] conv3_1 <- pool2
I0808 13:59:08.135619 29291 net.cpp:399] conv3_1 -> conv3_1
I0808 13:59:08.138195 29291 net.cpp:141] Setting up conv3_1
I0808 13:59:08.138219 29291 net.cpp:148] Top shape: 5 256 56 56 (4014080)
I0808 13:59:08.138227 29291 net.cpp:156] Memory required for data: 624189440
I0808 13:59:08.138242 29291 layer_factory.hpp:77] Creating layer relu3_1
I0808 13:59:08.138252 29291 net.cpp:91] Creating Layer relu3_1
I0808 13:59:08.138278 29291 net.cpp:425] relu3_1 <- conv3_1
I0808 13:59:08.138288 29291 net.cpp:386] relu3_1 -> conv3_1 (in-place)
I0808 13:59:08.138743 29291 net.cpp:141] Setting up relu3_1
I0808 13:59:08.138763 29291 net.cpp:148] Top shape: 5 256 56 56 (4014080)
I0808 13:59:08.138768 29291 net.cpp:156] Memory required for data: 640245760
I0808 13:59:08.138773 29291 layer_factory.hpp:77] Creating layer conv3_2
I0808 13:59:08.138788 29291 net.cpp:91] Creating Layer conv3_2
I0808 13:59:08.138793 29291 net.cpp:425] conv3_2 <- conv3_1
I0808 13:59:08.138805 29291 net.cpp:399] conv3_2 -> conv3_2
I0808 13:59:08.142433 29291 net.cpp:141] Setting up conv3_2
I0808 13:59:08.142455 29291 net.cpp:148] Top shape: 5 256 56 56 (4014080)
I0808 13:59:08.142460 29291 net.cpp:156] Memory required for data: 656302080
I0808 13:59:08.142470 29291 layer_factory.hpp:77] Creating layer relu3_2
I0808 13:59:08.142483 29291 net.cpp:91] Creating Layer relu3_2
I0808 13:59:08.142489 29291 net.cpp:425] relu3_2 <- conv3_2
I0808 13:59:08.142498 29291 net.cpp:386] relu3_2 -> conv3_2 (in-place)
I0808 13:59:08.142777 29291 net.cpp:141] Setting up relu3_2
I0808 13:59:08.142791 29291 net.cpp:148] Top shape: 5 256 56 56 (4014080)
I0808 13:59:08.142796 29291 net.cpp:156] Memory required for data: 672358400
I0808 13:59:08.142801 29291 layer_factory.hpp:77] Creating layer conv3_3
I0808 13:59:08.142813 29291 net.cpp:91] Creating Layer conv3_3
I0808 13:59:08.142818 29291 net.cpp:425] conv3_3 <- conv3_2
I0808 13:59:08.142827 29291 net.cpp:399] conv3_3 -> conv3_3
I0808 13:59:08.146427 29291 net.cpp:141] Setting up conv3_3
I0808 13:59:08.146450 29291 net.cpp:148] Top shape: 5 256 56 56 (4014080)
I0808 13:59:08.146456 29291 net.cpp:156] Memory required for data: 688414720
I0808 13:59:08.146466 29291 layer_factory.hpp:77] Creating layer relu3_3
I0808 13:59:08.146473 29291 net.cpp:91] Creating Layer relu3_3
I0808 13:59:08.146478 29291 net.cpp:425] relu3_3 <- conv3_3
I0808 13:59:08.146488 29291 net.cpp:386] relu3_3 -> conv3_3 (in-place)
I0808 13:59:08.146929 29291 net.cpp:141] Setting up relu3_3
I0808 13:59:08.146948 29291 net.cpp:148] Top shape: 5 256 56 56 (4014080)
I0808 13:59:08.146952 29291 net.cpp:156] Memory required for data: 704471040
I0808 13:59:08.146957 29291 layer_factory.hpp:77] Creating layer conv3_3_relu3_3_0_split
I0808 13:59:08.146970 29291 net.cpp:91] Creating Layer conv3_3_relu3_3_0_split
I0808 13:59:08.146975 29291 net.cpp:425] conv3_3_relu3_3_0_split <- conv3_3
I0808 13:59:08.146983 29291 net.cpp:399] conv3_3_relu3_3_0_split -> conv3_3_relu3_3_0_split_0
I0808 13:59:08.146994 29291 net.cpp:399] conv3_3_relu3_3_0_split -> conv3_3_relu3_3_0_split_1
I0808 13:59:08.147069 29291 net.cpp:141] Setting up conv3_3_relu3_3_0_split
I0808 13:59:08.147079 29291 net.cpp:148] Top shape: 5 256 56 56 (4014080)
I0808 13:59:08.147085 29291 net.cpp:148] Top shape: 5 256 56 56 (4014080)
I0808 13:59:08.147090 29291 net.cpp:156] Memory required for data: 736583680
I0808 13:59:08.147094 29291 layer_factory.hpp:77] Creating layer pool3
I0808 13:59:08.147104 29291 net.cpp:91] Creating Layer pool3
I0808 13:59:08.147112 29291 net.cpp:425] pool3 <- conv3_3_relu3_3_0_split_0
I0808 13:59:08.147119 29291 net.cpp:399] pool3 -> pool3
I0808 13:59:08.147181 29291 net.cpp:141] Setting up pool3
I0808 13:59:08.147191 29291 net.cpp:148] Top shape: 5 256 28 28 (1003520)
I0808 13:59:08.147194 29291 net.cpp:156] Memory required for data: 740597760
I0808 13:59:08.147199 29291 layer_factory.hpp:77] Creating layer conv4_1
I0808 13:59:08.147212 29291 net.cpp:91] Creating Layer conv4_1
I0808 13:59:08.147218 29291 net.cpp:425] conv4_1 <- pool3
I0808 13:59:08.147228 29291 net.cpp:399] conv4_1 -> conv4_1
I0808 13:59:08.152907 29291 net.cpp:141] Setting up conv4_1
I0808 13:59:08.152931 29291 net.cpp:148] Top shape: 5 512 28 28 (2007040)
I0808 13:59:08.152936 29291 net.cpp:156] Memory required for data: 748625920
I0808 13:59:08.152945 29291 layer_factory.hpp:77] Creating layer relu4_1
I0808 13:59:08.152954 29291 net.cpp:91] Creating Layer relu4_1
I0808 13:59:08.152961 29291 net.cpp:425] relu4_1 <- conv4_1
I0808 13:59:08.152988 29291 net.cpp:386] relu4_1 -> conv4_1 (in-place)
I0808 13:59:08.153420 29291 net.cpp:141] Setting up relu4_1
I0808 13:59:08.153440 29291 net.cpp:148] Top shape: 5 512 28 28 (2007040)
I0808 13:59:08.153445 29291 net.cpp:156] Memory required for data: 756654080
I0808 13:59:08.153450 29291 layer_factory.hpp:77] Creating layer conv4_2
I0808 13:59:08.153462 29291 net.cpp:91] Creating Layer conv4_2
I0808 13:59:08.153468 29291 net.cpp:425] conv4_2 <- conv4_1
I0808 13:59:08.153478 29291 net.cpp:399] conv4_2 -> conv4_2
I0808 13:59:08.161742 29291 net.cpp:141] Setting up conv4_2
I0808 13:59:08.161787 29291 net.cpp:148] Top shape: 5 512 28 28 (2007040)
I0808 13:59:08.161792 29291 net.cpp:156] Memory required for data: 764682240
I0808 13:59:08.161808 29291 layer_factory.hpp:77] Creating layer relu4_2
I0808 13:59:08.161818 29291 net.cpp:91] Creating Layer relu4_2
I0808 13:59:08.161823 29291 net.cpp:425] relu4_2 <- conv4_2
I0808 13:59:08.161831 29291 net.cpp:386] relu4_2 -> conv4_2 (in-place)
I0808 13:59:08.162098 29291 net.cpp:141] Setting up relu4_2
I0808 13:59:08.162112 29291 net.cpp:148] Top shape: 5 512 28 28 (2007040)
I0808 13:59:08.162117 29291 net.cpp:156] Memory required for data: 772710400
I0808 13:59:08.162122 29291 layer_factory.hpp:77] Creating layer conv4_3
I0808 13:59:08.162133 29291 net.cpp:91] Creating Layer conv4_3
I0808 13:59:08.162138 29291 net.cpp:425] conv4_3 <- conv4_2
I0808 13:59:08.162145 29291 net.cpp:399] conv4_3 -> conv4_3
I0808 13:59:08.170195 29291 net.cpp:141] Setting up conv4_3
I0808 13:59:08.170217 29291 net.cpp:148] Top shape: 5 512 28 28 (2007040)
I0808 13:59:08.170222 29291 net.cpp:156] Memory required for data: 780738560
I0808 13:59:08.170230 29291 layer_factory.hpp:77] Creating layer relu4_3
I0808 13:59:08.170238 29291 net.cpp:91] Creating Layer relu4_3
I0808 13:59:08.170243 29291 net.cpp:425] relu4_3 <- conv4_3
I0808 13:59:08.170251 29291 net.cpp:386] relu4_3 -> conv4_3 (in-place)
I0808 13:59:08.170641 29291 net.cpp:141] Setting up relu4_3
I0808 13:59:08.170658 29291 net.cpp:148] Top shape: 5 512 28 28 (2007040)
I0808 13:59:08.170662 29291 net.cpp:156] Memory required for data: 788766720
I0808 13:59:08.170666 29291 layer_factory.hpp:77] Creating layer conv4_3_relu4_3_0_split
I0808 13:59:08.170677 29291 net.cpp:91] Creating Layer conv4_3_relu4_3_0_split
I0808 13:59:08.170681 29291 net.cpp:425] conv4_3_relu4_3_0_split <- conv4_3
I0808 13:59:08.170689 29291 net.cpp:399] conv4_3_relu4_3_0_split -> conv4_3_relu4_3_0_split_0
I0808 13:59:08.170701 29291 net.cpp:399] conv4_3_relu4_3_0_split -> conv4_3_relu4_3_0_split_1
I0808 13:59:08.170763 29291 net.cpp:141] Setting up conv4_3_relu4_3_0_split
I0808 13:59:08.170773 29291 net.cpp:148] Top shape: 5 512 28 28 (2007040)
I0808 13:59:08.170778 29291 net.cpp:148] Top shape: 5 512 28 28 (2007040)
I0808 13:59:08.170783 29291 net.cpp:156] Memory required for data: 804823040
I0808 13:59:08.170786 29291 layer_factory.hpp:77] Creating layer pool4
I0808 13:59:08.170796 29291 net.cpp:91] Creating Layer pool4
I0808 13:59:08.170800 29291 net.cpp:425] pool4 <- conv4_3_relu4_3_0_split_0
I0808 13:59:08.170806 29291 net.cpp:399] pool4 -> pool4
I0808 13:59:08.170867 29291 net.cpp:141] Setting up pool4
I0808 13:59:08.170876 29291 net.cpp:148] Top shape: 5 512 14 14 (501760)
I0808 13:59:08.170879 29291 net.cpp:156] Memory required for data: 806830080
I0808 13:59:08.170883 29291 layer_factory.hpp:77] Creating layer conv5_1
I0808 13:59:08.170894 29291 net.cpp:91] Creating Layer conv5_1
I0808 13:59:08.170900 29291 net.cpp:425] conv5_1 <- pool4
I0808 13:59:08.170907 29291 net.cpp:399] conv5_1 -> conv5_1
I0808 13:59:08.178804 29291 net.cpp:141] Setting up conv5_1
I0808 13:59:08.178828 29291 net.cpp:148] Top shape: 5 512 14 14 (501760)
I0808 13:59:08.178831 29291 net.cpp:156] Memory required for data: 808837120
I0808 13:59:08.178840 29291 layer_factory.hpp:77] Creating layer relu5_1
I0808 13:59:08.178848 29291 net.cpp:91] Creating Layer relu5_1
I0808 13:59:08.178853 29291 net.cpp:425] relu5_1 <- conv5_1
I0808 13:59:08.178860 29291 net.cpp:386] relu5_1 -> conv5_1 (in-place)
I0808 13:59:08.179242 29291 net.cpp:141] Setting up relu5_1
I0808 13:59:08.179260 29291 net.cpp:148] Top shape: 5 512 14 14 (501760)
I0808 13:59:08.179262 29291 net.cpp:156] Memory required for data: 810844160
I0808 13:59:08.179267 29291 layer_factory.hpp:77] Creating layer conv5_2
I0808 13:59:08.179280 29291 net.cpp:91] Creating Layer conv5_2
I0808 13:59:08.179285 29291 net.cpp:425] conv5_2 <- conv5_1
I0808 13:59:08.179292 29291 net.cpp:399] conv5_2 -> conv5_2
I0808 13:59:08.186897 29291 net.cpp:141] Setting up conv5_2
I0808 13:59:08.186921 29291 net.cpp:148] Top shape: 5 512 14 14 (501760)
I0808 13:59:08.186926 29291 net.cpp:156] Memory required for data: 812851200
I0808 13:59:08.186935 29291 layer_factory.hpp:77] Creating layer relu5_2
I0808 13:59:08.186951 29291 net.cpp:91] Creating Layer relu5_2
I0808 13:59:08.186956 29291 net.cpp:425] relu5_2 <- conv5_2
I0808 13:59:08.186964 29291 net.cpp:386] relu5_2 -> conv5_2 (in-place)
I0808 13:59:08.187211 29291 net.cpp:141] Setting up relu5_2
I0808 13:59:08.187224 29291 net.cpp:148] Top shape: 5 512 14 14 (501760)
I0808 13:59:08.187227 29291 net.cpp:156] Memory required for data: 814858240
I0808 13:59:08.187232 29291 layer_factory.hpp:77] Creating layer conv5_3
I0808 13:59:08.187244 29291 net.cpp:91] Creating Layer conv5_3
I0808 13:59:08.187250 29291 net.cpp:425] conv5_3 <- conv5_2
I0808 13:59:08.187258 29291 net.cpp:399] conv5_3 -> conv5_3
I0808 13:59:08.194638 29291 net.cpp:141] Setting up conv5_3
I0808 13:59:08.194658 29291 net.cpp:148] Top shape: 5 512 14 14 (501760)
I0808 13:59:08.194661 29291 net.cpp:156] Memory required for data: 816865280
I0808 13:59:08.194669 29291 layer_factory.hpp:77] Creating layer relu5_3
I0808 13:59:08.194679 29291 net.cpp:91] Creating Layer relu5_3
I0808 13:59:08.194682 29291 net.cpp:425] relu5_3 <- conv5_3
I0808 13:59:08.194689 29291 net.cpp:386] relu5_3 -> conv5_3 (in-place)
I0808 13:59:08.195046 29291 net.cpp:141] Setting up relu5_3
I0808 13:59:08.195062 29291 net.cpp:148] Top shape: 5 512 14 14 (501760)
I0808 13:59:08.195065 29291 net.cpp:156] Memory required for data: 818872320
I0808 13:59:08.195070 29291 layer_factory.hpp:77] Creating layer conv5_3_relu5_3_0_split
I0808 13:59:08.195081 29291 net.cpp:91] Creating Layer conv5_3_relu5_3_0_split
I0808 13:59:08.195086 29291 net.cpp:425] conv5_3_relu5_3_0_split <- conv5_3
I0808 13:59:08.195092 29291 net.cpp:399] conv5_3_relu5_3_0_split -> conv5_3_relu5_3_0_split_0
I0808 13:59:08.195101 29291 net.cpp:399] conv5_3_relu5_3_0_split -> conv5_3_relu5_3_0_split_1
I0808 13:59:08.195163 29291 net.cpp:141] Setting up conv5_3_relu5_3_0_split
I0808 13:59:08.195173 29291 net.cpp:148] Top shape: 5 512 14 14 (501760)
I0808 13:59:08.195176 29291 net.cpp:148] Top shape: 5 512 14 14 (501760)
I0808 13:59:08.195179 29291 net.cpp:156] Memory required for data: 822886400
I0808 13:59:08.195183 29291 layer_factory.hpp:77] Creating layer pool5
I0808 13:59:08.195194 29291 net.cpp:91] Creating Layer pool5
I0808 13:59:08.195199 29291 net.cpp:425] pool5 <- conv5_3_relu5_3_0_split_0
I0808 13:59:08.195205 29291 net.cpp:399] pool5 -> pool5
I0808 13:59:08.195256 29291 net.cpp:141] Setting up pool5
I0808 13:59:08.195264 29291 net.cpp:148] Top shape: 5 512 7 7 (125440)
I0808 13:59:08.195268 29291 net.cpp:156] Memory required for data: 823388160
I0808 13:59:08.195271 29291 layer_factory.hpp:77] Creating layer fc6-conv
I0808 13:59:08.195281 29291 net.cpp:91] Creating Layer fc6-conv
I0808 13:59:08.195286 29291 net.cpp:425] fc6-conv <- pool5
I0808 13:59:08.195292 29291 net.cpp:399] fc6-conv -> fc6-conv
I0808 13:59:08.470675 29291 net.cpp:141] Setting up fc6-conv
I0808 13:59:08.470721 29291 net.cpp:148] Top shape: 5 4096 1 1 (20480)
I0808 13:59:08.470724 29291 net.cpp:156] Memory required for data: 823470080
I0808 13:59:08.470734 29291 layer_factory.hpp:77] Creating layer relu6
I0808 13:59:08.470746 29291 net.cpp:91] Creating Layer relu6
I0808 13:59:08.470752 29291 net.cpp:425] relu6 <- fc6-conv
I0808 13:59:08.470760 29291 net.cpp:386] relu6 -> fc6-conv (in-place)
I0808 13:59:08.471067 29291 net.cpp:141] Setting up relu6
I0808 13:59:08.471098 29291 net.cpp:148] Top shape: 5 4096 1 1 (20480)
I0808 13:59:08.471102 29291 net.cpp:156] Memory required for data: 823552000
I0808 13:59:08.471106 29291 layer_factory.hpp:77] Creating layer drop6
I0808 13:59:08.471113 29291 net.cpp:91] Creating Layer drop6
I0808 13:59:08.471117 29291 net.cpp:425] drop6 <- fc6-conv
I0808 13:59:08.471124 29291 net.cpp:386] drop6 -> fc6-conv (in-place)
I0808 13:59:08.471166 29291 net.cpp:141] Setting up drop6
I0808 13:59:08.471175 29291 net.cpp:148] Top shape: 5 4096 1 1 (20480)
I0808 13:59:08.471179 29291 net.cpp:156] Memory required for data: 823633920
I0808 13:59:08.471181 29291 layer_factory.hpp:77] Creating layer fc7-conv
I0808 13:59:08.471194 29291 net.cpp:91] Creating Layer fc7-conv
I0808 13:59:08.471197 29291 net.cpp:425] fc7-conv <- fc6-conv
I0808 13:59:08.471202 29291 net.cpp:399] fc7-conv -> fc7-conv
I0808 13:59:08.517508 29291 net.cpp:141] Setting up fc7-conv
I0808 13:59:08.517552 29291 net.cpp:148] Top shape: 5 4096 1 1 (20480)
I0808 13:59:08.517556 29291 net.cpp:156] Memory required for data: 823715840
I0808 13:59:08.517567 29291 layer_factory.hpp:77] Creating layer relu7
I0808 13:59:08.517580 29291 net.cpp:91] Creating Layer relu7
I0808 13:59:08.517585 29291 net.cpp:425] relu7 <- fc7-conv
I0808 13:59:08.517593 29291 net.cpp:386] relu7 -> fc7-conv (in-place)
I0808 13:59:08.517810 29291 net.cpp:141] Setting up relu7
I0808 13:59:08.517822 29291 net.cpp:148] Top shape: 5 4096 1 1 (20480)
I0808 13:59:08.517825 29291 net.cpp:156] Memory required for data: 823797760
I0808 13:59:08.517829 29291 layer_factory.hpp:77] Creating layer hypercolumns
I0808 13:59:08.517840 29291 net.cpp:91] Creating Layer hypercolumns
I0808 13:59:08.517844 29291 net.cpp:425] hypercolumns <- normal
I0808 13:59:08.517849 29291 net.cpp:425] hypercolumns <- conv1_2_relu1_2_0_split_1
I0808 13:59:08.517854 29291 net.cpp:425] hypercolumns <- conv2_2_relu2_2_0_split_1
I0808 13:59:08.517858 29291 net.cpp:425] hypercolumns <- conv3_3_relu3_3_0_split_1
I0808 13:59:08.517863 29291 net.cpp:425] hypercolumns <- conv4_3_relu4_3_0_split_1
I0808 13:59:08.517866 29291 net.cpp:425] hypercolumns <- conv5_3_relu5_3_0_split_1
I0808 13:59:08.517869 29291 net.cpp:425] hypercolumns <- fc7-conv
I0808 13:59:08.517877 29291 net.cpp:399] hypercolumns -> hypercolumns
I0808 13:59:08.517904 29291 net.cpp:399] hypercolumns -> normal_point
I0808 13:59:08.517959 29291 net.cpp:141] Setting up hypercolumns
I0808 13:59:08.517967 29291 net.cpp:148] Top shape: 5000 5568 1 1 (27840000)
I0808 13:59:08.517972 29291 net.cpp:148] Top shape: 5000 3 (15000)
I0808 13:59:08.517974 29291 net.cpp:156] Memory required for data: 935217760
I0808 13:59:08.517978 29291 layer_factory.hpp:77] Creating layer fc1
I0808 13:59:08.517987 29291 net.cpp:91] Creating Layer fc1
I0808 13:59:08.517992 29291 net.cpp:425] fc1 <- hypercolumns
I0808 13:59:08.517999 29291 net.cpp:399] fc1 -> fc1
I0808 13:59:08.828357 29291 net.cpp:141] Setting up fc1
I0808 13:59:08.828430 29291 net.cpp:148] Top shape: 5000 4096 (20480000)
I0808 13:59:08.828434 29291 net.cpp:156] Memory required for data: 1017137760
I0808 13:59:08.828476 29291 layer_factory.hpp:77] Creating layer relu1
I0808 13:59:08.828505 29291 net.cpp:91] Creating Layer relu1
I0808 13:59:08.828514 29291 net.cpp:425] relu1 <- fc1
I0808 13:59:08.828527 29291 net.cpp:386] relu1 -> fc1 (in-place)
I0808 13:59:08.829478 29291 net.cpp:141] Setting up relu1
I0808 13:59:08.829493 29291 net.cpp:148] Top shape: 5000 4096 (20480000)
I0808 13:59:08.829495 29291 net.cpp:156] Memory required for data: 1099057760
I0808 13:59:08.829499 29291 layer_factory.hpp:77] Creating layer drop1
I0808 13:59:08.829512 29291 net.cpp:91] Creating Layer drop1
I0808 13:59:08.829516 29291 net.cpp:425] drop1 <- fc1
I0808 13:59:08.829524 29291 net.cpp:386] drop1 -> fc1 (in-place)
I0808 13:59:08.829560 29291 net.cpp:141] Setting up drop1
I0808 13:59:08.829566 29291 net.cpp:148] Top shape: 5000 4096 (20480000)
I0808 13:59:08.829569 29291 net.cpp:156] Memory required for data: 1180977760
I0808 13:59:08.829572 29291 layer_factory.hpp:77] Creating layer fc2
I0808 13:59:08.829619 29291 net.cpp:91] Creating Layer fc2
I0808 13:59:08.829625 29291 net.cpp:425] fc2 <- fc1
I0808 13:59:08.829633 29291 net.cpp:399] fc2 -> fc2
I0808 13:59:09.042320 29291 net.cpp:141] Setting up fc2
I0808 13:59:09.042373 29291 net.cpp:148] Top shape: 5000 4096 (20480000)
I0808 13:59:09.042377 29291 net.cpp:156] Memory required for data: 1262897760
I0808 13:59:09.042403 29291 layer_factory.hpp:77] Creating layer relu2
I0808 13:59:09.042418 29291 net.cpp:91] Creating Layer relu2
I0808 13:59:09.042423 29291 net.cpp:425] relu2 <- fc2
I0808 13:59:09.042430 29291 net.cpp:386] relu2 -> fc2 (in-place)
I0808 13:59:09.042718 29291 net.cpp:141] Setting up relu2
I0808 13:59:09.042729 29291 net.cpp:148] Top shape: 5000 4096 (20480000)
I0808 13:59:09.042742 29291 net.cpp:156] Memory required for data: 1344817760
I0808 13:59:09.042745 29291 layer_factory.hpp:77] Creating layer drop2
I0808 13:59:09.042763 29291 net.cpp:91] Creating Layer drop2
I0808 13:59:09.042768 29291 net.cpp:425] drop2 <- fc2
I0808 13:59:09.042784 29291 net.cpp:386] drop2 -> fc2 (in-place)
I0808 13:59:09.042827 29291 net.cpp:141] Setting up drop2
I0808 13:59:09.042835 29291 net.cpp:148] Top shape: 5000 4096 (20480000)
I0808 13:59:09.042839 29291 net.cpp:156] Memory required for data: 1426737760
I0808 13:59:09.042841 29291 layer_factory.hpp:77] Creating layer fc3
I0808 13:59:09.042848 29291 net.cpp:91] Creating Layer fc3
I0808 13:59:09.042851 29291 net.cpp:425] fc3 <- fc2
I0808 13:59:09.042857 29291 net.cpp:399] fc3 -> fc3
I0808 13:59:09.043118 29291 net.cpp:141] Setting up fc3
I0808 13:59:09.043124 29291 net.cpp:148] Top shape: 5000 3 (15000)
I0808 13:59:09.043126 29291 net.cpp:156] Memory required for data: 1426797760
I0808 13:59:09.043133 29291 layer_factory.hpp:77] Creating layer loss
I0808 13:59:09.043139 29291 net.cpp:91] Creating Layer loss
I0808 13:59:09.043143 29291 net.cpp:425] loss <- fc3
I0808 13:59:09.043153 29291 net.cpp:425] loss <- normal_point
I0808 13:59:09.043157 29291 net.cpp:399] loss -> loss
I0808 13:59:09.043226 29291 net.cpp:141] Setting up loss
…
