…
type: "SGD"
I0808 18:16:07.451993 31178 solver.cpp:91] Creating training net from net file: /home/qinhong/project/normal_recovery/model/t3/train.prototxt
I0808 18:16:07.453210 31178 net.cpp:49] Initializing net from parameters: 
name: "hyper_normal_layers"
state {
  phase: TRAIN
}
layer {
  name: "data"
  type: "ImageNormalData"
  top: "data"
  top: "normal"
  transform_param {
  }
  image_data_param {
    source: "/home/qinhong/project/normal_recovery/data/source.txt"
    batch_size: 7
    shuffle: true
    new_height: 224
    new_width: 224
  }
}
layer {
  name: "conv1_1"
  type: "Convolution"
  bottom: "data"
  top: "conv1_1"
  param {
    lr_mult: 1
    decay_mult: 1
  }
  param {
    lr_mult: 2
    decay_mult: 0
  }
  convolution_param {
    num_output: 64
    pad: 1
    kernel_size: 3
  }
}
layer {
  name: "relu1_1"
  type: "ReLU"
  bottom: "conv1_1"
  top: "conv1_1"
}
layer {
  name: "conv1_2"
  type: "Convolution"
  bottom: "conv1_1"
  top: "conv1_2"
  param {
    lr_mult: 1
    decay_mult: 1
  }
  param {
    lr_mult: 2
    decay_mult: 0
  }
  convolution_param {
    num_output: 64
    pad: 1
    kernel_size: 3
  }
}
layer {
  name: "relu1_2"
  type: "ReLU"
  bottom: "conv1_2"
  top: "conv1_2"
}
layer {
  name: "pool1"
  type: "Pooling"
  bottom: "conv1_2"
  top: "pool1"
  pooling_param {
    pool: MAX
    kernel_size: 2
    stride: 2
  }
}
layer {
  name: "conv2_1"
  type: "Convolution"
  bottom: "pool1"
  top: "conv2_1"
  param {
    lr_mult: 1
    decay_mult: 1
  }
  param {
    lr_mult: 2
    decay_mult: 0
  }
  convolution_param {
    num_output: 128
    pad: 1
    kernel_size: 3
  }
}
layer {
  name: "relu2_1"
  type: "ReLU"
  bottom: "conv2_1"
  top: "conv2_1"
}
layer {
  name: "conv2_2"
  type: "Convolution"
  bottom: "conv2_1"
  top: "conv2_2"
  param {
    lr_mult: 1
    decay_mult: 1
  }
  param {
    lr_mult: 2
    decay_mult: 0
  }
  convolution_param {
    num_output: 128
    pad: 1
    kernel_size: 3
  }
}
layer {
  name: "relu2_2"
  type: "ReLU"
  bottom: "conv2_2"
  top: "conv2_2"
}
layer {
  name: "pool2"
  type: "Pooling"
  bottom: "conv2_2"
  top: "pool2"
  pooling_param {
    pool: MAX
    kernel_size: 2
    stride: 2
  }
}
layer {
  name: "conv3_1"
  type: "Convolution"
  bottom: "pool2"
  top: "conv3_1"
  param {
    lr_mult: 1
    decay_mult: 1
  }
  param {
    lr_mult: 2
    decay_mult: 0
  }
  convolution_param {
    num_output: 256
    pad: 1
    kernel_size: 3
  }
}
layer {
  name: "relu3_1"
  type: "ReLU"
  bottom: "conv3_1"
  top: "conv3_1"
}
layer {
  name: "conv3_2"
  type: "Convolution"
  bottom: "conv3_1"
  top: "conv3_2"
  param {
    lr_mult: 1
    decay_mult: 1
  }
  param {
    lr_mult: 2
    decay_mult: 0
  }
  convolution_param {
    num_output: 256
    pad: 1
    kernel_size: 3
  }
}
layer {
  name: "relu3_2"
  type: "ReLU"
  bottom: "conv3_2"
  top: "conv3_2"
}
layer {
  name: "conv3_3"
  type: "Convolution"
  bottom: "conv3_2"
  top: "conv3_3"
  param {
    lr_mult: 1
    decay_mult: 1
  }
  param {
    lr_mult: 2
    decay_mult: 0
  }
  convolution_param {
    num_output: 256
    pad: 1
    kernel_size: 3
  }
}
layer {
  name: "relu3_3"
  type: "ReLU"
  bottom: "conv3_3"
  top: "conv3_3"
}
layer {
  name: "pool3"
  type: "Pooling"
  bottom: "conv3_3"
  top: "pool3"
  pooling_param {
    pool: MAX
    kernel_size: 2
    stride: 2
  }
}
layer {
  name: "conv4_1"
  type: "Convolution"
  bottom: "pool3"
  top: "conv4_1"
  param {
    lr_mult: 1
    decay_mult: 1
  }
  param {
    lr_mult: 2
    decay_mult: 0
  }
  convolution_param {
    num_output: 512
    pad: 1
    kernel_size: 3
  }
}
layer {
  name: "relu4_1"
  type: "ReLU"
  bottom: "conv4_1"
  top: "conv4_1"
}
layer {
  name: "conv4_2"
  type: "Convolution"
  bottom: "conv4_1"
  top: "conv4_2"
  param {
    lr_mult: 1
    decay_mult: 1
  }
  param {
    lr_mult: 2
    decay_mult: 0
  }
  convolution_param {
    num_output: 512
    pad: 1
    kernel_size: 3
  }
}
layer {
  name: "relu4_2"
  type: "ReLU"
  bottom: "conv4_2"
  top: "conv4_2"
}
layer {
  name: "conv4_3"
  type: "Convolution"
  bottom: "conv4_2"
  top: "conv4_3"
  param {
    lr_mult: 1
    decay_mult: 1
  }
  param {
    lr_mult: 2
    decay_mult: 0
  }
  convolution_param {
    num_output: 512
    pad: 1
    kernel_size: 3
  }
}
layer {
  name: "relu4_3"
  type: "ReLU"
  bottom: "conv4_3"
  top: "conv4_3"
}
layer {
  name: "pool4"
  type: "Pooling"
  bottom: "conv4_3"
  top: "pool4"
  pooling_param {
    pool: MAX
    kernel_size: 2
    stride: 2
  }
}
layer {
  name: "conv5_1"
  type: "Convolution"
  bottom: "pool4"
  top: "conv5_1"
  param {
    lr_mult: 1
    decay_mult: 1
  }
  param {
    lr_mult: 2
    decay_mult: 0
  }
  convolution_param {
    num_output: 512
    pad: 1
    kernel_size: 3
  }
}
layer {
  name: "relu5_1"
  type: "ReLU"
  bottom: "conv5_1"
  top: "conv5_1"
}
layer {
  name: "conv5_2"
  type: "Convolution"
  bottom: "conv5_1"
  top: "conv5_2"
  param {
    lr_mult: 1
    decay_mult: 1
  }
  param {
    lr_mult: 2
    decay_mult: 0
  }
  convolution_param {
    num_output: 512
    pad: 1
    kernel_size: 3
  }
}
layer {
  name: "relu5_2"
  type: "ReLU"
  bottom: "conv5_2"
  top: "conv5_2"
}
layer {
  name: "conv5_3"
  type: "Convolution"
  bottom: "conv5_2"
  top: "conv5_3"
  param {
    lr_mult: 1
    decay_mult: 1
  }
  param {
    lr_mult: 2
    decay_mult: 0
  }
  convolution_param {
    num_output: 512
    pad: 1
    kernel_size: 3
  }
}
layer {
  name: "relu5_3"
  type: "ReLU"
  bottom: "conv5_3"
  top: "conv5_3"
}
layer {
  name: "pool5"
  type: "Pooling"
  bottom: "conv5_3"
  top: "pool5"
  pooling_param {
    pool: MAX
    kernel_size: 2
    stride: 2
  }
}
layer {
  name: "fc6-conv"
  type: "Convolution"
  bottom: "pool5"
  top: "fc6-conv"
  param {
    lr_mult: 1
    decay_mult: 1
  }
  param {
    lr_mult: 2
    decay_mult: 0
  }
  convolution_param {
    num_output: 4096
    kernel_size: 7
  }
}
layer {
  name: "relu6"
  type: "ReLU"
  bottom: "fc6-conv"
  top: "fc6-conv"
}
layer {
  name: "drop6"
  type: "Dropout"
  bottom: "fc6-conv"
  top: "fc6-conv"
  dropout_param {
    dropout_ratio: 0.5
  }
}
layer {
  name: "fc7-conv"
  type: "Convolution"
  bottom: "fc6-conv"
  top: "fc7-conv"
  param {
    lr_mult: 1
    decay_mult: 1
  }
  param {
    lr_mult: 2
    decay_mult: 0
  }
  convolution_param {
    num_output: 4096
    kernel_size: 1
  }
}
layer {
  name: "relu7"
  type: "ReLU"
  bottom: "fc7-conv"
  top: "fc7-conv"
}
layer {
  name: "hypercolumns"
  type: "HyperColumns"
  bottom: "normal"
  bottom: "conv1_2"
  bottom: "conv2_2"
  bottom: "conv3_3"
  bottom: "conv4_3"
  bottom: "conv5_3"
  bottom: "fc7-conv"
  top: "hypercolumns"
  top: "normal_point"
  hypercolumns_param {
    is_train: true
  }
}
layer {
  name: "fc1"
  type: "InnerProduct"
  bottom: "hypercolumns"
  top: "fc1"
  param {
    lr_mult: 1
    decay_mult: 1
  }
  param {
    lr_mult: 2
    decay_mult: 0
  }
  inner_product_param {
    num_output: 4096
    weight_filler {
      type: "gaussian"
      std: 0.003
    }
    bias_filler {
      type: "constant"
      value: 0
    }
  }
}
layer {
  name: "relu1"
  type: "ReLU"
  bottom: "fc1"
  top: "fc1"
}
layer {
  name: "drop1"
  type: "Dropout"
  bottom: "fc1"
  top: "fc1"
  dropout_param {
    dropout_ratio: 0.5
  }
}
layer {
  name: "fc2"
  type: "InnerProduct"
  bottom: "fc1"
  top: "fc2"
  param {
    lr_mult: 1
    decay_mult: 1
  }
  param {
    lr_mult: 2
    decay_mult: 0
  }
  inner_product_param {
    num_output: 4096
    weight_filler {
      type: "gaussian"
      std: 0.002
    }
    bias_filler {
      type: "constant"
      value: 0
    }
  }
}
layer {
  name: "relu2"
  type: "ReLU"
  bottom: "fc2"
  top: "fc2"
}
layer {
  name: "drop2"
  type: "Dropout"
  bottom: "fc2"
  top: "fc2"
  dropout_param {
    dropout_ratio: 0.5
  }
}
layer {
  name: "fc3"
  type: "InnerProduct"
  bottom: "fc2"
  top: "fc3"
  param {
    lr_mult: 1
    decay_mult: 1
  }
  param {
    lr_mult: 2
    decay_mult: 0
  }
  inner_product_param {
    num_output: 3
    weight_filler {
      type: "gaussian"
      std: 0.001
    }
    bias_filler {
      type: "constant"
      value: 0
    }
  }
}
layer {
  name: "loss"
  type: "EuclideanLoss"
  bottom: "fc3"
  bottom: "normal_point"
  top: "loss"
  propagate_down: true
  propagate_down: false
}
I0808 18:16:07.453598 31178 layer_factory.hpp:77] Creating layer data
I0808 18:16:07.453656 31178 net.cpp:91] Creating Layer data
I0808 18:16:07.453671 31178 net.cpp:399] data -> data
I0808 18:16:07.453708 31178 net.cpp:399] data -> normal
I0808 18:16:07.453737 31178 image_normal_data_layer.cpp:43] opeing file /home/qinhong/project/normal_recovery/data/source.txt
I0808 18:16:07.461562 31178 image_normal_data_layer.cpp:54] Shuffing data
I0808 18:16:07.463786 31178 image_normal_data_layer.cpp:59] A total of 4105 images.
I0808 18:16:07.500341 31178 image_normal_data_layer.cpp:79] output data size: 7,3,224,224
I0808 18:16:07.517320 31178 net.cpp:141] Setting up data
I0808 18:16:07.517356 31178 net.cpp:148] Top shape: 7 3 224 224 (1053696)
I0808 18:16:07.517364 31178 net.cpp:148] Top shape: 7 3 224 224 (1053696)
I0808 18:16:07.517369 31178 net.cpp:156] Memory required for data: 8429568
I0808 18:16:07.517379 31178 layer_factory.hpp:77] Creating layer conv1_1
I0808 18:16:07.517402 31178 net.cpp:91] Creating Layer conv1_1
I0808 18:16:07.517410 31178 net.cpp:425] conv1_1 <- data
I0808 18:16:07.517432 31178 net.cpp:399] conv1_1 -> conv1_1
I0808 18:16:07.716519 31178 net.cpp:141] Setting up conv1_1
I0808 18:16:07.716555 31178 net.cpp:148] Top shape: 7 64 224 224 (22478848)
I0808 18:16:07.716559 31178 net.cpp:156] Memory required for data: 98344960
I0808 18:16:07.716584 31178 layer_factory.hpp:77] Creating layer relu1_1
I0808 18:16:07.716598 31178 net.cpp:91] Creating Layer relu1_1
I0808 18:16:07.716603 31178 net.cpp:425] relu1_1 <- conv1_1
I0808 18:16:07.716609 31178 net.cpp:386] relu1_1 -> conv1_1 (in-place)
I0808 18:16:07.716917 31178 net.cpp:141] Setting up relu1_1
I0808 18:16:07.716931 31178 net.cpp:148] Top shape: 7 64 224 224 (22478848)
I0808 18:16:07.716934 31178 net.cpp:156] Memory required for data: 188260352
I0808 18:16:07.716938 31178 layer_factory.hpp:77] Creating layer conv1_2
I0808 18:16:07.716948 31178 net.cpp:91] Creating Layer conv1_2
I0808 18:16:07.716953 31178 net.cpp:425] conv1_2 <- conv1_1
I0808 18:16:07.716958 31178 net.cpp:399] conv1_2 -> conv1_2
I0808 18:16:07.717991 31178 net.cpp:141] Setting up conv1_2
I0808 18:16:07.718008 31178 net.cpp:148] Top shape: 7 64 224 224 (22478848)
I0808 18:16:07.718011 31178 net.cpp:156] Memory required for data: 278175744
I0808 18:16:07.718021 31178 layer_factory.hpp:77] Creating layer relu1_2
I0808 18:16:07.718029 31178 net.cpp:91] Creating Layer relu1_2
I0808 18:16:07.718031 31178 net.cpp:425] relu1_2 <- conv1_2
I0808 18:16:07.718036 31178 net.cpp:386] relu1_2 -> conv1_2 (in-place)
I0808 18:16:07.718312 31178 net.cpp:141] Setting up relu1_2
I0808 18:16:07.718324 31178 net.cpp:148] Top shape: 7 64 224 224 (22478848)
I0808 18:16:07.718328 31178 net.cpp:156] Memory required for data: 368091136
I0808 18:16:07.718332 31178 layer_factory.hpp:77] Creating layer conv1_2_relu1_2_0_split
I0808 18:16:07.718338 31178 net.cpp:91] Creating Layer conv1_2_relu1_2_0_split
I0808 18:16:07.718341 31178 net.cpp:425] conv1_2_relu1_2_0_split <- conv1_2
I0808 18:16:07.718348 31178 net.cpp:399] conv1_2_relu1_2_0_split -> conv1_2_relu1_2_0_split_0
I0808 18:16:07.718355 31178 net.cpp:399] conv1_2_relu1_2_0_split -> conv1_2_relu1_2_0_split_1
I0808 18:16:07.718400 31178 net.cpp:141] Setting up conv1_2_relu1_2_0_split
I0808 18:16:07.718407 31178 net.cpp:148] Top shape: 7 64 224 224 (22478848)
I0808 18:16:07.718411 31178 net.cpp:148] Top shape: 7 64 224 224 (22478848)
I0808 18:16:07.718413 31178 net.cpp:156] Memory required for data: 547921920
I0808 18:16:07.718416 31178 layer_factory.hpp:77] Creating layer pool1
I0808 18:16:07.718443 31178 net.cpp:91] Creating Layer pool1
I0808 18:16:07.718449 31178 net.cpp:425] pool1 <- conv1_2_relu1_2_0_split_0
I0808 18:16:07.718454 31178 net.cpp:399] pool1 -> pool1
I0808 18:16:07.718504 31178 net.cpp:141] Setting up pool1
I0808 18:16:07.718513 31178 net.cpp:148] Top shape: 7 64 112 112 (5619712)
I0808 18:16:07.718515 31178 net.cpp:156] Memory required for data: 570400768
I0808 18:16:07.718518 31178 layer_factory.hpp:77] Creating layer conv2_1
I0808 18:16:07.718525 31178 net.cpp:91] Creating Layer conv2_1
I0808 18:16:07.718528 31178 net.cpp:425] conv2_1 <- pool1
I0808 18:16:07.718533 31178 net.cpp:399] conv2_1 -> conv2_1
I0808 18:16:07.720721 31178 net.cpp:141] Setting up conv2_1
I0808 18:16:07.720736 31178 net.cpp:148] Top shape: 7 128 112 112 (11239424)
I0808 18:16:07.720739 31178 net.cpp:156] Memory required for data: 615358464
I0808 18:16:07.720749 31178 layer_factory.hpp:77] Creating layer relu2_1
I0808 18:16:07.720757 31178 net.cpp:91] Creating Layer relu2_1
I0808 18:16:07.720762 31178 net.cpp:425] relu2_1 <- conv2_1
I0808 18:16:07.720767 31178 net.cpp:386] relu2_1 -> conv2_1 (in-place)
I0808 18:16:07.720952 31178 net.cpp:141] Setting up relu2_1
I0808 18:16:07.720963 31178 net.cpp:148] Top shape: 7 128 112 112 (11239424)
I0808 18:16:07.720965 31178 net.cpp:156] Memory required for data: 660316160
I0808 18:16:07.720969 31178 layer_factory.hpp:77] Creating layer conv2_2
I0808 18:16:07.720976 31178 net.cpp:91] Creating Layer conv2_2
I0808 18:16:07.720980 31178 net.cpp:425] conv2_2 <- conv2_1
I0808 18:16:07.720986 31178 net.cpp:399] conv2_2 -> conv2_2
I0808 18:16:07.722091 31178 net.cpp:141] Setting up conv2_2
I0808 18:16:07.722107 31178 net.cpp:148] Top shape: 7 128 112 112 (11239424)
I0808 18:16:07.722111 31178 net.cpp:156] Memory required for data: 705273856
I0808 18:16:07.722117 31178 layer_factory.hpp:77] Creating layer relu2_2
I0808 18:16:07.722123 31178 net.cpp:91] Creating Layer relu2_2
I0808 18:16:07.722126 31178 net.cpp:425] relu2_2 <- conv2_2
I0808 18:16:07.722131 31178 net.cpp:386] relu2_2 -> conv2_2 (in-place)
I0808 18:16:07.722414 31178 net.cpp:141] Setting up relu2_2
I0808 18:16:07.722427 31178 net.cpp:148] Top shape: 7 128 112 112 (11239424)
I0808 18:16:07.722430 31178 net.cpp:156] Memory required for data: 750231552
I0808 18:16:07.722434 31178 layer_factory.hpp:77] Creating layer conv2_2_relu2_2_0_split
I0808 18:16:07.722440 31178 net.cpp:91] Creating Layer conv2_2_relu2_2_0_split
I0808 18:16:07.722443 31178 net.cpp:425] conv2_2_relu2_2_0_split <- conv2_2
I0808 18:16:07.722448 31178 net.cpp:399] conv2_2_relu2_2_0_split -> conv2_2_relu2_2_0_split_0
I0808 18:16:07.722455 31178 net.cpp:399] conv2_2_relu2_2_0_split -> conv2_2_relu2_2_0_split_1
I0808 18:16:07.722499 31178 net.cpp:141] Setting up conv2_2_relu2_2_0_split
I0808 18:16:07.722506 31178 net.cpp:148] Top shape: 7 128 112 112 (11239424)
I0808 18:16:07.722510 31178 net.cpp:148] Top shape: 7 128 112 112 (11239424)
I0808 18:16:07.722512 31178 net.cpp:156] Memory required for data: 840146944
I0808 18:16:07.722515 31178 layer_factory.hpp:77] Creating layer pool2
I0808 18:16:07.722522 31178 net.cpp:91] Creating Layer pool2
I0808 18:16:07.722524 31178 net.cpp:425] pool2 <- conv2_2_relu2_2_0_split_0
I0808 18:16:07.722528 31178 net.cpp:399] pool2 -> pool2
I0808 18:16:07.722566 31178 net.cpp:141] Setting up pool2
I0808 18:16:07.722573 31178 net.cpp:148] Top shape: 7 128 56 56 (2809856)
I0808 18:16:07.722575 31178 net.cpp:156] Memory required for data: 851386368
I0808 18:16:07.722579 31178 layer_factory.hpp:77] Creating layer conv3_1
I0808 18:16:07.722585 31178 net.cpp:91] Creating Layer conv3_1
I0808 18:16:07.722589 31178 net.cpp:425] conv3_1 <- pool2
I0808 18:16:07.722594 31178 net.cpp:399] conv3_1 -> conv3_1
I0808 18:16:07.724251 31178 net.cpp:141] Setting up conv3_1
I0808 18:16:07.724266 31178 net.cpp:148] Top shape: 7 256 56 56 (5619712)
I0808 18:16:07.724268 31178 net.cpp:156] Memory required for data: 873865216
I0808 18:16:07.724278 31178 layer_factory.hpp:77] Creating layer relu3_1
I0808 18:16:07.724284 31178 net.cpp:91] Creating Layer relu3_1
I0808 18:16:07.724300 31178 net.cpp:425] relu3_1 <- conv3_1
I0808 18:16:07.724306 31178 net.cpp:386] relu3_1 -> conv3_1 (in-place)
I0808 18:16:07.724596 31178 net.cpp:141] Setting up relu3_1
I0808 18:16:07.724611 31178 net.cpp:148] Top shape: 7 256 56 56 (5619712)
I0808 18:16:07.724613 31178 net.cpp:156] Memory required for data: 896344064
I0808 18:16:07.724617 31178 layer_factory.hpp:77] Creating layer conv3_2
I0808 18:16:07.724625 31178 net.cpp:91] Creating Layer conv3_2
I0808 18:16:07.724628 31178 net.cpp:425] conv3_2 <- conv3_1
I0808 18:16:07.724634 31178 net.cpp:399] conv3_2 -> conv3_2
I0808 18:16:07.727108 31178 net.cpp:141] Setting up conv3_2
I0808 18:16:07.727123 31178 net.cpp:148] Top shape: 7 256 56 56 (5619712)
I0808 18:16:07.727133 31178 net.cpp:156] Memory required for data: 918822912
I0808 18:16:07.727140 31178 layer_factory.hpp:77] Creating layer relu3_2
I0808 18:16:07.727150 31178 net.cpp:91] Creating Layer relu3_2
I0808 18:16:07.727154 31178 net.cpp:425] relu3_2 <- conv3_2
I0808 18:16:07.727159 31178 net.cpp:386] relu3_2 -> conv3_2 (in-place)
I0808 18:16:07.727351 31178 net.cpp:141] Setting up relu3_2
I0808 18:16:07.727362 31178 net.cpp:148] Top shape: 7 256 56 56 (5619712)
I0808 18:16:07.727365 31178 net.cpp:156] Memory required for data: 941301760
I0808 18:16:07.727368 31178 layer_factory.hpp:77] Creating layer conv3_3
I0808 18:16:07.727377 31178 net.cpp:91] Creating Layer conv3_3
I0808 18:16:07.727380 31178 net.cpp:425] conv3_3 <- conv3_2
I0808 18:16:07.727386 31178 net.cpp:399] conv3_3 -> conv3_3
I0808 18:16:07.729990 31178 net.cpp:141] Setting up conv3_3
I0808 18:16:07.730006 31178 net.cpp:148] Top shape: 7 256 56 56 (5619712)
I0808 18:16:07.730010 31178 net.cpp:156] Memory required for data: 963780608
I0808 18:16:07.730016 31178 layer_factory.hpp:77] Creating layer relu3_3
I0808 18:16:07.730021 31178 net.cpp:91] Creating Layer relu3_3
I0808 18:16:07.730026 31178 net.cpp:425] relu3_3 <- conv3_3
I0808 18:16:07.730031 31178 net.cpp:386] relu3_3 -> conv3_3 (in-place)
I0808 18:16:07.730342 31178 net.cpp:141] Setting up relu3_3
I0808 18:16:07.730356 31178 net.cpp:148] Top shape: 7 256 56 56 (5619712)
I0808 18:16:07.730360 31178 net.cpp:156] Memory required for data: 986259456
I0808 18:16:07.730362 31178 layer_factory.hpp:77] Creating layer conv3_3_relu3_3_0_split
I0808 18:16:07.730368 31178 net.cpp:91] Creating Layer conv3_3_relu3_3_0_split
I0808 18:16:07.730375 31178 net.cpp:425] conv3_3_relu3_3_0_split <- conv3_3
I0808 18:16:07.730381 31178 net.cpp:399] conv3_3_relu3_3_0_split -> conv3_3_relu3_3_0_split_0
I0808 18:16:07.730387 31178 net.cpp:399] conv3_3_relu3_3_0_split -> conv3_3_relu3_3_0_split_1
I0808 18:16:07.730439 31178 net.cpp:141] Setting up conv3_3_relu3_3_0_split
I0808 18:16:07.730448 31178 net.cpp:148] Top shape: 7 256 56 56 (5619712)
I0808 18:16:07.730451 31178 net.cpp:148] Top shape: 7 256 56 56 (5619712)
I0808 18:16:07.730453 31178 net.cpp:156] Memory required for data: 1031217152
I0808 18:16:07.730456 31178 layer_factory.hpp:77] Creating layer pool3
I0808 18:16:07.730466 31178 net.cpp:91] Creating Layer pool3
I0808 18:16:07.730471 31178 net.cpp:425] pool3 <- conv3_3_relu3_3_0_split_0
I0808 18:16:07.730476 31178 net.cpp:399] pool3 -> pool3
I0808 18:16:07.730518 31178 net.cpp:141] Setting up pool3
I0808 18:16:07.730525 31178 net.cpp:148] Top shape: 7 256 28 28 (1404928)
I0808 18:16:07.730527 31178 net.cpp:156] Memory required for data: 1036836864
I0808 18:16:07.730530 31178 layer_factory.hpp:77] Creating layer conv4_1
I0808 18:16:07.730540 31178 net.cpp:91] Creating Layer conv4_1
I0808 18:16:07.730542 31178 net.cpp:425] conv4_1 <- pool3
I0808 18:16:07.730550 31178 net.cpp:399] conv4_1 -> conv4_1
I0808 18:16:07.735443 31178 net.cpp:141] Setting up conv4_1
I0808 18:16:07.735478 31178 net.cpp:148] Top shape: 7 512 28 28 (2809856)
I0808 18:16:07.735486 31178 net.cpp:156] Memory required for data: 1048076288
I0808 18:16:07.735502 31178 layer_factory.hpp:77] Creating layer relu4_1
I0808 18:16:07.735514 31178 net.cpp:91] Creating Layer relu4_1
I0808 18:16:07.735523 31178 net.cpp:425] relu4_1 <- conv4_1
I0808 18:16:07.735564 31178 net.cpp:386] relu4_1 -> conv4_1 (in-place)
I0808 18:16:07.736134 31178 net.cpp:141] Setting up relu4_1
I0808 18:16:07.736161 31178 net.cpp:148] Top shape: 7 512 28 28 (2809856)
I0808 18:16:07.736168 31178 net.cpp:156] Memory required for data: 1059315712
I0808 18:16:07.736176 31178 layer_factory.hpp:77] Creating layer conv4_2
I0808 18:16:07.736194 31178 net.cpp:91] Creating Layer conv4_2
I0808 18:16:07.736202 31178 net.cpp:425] conv4_2 <- conv4_1
I0808 18:16:07.736217 31178 net.cpp:399] conv4_2 -> conv4_2
I0808 18:16:07.747068 31178 net.cpp:141] Setting up conv4_2
I0808 18:16:07.747103 31178 net.cpp:148] Top shape: 7 512 28 28 (2809856)
I0808 18:16:07.747110 31178 net.cpp:156] Memory required for data: 1070555136
I0808 18:16:07.747131 31178 layer_factory.hpp:77] Creating layer relu4_2
I0808 18:16:07.747144 31178 net.cpp:91] Creating Layer relu4_2
I0808 18:16:07.747153 31178 net.cpp:425] relu4_2 <- conv4_2
I0808 18:16:07.747164 31178 net.cpp:386] relu4_2 -> conv4_2 (in-place)
I0808 18:16:07.747517 31178 net.cpp:141] Setting up relu4_2
I0808 18:16:07.747539 31178 net.cpp:148] Top shape: 7 512 28 28 (2809856)
I0808 18:16:07.747545 31178 net.cpp:156] Memory required for data: 1081794560
I0808 18:16:07.747551 31178 layer_factory.hpp:77] Creating layer conv4_3
I0808 18:16:07.747566 31178 net.cpp:91] Creating Layer conv4_3
I0808 18:16:07.747573 31178 net.cpp:425] conv4_3 <- conv4_2
I0808 18:16:07.747586 31178 net.cpp:399] conv4_3 -> conv4_3
I0808 18:16:07.757908 31178 net.cpp:141] Setting up conv4_3
I0808 18:16:07.757951 31178 net.cpp:148] Top shape: 7 512 28 28 (2809856)
I0808 18:16:07.757957 31178 net.cpp:156] Memory required for data: 1093033984
I0808 18:16:07.757971 31178 layer_factory.hpp:77] Creating layer relu4_3
I0808 18:16:07.757982 31178 net.cpp:91] Creating Layer relu4_3
I0808 18:16:07.757988 31178 net.cpp:425] relu4_3 <- conv4_3
I0808 18:16:07.758000 31178 net.cpp:386] relu4_3 -> conv4_3 (in-place)
I0808 18:16:07.758508 31178 net.cpp:141] Setting up relu4_3
I0808 18:16:07.758532 31178 net.cpp:148] Top shape: 7 512 28 28 (2809856)
I0808 18:16:07.758538 31178 net.cpp:156] Memory required for data: 1104273408
I0808 18:16:07.758543 31178 layer_factory.hpp:77] Creating layer conv4_3_relu4_3_0_split
I0808 18:16:07.758554 31178 net.cpp:91] Creating Layer conv4_3_relu4_3_0_split
I0808 18:16:07.758561 31178 net.cpp:425] conv4_3_relu4_3_0_split <- conv4_3
I0808 18:16:07.758574 31178 net.cpp:399] conv4_3_relu4_3_0_split -> conv4_3_relu4_3_0_split_0
I0808 18:16:07.758589 31178 net.cpp:399] conv4_3_relu4_3_0_split -> conv4_3_relu4_3_0_split_1
I0808 18:16:07.758677 31178 net.cpp:141] Setting up conv4_3_relu4_3_0_split
I0808 18:16:07.758689 31178 net.cpp:148] Top shape: 7 512 28 28 (2809856)
I0808 18:16:07.758697 31178 net.cpp:148] Top shape: 7 512 28 28 (2809856)
I0808 18:16:07.758704 31178 net.cpp:156] Memory required for data: 1126752256
I0808 18:16:07.758709 31178 layer_factory.hpp:77] Creating layer pool4
I0808 18:16:07.758723 31178 net.cpp:91] Creating Layer pool4
I0808 18:16:07.758731 31178 net.cpp:425] pool4 <- conv4_3_relu4_3_0_split_0
I0808 18:16:07.758741 31178 net.cpp:399] pool4 -> pool4
I0808 18:16:07.758816 31178 net.cpp:141] Setting up pool4
I0808 18:16:07.758827 31178 net.cpp:148] Top shape: 7 512 14 14 (702464)
I0808 18:16:07.758833 31178 net.cpp:156] Memory required for data: 1129562112
I0808 18:16:07.758838 31178 layer_factory.hpp:77] Creating layer conv5_1
I0808 18:16:07.758852 31178 net.cpp:91] Creating Layer conv5_1
I0808 18:16:07.758860 31178 net.cpp:425] conv5_1 <- pool4
I0808 18:16:07.758870 31178 net.cpp:399] conv5_1 -> conv5_1
I0808 18:16:07.768542 31178 net.cpp:141] Setting up conv5_1
I0808 18:16:07.768573 31178 net.cpp:148] Top shape: 7 512 14 14 (702464)
I0808 18:16:07.768580 31178 net.cpp:156] Memory required for data: 1132371968
I0808 18:16:07.768594 31178 layer_factory.hpp:77] Creating layer relu5_1
I0808 18:16:07.768607 31178 net.cpp:91] Creating Layer relu5_1
I0808 18:16:07.768615 31178 net.cpp:425] relu5_1 <- conv5_1
I0808 18:16:07.768651 31178 net.cpp:386] relu5_1 -> conv5_1 (in-place)
I0808 18:16:07.769135 31178 net.cpp:141] Setting up relu5_1
I0808 18:16:07.769160 31178 net.cpp:148] Top shape: 7 512 14 14 (702464)
I0808 18:16:07.769165 31178 net.cpp:156] Memory required for data: 1135181824
I0808 18:16:07.769170 31178 layer_factory.hpp:77] Creating layer conv5_2
I0808 18:16:07.769188 31178 net.cpp:91] Creating Layer conv5_2
I0808 18:16:07.769196 31178 net.cpp:425] conv5_2 <- conv5_1
I0808 18:16:07.769207 31178 net.cpp:399] conv5_2 -> conv5_2
I0808 18:16:07.778369 31178 net.cpp:141] Setting up conv5_2
I0808 18:16:07.778398 31178 net.cpp:148] Top shape: 7 512 14 14 (702464)
I0808 18:16:07.778403 31178 net.cpp:156] Memory required for data: 1137991680
I0808 18:16:07.778415 31178 layer_factory.hpp:77] Creating layer relu5_2
I0808 18:16:07.778436 31178 net.cpp:91] Creating Layer relu5_2
I0808 18:16:07.778442 31178 net.cpp:425] relu5_2 <- conv5_2
I0808 18:16:07.778451 31178 net.cpp:386] relu5_2 -> conv5_2 (in-place)
I0808 18:16:07.778748 31178 net.cpp:141] Setting up relu5_2
I0808 18:16:07.778766 31178 net.cpp:148] Top shape: 7 512 14 14 (702464)
I0808 18:16:07.778770 31178 net.cpp:156] Memory required for data: 1140801536
I0808 18:16:07.778776 31178 layer_factory.hpp:77] Creating layer conv5_3
I0808 18:16:07.778791 31178 net.cpp:91] Creating Layer conv5_3
I0808 18:16:07.778797 31178 net.cpp:425] conv5_3 <- conv5_2
I0808 18:16:07.778806 31178 net.cpp:399] conv5_3 -> conv5_3
I0808 18:16:07.787541 31178 net.cpp:141] Setting up conv5_3
I0808 18:16:07.787565 31178 net.cpp:148] Top shape: 7 512 14 14 (702464)
I0808 18:16:07.787571 31178 net.cpp:156] Memory required for data: 1143611392
I0808 18:16:07.787581 31178 layer_factory.hpp:77] Creating layer relu5_3
I0808 18:16:07.787593 31178 net.cpp:91] Creating Layer relu5_3
I0808 18:16:07.787600 31178 net.cpp:425] relu5_3 <- conv5_3
I0808 18:16:07.787608 31178 net.cpp:386] relu5_3 -> conv5_3 (in-place)
I0808 18:16:07.788046 31178 net.cpp:141] Setting up relu5_3
I0808 18:16:07.788067 31178 net.cpp:148] Top shape: 7 512 14 14 (702464)
I0808 18:16:07.788072 31178 net.cpp:156] Memory required for data: 1146421248
I0808 18:16:07.788077 31178 layer_factory.hpp:77] Creating layer conv5_3_relu5_3_0_split
I0808 18:16:07.788089 31178 net.cpp:91] Creating Layer conv5_3_relu5_3_0_split
I0808 18:16:07.788095 31178 net.cpp:425] conv5_3_relu5_3_0_split <- conv5_3
I0808 18:16:07.788105 31178 net.cpp:399] conv5_3_relu5_3_0_split -> conv5_3_relu5_3_0_split_0
I0808 18:16:07.788117 31178 net.cpp:399] conv5_3_relu5_3_0_split -> conv5_3_relu5_3_0_split_1
I0808 18:16:07.788197 31178 net.cpp:141] Setting up conv5_3_relu5_3_0_split
I0808 18:16:07.788209 31178 net.cpp:148] Top shape: 7 512 14 14 (702464)
I0808 18:16:07.788215 31178 net.cpp:148] Top shape: 7 512 14 14 (702464)
I0808 18:16:07.788219 31178 net.cpp:156] Memory required for data: 1152040960
I0808 18:16:07.788224 31178 layer_factory.hpp:77] Creating layer pool5
I0808 18:16:07.788235 31178 net.cpp:91] Creating Layer pool5
I0808 18:16:07.788242 31178 net.cpp:425] pool5 <- conv5_3_relu5_3_0_split_0
I0808 18:16:07.788251 31178 net.cpp:399] pool5 -> pool5
I0808 18:16:07.788321 31178 net.cpp:141] Setting up pool5
I0808 18:16:07.788331 31178 net.cpp:148] Top shape: 7 512 7 7 (175616)
I0808 18:16:07.788336 31178 net.cpp:156] Memory required for data: 1152743424
I0808 18:16:07.788341 31178 layer_factory.hpp:77] Creating layer fc6-conv
I0808 18:16:07.788352 31178 net.cpp:91] Creating Layer fc6-conv
I0808 18:16:07.788360 31178 net.cpp:425] fc6-conv <- pool5
I0808 18:16:07.788368 31178 net.cpp:399] fc6-conv -> fc6-conv
I0808 18:16:08.104187 31178 net.cpp:141] Setting up fc6-conv
I0808 18:16:08.104234 31178 net.cpp:148] Top shape: 7 4096 1 1 (28672)
I0808 18:16:08.104239 31178 net.cpp:156] Memory required for data: 1152858112
I0808 18:16:08.104251 31178 layer_factory.hpp:77] Creating layer relu6
I0808 18:16:08.104264 31178 net.cpp:91] Creating Layer relu6
I0808 18:16:08.104270 31178 net.cpp:425] relu6 <- fc6-conv
I0808 18:16:08.104280 31178 net.cpp:386] relu6 -> fc6-conv (in-place)
I0808 18:16:08.104626 31178 net.cpp:141] Setting up relu6
I0808 18:16:08.104642 31178 net.cpp:148] Top shape: 7 4096 1 1 (28672)
I0808 18:16:08.104645 31178 net.cpp:156] Memory required for data: 1152972800
I0808 18:16:08.104648 31178 layer_factory.hpp:77] Creating layer drop6
I0808 18:16:08.104656 31178 net.cpp:91] Creating Layer drop6
I0808 18:16:08.104660 31178 net.cpp:425] drop6 <- fc6-conv
I0808 18:16:08.104667 31178 net.cpp:386] drop6 -> fc6-conv (in-place)
I0808 18:16:08.104709 31178 net.cpp:141] Setting up drop6
I0808 18:16:08.104717 31178 net.cpp:148] Top shape: 7 4096 1 1 (28672)
I0808 18:16:08.104720 31178 net.cpp:156] Memory required for data: 1153087488
I0808 18:16:08.104723 31178 layer_factory.hpp:77] Creating layer fc7-conv
I0808 18:16:08.104737 31178 net.cpp:91] Creating Layer fc7-conv
I0808 18:16:08.104739 31178 net.cpp:425] fc7-conv <- fc6-conv
I0808 18:16:08.104745 31178 net.cpp:399] fc7-conv -> fc7-conv
I0808 18:16:08.152175 31178 net.cpp:141] Setting up fc7-conv
I0808 18:16:08.152221 31178 net.cpp:148] Top shape: 7 4096 1 1 (28672)
I0808 18:16:08.152225 31178 net.cpp:156] Memory required for data: 1153202176
I0808 18:16:08.152236 31178 layer_factory.hpp:77] Creating layer relu7
I0808 18:16:08.152250 31178 net.cpp:91] Creating Layer relu7
I0808 18:16:08.152254 31178 net.cpp:425] relu7 <- fc7-conv
I0808 18:16:08.152263 31178 net.cpp:386] relu7 -> fc7-conv (in-place)
I0808 18:16:08.152473 31178 net.cpp:141] Setting up relu7
I0808 18:16:08.152485 31178 net.cpp:148] Top shape: 7 4096 1 1 (28672)
I0808 18:16:08.152488 31178 net.cpp:156] Memory required for data: 1153316864
I0808 18:16:08.152493 31178 layer_factory.hpp:77] Creating layer hypercolumns
I0808 18:16:08.152506 31178 net.cpp:91] Creating Layer hypercolumns
I0808 18:16:08.152513 31178 net.cpp:425] hypercolumns <- normal
I0808 18:16:08.152518 31178 net.cpp:425] hypercolumns <- conv1_2_relu1_2_0_split_1
I0808 18:16:08.152523 31178 net.cpp:425] hypercolumns <- conv2_2_relu2_2_0_split_1
I0808 18:16:08.152528 31178 net.cpp:425] hypercolumns <- conv3_3_relu3_3_0_split_1
I0808 18:16:08.152532 31178 net.cpp:425] hypercolumns <- conv4_3_relu4_3_0_split_1
I0808 18:16:08.152537 31178 net.cpp:425] hypercolumns <- conv5_3_relu5_3_0_split_1
I0808 18:16:08.152540 31178 net.cpp:425] hypercolumns <- fc7-conv
I0808 18:16:08.152549 31178 net.cpp:399] hypercolumns -> hypercolumns
I0808 18:16:08.152570 31178 net.cpp:399] hypercolumns -> normal_point
I0808 18:16:08.152626 31178 net.cpp:141] Setting up hypercolumns
I0808 18:16:08.152636 31178 net.cpp:148] Top shape: 7000 5568 1 1 (38976000)
I0808 18:16:08.152639 31178 net.cpp:148] Top shape: 7000 3 (21000)
I0808 18:16:08.152642 31178 net.cpp:156] Memory required for data: 1309304864
I0808 18:16:08.152645 31178 layer_factory.hpp:77] Creating layer fc1
I0808 18:16:08.152653 31178 net.cpp:91] Creating Layer fc1
I0808 18:16:08.152657 31178 net.cpp:425] fc1 <- hypercolumns
I0808 18:16:08.152664 31178 net.cpp:399] fc1 -> fc1
I0808 18:16:08.465626 31178 net.cpp:141] Setting up fc1
I0808 18:16:08.465669 31178 net.cpp:148] Top shape: 7000 4096 (28672000)
I0808 18:16:08.465673 31178 net.cpp:156] Memory required for data: 1423992864
I0808 18:16:08.465714 31178 layer_factory.hpp:77] Creating layer relu1
I0808 18:16:08.465733 31178 net.cpp:91] Creating Layer relu1
I0808 18:16:08.465759 31178 net.cpp:425] relu1 <- fc1
I0808 18:16:08.465790 31178 net.cpp:386] relu1 -> fc1 (in-place)
I0808 18:16:08.466878 31178 net.cpp:141] Setting up relu1
I0808 18:16:08.466893 31178 net.cpp:148] Top shape: 7000 4096 (28672000)
I0808 18:16:08.466897 31178 net.cpp:156] Memory required for data: 1538680864
I0808 18:16:08.466900 31178 layer_factory.hpp:77] Creating layer drop1
I0808 18:16:08.466912 31178 net.cpp:91] Creating Layer drop1
I0808 18:16:08.466915 31178 net.cpp:425] drop1 <- fc1
I0808 18:16:08.466920 31178 net.cpp:386] drop1 -> fc1 (in-place)
I0808 18:16:08.466964 31178 net.cpp:141] Setting up drop1
I0808 18:16:08.466971 31178 net.cpp:148] Top shape: 7000 4096 (28672000)
I0808 18:16:08.466974 31178 net.cpp:156] Memory required for data: 1653368864
I0808 18:16:08.467001 31178 layer_factory.hpp:77] Creating layer fc2
I0808 18:16:08.467022 31178 net.cpp:91] Creating Layer fc2
I0808 18:16:08.467026 31178 net.cpp:425] fc2 <- fc1
I0808 18:16:08.467032 31178 net.cpp:399] fc2 -> fc2
I0808 18:16:08.694794 31178 net.cpp:141] Setting up fc2
I0808 18:16:08.694840 31178 net.cpp:148] Top shape: 7000 4096 (28672000)
I0808 18:16:08.694844 31178 net.cpp:156] Memory required for data: 1768056864
I0808 18:16:08.694888 31178 layer_factory.hpp:77] Creating layer relu2
I0808 18:16:08.694902 31178 net.cpp:91] Creating Layer relu2
I0808 18:16:08.694907 31178 net.cpp:425] relu2 <- fc2
I0808 18:16:08.694917 31178 net.cpp:386] relu2 -> fc2 (in-place)
I0808 18:16:08.695204 31178 net.cpp:141] Setting up relu2
I0808 18:16:08.695214 31178 net.cpp:148] Top shape: 7000 4096 (28672000)
I0808 18:16:08.695217 31178 net.cpp:156] Memory required for data: 1882744864
I0808 18:16:08.695221 31178 layer_factory.hpp:77] Creating layer drop2
I0808 18:16:08.695228 31178 net.cpp:91] Creating Layer drop2
I0808 18:16:08.695231 31178 net.cpp:425] drop2 <- fc2
I0808 18:16:08.695238 31178 net.cpp:386] drop2 -> fc2 (in-place)
I0808 18:16:08.695271 31178 net.cpp:141] Setting up drop2
I0808 18:16:08.695281 31178 net.cpp:148] Top shape: 7000 4096 (28672000)
I0808 18:16:08.695284 31178 net.cpp:156] Memory required for data: 1997432864
I0808 18:16:08.695288 31178 layer_factory.hpp:77] Creating layer fc3
I0808 18:16:08.695297 31178 net.cpp:91] Creating Layer fc3
I0808 18:16:08.695299 31178 net.cpp:425] fc3 <- fc2
I0808 18:16:08.695307 31178 net.cpp:399] fc3 -> fc3
I0808 18:16:08.695641 31178 net.cpp:141] Setting up fc3
I0808 18:16:08.695649 31178 net.cpp:148] Top shape: 7000 3 (21000)
I0808 18:16:08.695652 31178 net.cpp:156] Memory required for data: 1997516864
I0808 18:16:08.695664 31178 layer_factory.hpp:77] Creating layer loss
I0808 18:16:08.695683 31178 net.cpp:91] Creating Layer loss
I0808 18:16:08.695685 31178 net.cpp:425] loss <- fc3
I0808 18:16:08.695689 31178 net.cpp:425] loss <- normal_point
I0808 18:16:08.695694 31178 net.cpp:399] loss -> loss
I0808 18:16:08.695770 31178 net.cpp:141] Setting up loss
…
