…
net: "/home/qinhong/project/normal_recovery/model/ah/train.prototxt"
type: "SGD"
I0930 12:42:26.233147  7298 solver.cpp:91] Creating training net from net file: /home/qinhong/project/normal_recovery/model/ah/train.prototxt
I0930 12:42:26.233937  7298 net.cpp:49] Initializing net from parameters: 
name: "hyper_normal_layers"
state {
  phase: TRAIN
}
layer {
  name: "data"
  type: "ImageNormalData"
  top: "data"
  top: "normal"
  transform_param {
  }
  image_data_param {
    source: "/home/qinhong/project/normal_recovery/data/nyu.txt"
    batch_size: 5
    shuffle: true
    new_height: 224
    new_width: 224
  }
}
layer {
  name: "conv1_1"
  type: "Convolution"
  bottom: "data"
  top: "conv1_1"
  param {
    lr_mult: 1
    decay_mult: 1
  }
  param {
    lr_mult: 2
    decay_mult: 0
  }
  convolution_param {
    num_output: 64
    pad: 1
    kernel_size: 3
  }
}
layer {
  name: "relu1_1"
  type: "ReLU"
  bottom: "conv1_1"
  top: "conv1_1"
}
layer {
  name: "conv1_2"
  type: "Convolution"
  bottom: "conv1_1"
  top: "conv1_2"
  param {
    lr_mult: 1
    decay_mult: 1
  }
  param {
    lr_mult: 2
    decay_mult: 0
  }
  convolution_param {
    num_output: 64
    pad: 1
    kernel_size: 3
  }
}
layer {
  name: "relu1_2"
  type: "ReLU"
  bottom: "conv1_2"
  top: "conv1_2_re"
}
layer {
  name: "pool1"
  type: "Pooling"
  bottom: "conv1_2_re"
  top: "pool1"
  pooling_param {
    pool: MAX
    kernel_size: 2
    stride: 2
  }
}
layer {
  name: "conv2_1"
  type: "Convolution"
  bottom: "pool1"
  top: "conv2_1"
  param {
    lr_mult: 1
    decay_mult: 1
  }
  param {
    lr_mult: 2
    decay_mult: 0
  }
  convolution_param {
    num_output: 128
    pad: 1
    kernel_size: 3
  }
}
layer {
  name: "relu2_1"
  type: "ReLU"
  bottom: "conv2_1"
  top: "conv2_1"
}
layer {
  name: "conv2_2"
  type: "Convolution"
  bottom: "conv2_1"
  top: "conv2_2"
  param {
    lr_mult: 1
    decay_mult: 1
  }
  param {
    lr_mult: 2
    decay_mult: 0
  }
  convolution_param {
    num_output: 128
    pad: 1
    kernel_size: 3
  }
}
layer {
  name: "relu2_2"
  type: "ReLU"
  bottom: "conv2_2"
  top: "conv2_2_re"
}
layer {
  name: "pool2"
  type: "Pooling"
  bottom: "conv2_2_re"
  top: "pool2"
  pooling_param {
    pool: MAX
    kernel_size: 2
    stride: 2
  }
}
layer {
  name: "conv3_1"
  type: "Convolution"
  bottom: "pool2"
  top: "conv3_1"
  param {
    lr_mult: 1
    decay_mult: 1
  }
  param {
    lr_mult: 2
    decay_mult: 0
  }
  convolution_param {
    num_output: 256
    pad: 1
    kernel_size: 3
  }
}
layer {
  name: "relu3_1"
  type: "ReLU"
  bottom: "conv3_1"
  top: "conv3_1"
}
layer {
  name: "conv3_2"
  type: "Convolution"
  bottom: "conv3_1"
  top: "conv3_2"
  param {
    lr_mult: 1
    decay_mult: 1
  }
  param {
    lr_mult: 2
    decay_mult: 0
  }
  convolution_param {
    num_output: 256
    pad: 1
    kernel_size: 3
  }
}
layer {
  name: "relu3_2"
  type: "ReLU"
  bottom: "conv3_2"
  top: "conv3_2"
}
layer {
  name: "conv3_3"
  type: "Convolution"
  bottom: "conv3_2"
  top: "conv3_3"
  param {
    lr_mult: 1
    decay_mult: 1
  }
  param {
    lr_mult: 2
    decay_mult: 0
  }
  convolution_param {
    num_output: 256
    pad: 1
    kernel_size: 3
  }
}
layer {
  name: "relu3_3"
  type: "ReLU"
  bottom: "conv3_3"
  top: "conv3_3_re"
}
layer {
  name: "pool3"
  type: "Pooling"
  bottom: "conv3_3_re"
  top: "pool3"
  pooling_param {
    pool: MAX
    kernel_size: 2
    stride: 2
  }
}
layer {
  name: "conv4_1"
  type: "Convolution"
  bottom: "pool3"
  top: "conv4_1"
  param {
    lr_mult: 1
    decay_mult: 1
  }
  param {
    lr_mult: 2
    decay_mult: 0
  }
  convolution_param {
    num_output: 512
    pad: 1
    kernel_size: 3
  }
}
layer {
  name: "relu4_1"
  type: "ReLU"
  bottom: "conv4_1"
  top: "conv4_1"
}
layer {
  name: "conv4_2"
  type: "Convolution"
  bottom: "conv4_1"
  top: "conv4_2"
  param {
    lr_mult: 1
    decay_mult: 1
  }
  param {
    lr_mult: 2
    decay_mult: 0
  }
  convolution_param {
    num_output: 512
    pad: 1
    kernel_size: 3
  }
}
layer {
  name: "relu4_2"
  type: "ReLU"
  bottom: "conv4_2"
  top: "conv4_2"
}
layer {
  name: "conv4_3"
  type: "Convolution"
  bottom: "conv4_2"
  top: "conv4_3"
  param {
    lr_mult: 1
    decay_mult: 1
  }
  param {
    lr_mult: 2
    decay_mult: 0
  }
  convolution_param {
    num_output: 512
    pad: 1
    kernel_size: 3
  }
}
layer {
  name: "relu4_3"
  type: "ReLU"
  bottom: "conv4_3"
  top: "conv4_3_re"
}
layer {
  name: "pool4"
  type: "Pooling"
  bottom: "conv4_3_re"
  top: "pool4"
  pooling_param {
    pool: MAX
    kernel_size: 2
    stride: 2
  }
}
layer {
  name: "conv5_1"
  type: "Convolution"
  bottom: "pool4"
  top: "conv5_1"
  param {
    lr_mult: 1
    decay_mult: 1
  }
  param {
    lr_mult: 2
    decay_mult: 0
  }
  convolution_param {
    num_output: 512
    pad: 1
    kernel_size: 3
  }
}
layer {
  name: "relu5_1"
  type: "ReLU"
  bottom: "conv5_1"
  top: "conv5_1"
}
layer {
  name: "conv5_2"
  type: "Convolution"
  bottom: "conv5_1"
  top: "conv5_2"
  param {
    lr_mult: 1
    decay_mult: 1
  }
  param {
    lr_mult: 2
    decay_mult: 0
  }
  convolution_param {
    num_output: 512
    pad: 1
    kernel_size: 3
  }
}
layer {
  name: "relu5_2"
  type: "ReLU"
  bottom: "conv5_2"
  top: "conv5_2"
}
layer {
  name: "conv5_3"
  type: "Convolution"
  bottom: "conv5_2"
  top: "conv5_3"
  param {
    lr_mult: 1
    decay_mult: 1
  }
  param {
    lr_mult: 2
    decay_mult: 0
  }
  convolution_param {
    num_output: 512
    pad: 1
    kernel_size: 3
  }
}
layer {
  name: "relu5_3"
  type: "ReLU"
  bottom: "conv5_3"
  top: "conv5_3_re"
}
layer {
  name: "pool5"
  type: "Pooling"
  bottom: "conv5_3_re"
  top: "pool5"
  pooling_param {
    pool: MAX
    kernel_size: 2
    stride: 2
  }
}
layer {
  name: "fc6-conv"
  type: "Convolution"
  bottom: "pool5"
  top: "fc6-conv"
  param {
    lr_mult: 1
    decay_mult: 1
  }
  param {
    lr_mult: 2
    decay_mult: 0
  }
  convolution_param {
    num_output: 4096
    kernel_size: 7
  }
}
layer {
  name: "relu6"
  type: "ReLU"
  bottom: "fc6-conv"
  top: "fc6-conv"
}
layer {
  name: "drop6"
  type: "Dropout"
  bottom: "fc6-conv"
  top: "fc6-conv"
  dropout_param {
    dropout_ratio: 0.5
  }
}
layer {
  name: "fc7-conv"
  type: "Convolution"
  bottom: "fc6-conv"
  top: "fc7-conv"
  param {
    lr_mult: 1
    decay_mult: 1
  }
  param {
    lr_mult: 2
    decay_mult: 0
  }
  convolution_param {
    num_output: 4096
    kernel_size: 1
  }
}
layer {
  name: "relu7"
  type: "ReLU"
  bottom: "fc7-conv"
  top: "fc7-conv"
}
layer {
  name: "drop7"
  type: "Dropout"
  bottom: "fc7-conv"
  top: "fc7-conv"
  dropout_param {
    dropout_ratio: 0.5
  }
}
layer {
  name: "hypercolumns"
  type: "HyperColumns"
  bottom: "normal"
  bottom: "conv1_2"
  bottom: "conv2_2"
  bottom: "conv3_3"
  bottom: "conv4_3"
  bottom: "conv5_3"
  bottom: "fc7-conv"
  top: "hypercolumns"
  top: "normal_point"
  hypercolumns_param {
    is_train: true
    sample_num: 1000
  }
}
layer {
  name: "fc1"
  type: "InnerProduct"
  bottom: "hypercolumns"
  top: "fc1"
  param {
    lr_mult: 1
    decay_mult: 1
  }
  param {
    lr_mult: 2
    decay_mult: 0
  }
  inner_product_param {
    num_output: 4096
    weight_filler {
      type: "gaussian"
      std: 0.0005
    }
    bias_filler {
      type: "constant"
      value: 0.1
    }
  }
}
layer {
  name: "relu1"
  type: "ReLU"
  bottom: "fc1"
  top: "fc1"
}
layer {
  name: "drop1"
  type: "Dropout"
  bottom: "fc1"
  top: "fc1"
  dropout_param {
    dropout_ratio: 0.5
  }
}
layer {
  name: "fc2"
  type: "InnerProduct"
  bottom: "fc1"
  top: "fc2"
  param {
    lr_mult: 1
    decay_mult: 1
  }
  param {
    lr_mult: 2
    decay_mult: 0
  }
  inner_product_param {
    num_output: 4096
    weight_filler {
      type: "gaussian"
      std: 0.0005
    }
    bias_filler {
      type: "constant"
      value: 0.1
    }
  }
}
layer {
  name: "relu2"
  type: "ReLU"
  bottom: "fc2"
  top: "fc2"
}
layer {
  name: "drop2"
  type: "Dropout"
  bottom: "fc2"
  top: "fc2"
  dropout_param {
    dropout_ratio: 0.5
  }
}
layer {
  name: "fc3"
  type: "InnerProduct"
  bottom: "fc2"
  top: "fc3"
  param {
    lr_mult: 1
    decay_mult: 1
  }
  param {
    lr_mult: 2
    decay_mult: 0
  }
  inner_product_param {
    num_output: 3
    weight_filler {
      type: "gaussian"
      std: 0.0005
    }
    bias_filler {
      type: "constant"
      value: 0.1
    }
  }
}
layer {
  name: "Norm"
  type: "Normalize"
  bottom: "fc3"
  top: "fc3_norm"
  norm_param {
    across_spatial: false
    scale_filler {
      type: "constant"
      value: 1
    }
    channel_shared: false
    fix_scale: true
  }
}
layer {
  name: "loss"
  type: "EuclideanLoss"
  bottom: "fc3_norm"
  bottom: "normal_point"
  top: "loss"
  propagate_down: true
  propagate_down: false
}
I0930 12:42:26.234194  7298 layer_factory.hpp:77] Creating layer data
I0930 12:42:26.234232  7298 net.cpp:91] Creating Layer data
I0930 12:42:26.234242  7298 net.cpp:399] data -> data
I0930 12:42:26.234272  7298 net.cpp:399] data -> normal
I0930 12:42:26.234293  7298 image_normal_data_layer.cpp:43] opeing file /home/qinhong/project/normal_recovery/data/nyu.txt
I0930 12:42:26.241027  7298 image_normal_data_layer.cpp:54] Shuffing data
I0930 12:42:26.243074  7298 image_normal_data_layer.cpp:59] A total of 5899 images.
I0930 12:42:26.307391  7298 image_normal_data_layer.cpp:79] output data size: 5,3,224,224
I0930 12:42:26.324478  7298 net.cpp:141] Setting up data
I0930 12:42:26.324509  7298 net.cpp:148] Top shape: 5 3 224 224 (752640)
I0930 12:42:26.324518  7298 net.cpp:148] Top shape: 5 3 224 224 (752640)
I0930 12:42:26.324523  7298 net.cpp:156] Memory required for data: 6021120
I0930 12:42:26.324535  7298 layer_factory.hpp:77] Creating layer conv1_1
I0930 12:42:26.324563  7298 net.cpp:91] Creating Layer conv1_1
I0930 12:42:26.324574  7298 net.cpp:425] conv1_1 <- data
I0930 12:42:26.324595  7298 net.cpp:399] conv1_1 -> conv1_1
I0930 12:42:26.612301  7298 net.cpp:141] Setting up conv1_1
I0930 12:42:26.612336  7298 net.cpp:148] Top shape: 5 64 224 224 (16056320)
I0930 12:42:26.612342  7298 net.cpp:156] Memory required for data: 70246400
I0930 12:42:26.612375  7298 layer_factory.hpp:77] Creating layer relu1_1
I0930 12:42:26.612390  7298 net.cpp:91] Creating Layer relu1_1
I0930 12:42:26.612401  7298 net.cpp:425] relu1_1 <- conv1_1
I0930 12:42:26.612411  7298 net.cpp:386] relu1_1 -> conv1_1 (in-place)
I0930 12:42:26.612994  7298 net.cpp:141] Setting up relu1_1
I0930 12:42:26.613019  7298 net.cpp:148] Top shape: 5 64 224 224 (16056320)
I0930 12:42:26.613024  7298 net.cpp:156] Memory required for data: 134471680
I0930 12:42:26.613029  7298 layer_factory.hpp:77] Creating layer conv1_2
I0930 12:42:26.613045  7298 net.cpp:91] Creating Layer conv1_2
I0930 12:42:26.613051  7298 net.cpp:425] conv1_2 <- conv1_1
I0930 12:42:26.613062  7298 net.cpp:399] conv1_2 -> conv1_2
I0930 12:42:26.615597  7298 net.cpp:141] Setting up conv1_2
I0930 12:42:26.615633  7298 net.cpp:148] Top shape: 5 64 224 224 (16056320)
I0930 12:42:26.615640  7298 net.cpp:156] Memory required for data: 198696960
I0930 12:42:26.615661  7298 layer_factory.hpp:77] Creating layer conv1_2_conv1_2_0_split
I0930 12:42:26.615677  7298 net.cpp:91] Creating Layer conv1_2_conv1_2_0_split
I0930 12:42:26.615685  7298 net.cpp:425] conv1_2_conv1_2_0_split <- conv1_2
I0930 12:42:26.615698  7298 net.cpp:399] conv1_2_conv1_2_0_split -> conv1_2_conv1_2_0_split_0
I0930 12:42:26.615722  7298 net.cpp:399] conv1_2_conv1_2_0_split -> conv1_2_conv1_2_0_split_1
I0930 12:42:26.615820  7298 net.cpp:141] Setting up conv1_2_conv1_2_0_split
I0930 12:42:26.615839  7298 net.cpp:148] Top shape: 5 64 224 224 (16056320)
I0930 12:42:26.615850  7298 net.cpp:148] Top shape: 5 64 224 224 (16056320)
I0930 12:42:26.615856  7298 net.cpp:156] Memory required for data: 327147520
I0930 12:42:26.615864  7298 layer_factory.hpp:77] Creating layer relu1_2
I0930 12:42:26.615875  7298 net.cpp:91] Creating Layer relu1_2
I0930 12:42:26.615921  7298 net.cpp:425] relu1_2 <- conv1_2_conv1_2_0_split_0
I0930 12:42:26.615936  7298 net.cpp:399] relu1_2 -> conv1_2_re
I0930 12:42:26.616452  7298 net.cpp:141] Setting up relu1_2
I0930 12:42:26.616478  7298 net.cpp:148] Top shape: 5 64 224 224 (16056320)
I0930 12:42:26.616484  7298 net.cpp:156] Memory required for data: 391372800
I0930 12:42:26.616492  7298 layer_factory.hpp:77] Creating layer pool1
I0930 12:42:26.616505  7298 net.cpp:91] Creating Layer pool1
I0930 12:42:26.616513  7298 net.cpp:425] pool1 <- conv1_2_re
I0930 12:42:26.616524  7298 net.cpp:399] pool1 -> pool1
I0930 12:42:26.616627  7298 net.cpp:141] Setting up pool1
I0930 12:42:26.616647  7298 net.cpp:148] Top shape: 5 64 112 112 (4014080)
I0930 12:42:26.616655  7298 net.cpp:156] Memory required for data: 407429120
I0930 12:42:26.616662  7298 layer_factory.hpp:77] Creating layer conv2_1
I0930 12:42:26.616678  7298 net.cpp:91] Creating Layer conv2_1
I0930 12:42:26.616688  7298 net.cpp:425] conv2_1 <- pool1
I0930 12:42:26.616700  7298 net.cpp:399] conv2_1 -> conv2_1
I0930 12:42:26.621814  7298 net.cpp:141] Setting up conv2_1
I0930 12:42:26.621846  7298 net.cpp:148] Top shape: 5 128 112 112 (8028160)
I0930 12:42:26.621855  7298 net.cpp:156] Memory required for data: 439541760
I0930 12:42:26.621875  7298 layer_factory.hpp:77] Creating layer relu2_1
I0930 12:42:26.621891  7298 net.cpp:91] Creating Layer relu2_1
I0930 12:42:26.621897  7298 net.cpp:425] relu2_1 <- conv2_1
I0930 12:42:26.621907  7298 net.cpp:386] relu2_1 -> conv2_1 (in-place)
I0930 12:42:26.622278  7298 net.cpp:141] Setting up relu2_1
I0930 12:42:26.622300  7298 net.cpp:148] Top shape: 5 128 112 112 (8028160)
I0930 12:42:26.622306  7298 net.cpp:156] Memory required for data: 471654400
I0930 12:42:26.622313  7298 layer_factory.hpp:77] Creating layer conv2_2
I0930 12:42:26.622328  7298 net.cpp:91] Creating Layer conv2_2
I0930 12:42:26.622334  7298 net.cpp:425] conv2_2 <- conv2_1
I0930 12:42:26.622345  7298 net.cpp:399] conv2_2 -> conv2_2
I0930 12:42:26.624747  7298 net.cpp:141] Setting up conv2_2
I0930 12:42:26.624775  7298 net.cpp:148] Top shape: 5 128 112 112 (8028160)
I0930 12:42:26.624783  7298 net.cpp:156] Memory required for data: 503767040
I0930 12:42:26.624795  7298 layer_factory.hpp:77] Creating layer conv2_2_conv2_2_0_split
I0930 12:42:26.624807  7298 net.cpp:91] Creating Layer conv2_2_conv2_2_0_split
I0930 12:42:26.624814  7298 net.cpp:425] conv2_2_conv2_2_0_split <- conv2_2
I0930 12:42:26.624825  7298 net.cpp:399] conv2_2_conv2_2_0_split -> conv2_2_conv2_2_0_split_0
I0930 12:42:26.624842  7298 net.cpp:399] conv2_2_conv2_2_0_split -> conv2_2_conv2_2_0_split_1
I0930 12:42:26.624927  7298 net.cpp:141] Setting up conv2_2_conv2_2_0_split
I0930 12:42:26.624944  7298 net.cpp:148] Top shape: 5 128 112 112 (8028160)
I0930 12:42:26.624954  7298 net.cpp:148] Top shape: 5 128 112 112 (8028160)
I0930 12:42:26.624959  7298 net.cpp:156] Memory required for data: 567992320
I0930 12:42:26.624965  7298 layer_factory.hpp:77] Creating layer relu2_2
I0930 12:42:26.624975  7298 net.cpp:91] Creating Layer relu2_2
I0930 12:42:26.624984  7298 net.cpp:425] relu2_2 <- conv2_2_conv2_2_0_split_0
I0930 12:42:26.624996  7298 net.cpp:399] relu2_2 -> conv2_2_re
I0930 12:42:26.625649  7298 net.cpp:141] Setting up relu2_2
I0930 12:42:26.625676  7298 net.cpp:148] Top shape: 5 128 112 112 (8028160)
I0930 12:42:26.625682  7298 net.cpp:156] Memory required for data: 600104960
I0930 12:42:26.625689  7298 layer_factory.hpp:77] Creating layer pool2
I0930 12:42:26.625702  7298 net.cpp:91] Creating Layer pool2
I0930 12:42:26.625708  7298 net.cpp:425] pool2 <- conv2_2_re
I0930 12:42:26.625720  7298 net.cpp:399] pool2 -> pool2
I0930 12:42:26.625795  7298 net.cpp:141] Setting up pool2
I0930 12:42:26.625810  7298 net.cpp:148] Top shape: 5 128 56 56 (2007040)
I0930 12:42:26.625816  7298 net.cpp:156] Memory required for data: 608133120
I0930 12:42:26.625823  7298 layer_factory.hpp:77] Creating layer conv3_1
I0930 12:42:26.625835  7298 net.cpp:91] Creating Layer conv3_1
I0930 12:42:26.625844  7298 net.cpp:425] conv3_1 <- pool2
I0930 12:42:26.625883  7298 net.cpp:399] conv3_1 -> conv3_1
I0930 12:42:26.629703  7298 net.cpp:141] Setting up conv3_1
I0930 12:42:26.629731  7298 net.cpp:148] Top shape: 5 256 56 56 (4014080)
I0930 12:42:26.629739  7298 net.cpp:156] Memory required for data: 624189440
I0930 12:42:26.629757  7298 layer_factory.hpp:77] Creating layer relu3_1
I0930 12:42:26.629778  7298 net.cpp:91] Creating Layer relu3_1
I0930 12:42:26.629786  7298 net.cpp:425] relu3_1 <- conv3_1
I0930 12:42:26.629801  7298 net.cpp:386] relu3_1 -> conv3_1 (in-place)
I0930 12:42:26.630184  7298 net.cpp:141] Setting up relu3_1
I0930 12:42:26.630204  7298 net.cpp:148] Top shape: 5 256 56 56 (4014080)
I0930 12:42:26.630210  7298 net.cpp:156] Memory required for data: 640245760
I0930 12:42:26.630216  7298 layer_factory.hpp:77] Creating layer conv3_2
I0930 12:42:26.630233  7298 net.cpp:91] Creating Layer conv3_2
I0930 12:42:26.630239  7298 net.cpp:425] conv3_2 <- conv3_1
I0930 12:42:26.630249  7298 net.cpp:399] conv3_2 -> conv3_2
I0930 12:42:26.635032  7298 net.cpp:141] Setting up conv3_2
I0930 12:42:26.635063  7298 net.cpp:148] Top shape: 5 256 56 56 (4014080)
I0930 12:42:26.635069  7298 net.cpp:156] Memory required for data: 656302080
I0930 12:42:26.635082  7298 layer_factory.hpp:77] Creating layer relu3_2
I0930 12:42:26.635099  7298 net.cpp:91] Creating Layer relu3_2
I0930 12:42:26.635105  7298 net.cpp:425] relu3_2 <- conv3_2
I0930 12:42:26.635115  7298 net.cpp:386] relu3_2 -> conv3_2 (in-place)
I0930 12:42:26.635488  7298 net.cpp:141] Setting up relu3_2
I0930 12:42:26.635507  7298 net.cpp:148] Top shape: 5 256 56 56 (4014080)
I0930 12:42:26.635514  7298 net.cpp:156] Memory required for data: 672358400
I0930 12:42:26.635519  7298 layer_factory.hpp:77] Creating layer conv3_3
I0930 12:42:26.635536  7298 net.cpp:91] Creating Layer conv3_3
I0930 12:42:26.635542  7298 net.cpp:425] conv3_3 <- conv3_2
I0930 12:42:26.635552  7298 net.cpp:399] conv3_3 -> conv3_3
I0930 12:42:26.640141  7298 net.cpp:141] Setting up conv3_3
I0930 12:42:26.640169  7298 net.cpp:148] Top shape: 5 256 56 56 (4014080)
I0930 12:42:26.640177  7298 net.cpp:156] Memory required for data: 688414720
I0930 12:42:26.640188  7298 layer_factory.hpp:77] Creating layer conv3_3_conv3_3_0_split
I0930 12:42:26.640202  7298 net.cpp:91] Creating Layer conv3_3_conv3_3_0_split
I0930 12:42:26.640209  7298 net.cpp:425] conv3_3_conv3_3_0_split <- conv3_3
I0930 12:42:26.640218  7298 net.cpp:399] conv3_3_conv3_3_0_split -> conv3_3_conv3_3_0_split_0
I0930 12:42:26.640239  7298 net.cpp:399] conv3_3_conv3_3_0_split -> conv3_3_conv3_3_0_split_1
I0930 12:42:26.640326  7298 net.cpp:141] Setting up conv3_3_conv3_3_0_split
I0930 12:42:26.640342  7298 net.cpp:148] Top shape: 5 256 56 56 (4014080)
I0930 12:42:26.640349  7298 net.cpp:148] Top shape: 5 256 56 56 (4014080)
I0930 12:42:26.640354  7298 net.cpp:156] Memory required for data: 720527360
I0930 12:42:26.640359  7298 layer_factory.hpp:77] Creating layer relu3_3
I0930 12:42:26.640372  7298 net.cpp:91] Creating Layer relu3_3
I0930 12:42:26.640380  7298 net.cpp:425] relu3_3 <- conv3_3_conv3_3_0_split_0
I0930 12:42:26.640389  7298 net.cpp:399] relu3_3 -> conv3_3_re
I0930 12:42:26.641041  7298 net.cpp:141] Setting up relu3_3
I0930 12:42:26.641065  7298 net.cpp:148] Top shape: 5 256 56 56 (4014080)
I0930 12:42:26.641072  7298 net.cpp:156] Memory required for data: 736583680
I0930 12:42:26.641077  7298 layer_factory.hpp:77] Creating layer pool3
I0930 12:42:26.641091  7298 net.cpp:91] Creating Layer pool3
I0930 12:42:26.641098  7298 net.cpp:425] pool3 <- conv3_3_re
I0930 12:42:26.641108  7298 net.cpp:399] pool3 -> pool3
I0930 12:42:26.641192  7298 net.cpp:141] Setting up pool3
I0930 12:42:26.641207  7298 net.cpp:148] Top shape: 5 256 28 28 (1003520)
I0930 12:42:26.641212  7298 net.cpp:156] Memory required for data: 740597760
I0930 12:42:26.641217  7298 layer_factory.hpp:77] Creating layer conv4_1
I0930 12:42:26.641232  7298 net.cpp:91] Creating Layer conv4_1
I0930 12:42:26.641240  7298 net.cpp:425] conv4_1 <- pool3
I0930 12:42:26.641260  7298 net.cpp:399] conv4_1 -> conv4_1
I0930 12:42:26.649121  7298 net.cpp:141] Setting up conv4_1
I0930 12:42:26.649149  7298 net.cpp:148] Top shape: 5 512 28 28 (2007040)
I0930 12:42:26.649155  7298 net.cpp:156] Memory required for data: 748625920
I0930 12:42:26.649168  7298 layer_factory.hpp:77] Creating layer relu4_1
I0930 12:42:26.649178  7298 net.cpp:91] Creating Layer relu4_1
I0930 12:42:26.649183  7298 net.cpp:425] relu4_1 <- conv4_1
I0930 12:42:26.649200  7298 net.cpp:386] relu4_1 -> conv4_1 (in-place)
I0930 12:42:26.649554  7298 net.cpp:141] Setting up relu4_1
I0930 12:42:26.649575  7298 net.cpp:148] Top shape: 5 512 28 28 (2007040)
I0930 12:42:26.649580  7298 net.cpp:156] Memory required for data: 756654080
I0930 12:42:26.649585  7298 layer_factory.hpp:77] Creating layer conv4_2
I0930 12:42:26.649601  7298 net.cpp:91] Creating Layer conv4_2
I0930 12:42:26.649607  7298 net.cpp:425] conv4_2 <- conv4_1
I0930 12:42:26.649618  7298 net.cpp:399] conv4_2 -> conv4_2
I0930 12:42:26.659883  7298 net.cpp:141] Setting up conv4_2
I0930 12:42:26.659915  7298 net.cpp:148] Top shape: 5 512 28 28 (2007040)
I0930 12:42:26.659921  7298 net.cpp:156] Memory required for data: 764682240
I0930 12:42:26.659940  7298 layer_factory.hpp:77] Creating layer relu4_2
I0930 12:42:26.659953  7298 net.cpp:91] Creating Layer relu4_2
I0930 12:42:26.659958  7298 net.cpp:425] relu4_2 <- conv4_2
I0930 12:42:26.659967  7298 net.cpp:386] relu4_2 -> conv4_2 (in-place)
I0930 12:42:26.660296  7298 net.cpp:141] Setting up relu4_2
I0930 12:42:26.660315  7298 net.cpp:148] Top shape: 5 512 28 28 (2007040)
I0930 12:42:26.660320  7298 net.cpp:156] Memory required for data: 772710400
I0930 12:42:26.660326  7298 layer_factory.hpp:77] Creating layer conv4_3
I0930 12:42:26.660339  7298 net.cpp:91] Creating Layer conv4_3
I0930 12:42:26.660346  7298 net.cpp:425] conv4_3 <- conv4_2
I0930 12:42:26.660354  7298 net.cpp:399] conv4_3 -> conv4_3
I0930 12:42:26.670490  7298 net.cpp:141] Setting up conv4_3
I0930 12:42:26.670516  7298 net.cpp:148] Top shape: 5 512 28 28 (2007040)
I0930 12:42:26.670522  7298 net.cpp:156] Memory required for data: 780738560
I0930 12:42:26.670532  7298 layer_factory.hpp:77] Creating layer conv4_3_conv4_3_0_split
I0930 12:42:26.670545  7298 net.cpp:91] Creating Layer conv4_3_conv4_3_0_split
I0930 12:42:26.670550  7298 net.cpp:425] conv4_3_conv4_3_0_split <- conv4_3
I0930 12:42:26.670562  7298 net.cpp:399] conv4_3_conv4_3_0_split -> conv4_3_conv4_3_0_split_0
I0930 12:42:26.670573  7298 net.cpp:399] conv4_3_conv4_3_0_split -> conv4_3_conv4_3_0_split_1
I0930 12:42:26.670647  7298 net.cpp:141] Setting up conv4_3_conv4_3_0_split
I0930 12:42:26.670665  7298 net.cpp:148] Top shape: 5 512 28 28 (2007040)
I0930 12:42:26.670675  7298 net.cpp:148] Top shape: 5 512 28 28 (2007040)
I0930 12:42:26.670678  7298 net.cpp:156] Memory required for data: 796794880
I0930 12:42:26.670687  7298 layer_factory.hpp:77] Creating layer relu4_3
I0930 12:42:26.670697  7298 net.cpp:91] Creating Layer relu4_3
I0930 12:42:26.670702  7298 net.cpp:425] relu4_3 <- conv4_3_conv4_3_0_split_0
I0930 12:42:26.670709  7298 net.cpp:399] relu4_3 -> conv4_3_re
I0930 12:42:26.671283  7298 net.cpp:141] Setting up relu4_3
I0930 12:42:26.671306  7298 net.cpp:148] Top shape: 5 512 28 28 (2007040)
I0930 12:42:26.671311  7298 net.cpp:156] Memory required for data: 804823040
I0930 12:42:26.671316  7298 layer_factory.hpp:77] Creating layer pool4
I0930 12:42:26.671326  7298 net.cpp:91] Creating Layer pool4
I0930 12:42:26.671332  7298 net.cpp:425] pool4 <- conv4_3_re
I0930 12:42:26.671344  7298 net.cpp:399] pool4 -> pool4
I0930 12:42:26.671419  7298 net.cpp:141] Setting up pool4
I0930 12:42:26.671434  7298 net.cpp:148] Top shape: 5 512 14 14 (501760)
I0930 12:42:26.671439  7298 net.cpp:156] Memory required for data: 806830080
I0930 12:42:26.671444  7298 layer_factory.hpp:77] Creating layer conv5_1
I0930 12:42:26.671454  7298 net.cpp:91] Creating Layer conv5_1
I0930 12:42:26.671459  7298 net.cpp:425] conv5_1 <- pool4
I0930 12:42:26.671470  7298 net.cpp:399] conv5_1 -> conv5_1
I0930 12:42:26.681429  7298 net.cpp:141] Setting up conv5_1
I0930 12:42:26.681481  7298 net.cpp:148] Top shape: 5 512 14 14 (501760)
I0930 12:42:26.681488  7298 net.cpp:156] Memory required for data: 808837120
I0930 12:42:26.681499  7298 layer_factory.hpp:77] Creating layer relu5_1
I0930 12:42:26.681509  7298 net.cpp:91] Creating Layer relu5_1
I0930 12:42:26.681514  7298 net.cpp:425] relu5_1 <- conv5_1
I0930 12:42:26.681521  7298 net.cpp:386] relu5_1 -> conv5_1 (in-place)
I0930 12:42:26.681835  7298 net.cpp:141] Setting up relu5_1
I0930 12:42:26.681854  7298 net.cpp:148] Top shape: 5 512 14 14 (501760)
I0930 12:42:26.681857  7298 net.cpp:156] Memory required for data: 810844160
I0930 12:42:26.681862  7298 layer_factory.hpp:77] Creating layer conv5_2
I0930 12:42:26.681875  7298 net.cpp:91] Creating Layer conv5_2
I0930 12:42:26.681881  7298 net.cpp:425] conv5_2 <- conv5_1
I0930 12:42:26.681890  7298 net.cpp:399] conv5_2 -> conv5_2
I0930 12:42:26.691293  7298 net.cpp:141] Setting up conv5_2
I0930 12:42:26.691318  7298 net.cpp:148] Top shape: 5 512 14 14 (501760)
I0930 12:42:26.691323  7298 net.cpp:156] Memory required for data: 812851200
I0930 12:42:26.691334  7298 layer_factory.hpp:77] Creating layer relu5_2
I0930 12:42:26.691354  7298 net.cpp:91] Creating Layer relu5_2
I0930 12:42:26.691360  7298 net.cpp:425] relu5_2 <- conv5_2
I0930 12:42:26.691368  7298 net.cpp:386] relu5_2 -> conv5_2 (in-place)
I0930 12:42:26.691653  7298 net.cpp:141] Setting up relu5_2
I0930 12:42:26.691671  7298 net.cpp:148] Top shape: 5 512 14 14 (501760)
I0930 12:42:26.691676  7298 net.cpp:156] Memory required for data: 814858240
I0930 12:42:26.691680  7298 layer_factory.hpp:77] Creating layer conv5_3
I0930 12:42:26.691691  7298 net.cpp:91] Creating Layer conv5_3
I0930 12:42:26.691696  7298 net.cpp:425] conv5_3 <- conv5_2
I0930 12:42:26.691706  7298 net.cpp:399] conv5_3 -> conv5_3
I0930 12:42:26.700928  7298 net.cpp:141] Setting up conv5_3
I0930 12:42:26.700953  7298 net.cpp:148] Top shape: 5 512 14 14 (501760)
I0930 12:42:26.700958  7298 net.cpp:156] Memory required for data: 816865280
I0930 12:42:26.700966  7298 layer_factory.hpp:77] Creating layer conv5_3_conv5_3_0_split
I0930 12:42:26.700978  7298 net.cpp:91] Creating Layer conv5_3_conv5_3_0_split
I0930 12:42:26.700984  7298 net.cpp:425] conv5_3_conv5_3_0_split <- conv5_3
I0930 12:42:26.700991  7298 net.cpp:399] conv5_3_conv5_3_0_split -> conv5_3_conv5_3_0_split_0
I0930 12:42:26.701004  7298 net.cpp:399] conv5_3_conv5_3_0_split -> conv5_3_conv5_3_0_split_1
I0930 12:42:26.701083  7298 net.cpp:141] Setting up conv5_3_conv5_3_0_split
I0930 12:42:26.701097  7298 net.cpp:148] Top shape: 5 512 14 14 (501760)
I0930 12:42:26.701102  7298 net.cpp:148] Top shape: 5 512 14 14 (501760)
I0930 12:42:26.701107  7298 net.cpp:156] Memory required for data: 820879360
I0930 12:42:26.701112  7298 layer_factory.hpp:77] Creating layer relu5_3
I0930 12:42:26.701118  7298 net.cpp:91] Creating Layer relu5_3
I0930 12:42:26.701123  7298 net.cpp:425] relu5_3 <- conv5_3_conv5_3_0_split_0
I0930 12:42:26.701133  7298 net.cpp:399] relu5_3 -> conv5_3_re
I0930 12:42:26.701659  7298 net.cpp:141] Setting up relu5_3
I0930 12:42:26.701680  7298 net.cpp:148] Top shape: 5 512 14 14 (501760)
I0930 12:42:26.701684  7298 net.cpp:156] Memory required for data: 822886400
I0930 12:42:26.701689  7298 layer_factory.hpp:77] Creating layer pool5
I0930 12:42:26.701701  7298 net.cpp:91] Creating Layer pool5
I0930 12:42:26.701706  7298 net.cpp:425] pool5 <- conv5_3_re
I0930 12:42:26.701714  7298 net.cpp:399] pool5 -> pool5
I0930 12:42:26.701782  7298 net.cpp:141] Setting up pool5
I0930 12:42:26.701794  7298 net.cpp:148] Top shape: 5 512 7 7 (125440)
I0930 12:42:26.701798  7298 net.cpp:156] Memory required for data: 823388160
I0930 12:42:26.701803  7298 layer_factory.hpp:77] Creating layer fc6-conv
I0930 12:42:26.701814  7298 net.cpp:91] Creating Layer fc6-conv
I0930 12:42:26.701822  7298 net.cpp:425] fc6-conv <- pool5
I0930 12:42:26.701831  7298 net.cpp:399] fc6-conv -> fc6-conv
I0930 12:42:27.033512  7298 net.cpp:141] Setting up fc6-conv
I0930 12:42:27.033565  7298 net.cpp:148] Top shape: 5 4096 1 1 (20480)
I0930 12:42:27.033599  7298 net.cpp:156] Memory required for data: 823470080
I0930 12:42:27.033612  7298 layer_factory.hpp:77] Creating layer relu6
I0930 12:42:27.033623  7298 net.cpp:91] Creating Layer relu6
I0930 12:42:27.033628  7298 net.cpp:425] relu6 <- fc6-conv
I0930 12:42:27.033637  7298 net.cpp:386] relu6 -> fc6-conv (in-place)
I0930 12:42:27.033874  7298 net.cpp:141] Setting up relu6
I0930 12:42:27.033887  7298 net.cpp:148] Top shape: 5 4096 1 1 (20480)
I0930 12:42:27.033890  7298 net.cpp:156] Memory required for data: 823552000
I0930 12:42:27.033893  7298 layer_factory.hpp:77] Creating layer drop6
I0930 12:42:27.033901  7298 net.cpp:91] Creating Layer drop6
I0930 12:42:27.033905  7298 net.cpp:425] drop6 <- fc6-conv
I0930 12:42:27.033913  7298 net.cpp:386] drop6 -> fc6-conv (in-place)
I0930 12:42:27.033957  7298 net.cpp:141] Setting up drop6
I0930 12:42:27.033967  7298 net.cpp:148] Top shape: 5 4096 1 1 (20480)
I0930 12:42:27.033970  7298 net.cpp:156] Memory required for data: 823633920
I0930 12:42:27.033973  7298 layer_factory.hpp:77] Creating layer fc7-conv
I0930 12:42:27.033985  7298 net.cpp:91] Creating Layer fc7-conv
I0930 12:42:27.033990  7298 net.cpp:425] fc7-conv <- fc6-conv
I0930 12:42:27.033998  7298 net.cpp:399] fc7-conv -> fc7-conv
I0930 12:42:27.089543  7298 net.cpp:141] Setting up fc7-conv
I0930 12:42:27.089597  7298 net.cpp:148] Top shape: 5 4096 1 1 (20480)
I0930 12:42:27.089602  7298 net.cpp:156] Memory required for data: 823715840
I0930 12:42:27.089613  7298 layer_factory.hpp:77] Creating layer relu7
I0930 12:42:27.089625  7298 net.cpp:91] Creating Layer relu7
I0930 12:42:27.089632  7298 net.cpp:425] relu7 <- fc7-conv
I0930 12:42:27.089640  7298 net.cpp:386] relu7 -> fc7-conv (in-place)
I0930 12:42:27.089877  7298 net.cpp:141] Setting up relu7
I0930 12:42:27.089892  7298 net.cpp:148] Top shape: 5 4096 1 1 (20480)
I0930 12:42:27.089895  7298 net.cpp:156] Memory required for data: 823797760
I0930 12:42:27.089900  7298 layer_factory.hpp:77] Creating layer drop7
I0930 12:42:27.089907  7298 net.cpp:91] Creating Layer drop7
I0930 12:42:27.089910  7298 net.cpp:425] drop7 <- fc7-conv
I0930 12:42:27.089916  7298 net.cpp:386] drop7 -> fc7-conv (in-place)
I0930 12:42:27.089956  7298 net.cpp:141] Setting up drop7
I0930 12:42:27.089965  7298 net.cpp:148] Top shape: 5 4096 1 1 (20480)
I0930 12:42:27.089968  7298 net.cpp:156] Memory required for data: 823879680
I0930 12:42:27.089972  7298 layer_factory.hpp:77] Creating layer hypercolumns
I0930 12:42:27.089982  7298 net.cpp:91] Creating Layer hypercolumns
I0930 12:42:27.089985  7298 net.cpp:425] hypercolumns <- normal
I0930 12:42:27.089993  7298 net.cpp:425] hypercolumns <- conv1_2_conv1_2_0_split_1
I0930 12:42:27.089998  7298 net.cpp:425] hypercolumns <- conv2_2_conv2_2_0_split_1
I0930 12:42:27.090001  7298 net.cpp:425] hypercolumns <- conv3_3_conv3_3_0_split_1
I0930 12:42:27.090005  7298 net.cpp:425] hypercolumns <- conv4_3_conv4_3_0_split_1
I0930 12:42:27.090010  7298 net.cpp:425] hypercolumns <- conv5_3_conv5_3_0_split_1
I0930 12:42:27.090013  7298 net.cpp:425] hypercolumns <- fc7-conv
I0930 12:42:27.090023  7298 net.cpp:399] hypercolumns -> hypercolumns
I0930 12:42:27.090034  7298 net.cpp:399] hypercolumns -> normal_point
I0930 12:42:27.090096  7298 net.cpp:141] Setting up hypercolumns
I0930 12:42:27.090106  7298 net.cpp:148] Top shape: 5000 5568 1 1 (27840000)
I0930 12:42:27.090111  7298 net.cpp:148] Top shape: 5000 3 (15000)
I0930 12:42:27.090113  7298 net.cpp:156] Memory required for data: 935299680
I0930 12:42:27.090116  7298 layer_factory.hpp:77] Creating layer fc1
I0930 12:42:27.090128  7298 net.cpp:91] Creating Layer fc1
I0930 12:42:27.090132  7298 net.cpp:425] fc1 <- hypercolumns
I0930 12:42:27.090137  7298 net.cpp:399] fc1 -> fc1
I0930 12:42:27.412401  7298 net.cpp:141] Setting up fc1
I0930 12:42:27.412454  7298 net.cpp:148] Top shape: 5000 4096 (20480000)
I0930 12:42:27.412459  7298 net.cpp:156] Memory required for data: 1017219680
I0930 12:42:27.412473  7298 layer_factory.hpp:77] Creating layer relu1
I0930 12:42:27.412514  7298 net.cpp:91] Creating Layer relu1
I0930 12:42:27.412520  7298 net.cpp:425] relu1 <- fc1
I0930 12:42:27.412530  7298 net.cpp:386] relu1 -> fc1 (in-place)
I0930 12:42:27.413306  7298 net.cpp:141] Setting up relu1
I0930 12:42:27.413323  7298 net.cpp:148] Top shape: 5000 4096 (20480000)
I0930 12:42:27.413326  7298 net.cpp:156] Memory required for data: 1099139680
I0930 12:42:27.413331  7298 layer_factory.hpp:77] Creating layer drop1
I0930 12:42:27.413339  7298 net.cpp:91] Creating Layer drop1
I0930 12:42:27.413342  7298 net.cpp:425] drop1 <- fc1
I0930 12:42:27.413350  7298 net.cpp:386] drop1 -> fc1 (in-place)
I0930 12:42:27.413393  7298 net.cpp:141] Setting up drop1
I0930 12:42:27.413403  7298 net.cpp:148] Top shape: 5000 4096 (20480000)
I0930 12:42:27.413406  7298 net.cpp:156] Memory required for data: 1181059680
I0930 12:42:27.413409  7298 layer_factory.hpp:77] Creating layer fc2
I0930 12:42:27.413417  7298 net.cpp:91] Creating Layer fc2
I0930 12:42:27.413421  7298 net.cpp:425] fc2 <- fc1
I0930 12:42:27.413429  7298 net.cpp:399] fc2 -> fc2
I0930 12:42:27.614637  7298 net.cpp:141] Setting up fc2
I0930 12:42:27.614696  7298 net.cpp:148] Top shape: 5000 4096 (20480000)
I0930 12:42:27.614701  7298 net.cpp:156] Memory required for data: 1262979680
I0930 12:42:27.614722  7298 layer_factory.hpp:77] Creating layer relu2
I0930 12:42:27.614734  7298 net.cpp:91] Creating Layer relu2
I0930 12:42:27.614738  7298 net.cpp:425] relu2 <- fc2
I0930 12:42:27.614756  7298 net.cpp:386] relu2 -> fc2 (in-place)
I0930 12:42:27.615365  7298 net.cpp:141] Setting up relu2
I0930 12:42:27.615377  7298 net.cpp:148] Top shape: 5000 4096 (20480000)
I0930 12:42:27.615392  7298 net.cpp:156] Memory required for data: 1344899680
I0930 12:42:27.615396  7298 layer_factory.hpp:77] Creating layer drop2
I0930 12:42:27.615407  7298 net.cpp:91] Creating Layer drop2
I0930 12:42:27.615411  7298 net.cpp:425] drop2 <- fc2
I0930 12:42:27.615416  7298 net.cpp:386] drop2 -> fc2 (in-place)
I0930 12:42:27.615450  7298 net.cpp:141] Setting up drop2
I0930 12:42:27.615458  7298 net.cpp:148] Top shape: 5000 4096 (20480000)
I0930 12:42:27.615461  7298 net.cpp:156] Memory required for data: 1426819680
I0930 12:42:27.615464  7298 layer_factory.hpp:77] Creating layer fc3
I0930 12:42:27.615474  7298 net.cpp:91] Creating Layer fc3
I0930 12:42:27.615478  7298 net.cpp:425] fc3 <- fc2
I0930 12:42:27.615483  7298 net.cpp:399] fc3 -> fc3
I0930 12:42:27.615751  7298 net.cpp:141] Setting up fc3
I0930 12:42:27.615759  7298 net.cpp:148] Top shape: 5000 3 (15000)
I0930 12:42:27.615762  7298 net.cpp:156] Memory required for data: 1426879680
I0930 12:42:27.615769  7298 layer_factory.hpp:77] Creating layer Norm
I0930 12:42:27.615778  7298 net.cpp:91] Creating Layer Norm
I0930 12:42:27.615782  7298 net.cpp:425] Norm <- fc3
I0930 12:42:27.615787  7298 net.cpp:399] Norm -> fc3_norm
I0930 12:42:27.615960  7298 net.cpp:141] Setting up Norm
I0930 12:42:27.615970  7298 net.cpp:148] Top shape: 5000 3 (15000)
I0930 12:42:27.615973  7298 net.cpp:156] Memory required for data: 1426939680
I0930 12:42:27.615978  7298 layer_factory.hpp:77] Creating layer loss
I0930 12:42:27.615983  7298 net.cpp:91] Creating Layer loss
I0930 12:42:27.615988  7298 net.cpp:425] loss <- fc3_norm
I0930 12:42:27.615991  7298 net.cpp:425] loss <- normal_point
I0930 12:42:27.615995  7298 net.cpp:399] loss -> loss
I0930 12:42:27.616044  7298 net.cpp:141] Setting up loss
…
